save/best_new_opt3_0.788.pt (torch, 901072 bytes, 44 tensors)

gconv1.0.A f4 [140, 140]
000000 0b d0 52 bd d3 f0 24 3d 4c 24 0e 3c 15 8c ec bd
       -0.051467936 0.04026873 0.008675646 -0.11550156
000010 1f 63 ec bc 38 d0 ff 3d 9a 65 4c 3e e4 ea a2 3d
       -0.028855858 0.124908864 0.19960633 0.07954958
000020 10 f2 1a bd 15 4d ef 3c 5a bd 63 3d 98 d1 a7 3d
       -0.037828505 0.02921156 0.0556005 0.08194274
000030 39 82 0b 3e 70 a7 a7 bd 68 cd d6 bd 23 5b 78 3d
       0.13623895 -0.08186233 -0.10488397 0.06063379
000040 db 8d d4 3d 79 f8 43 3e 51 a1 c2 3d 81 62 dd bc
       0.10378619 0.19137754 0.09503425 -0.02702451
000050 1c 9b 3d bd 8d 6e 54 3c ae 5e c0 3d 4b b2 28 3d
       -0.046290502 0.0129658105 0.09393059 0.04118566
000060 75 b1 4f 3e 0a 0b fe bd 8c 07 97 bd ce e5 26 3d
       0.20282538 -0.12404449 -0.07374486 0.040746503
000070 d3 33 4d 3d 5f 1a 1c bd 0d cf 96 bd 77 46 c0 bd
       0.05009825 -0.038111087 -0.073637106 -0.0938844
000080 16 e4 2b bd 75 64 e1 3d 77 6b 01 3d 06 67 36 be
       -0.041965567 0.11005489 0.031596627 -0.17812738
000090 3c fc 80 3d 62 fc 95 3c 98 02 d2 bc be c6 3d bd
       0.0629811 0.018308822 -0.025636002 -0.046332113
0000a0 27 6f 7d 3d 91 81 50 3d de f5 74 bc ba 1d 23 3e
       0.06187358 0.050904814 -0.014951197 0.15929309
0000b0 83 ba 96 3d 9e b0 ff bc df 69 02 3e 5f f2 59 3d
       0.07359793 -0.031212147 0.12735699 0.05320966
0000c0 4e da 79 3d fc 48 1d bd 34 3c 8f bc fc a7 0a 3d
       0.060999207 -0.03839968 -0.017484762 0.03385161
0000d0 40 b1 a7 bd ea 75 56 be e7 34 27 be d4 fa 42 3e
       -0.08188105 -0.20943418 -0.16328774 0.19040996
0000e0 08 fb 9e 3b 39 f9 45 bd 4b 32 b1 bd a9 90 7d 3c
       0.0048517026 -0.04833338 -0.08652171 0.015476384
0000f0 6c b9 36 bd af 09 b0 3d 5f 39 84 bc 04 93 90 3d
       -0.044610426 0.08595597 -0.016140638 0.07059291
000100 0a 6a 94 3d a4 a5 01 be d0 df 84 3d ea 7e 04 bd
       0.07246788 -0.12660843 0.06488001 -0.032347597
000110 42 45 7f bc e2 d9 e1 3d 53 74 6a 3d dd 20 9e bd
       -0.015580477 0.11027886 0.05723984 -0.07721112
000120 e5 0a 39 3d ff b8 80 bc b3 d7 0e 3e 50 4e ae bd
       0.045176405 -0.015713213 0.1394947 -0.08511031
000130 4d c9 08 3e 45 cb 29 bd 2d 95 1e bd f3 f4 16 be
       0.1335804 -0.04145362 -0.038716484 -0.14741878
000140 aa 99 00 3e 61 7a 09 bd c8 44 7e bd 88 6b a4 bc
       0.12558618 -0.033563975 -0.062077314 -0.020070806
000150 56 4a a0 bd 4c e2 17 be 3a 4b 23 3e 62 a9 26 3e
       -0.078266785 -0.14832419 0.15946665 0.16275552
000160 3e f2 29 3d 1d 3d 45 be 38 10 5c be 02 e8 2f 3d
       0.041490786 -0.19261594 -0.21490562 0.04294587
000170 f8 d9 cf 3c e4 cf 47 3d ca f7 91 3d aa 21 69 3c
       0.02537249 0.048782244 0.0712734 0.014229218
000180 80 54 8b bd 30 e1 17 3e d8 c5 09 bc c0 7a 59 bd
       -0.068032265 0.14831996 -0.008408986 -0.05309558
000190 7a 07 1a 3e dc c3 71 3d b8 62 57 bd 3b 7e a2 bd
       0.15041915 0.059024677 -0.05258438 -0.07934233
0001a0 75 bb cb bd 1f ff b8 bd 47 b5 0d bd fc 69 90 3c
       -0.09947864 -0.090330355 -0.034596708 0.017628662
0001b0 53 e5 eb bd aa d0 d7 3d 96 83 28 3e aa 6b 99 3c
       -0.115183495 0.105378464 0.16456446 0.018728096
0001c0 d1 51 21 3c 41 b2 3f bd c0 0e 05 be 5b 51 04 3d
       0.009846167 -0.046800856 -0.12993908 0.03230415
0001d0 aa 87 21 bd a1 4d 79 3e 9d 84 53 3d 2a 7b 41 3e
       -0.03943602 0.2434602 0.05164014 0.1889464
0001e0 76 9d f2 3d 7e 95 90 3d 4c 71 ce 3d c5 3e 69 3d
       0.118464395 0.07059763 0.100802034 0.056944627
0001f0 c1 f8 96 bd c7 02 22 be 68 33 02 3d 68 eb 80 bd
       -0.07371665 -0.15821372 0.031787306 -0.062949
000200 da 13 df bd ac ce fc 3d 3f ee a7 bd 16 b2 ed bb
       -0.10892458 0.12344107 -0.08199739 -0.0072538955
000210 37 e4 a4 bc 4a b3 2f be 66 f5 80 bd 0c 1a f0 3c
       -0.020128353 -0.17158237 -0.06296806 0.029309295
000220 d1 97 ce bd 48 ae 1d be cd a8 3e be f4 e2 d2 3d
       -0.100875504 -0.15398514 -0.1861908 0.10297194
000230 d0 24 d9 bd 07 61 fb bc 24 ac 88 be c3 0f af 3d
       -0.106027246 -0.030685915 -0.26693833 0.08547928
000240 fd da 7c 3d b4 2d 77 bd d0 e9 8a bd 87 36 0b 3d
       0.06173228 -0.06034632 -0.067828774 0.03398755
000250 da 15 42 3d 83 b4 c4 3d cd e6 77 bd b1 10 b0 bd
       0.04738412 0.096047424 -0.060522843 -0.08596934
000260 20 fb 28 3d 89 f8 87 3c a5 7f a6 3c a1 6b 6a bd
       0.041255116 0.016598003 0.020324538 -0.05723155
000270 2c 91 5b 3d 16 9c b0 bd 39 14 68 3e c4 40 08 be
       0.053605244 -0.08623521 0.22663964 -0.13305956
000280 39 fc 29 bc 54 38 f9 bc 16 16 1f be 58 3d c3 bd
       -0.010375076 -0.030422367 -0.15535769 -0.09533185
000290 36 ba 5c bb f4 ac 04 3e 30 b6 ab 3d 9f 0b f2 bd
       -0.0033680326 0.12956601 0.08384359 -0.11818623
0002a0 79 70 67 3c 8a a3 a5 3d 7e 97 98 bd a7 2c 13 be
       0.014125937 0.08087833 -0.0745077 -0.14372502
0002b0 1b 7e 4b 3e 50 90 a4 bd 47 d6 cd 3b 16 a0 a2 3c
       0.19872324 -0.08035338 0.0062816474 0.019851726
0002c0 73 52 b1 bd fd e2 e9 bd 33 b6 84 3d 4b b4 62 3b
       -0.08658304 -0.11420248 0.06480064 0.0034592326
0002d0 f9 84 3c bd a9 7a f8 3c 1a c6 30 bc a4 35 7f 3d
       -0.04602525 0.030331926 -0.010789419 0.062307015
0002e0 0a 2e f7 bd 39 2e 8e 3d ce ac c2 bc b3 99 1c 3d
       -0.12069328 0.0694241 -0.02376404 0.038232516
0002f0 f6 41 52 3d 44 47 a0 3d 79 57 99 3d 5d cc f9 bc
       0.051332437 0.07826093 0.07487387 -0.030492956
000300 d0 5c 79 bd 4e bf 6a bc 77 a1 4f 3d 1e a9 d0 bd
       -0.06087953 -0.014327837 0.050691094 -0.101885065
000310 48 f9 9f 3c 75 46 2a bd e4 3f 85 bd c2 2f 96 bd
       0.019528046 -0.0415711 -0.06506327 -0.07333328
000320 0b fd 4f bc e1 4c 4e 3c 67 64 a7 3d 2d 98 a5 3c
       -0.0126946075 0.012591572 0.08173447 0.020214165
000330 61 7c e9 bd 37 c4 28 bd 77 cf 99 bd 48 fb 82 bd
       -0.114006765 -0.04120275 -0.07510274 -0.06395584
000340 df 51 b2 3d e9 76 45 be 1b ca 0a 3c 8e 7d df bd
       0.08707022 -0.19283642 0.008471037 -0.109126195
000350 8d f8 0c 3e 96 a5 3d 3e a5 c2 5d 3c 50 f9 f0 bd
       0.1376669 0.18520197 0.013535176 -0.117663026
000360 57 bb 8a bc c7 d7 92 3c cf 6a 35 3e a1 ef 31 be
       -0.016935034 0.017925156 0.17716525 -0.17376567
000370 8b 85 42 bc 16 2e 6d bc 6a 09 4f bd 03 ba ad bc
       -0.011872659 -0.01447632 -0.050546087 -0.021206861
000380 f2 98 82 3c c6 53 d7 3d 20 2e 90 bd 19 73 f2 3d
       0.01594207 0.105140254 -0.07040048 0.118383594
000390 d1 12 88 3d b5 04 bb bd 2a 1f 15 be 69 a6 e2 bc
       0.06644214 -0.09131757 -0.1456267 -0.027667241
0003a0 52 aa f1 3d 27 c1 52 bd e3 80 ac 3d 86 06 97 bc
       0.11800064 -0.051453736 0.08423021 -0.018435728
0003b0 b0 46 58 bc ad e0 05 3d 3f af e9 bd a4 28 4d 3c
       -0.013200447 0.03268497 -0.11410379 0.0125218965
0003c0 24 30 0a 3e da 19 03 3e ad 18 a2 3d 9e f0 3b bd
       0.13494927 0.1280283 0.07914863 -0.045883767
0003d0 4e 56 a1 3d 27 00 43 3d 43 90 6d 3c 34 da 06 be
       0.078777894 0.047607567 0.014499727 -0.13169175
0003e0 28 a0 80 3c 7e 60 20 3d 9f 76 6c bd 4f 13 d4 3b
       0.015701368 0.039154522 -0.057730313 0.0064720283
0003f0 34 3e 27 3e ae 44 b7 bd b4 ae 8c bd c7 13 06 bd
       0.16332322 -0.089486465 -0.068692595 -0.032733705

gconv1.0.W.weight f4 [140, 140]
000000 b8 95 50 3b 23 22 87 bd 66 b6 ea 3d ab 93 37 3e
       0.003182752 -0.06598308 0.11460571 0.17927425
000010 0c 8d df bd ef d6 3e 3d b1 9f 84 be 9e ab 8b bb
       -0.109155744 0.046591695 -0.25903085 -0.0042624017
000020 5b 91 96 3c 12 92 16 3e e3 ad a3 bd bb 6e 90 bd
       0.018379858 0.14704159 -0.07992151 -0.0705237
000030 00 e5 a6 bb 42 96 11 bd b2 b7 0c 3e 10 15 f6 3d
       -0.005093217 -0.035543688 0.13741949 0.12015736
000040 05 54 8c be 55 34 20 3e 0d 9c e0 3d 4a dc 2c be
       -0.27407852 0.15644963 0.10967264 -0.16880909
000050 dd 44 fa 3d 9c db 6f be 0d 23 6f 3d 81 f8 ed 3d
       0.12220166 -0.23423618 0.058383036 0.11619664
000060 ac c1 93 bc 1b 81 a1 3d aa 75 ff bd 11 3b a2 3d
       -0.018036686 0.07885953 -0.124736145 0.07921422
000070 6d de 1e bd af 80 a4 3d 4a 76 f4 3d 65 86 bf 3b
       -0.03878634 0.08032357 0.11936624 0.0058448785
000080 09 a1 b2 3d af f3 c9 bc 64 ab 25 3d 8a d5 d4 bd
       0.08722121 -0.02465233 0.040446654 -0.10392292
000090 86 3d 7e bd 73 ca 9d bc f8 02 9c 3d 1c ff db 3d
       -0.062070392 -0.019261574 0.07617754 0.107420176
0000a0 97 c3 98 3e c2 64 9c 3b ec 6d fe bc 95 e7 2a bd
       0.29836723 0.0047727535 -0.031058274 -0.04172476
0000b0 08 46 1d be 92 7b 7d 3b 54 d3 23 3d f2 91 61 3d
       -0.15358746 0.003867839 0.03999646 0.055070825
0000c0 91 d7 4f be 40 18 dc 3c da 59 07 3e ce 35 c1 3d
       -0.20297076 0.026867032 0.1321787 0.094340906
0000d0 47 1e 8a bc bc 0d fe ba 65 69 b4 bc 2f 93 61 3d
       -0.01686014 -0.0019382755 -0.022022912 0.055072006
0000e0 55 43 3a bd 85 c7 00 3e e7 1a 1a 3e 0b f0 b8 3d
       -0.04547437 0.1257611 0.15049325 0.090301596
0000f0 a4 e6 4d 3e 4b 52 f1 bd c3 ac cb bc 4e 69 de bd
       0.20107514 -0.11783274 -0.024862653 -0.10859929
000100 82 b7 30 3d 5a 05 2c bd c5 ef 3f bb 7d 54 00 3e
       0.043143757 -0.04199729 -0.00292872 0.1253223
000110 56 f5 c5 bd eb a7 53 bd 9f 7c 5f be cd 47 26 3e
       -0.09665935 -0.05167381 -0.21824883 0.16238327
000120 84 82 8c bd 1f 5d 1d be e2 e2 c2 bd 23 2c 01 be
       -0.068608314 -0.15367554 -0.09515931 -0.12614493
000130 3e c0 18 3d 84 9e e2 bd 7c 7d 69 bc 11 fe 8e 3d
       0.03729271 -0.11065391 -0.014251109 0.06982053
000140 e9 f1 c3 b7 85 fb 48 bc 73 bb 18 be 65 72 a9 bc
       -2.335846e-05 -0.012266998 -0.14915256 -0.02068443
000150 87 bd 31 3d eb 00 99 bc e1 cf 11 be 18 f6 11 bb
       0.043393638 -0.018677196 -0.14239456 -0.0022271927
000160 7d 3c 84 bd 29 a4 b3 3d a2 09 d9 bd 26 28 0b be
       -0.0645685 0.087715454 -0.105975404 -0.13589534
000170 0f f7 a4 bd ab a4 0e bc 14 8c a2 3d f2 ff b9 bd
       -0.08054935 -0.008706252 0.07936874 -0.09082021
000180 cd 1c 4c 3d bf 3d 7d 3e 10 54 41 3c ae 06 b6 3d
       0.049832154 0.24730586 0.011799827 0.08887993
000190 4c 4c 67 bd 06 3e 4a bd 71 27 b7 3d 87 b2 b6 bd
       -0.056469247 -0.049375556 0.0894307 -0.0892077
0001a0 37 2e 2f be 12 72 33 be be ee 85 3d 5a f6 dc bd
       -0.17107473 -0.17523983 0.06539677 -0.10789175
0001b0 8b c3 47 3e 33 4a db bd 88 a5 52 3d 76 d1 c4 3d
       0.19508187 -0.10707512 0.051427394 0.09610264
0001c0 94 b8 83 3d 57 5d 2c 3d db 79 de bd 23 90 70 be
       0.0643169 0.042081203 -0.10863086 -0.23492484
0001d0 aa 4d a3 be 9e de 01 bd a1 9c cb 3c e3 17 43 3e
       -0.3189519 -0.031706445 0.02485496 0.19052081
0001e0 7e 31 26 be 48 c4 82 3e c1 32 e4 ba 3d 64 94 bd
       -0.16229817 0.25540376 -0.0017410145 -0.072456814
0001f0 d5 03 29 3e 3e 47 3a 3d fb 67 d7 3d d1 c5 09 3e
       0.16505368 0.045478098 0.105178796 0.13454367
000200 41 a4 13 be 4a 1b f8 3d 22 17 78 bd 86 e5 ff bd
       -0.14418127 0.1211458 -0.060568936 -0.1249495
000210 41 09 a9 3d 6f 10 16 be d8 6c 71 bc d0 4f fb bd
       0.08253718 -0.14654706 -0.014735423 -0.122710824
000220 bb e4 62 bd 27 ff 26 3d db 6a 17 bc b9 1f 48 be
       -0.055393916 0.040770676 -0.009241785 -0.19543351
000230 9b 7b 66 bd fc d7 06 bc 48 42 99 bd fe 20 5c 3c
       -0.056270223 -0.008230206 -0.07483345 0.0134356
000240 a6 21 d3 bd 26 a5 13 bd d0 3d f2 bc 82 76 69 3d
       -0.10309152 -0.03604617 -0.02957049 0.056997783
000250 78 f2 bd bc ff 5d 00 3d 11 96 bd bd d2 75 8d bc
       -0.023186907 0.03133964 -0.092571385 -0.017268095
000260 cf 8c d0 3c 98 17 23 ba e5 bb f6 3d e2 fd 28 3d
       0.025457768 -0.0006221472 0.12047557 0.041257747
000270 4d a6 d6 3d fd 09 4c 3e be a0 8f 3b f7 bb 3e 3e
       0.10480938 0.19925685 0.0043831756 0.1862639
000280 6f e1 44 3e 46 cc bd bd 15 d8 cc 3c 08 97 5a 3d
       0.19226621 -0.09267478 0.02500538 0.05336669
000290 60 0a 14 be 2d 00 04 3d e4 00 ff 3d 20 a6 5e 3d
       -0.14457083 0.03222673 0.12451342 0.054357648
0002a0 d6 f2 16 3b 56 35 df 3b 28 b2 5a 3d 09 f1 eb bc
       0.0023032925 0.006811778 0.05339256 -0.028801458
0002b0 33 84 96 3d 60 81 d4 bb b9 7e bf bd 6c 23 2a bb
       0.07349434 -0.0064851493 -0.09350342 -0.0025961054
0002c0 cf 23 d9 3d 2b c1 f7 3c 5b 5e 3a 3e 76 ef 37 be
       0.10602533 0.030243477 0.18200056 -0.17962441
0002d0 ab 1d b6 bd 88 3a ec bd 89 93 47 3d cd e8 98 3d
       -0.088923775 -0.115346014 0.048724685 0.07466278
0002e0 3a 0c 29 3e b3 50 2e bc 3c 85 01 bd 3c 7a 60 3d
       0.1650857 -0.010639357 -0.031621203 0.05480407
0002f0 31 28 47 3d 84 d9 e6 bd 29 5d df 3c 4b 4e c8 bd
       0.048622314 -0.112719566 0.027266102 -0.09780558
000300 2e d4 8e bd 68 2a a4 bd 5a 52 60 bd e3 18 9b 3d
       -0.06974064 -0.08015901 -0.054766037 0.07573106
000310 1b 02 66 3d aa ca ec bb 28 3d 80 3e b5 67 a5 bd
       0.05615435 -0.007226308 0.2504666 -0.08076421
000320 a3 4d 91 3c 14 af 4b 3d ce 0a 15 be 32 91 99 bd
       0.017737215 0.049727514 -0.14554903 -0.07498397
000330 df e3 d8 bd 5e a1 b3 bd 6b 7e 92 bb fe bd 6a 3d
       -0.10590338 -0.08771013 -0.0044706366 0.057310097
000340 f6 4e de 3c 59 f7 36 bc 00 6e 2a 3e ab 67 81 3d
       0.02713726 -0.011167371 0.16643524 0.06318601
000350 53 11 1e bd ab 5d 11 bd 74 b8 a6 3b 21 e8 64 3d
       -0.03859074 -0.03548972 0.0050879065 0.055885438
000360 83 10 68 bc ae 2a 9d bd 09 dc f6 3d f8 0e 99 bd
       -0.014164093 -0.07674156 0.12053687 -0.07473558
000370 af 55 e3 3c d6 12 c5 3c 72 71 3a 3d 42 4b 53 bb
       0.027750818 0.024056833 0.045518346 -0.0032240902
000380 c2 c6 13 3c 58 69 ba bd da 75 31 bd 32 6a bd 3d
       0.0090195555 -0.09102124 -0.043325283 0.09248771
000390 f5 eb b2 bc 6f 24 4a 3d 41 cf b0 bd 02 dd ad 3c
       -0.021841029 0.049351152 -0.086332805 0.021223549
0003a0 22 bc 09 3e a0 c8 77 bc db 04 24 bd 8d 18 42 bd
       0.13450673 -0.015123516 -0.040043693 -0.047386695
0003b0 49 92 1a 3d 6e 8f 28 bd 58 7e 24 be 53 7d 4b bb
       0.037737165 -0.04115241 -0.16063821 -0.003105004
0003c0 57 ee c3 bd 63 6e 05 3d c9 dc 17 bc 13 1c 4d 3d
       -0.09566944 0.032575976 -0.009268948 0.0500756
0003d0 1e 0b 1e 3e 1d 5d be 3c a2 5d 89 3d 3d c5 e6 3c
       0.15433928 0.02323776 0.06707312 0.028170222
0003e0 6a da a7 3d 0d cc 64 3d 8c e7 5a bd f5 c4 32 be
       0.08195956 0.05585866 -0.053443477 -0.17457946
0003f0 44 42 d5 bd b1 ca 3d 3d 18 8d d2 3d a2 80 a4 bd
       -0.1041303 0.04633588 0.10280818 -0.08032347

gconv1.0.W.bias f4 [140]
000000 5c 06 83 3d e0 40 2d 3c 37 de 0d 3d b4 cf f0 bc
       0.06397697 0.010574549 0.03463575 -0.029395916
000010 7a f4 db 3b 18 07 8c bb 61 b2 e5 bb 17 b2 3f 3d
       0.0067124935 -0.0042733066 -0.00700979 0.0468007
000020 22 45 b7 bd 0a 38 d5 3b 00 ca bd bd 8c da a3 bd
       -0.08948733 0.0065069245 -0.09267044 -0.08000669
000030 48 31 fc 3c fb e1 5b 3d 37 db a4 3c 2a 80 b2 3c
       0.030785218 0.05368231 0.020124061 0.021789629
000040 0b c6 77 3d 2c 85 15 3d 66 52 60 bd 65 66 4e bd
       0.060491603 0.036503956 -0.05476608 -0.05039062
000050 e7 bd dd ba 59 0e 9b bd c6 8b ac bd b7 d7 c3 bd
       -0.0016917557 -0.07571096 -0.08425097 -0.09562629
000060 99 58 b1 bd 4b 23 a0 3d 89 f4 b3 3d fb 41 93 bd
       -0.08659477 0.078192316 0.08786876 -0.07190319
000070 91 cc 06 be d4 9d 0c 3d 00 db 56 bc 2c 5d 97 3d
       -0.13163973 0.034330204 -0.013113737 0.07390818
000080 e7 7d 8b 3d 9d cb 3e bd 5c 75 e3 3d b9 c9 f5 3d
       0.06811123 -0.0465809 0.11106369 0.12001366
000090 20 fd c1 bd c2 04 98 3d a4 e8 7f 3c 75 d7 0a 3c
       -0.09472108 0.074227825 0.015619431 0.0084742205
0000a0 23 61 70 bd 11 37 fb 3a b0 9f 51 3d 9a 27 2c 3d
       -0.058686387 0.0019166191 0.05117768 0.042029954
0000b0 15 39 a2 bc 1e d3 1e 3c cb 80 f9 bc 2c 83 8d bc
       -0.01980261 0.009693889 -0.030456921 -0.017274462
0000c0 34 d3 ed b9 d9 8a ad 3d 89 3c 1f bb 7f 53 d0 bc
       -0.0004536152 0.08473749 -0.0024297556 -0.025430439
0000d0 14 53 60 3d 89 33 a1 3d 96 2d 6a bd b9 de 34 bd
       0.05476673 0.07871158 -0.05717238 -0.044157717
0000e0 f2 70 ca 3d da ac 6b 3d 3b b0 90 bd 38 c2 8c bd
       0.09884824 0.05753789 -0.07064863 -0.06872982
0000f0 15 3c 94 bd 83 7f 8f 3d 37 ea ee bc fe ee 83 bd
       -0.07238022 0.07006743 -0.029164417 -0.064420685
000100 18 5f 07 3d df 6d 5b 3d e3 bd eb bc 0c 4a ed bc
       0.033049673 0.053571578 -0.028777068 -0.028965972
000110 44 ff 0d 3e 06 4a b5 bd ac 9f d1 3d ca 5c 8f bd
       0.13866907 -0.088520095 0.10235533 -0.0700012
000120 db a9 59 3d 1c ec 67 3c 69 4b 75 3c 0f 1e 0d 3d
       0.053140502 0.014155414 0.014971592 0.034452494
000130 de 22 9f 3d 99 8a ae bd 6b ac e4 3d c3 58 1a 3d
       0.07770322 -0.08522529 0.111656986 0.037682306
000140 e9 21 cd 3d f7 db af ba c9 b3 c6 3c 48 7f f7 3c
       0.100162335 -0.0013416995 0.02425565 0.03021206
000150 f9 87 f9 3b 15 ce f7 3d 11 54 ae bd 1f 2d 3c bc
       0.007615086 0.12099854 -0.08512128 -0.011485367
000160 80 4f 0c bd fc 01 3e bb cb 0f 43 3d 8e ad cd 3b
       -0.034255505 -0.0028992882 0.047622483 0.006276793
000170 a2 ca 03 3d 78 6c 72 bc d3 6b a3 bd e5 54 e5 3d
       0.032175668 -0.014796369 -0.0797955 0.11197833
000180 aa a9 63 bd db 95 c8 bc ca bd 3a 3d 0c 8a 1d 3d
       -0.055581726 -0.02448552 0.045591153 0.03846173
000190 a5 b8 b0 bd 67 a0 aa 3d ac e3 48 bd 4a f4 3e bc
       -0.08628968 0.083313756 -0.04904525 -0.011654923
0001a0 2e e0 81 b7 69 19 9d 3d 74 88 67 bd 8b 24 c4 bc
       -1.548239e-05 0.07670862 -0.056526616 -0.023943206
0001b0 59 26 e5 bc d9 09 d2 3d 2f 39 08 3d 2f 59 45 3d
       -0.027972387 0.102557845 0.03325766 0.048180755
0001c0 08 68 22 bb 6f 57 de bd 83 68 de 3d 2a e6 aa bd
       -0.0024781246 -0.108565204 0.10859778 -0.083446816
0001d0 b8 0d ba 3c 6f 0e d4 bd 12 e4 a8 bc 71 01 8e 3d
       0.02271162 -0.103543155 -0.020616565 0.06933869
0001e0 34 0d 80 bc 4b 95 88 bd fb e6 4c bd c2 6b c8 bc
       -0.015631296 -0.066691004 -0.050024968 -0.024465445
0001f0 e8 5d b6 bc 13 90 02 3d e3 65 91 3d 5e 68 ba 3d
       -0.022261575 0.03187568 0.070995115 0.09101938
000200 fa 65 f2 bb 8e b3 76 3d 46 24 71 bd 3b 1b ae 3c
       -0.0073974105 0.06022983 -0.058872484 0.021253219
000210 f5 09 86 3b 81 17 73 3d 7b 4e f3 bc 7c 57 24 3c
       0.0040905424 0.059348587 -0.029700508 0.0100306235
000220 30 6f c5 bc 0a 71 c8 3d 87 cf 82 3d 7f 74 60 3b
       -0.02410087 0.097871855 0.06387239 0.0034249125

gconv1.0.input_gate_u.weight f4 [1, 140]
000000 ee 2a 63 3e 8b 55 10 bd 68 fb cf 3d e7 8a 0f 3e
       0.22184345 -0.03523783 0.10155374 0.14017831
000010 c4 8d 9a bd cb 0c 56 3d 48 27 5c 3e 0c 3f 4f 3e
       -0.07546571 0.052258294 0.2149936 0.20238894
000020 60 7d 2b 3c 4a 46 28 3e ec 6e a4 bd 56 d9 45 be
       0.010466903 0.16433063 -0.08028969 -0.19321188
000030 10 1f 93 be 17 08 01 3e 07 7f 63 bd cf 95 42 3e
       -0.28734636 0.12600742 -0.055541065 0.1900246
000040 e5 54 7d 3e 26 f2 0e be 81 27 0a 3e a1 14 7c 3c
       0.24739416 -0.1395956 0.13491632 0.015385778
000050 07 32 63 bc ce c0 a1 bc 38 ac c3 bd ce 0a d4 3d
       -0.013866908 -0.019745257 -0.095543325 0.10353623
000060 dc de f6 bd 6d f8 b4 3d 13 21 97 3c 43 92 d6 bc
       -0.12054226 0.08836446 0.018448388 -0.02619279
000070 64 28 c7 3c d6 58 92 bd 3b 76 e3 bd a0 4e 0e bd
       0.024311252 -0.0714585 -0.11106535 -0.03474295
000080 91 0d a4 bc db b8 f0 3d 5e 71 02 bd a6 d9 e9 3c
       -0.020026 0.117540084 -0.031846397 0.028546166
000090 d0 54 52 3d b5 03 37 3e ce f8 87 bd 63 85 89 3e
       0.051350415 0.17872508 -0.066392526 0.26859578
0000a0 59 1b 30 3e a1 94 2e 3e 38 1b 44 3d 17 56 a3 bd
       0.17197932 0.17048885 0.04787752 -0.07975405
0000b0 36 c0 99 be 9b b5 f1 3d 94 fb 4c be 58 af 1e 3e
       -0.30029458 0.118022166 -0.20017844 0.15496576
0000c0 41 84 10 bd 26 ac 6f bd 12 74 13 3e e5 ec 2e 3d
       -0.035282377 -0.058513783 0.14399746 0.04270639
0000d0 1c d2 ea 3c 13 ae c8 bd f1 bb be bd 95 84 15 3d
       0.028664641 -0.09798827 -0.09313191 0.036503393
0000e0 21 6e 91 3d d2 e3 8c bc ce 4a be 3d d6 1f 14 be
       0.071010835 -0.017198477 0.092916116 -0.1446527
0000f0 95 da 4a bd 0a 6d 86 bd d8 da 1f bd fa 3a e2 bd
       -0.049524862 -0.06563766 -0.039027065 -0.11046405
000100 d8 00 a2 3d a3 10 53 3c 8e 1c 0f bc b3 41 22 3e
       0.07910317 0.0128823845 -0.008734835 0.15845375
000110 24 5d 9d bd b9 ef 09 3e f3 1e 19 bd c2 fa ce 3d
       -0.07683781 0.13470353 -0.03738303 0.10106422
000120 59 0f b3 be b0 4c 80 bc d5 1e 50 3d 0c 1a ff bc
       -0.34972647 -0.015661567 0.050810654 -0.03114035
000130 b6 72 1c 3e e0 77 86 bd e4 d2 05 be 34 4e 62 be
       0.15278134 -0.06565833 -0.1306873 -0.22100145
000140 b8 2c 37 3e 49 11 72 3e c0 1e 6d be a8 eb 0e bd
       0.17888153 0.23639406 -0.23156261 -0.034892708
000150 20 9c 80 3d 43 9d a6 3c 2b 7f 17 be 1a b6 27 3e
       0.062797785 0.02033866 -0.14794604 0.1637806
000160 da 78 39 3d 22 d6 45 3e 18 ba ed bd 74 32 9d bd
       0.04528127 0.19319966 -0.1160776 -0.07675639
000170 20 f6 74 3e 0e d3 1e 3e 95 a0 4a bd 70 5e f4 3c
       0.23922014 0.15510198 -0.04946955 0.029830188
000180 9a ff b4 3c fd 8a cb 3d e5 9b 3c bd e4 3c 1a 3e
       0.022094537 0.09938619 -0.04604711 0.1506229
000190 90 dc 21 bd 37 70 9b 3d 13 43 a9 3e 77 68 e2 bd
       -0.039516985 0.07589763 0.33058986 -0.11055081
0001a0 e9 2a 4b 3e 65 47 34 bd 9b 6f 21 3d da 51 0f 3e
       0.19840588 -0.0440134 0.039413076 0.13996068
0001b0 fb db 52 3e 26 d4 31 3e a5 8b a0 3d 73 8b 99 bc
       0.20591728 0.17366084 0.07839135 -0.018743252
0001c0 4f 3c 37 3e 87 9b 03 3e 33 4a 51 3e ef c2 d4 3d
       0.178941 0.12852298 0.20438461 0.10388743
0001d0 25 ae 54 bd 76 82 ba bd 84 de f5 bd 16 3a 4e bd
       -0.05192389 -0.09106915 -0.12005332 -0.050348364
0001e0 42 9c 23 3e a5 6a 28 be 50 42 89 bd 1b 27 98 3c
       0.15977576 -0.16446932 -0.06702101 0.018573334
0001f0 58 13 b4 bd 19 6a 37 3d 73 90 91 3b fe ce 9f 3d
       -0.08792752 0.044778917 0.0044422685 0.078031525
000200 2b c8 e4 3d 32 b1 9a bd b7 9a 3e 3e 7d 0c b0 be
       0.111709915 -0.075533286 0.18613707 -0.34384528
000210 97 a0 31 3e dd b5 26 3d 8f e9 09 3d 41 be eb bb
       0.17346416 0.040700782 0.033670004 -0.007194311
000220 75 47 97 bd 0d 91 73 3e 16 47 11 3e 26 4b 41 3e
       -0.07386676 0.23785801 0.14187273 0.18876323

gconv1.0.input_gate_w.weight f4 [1, 140]
000000 3f c4 8e bd a2 39 29 be 1a 7f ad be c6 b8 14 bd
       -0.06971025 -0.16525891 -0.33886033 -0.036309026
000010 7d fd ce bb 77 3a be 3d e9 1e 32 39 67 db 99 3a
       -0.0063168393 0.09288495 0.00016986918 0.0011738361
000020 ad 3f 5c bd d5 ce 1b bc 79 8b 12 bd d8 8d cc bc
       -0.053771663 -0.009509762 -0.035777543 -0.02496998
000030 a3 64 9d 3c 7f 03 01 3e eb db 1c 3a 61 12 ce 3c
       0.019213026 0.1259899 0.0005983698 0.025155248
000040 23 10 52 3c 76 ce 48 3e d4 c1 bc 3c 5d fd 65 3d
       0.01282123 0.19610009 0.023041643 0.05614983
000050 f4 e9 dd 3d 6a 9c b1 bd 55 c5 da 3b cd b8 f3 bd
       0.10835639 -0.08672412 0.006676356 -0.11900482
000060 37 89 e8 3c 22 35 31 bd e3 e9 f0 3b d1 4c 68 3e
       0.028385742 -0.043263562 0.0073521 0.22685553
000070 b0 8b 46 be d8 1d d3 3d c1 48 f1 bd 0c 4d 54 3e
       -0.19389224 0.103084266 -0.11781455 0.20732516
000080 6a 3d d5 3d da 89 34 be 11 1e 73 bc d2 d0 35 3e
       0.104121044 -0.17630711 -0.014838711 0.1775544
000090 7f b0 99 bc ae 23 2b bd 69 1c 39 be d6 5c 55 3e
       -0.018760918 -0.041782074 -0.18077244 0.20836195
0000a0 54 0f c0 3d f9 6a 3e bb 72 06 08 3e 9c 2c 29 be
       0.093779236 -0.002905546 0.13283709 -0.16520923
0000b0 1f fc 2e 3e 12 34 16 be 1a 13 66 be 62 aa 84 3d
       0.17088364 -0.14668301 -0.22468224 0.064778104
0000c0 a9 9c 66 3d ab 23 a0 bd fb a0 57 bd 26 fc d7 bd
       0.056301747 -0.07819303 -0.052643757 -0.105461404
0000d0 24 34 df bd f8 48 12 3e 32 d4 07 3e 92 b2 cd 3d
       -0.10898617 0.14285648 0.1326454 0.10043825
0000e0 08 b7 cf 3c ba 73 00 3e 2e 51 14 3c 52 37 23 3e
       0.02535583 0.12544146 0.009052558 0.15939072
0000f0 b7 63 dc 3d 39 69 98 bd c0 41 9e be cf 22 62 be
       0.107612066 -0.07441945 -0.30909538 -0.22083591
000100 ef da 7a 3e 00 fb 3e 3e fc 7d ca 3d fb 15 c3 3a
       0.24497579 0.18650436 0.09887311 0.001488387
000110 3a 5e a0 3c 94 52 0a 3e bc ce 1b be 6f 09 f6 bc
       0.01957618 0.13508064 -0.15215582 -0.030033795
000120 7f 83 92 3d e9 ad 00 3d f8 92 8f bd 35 54 0d 3e
       0.07153987 0.031415854 -0.07010454 0.13801654
000130 f1 6e 0b be a5 7c 05 be 77 0d 75 3e 1e 3f ad bd
       -0.1361654 -0.1303583 0.23930918 -0.08459304
000140 1c 50 34 3d bc e4 c2 be 79 65 90 bd 7f cf c4 bc
       0.04402171 -0.38065135 -0.070506044 -0.024024723
000150 2c 32 62 bd bb a5 f4 3c 76 67 3b bc 0a ea c9 3d
       -0.05522363 0.029864183 -0.011438241 0.098590925
000160 be c4 fe 3d 27 75 89 3d b1 7d 79 be f2 85 22 3b
       0.12439869 0.06711798 -0.24364354 0.0024799076
000170 90 f9 f8 3d cb 14 89 be bc 16 22 be 06 e9 50 be
       0.12156975 -0.26773676 -0.15828985 -0.20401391
000180 c5 7c 0b 3c c4 b1 be bd f3 ca 25 3e 16 80 ab bd
       0.008513634 -0.0931125 0.161907 -0.0837404
000190 0b 9e 60 3e b8 0f 9a bd 51 bc 74 3e af 53 64 bb
       0.21935289 -0.07522529 0.23899962 -0.0034839918
0001a0 89 11 11 3e a6 f4 2f be 06 ad 4e be a0 b9 fa 3d
       0.14166845 -0.1718317 -0.2018319 0.122424364
0001b0 d8 ce ac 3d d2 ec 25 3d ae 7d 5a 3e 2f fd 18 3d
       0.0843789 0.040509053 0.21337005 0.03735083
0001c0 f0 db 0a 3d 59 9e 28 3e 27 62 0b be d5 d0 13 3e
       0.033901155 0.16466655 -0.13611661 0.14435132
0001d0 78 b3 14 3e 60 62 c8 bd fc 3d 38 3c 8c 71 f5 bc
       0.14521587 -0.097843885 0.011245247 -0.02996137
0001e0 61 8b 9a 3d 2f fd 36 be 0e 9a 3c 3d 51 e1 83 3d
       0.07546116 -0.1787002 0.046045355 0.0643946
0001f0 df 29 a2 3c 34 8a 64 bd 8e b3 bd 3d 26 ba 93 3d
       0.019795356 -0.055795863 0.09262763 0.07213239
000200 15 71 e4 3d 05 42 4d 3e ce ce 8c bd f8 4c 83 3d
       0.11154381 0.20044716 -0.06875382 0.06411165
000210 4a 82 05 be 98 cc 1d 3e c0 74 d6 bd b3 17 31 be
       -0.13037983 0.15410078 -0.10471487 -0.17294197
000220 5e 30 c8 bc a0 ab 44 3d b8 3d b0 3d 8e eb 4c 3d
       -0.024437126 0.048015237 0.08605522 0.05002933

gconv1.0.forget_gate_u.weight f4 [1, 140]
000000 3e 4d 00 bc 1f d6 ed 3c 3b fa 66 bb ed 89 ef bd
       -0.007830916 0.029032765 -0.0035244364 -0.11696229
000010 a7 c5 e0 bd df 1f ec bc 38 46 00 be 52 f9 3d be
       -0.10975199 -0.028823791 -0.12526786 -0.1855214
000020 a0 64 6a 3d e7 c0 6a be 4d bd 03 be ee ff 6a 3d
       0.05722487 -0.22925149 -0.12865181 0.05737298
000030 42 66 a2 3d f2 83 42 be 9d 1e 6c 3e d4 96 86 bd
       0.079296604 -0.18995646 0.23058553 -0.06571737
000040 de 02 32 bb d1 f9 aa bd d3 a0 76 3c 72 ad bf 3c
       -0.0027162354 -0.0834843 0.015052992 0.023398135
000050 41 97 86 be 14 b4 86 3b 08 12 c0 be 59 55 49 3e
       -0.26287273 0.0041108225 -0.37513757 0.19661464
000060 6e 87 6d 3d 46 8d 8d 3e 86 f5 69 3d 67 06 b7 bd
       0.057990484 0.27646846 0.057118915 -0.08936768
000070 b0 e9 3a bd 1e 19 78 be f0 5d 62 bd c6 2b 4d be
       -0.045633018 -0.24228331 -0.055265367 -0.2003623
000080 d8 e1 61 3c 77 da 33 3e 44 99 05 bd 4e d3 66 be
       0.0137867555 0.17563806 -0.03261687 -0.22541544
000090 b6 cd c0 bd 8e d0 93 3d 57 7a 32 3d 41 4c 9c 3c
       -0.09414236 0.07217513 0.043573704 0.01907933
0000a0 68 92 57 be b1 3e ee 3c a9 09 11 3d 42 9f 26 bd
       -0.21051943 0.029082628 0.035409603 -0.040679224
0000b0 de 97 da 3b fc c3 3f 3d 63 1b 52 3d aa 99 8e be
       0.006670936 0.046817765 0.05129565 -0.2785161
0000c0 c4 f0 90 3d d2 eb 3b bd 29 94 dc bd 46 f3 2b be
       0.070771724 -0.045879193 -0.10770447 -0.1679202
0000d0 54 1f 07 be 66 e8 09 3e 26 c6 46 bc 75 b9 26 3e
       -0.13195544 0.13467559 -0.012132203 0.16281684
0000e0 f6 76 56 3d bf 5c d7 be d4 36 65 be a5 43 22 3e
       0.052359544 -0.42062947 -0.22384197 0.15846117
0000f0 99 1d 76 be 03 06 dd 3c 3e 58 e3 bd 93 96 b8 bd
       -0.24034728 0.026980406 -0.11100815 -0.09013095
000100 57 aa 47 be f1 2e b1 bd a6 77 d9 3c e8 47 1a be
       -0.19498573 -0.086515315 0.02654631 -0.15066493
000110 f8 fc 12 3e 8a 9b f1 bb 68 b1 fc 3d e6 72 86 bd
       0.14354312 -0.007373278 0.12338525 -0.06564884
000120 b9 2b 14 be cd d9 94 be 6b 03 60 be 1d c3 bd 3d
       -0.14469804 -0.2907242 -0.21876304 0.092657305
000130 ab 10 92 3c 19 04 27 be c4 34 dd 3d 5f bc e6 bd
       0.017830214 -0.16310157 0.1080108 -0.11266398
000140 b6 dc 24 3e 67 6c 40 3d 79 40 7d 3d 8d bf 17 be
       0.1609982 0.04697838 0.061829064 -0.14819165
000150 67 1d 0f 3c 74 c0 91 bd 60 9b 4b bc cc 69 00 be
       0.008735037 -0.07116786 -0.012427181 -0.12540358
000160 a7 90 a2 ba 17 c5 92 3e 75 76 08 3b 5c 46 14 bd
       -0.0012402729 0.28665993 0.002082256 -0.036199912
000170 29 8f 2a 3e 1b fd a7 3d 27 c9 38 3e d5 4a e6 3d
       0.16656174 0.08202573 0.18045484 0.11244742
000180 08 47 f9 bd 47 a7 9e 3e f5 ec 2a 3d 05 66 5a be
       -0.12171751 0.30986997 0.041729886 -0.2132798
000190 d2 26 bb bc d3 d7 97 3b 0c 6c 2b be 2f 5f 13 3d
       -0.02284566 0.0046338825 -0.16740435 0.035979446
0001a0 45 48 2b 3e 35 03 d5 3d 40 d3 c0 3d 46 ea e5 3b
       0.16726787 0.10401002 0.09415293 0.007016453
0001b0 be ca 57 3e c3 ad 95 3e 3a ae 1e bd 2b 8b 68 3b
       0.21073434 0.29234132 -0.038740374 0.0035483341
0001c0 cd ec a8 bc da 27 0c be 62 ca 4b 3d f3 0b 16 3c
       -0.020620728 -0.13687077 0.049753554 0.009158122
0001d0 65 31 80 3e 7a 8f 1f bd c5 eb 2b be d8 a9 20 bd
       0.25037685 -0.03895519 -0.16789158 -0.039224476
0001e0 35 29 89 3d 6d 49 50 3e f6 b4 e8 3d 01 0e 92 be
       0.06697313 0.2034051 0.113626406 -0.2852631
0001f0 38 37 24 bc c2 43 42 be a5 e2 60 be af 96 d6 bd
       -0.010022931 -0.1897116 -0.21961458 -0.10477959
000200 e2 86 36 be a1 a2 91 bc 22 26 d8 bd 93 34 48 3e
       -0.17824891 -0.017777743 -0.10554148 0.19551305
000210 13 0a 89 bd 5c 38 08 be 3a bf e7 bd 0b 6d 56 bd
       -0.06691375 -0.1330275 -0.113157704 -0.052350085
000220 b5 78 f0 3d 7a 47 a3 3d 35 61 1e 3e 1b 0b 30 3e
       0.11741773 0.079726174 0.15466769 0.17191736

gconv1.0.forget_gate_w.weight f4 [1, 140]
000000 22 dd 2b be 48 1e af 3d 9f 8f b5 3d a5 cf 68 3d
       -0.16783574 0.085506976 0.08865284 0.05683865
000010 a3 73 a0 3c 66 e2 c0 bd 5a 23 ec bd 6a 0b 27 3c
       0.01958639 -0.09418182 -0.1153018 0.010195592
000020 a9 f5 10 bd 59 f6 fa bd ec 03 75 bd b8 ce f1 bd
       -0.03539053 -0.12254018 -0.059818193 -0.118070066
000030 93 40 aa 3d d1 48 82 be b4 64 9d bd 45 f5 2d be
       0.08313098 -0.2544618 -0.07685223 -0.16988094
000040 69 ce 69 3d 62 bb ca 3d 68 4d ea bd f7 46 49 3e
       0.057081614 0.09899022 -0.11440545 0.19655977
000050 63 46 f7 bd e7 6b d5 3d 4e 7a 93 be e4 d1 77 3d
       -0.12073972 0.10420971 -0.2880425 0.0605029
000060 ac f7 e7 3d 29 3d 0a 3d 33 9b 2b bc ff 7a 1a ba
       0.113265365 0.033749733 -0.010474014 -0.00058929616
000070 52 01 54 3d 9a c9 10 bd 94 88 d0 3d d2 8a 7a be
       0.05175907 -0.035348512 0.101823 -0.24467018
000080 34 51 aa bc 69 98 b0 bc 59 b6 47 bd 2d 62 ea 3d
       -0.020790674 -0.02155705 -0.048757885 0.11444507
000090 da 71 fe bc c0 d6 47 3d cb d9 f2 3c 12 c3 44 bd
       -0.031060148 0.048788786 0.029644867 -0.048037596
0000a0 50 09 27 be b0 af b8 bc 9c 29 5d be 16 ae 3c 3e
       -0.16312146 -0.022544712 -0.21597904 0.18425784
0000b0 69 45 44 3d 16 20 8b 3d 02 68 91 bd b9 49 58 3e
       0.047917757 0.06793229 -0.07099916 0.21121873
0000c0 86 b7 08 3a 92 70 20 bd 18 f0 0d be d9 b3 29 3e
       0.00052153354 -0.039169855 -0.1386112 0.16572513
0000d0 ad 48 55 3c ac 50 53 be c8 64 fc 3d 07 31 13 3b
       0.013017816 -0.20636243 0.1232391 0.0022459642
0000e0 bc 69 98 3e 87 74 95 be 70 17 43 be 8b 55 94 3d
       0.2976817 -0.29190466 -0.1905191 0.072428785
0000f0 46 10 b5 bd 60 e3 04 be ed 28 9f bd 10 96 26 be
       -0.088409945 -0.12977362 -0.07771478 -0.16268182
000100 89 ea 09 3d 47 da a5 3d 13 49 36 3c 94 30 fd bc
       0.033670936 0.08098274 0.011125821 -0.030906953
000110 cf f0 3e be c7 3d a4 bc 87 2f 6a 3c 5f 99 3a bd
       -0.18646549 -0.020048989 0.014293558 -0.045556422
000120 3d 1c 92 bc 33 a7 43 3d 06 6b 5a bc a8 13 e5 3d
       -0.01783573 0.047766875 -0.01333118 0.1118539
000130 0c e0 a5 3c 58 b9 c8 3c 4b 3e 47 3d 3d cf 79 be
       0.020248435 0.024502441 0.04864339 -0.24395461
000140 39 95 31 3b 0f db 02 be ae 9e a9 bd 83 86 d0 bd
       0.0027097 -0.12778877 -0.08282219 -0.10181906
000150 af 86 28 3d 92 eb c3 3e 22 a3 00 3d 24 60 f6 3d
       0.04114407 0.38265663 0.031405576 0.12030056
000160 39 81 3b bd fb 15 a9 bb 82 f2 55 3c cf b0 be bb
       -0.045777533 -0.005160091 0.013058307 -0.005819417
000170 33 ca 29 3d 31 f8 7d 3e 1a 83 26 bd 96 1c c2 be
       0.041452598 0.24801709 -0.040652372 -0.37912434
000180 a9 17 b3 bc be e3 8d be 3c 60 54 bd d0 ea e4 bd
       -0.021861868 -0.27712816 -0.05184959 -0.111775994
000190 39 e0 03 3e cc 88 f0 bd 9c b3 03 be 07 69 db bc
       0.12878503 -0.11744842 -0.12861484 -0.02678348
0001a0 d1 3a 1a 3e 33 79 d9 be 8f 4c 82 3c 40 71 30 bd
       0.15061499 -0.4247528 0.015905647 -0.043076754
0001b0 e2 89 18 3e 2c 8c a6 3d 08 0e 0a be 88 d4 0a be
       0.14896348 0.081322044 -0.13481915 -0.13557637
0001c0 d2 a4 b6 3c 63 31 a2 bd 8d b6 df 3c 48 d5 ff 3c
       0.02229539 -0.07919576 0.027308727 0.03122963
0001d0 bc 8a 2e 3e c9 4e d5 3d c6 2c 43 be 78 df b4 3d
       0.1704511 0.10415418 -0.19060048 0.08831686
0001e0 a5 43 30 be ea 9a 19 be 2d 88 6a 3c 72 3a fc bc
       -0.17213304 -0.15000501 0.014314693 -0.030789588
0001f0 4f be ce 3b 18 71 fb bc 0d c0 55 be e6 41 5c bd
       0.0063093076 -0.030693576 -0.20874043 -0.053773783
000200 e6 f0 9f bc a1 b6 7c be c8 0c 87 be a0 9b fe 3b
       -0.019524049 -0.24679042 -0.2637694 0.007770017
000210 ea a2 83 be d6 ad 7b 3e 1a b9 a7 3e 97 37 66 3d
       -0.2571023 0.24578032 0.3275841 0.05620536
000220 c5 55 55 bd d5 d7 12 bd ff 9f 02 be df cb 16 3e
       -0.05208375 -0.035850365 -0.12756346 0.14726208

gconv1.0.output_gate_u.weight f4 [1, 140]
000000 ba 9a d5 3d b8 ea e8 bd 56 53 1f 3e e4 a0 52 3e
       0.104299024 -0.11372894 0.15559134 0.20569187
000010 ff 63 82 3e a7 b5 9b 3d 42 4f cd bd 4d 92 33 be
       0.25466916 0.07603007 -0.10024883 -0.17536278
000020 79 8b 23 3e bc 5d 18 3d 02 e9 68 bd 18 e5 2c be
       0.15971173 0.037198767 -0.05686284 -0.16884267
000030 ff 13 0f 3e 66 1a 6e 3e af a4 a2 3c c5 cf b4 bd
       0.13972472 0.23252258 0.019853918 -0.088286914
000040 b6 9d 5a 3e 0b 15 03 3e 8d 6d b7 bc 20 f7 af bc
       0.21349224 0.12800996 -0.022391105 -0.021480143
000050 a0 90 90 3d e0 da 49 bd 04 e4 a9 bd ed 06 b0 bd
       0.07058835 -0.049281 -0.08295444 -0.08595071
000060 b7 20 0c be 3d 65 9e 3e e1 5a bf 3d de 06 3c be
       -0.13684355 0.30936614 0.09343506 -0.18361995
000070 46 ad 50 bc 95 ea 73 3e 17 b1 ed bc 2c 90 80 3d
       -0.012736624 0.23819955 -0.029015107 0.062774986
000080 80 ef 72 bd b8 f9 7c 3d 26 72 82 3b d1 85 e6 3c
       -0.059310436 0.061761588 0.0039808927 0.02813998
000090 90 8e 5c be e8 4c 9f 3d 77 62 10 3e 93 f4 10 3e
       -0.21538758 0.077783406 0.14100061 0.14155798
0000a0 d4 f3 8c be 63 62 18 3d 97 dc d9 3d e5 58 00 3e
       -0.27529776 0.037203204 0.10637777 0.1253391
0000b0 7d dc 02 3e 1f b9 01 3e 13 1c 7c 3e 85 e7 08 be
       0.12779422 0.12668274 0.24620084 -0.13369568
0000c0 82 4a 47 3d 72 c7 bc 3c d6 d5 81 bd 09 81 a3 3c
       0.04865504 0.023044322 -0.06339614 0.01995899
0000d0 57 b7 3b 3e b8 8c 17 3e bc 12 bc 3d a4 3c 9c bd
       0.18331657 0.14799774 0.09183261 -0.07628754
0000e0 1d 47 02 3e cf 6d ff ba 42 e9 fd bd 7b 00 65 be
       0.1272244 -0.0019487682 -0.12398006 -0.22363465
0000f0 e5 85 f1 3a cf 54 92 bc a0 6c ec 3d 4c 40 48 be
       0.0018426745 -0.017862706 0.11544156 -0.19555777
000100 45 ae da 3d 6c 63 21 3e e1 9a 5e 3e f5 be e4 bd
       0.106777705 0.15760583 0.21738769 -0.11169235
000110 05 65 98 3d 41 5f 4f bd 8d dc 11 3e 98 11 64 3e
       0.07441143 -0.05062795 0.1424429 0.22272336
000120 f9 d4 97 bd d6 37 73 bd 05 2f 7b bc a3 75 60 3e
       -0.07413668 -0.05937942 -0.015331035 0.21919875
000130 48 20 33 3d 03 89 59 3d dc 0e a0 3d 43 f8 95 be
       0.043731958 0.05310918 0.07815334 -0.2929097
000140 f5 de ca 3d 20 67 40 3d cb e3 8f 3c fb 90 3f be
       0.09905807 0.046973348 0.017564675 -0.1870765
000150 12 e9 97 be 0f 97 24 3e 56 f0 1e 3d 8d 94 f5 bd
       -0.29670006 0.1607325 0.03880342 -0.119912244
000160 11 95 e2 bd 58 54 45 3c 2d 69 7f be 57 06 4d bd
       -0.110635884 0.012044035 -0.24942465 -0.050054874
000170 7d 1a d9 3c a6 9a 60 be 75 00 5a be 2a 9f 87 3d
       0.026501888 -0.21933994 -0.21289237 0.06622155
000180 ad 3d 10 be 1d a3 8a 3e 05 13 e8 3d 57 e9 04 bb
       -0.14086027 0.2707757 0.11331753 -0.0020280683
000190 59 b2 9f bd 84 c6 c6 3d 39 a4 a4 3d 8b 29 ed 3c
       -0.07797689 0.097058326 0.080391355 0.028950473
0001a0 c6 88 69 3e c2 49 b4 bd 8e d0 35 3e c2 b3 96 bd
       0.22806081 -0.08803131 0.17755339 -0.07358505
0001b0 b2 75 27 3e d4 bd 0b 3d 4c 42 a1 bd 4e 81 4b be
       0.16353491 0.03411658 -0.07873973 -0.19873545
0001c0 b5 08 56 bc d0 21 86 ba b5 b8 54 3d 5f c7 fa 3c
       -0.013063599 -0.0010233466 0.051933963 0.030612646
0001d0 3b f0 3a bc 73 a6 2c 3e ec a7 67 be 92 21 44 3e
       -0.0114098145 0.1686037 -0.22622651 0.19153431
0001e0 a0 7e c8 3d e3 25 13 3c 7c 2c 2d 3e 4f fb 66 be
       0.09789777 0.008981201 0.169115 -0.22556804
0001f0 f8 12 3d bc 13 67 09 be af df 19 3c 5c fc 8d 3d
       -0.011540167 -0.13418226 0.009391709 0.06932899
000200 59 c7 00 3e 0a 3a 86 bc fc 8b 64 bd 3a 27 c4 3d
       0.12576045 -0.016385097 -0.055797562 0.095777944
000210 eb 8a 1c 3d 90 3a b9 3d 1e 30 c1 bd ea f5 d0 bc
       0.03821842 0.09044373 -0.09433006 -0.025507886
000220 ad d9 93 bd f1 f4 5e 3e a7 9b 60 3e 1e 1e 95 bd
       -0.07219253 0.21773125 0.21934377 -0.07281135

gconv1.0.output_gate_w.weight f4 [1, 140]
000000 2c 89 e2 3d 18 92 57 3e 65 d7 53 bd 88 96 c3 bd
       0.1106132 0.21051824 -0.051719088 -0.09550196
000010 42 fe 8c 3e 1c c0 43 bc e0 2e f2 3c d7 d8 48 3e
       0.27537733 -0.011947658 0.029563367 0.19613968
000020 90 f5 80 3e c2 bc 86 3e ee bc e7 bb aa a6 e7 bd
       0.2518735 0.26315886 -0.0070720827 -0.113110855
000030 12 25 a6 3b 88 34 b2 3c b9 7d 56 be 38 c6 65 bb
       0.005070337 0.021753564 -0.20946397 -0.0035060775
000040 00 38 6a 3d 28 31 2e 3e 90 c9 47 be 61 44 8e 3d
       0.057182312 0.17010939 -0.19510484 0.06946636
000050 b5 ae 3f be 08 b6 c0 3c f1 0e 66 bd 77 6a 1b be
       -0.18718989 0.0235243 -0.056166593 -0.15177332
000060 a7 02 17 3e 56 c9 1b be 8d dc 8f 3e 95 a1 66 bd
       0.14747106 -0.15213522 0.28097954 -0.05630644
000070 c3 ce 7d 3c 41 d4 c0 3e 50 20 c6 3c cd 4a e8 bd
       0.01549119 0.37661937 0.02418533 -0.11342392
000080 10 e2 b2 bd 58 f2 3c bd e6 62 b0 bd 0d 01 ab bd
       -0.08734524 -0.046129555 -0.086126134 -0.0834981
000090 21 c5 ab bd fc 27 c0 be 42 84 0f 3e a1 78 31 be
       -0.08387209 -0.37530506 0.14015296 -0.17331173
0000a0 f4 5d 1b bd e6 10 fb 3c 69 89 1e be 4d bb 41 3c
       -0.037931398 0.030647706 -0.15482105 0.011824441
0000b0 a9 69 91 3e b9 0d 0f bd 1c 42 96 bd ac 1d 09 be
       0.28400925 -0.034925196 -0.07336828 -0.13390225
0000c0 e5 97 a0 bc de 74 1b be ea 46 fd 3b b6 a4 cf 3d
       -0.019603679 -0.151813 0.007729401 0.10138838
0000d0 31 d9 c3 3b 93 46 fc 3d cc 74 4d bd 9f 91 e8 bd
       0.005976819 0.123181485 -0.050160214 -0.113559
0000e0 34 32 17 be 90 6c b9 bd 7e cb 88 bd 9c 0e 0a 3e
       -0.14765245 -0.0905391 -0.06679438 0.13482136
0000f0 44 f7 60 be c6 e3 ec bd ce 6f a5 bb 86 6d 96 bd
       -0.21969324 -0.11566882 -0.0050487285 -0.07345109
000100 66 dd 39 3e d6 64 a2 bd 67 4a 02 3e 7a 67 85 be
       0.18150863 -0.07929389 0.12723695 -0.2605551
000110 48 8e 13 3e c5 23 bb bc 74 1a ec 3d 98 a6 98 bd
       0.14409745 -0.022844205 0.11528483 -0.0745365
000120 f1 c3 1f 3e d7 8b 37 3e be 66 f2 bd b7 03 a4 bc
       0.1560209 0.17924438 -0.11836003 -0.020021303
000130 c5 74 3d 3d a4 a0 33 be 46 07 f2 bc f9 82 3b 3d
       0.04625394 -0.17541748 -0.029544484 0.045779202
000140 ec b5 af 3d 6d 8a 8b be 13 5e b4 3c af fe 81 bd
       0.08579621 -0.27254048 0.022017514 -0.06347405
000150 e2 42 54 bd ba aa fb 3d ec a3 b0 bd 15 73 07 3e
       -0.051821597 0.12288423 -0.086250156 0.13227494
000160 c8 ae 19 3d 76 f7 20 be 12 31 1b 3e 9b 47 18 be
       0.0375202 -0.15719399 0.15155438 -0.14871065
000170 63 aa 02 3e 6f 62 03 bd 6f a4 e7 bc e6 25 3b 3e
       0.1276031 -0.032076295 -0.02827665 0.18276176
000180 40 5e b2 3d c0 54 11 be 60 1e 46 be 00 fd 38 3e
       0.08709383 -0.14192486 -0.19347525 0.18065262
000190 fe 10 f7 3d b5 67 0d 3d e8 50 87 be 8c ec 85 3d
       0.12063788 0.03452273 -0.26428914 0.06539258
0001a0 01 37 12 3e 48 b5 7a bb ce aa 62 3e 2e 81 91 3e
       0.14278795 -0.0038255025 0.2213547 0.2841887
0001b0 ec 15 47 be bd 10 15 3c 1c 03 38 be 36 4d 63 be
       -0.19441956 0.009098229 -0.17969936 -0.22197422
0001c0 38 8a c9 bb b8 e5 7f 3d f6 7c 3f bc 66 fc 05 3d
       -0.00615051 0.062474936 -0.011687508 0.03271141
0001d0 b8 74 80 3d 29 7b e9 3d a4 89 0f be cd a8 29 be
       0.06272262 0.11400444 -0.1401735 -0.16568299
0001e0 e7 62 bc bd f1 57 25 be 4a d8 5a 3d 91 5c 46 3d
       -0.091985516 -0.16146828 0.053428926 0.048428122
0001f0 49 06 ca bc 55 c3 55 3d ed 7b fb bd 83 56 1d be
       -0.0246612 0.052188236 -0.12279496 -0.15365033
000200 84 48 88 3d 1f c6 a8 be 34 62 56 be 2a 43 dc 3d
       0.06654456 -0.32963654 -0.20935899 0.10754998
000210 7e 8d f7 3c 60 8d 5f bd e8 a2 28 be 03 f6 10 3e
       0.030218836 -0.054578185 -0.16468394 0.14156346
000220 0a 1e 09 be 4c 6c f0 bb 20 7a 9b 3d a0 68 c6 bc
       -0.13390365 -0.0073371287 0.07591653 -0.024219811

gconv1.1.A f4 [140, 140]
000000 0f 3d 94 bd 43 ad 5c 3c cf fa 10 3e 5d 1a 06 3d
       -0.072382085 0.013469043 0.14158176 0.032739986
000010 d7 b7 62 3c 5e 55 03 3d 61 0b 32 3d 8f 0e 30 bd
       0.013837776 0.032063834 0.043467883 -0.042982634
000020 09 4a 70 bd 58 73 fe 3c 1e f2 c1 bc fc e8 64 bd
       -0.058664355 0.03106086 -0.02367502 -0.055886254
000030 b6 1c 03 be c1 0a 01 be 3d 8d 51 bc 99 3d f1 3d
       -0.12803921 -0.12601759 -0.0127900215 0.11779327
000040 21 23 60 bd 13 27 23 bd 62 2e a4 bd de fc 4a be
       -0.054721 -0.039832186 -0.08016659 -0.19823024
000050 56 44 61 bd 96 a4 da 3d 6a dd f7 bc ae c8 12 3d
       -0.05499681 0.106759235 -0.030256946 0.035835914
000060 c4 47 a6 3d 85 5e b1 3d af 30 aa 3d 78 58 fb 3b
       0.08119157 0.08660606 0.08310067 0.0076704584
000070 17 94 98 bb 0f 44 0c bc 29 99 9f bd 74 f6 2e 3d
       -0.0046563256 -0.008561148 -0.07792885 0.042715505
000080 09 26 cc bb c1 44 36 be 5b 59 0a bc 4e 30 06 3e
       -0.00623012 -0.17799665 -0.008444156 0.13104364
000090 f9 f3 c1 3d 84 bf 67 3c 9a 51 e8 39 89 07 1c bc
       0.09470362 0.014144782 0.00044311286 -0.009523281
0000a0 12 da 75 bd 10 c6 cc 3d c9 f9 a0 bd 4a c7 b7 bc
       -0.06002242 0.09998715 -0.07860143 -0.022433896
0000b0 3e 2d 16 bc 1a 05 1d 3d c3 32 19 3d 21 29 28 bd
       -0.00916606 0.038334943 0.037401926 -0.04105485
0000c0 c4 03 89 3e 2f d9 9b 3c e7 19 aa bc 77 b0 ce bd
       0.26760685 0.01902446 -0.020764304 -0.10092252
0000d0 21 92 b0 3c e7 4c 2e 3e de ac 2c be bd ad 63 3e
       0.021554055 0.17021523 -0.16862819 0.22234245
0000e0 f4 e9 f0 3d d8 b8 1c bd 9d 4f be bb da 8d f7 3b
       0.11763373 -0.03826222 -0.0058078305 0.007554752
0000f0 b1 6c 4c 3e a0 ae 32 3c d0 53 68 bc c8 46 b8 3c
       0.19963337 0.010905892 -0.014180139 0.022494689
000100 9a d1 1f 3d 95 d9 f8 bd 65 7d 43 3c 38 e7 f4 bd
       0.03901825 -0.121508755 0.011931752 -0.11958164
000110 54 32 0c 3e 2a 76 64 3c 93 9e b2 bb d6 7e d5 3c
       0.13691074 0.013944188 -0.0054510324 0.026061457
000120 c1 97 c4 3d 24 e6 42 3e 0e f4 0a be 0f db 8b bd
       0.09599257 0.19033104 -0.13569662 -0.068288915
000130 32 f0 45 3d c8 a6 2c bd 21 43 03 3e d9 a2 92 3d
       0.04832477 -0.042151242 0.12818576 0.07159967
000140 ee c6 d7 3a da a5 1b 3e db 0b 3b 3d ba c7 ce 3c
       0.0016462484 0.15199986 0.045665603 0.025241721
000150 b8 6c 52 3d 69 54 a4 bd 7a 6c 45 3e dd cb 9c bd
       0.051373214 -0.080239125 0.19279662 -0.07656071
000160 94 14 bd 3b 0c 4b aa 3d ac 9b 2c bd e6 f1 32 bd
       0.0057702754 0.08315095 -0.042140648 -0.043687724
000170 18 42 20 3e 59 10 1d 3e 80 3b cd 3d 6d 32 ad 3c
       0.15650213 0.15338267 0.10021114 0.021142209
000180 39 3d 1b 3e 10 c2 31 bd 79 d4 93 3a 6b c4 00 be
       0.15160073 -0.043397963 0.0011278532 -0.12574928
000190 e8 e7 1e be c0 d7 9a 3d 8c a4 e3 3c a8 62 44 bc
       -0.15518153 0.07560682 0.027788423 -0.011986412
0001a0 2b 80 ea 3d 7c d0 3a 3d d9 cf 8a bd 94 85 20 3d
       0.11450227 0.045608982 -0.06777925 0.03918989
0001b0 33 17 b6 bd 34 8c d6 bd 3f 20 83 3d b9 d4 15 bc
       -0.08891144 -0.104759604 0.06402635 -0.009144955
0001c0 6a 71 c9 bc 4d 93 12 be 0c 12 f4 bc 9e 55 4c 3e
       -0.024590213 -0.14314003 -0.029793762 0.19954535
0001d0 09 4f c8 3c ed 61 04 be 06 86 ee bd df 33 e8 bc
       0.02445175 -0.1292798 -0.11646657 -0.028345047
0001e0 19 d4 6b 3d d2 c7 48 3b 02 58 f2 3c 54 84 04 bd
       0.05757532 0.003063668 0.029582981 -0.03235276
0001f0 93 f8 52 bd 65 18 62 3c 6c 8c 5c bd 7f 9d 12 bd
       -0.05150659 0.013799761 -0.053844854 -0.03579473
000200 ee 2e 0b be c8 94 3c bd 2b 98 8b bd 7a 60 e3 3d
       -0.13592121 -0.046040326 -0.06816133 0.11102386
000210 82 57 32 3e d7 91 2b 3d b9 19 1d be a9 1b ab bd
       0.17416194 0.04188713 -0.15341844 -0.08354885
000220 94 25 f6 3d 35 b6 a0 3d d9 68 81 3d 6f aa 5c bd
       0.12018886 0.07847253 0.06318826 -0.053873476
000230 47 f7 1e be 24 e1 69 bd 58 d5 ad 3d ad 94 05 be
       -0.15524016 -0.057099476 0.08487958 -0.13044997
000240 03 ee 1b 3d 57 1b 07 3e 2a e9 0d 3d fa ac 34 3e
       0.038068783 0.13194023 0.03464619 0.1764411
000250 02 72 a4 bd 56 67 f9 bd 4c 18 0a 3d d3 32 77 b9
       -0.08029558 -0.12177913 0.033714578 -0.00023574689
000260 5b a4 0e bd ed 55 21 bd 4e d5 3f 3d 8a ec 1e 3e
       -0.03482471 -0.039388586 0.046834283 0.1551992
000270 c0 32 12 3d c9 95 24 bc 2f 80 c7 3c ac 7e b4 bc
       0.03569293 -0.010045477 0.024353115 -0.022033058
000280 ad 38 ad bd c0 ea 01 bc aa e3 b5 bd 0f 5e 76 3c
       -0.08458076 -0.007929504 -0.08881314 0.015037074
000290 12 9f 2f be b6 5a 5e bd a6 6a 85 3c 59 be 9c bd
       -0.17150524 -0.054285727 0.016286206 -0.076534934
0002a0 0c f7 b0 bd be 48 16 3e dd 4d fe bd 4d 6f 84 3c
       -0.086408705 0.14676186 -0.12417195 0.016166354
0002b0 8a 00 0e bd 4a 8a af 3d 3e 94 bd 3d 4e d6 17 3d
       -0.034668483 0.085712984 0.092567906 0.03706961
0002c0 cf 4c 55 3b cb 97 35 bd 19 4a d0 bc 4d f5 52 bd
       0.0032547002 -0.044334214 -0.025425958 -0.05150347
0002d0 ee 1f 18 be b3 97 b4 3d b1 ca 3c 3e 49 ee 7c 3d
       -0.1485593 0.08817997 0.18436696 0.061750684
0002e0 df 9f 51 bd 06 6d 1a bd 14 3f 02 3e dc 09 e2 bd
       -0.051177856 -0.03770163 0.12719375 -0.11037037
0002f0 7a 0e 7e bc f9 93 18 be 4a af 80 bc 89 5d ff 3d
       -0.015506381 -0.14900197 -0.015708584 0.12469012
000300 34 ec 25 bd 93 e6 87 bd 89 3d aa 3d 35 79 50 3d
       -0.040508464 -0.066357754 0.08312518 0.050896842
000310 46 76 14 3e 8e 52 17 3e c9 bf da bd 05 a0 4f bc
       0.14498243 0.14777586 -0.10681111 -0.012672429
000320 07 08 67 3d f3 d8 b1 bd a6 57 1b bd e9 44 1b bd
       0.05640414 -0.08683958 -0.037925385 -0.037907515
000330 ac 32 9b bd 2b 2f 06 3e 7b 76 66 3d 27 da bb 3c
       -0.07578024 0.1310393 0.056265336 0.022931172
000340 bf 55 fe ba 9c 54 9c bd d4 2f ea 3c ad 9e fc bc
       -0.0019404216 -0.076333255 0.02858726 -0.030837381
000350 27 a6 96 3d 0a 4b 0d bd 80 c2 e4 bc b9 dc 98 bd
       0.0735591 -0.03449539 -0.027924776 -0.074639745
000360 e9 32 b1 bd 26 35 b1 3d 07 e4 f5 bd ff 92 1d be
       -0.086522885 0.086527154 -0.120063834 -0.15388106
000370 b4 ae 88 bd db d3 57 bd e9 95 3c 3d af b9 9d 3c
       -0.06673947 -0.052692275 0.046041403 0.01925358
000380 e5 59 05 be 5f b6 b9 b9 01 5c c0 3d 9b 94 10 3e
       -0.13022573 -0.00035421827 0.09392548 0.14119188
000390 26 a6 31 3d 1b 75 84 bb dd b6 ef 3c 75 8a 9c bd
       0.043371342 -0.0040422804 0.029262 -0.07643596
0003a0 91 55 b1 bd 6c d6 8c bc 43 a9 37 3d e4 bc d8 bd
       -0.086588986 -0.017192088 0.044839155 -0.10582903
0003b0 2a ea a7 3d 41 12 ec 3a 62 cf f0 3d 86 07 a1 3b
       0.0819896 0.0018010811 0.11758305 0.004914227
0003c0 24 19 6e bc dd 9e d5 3d 5a 2a bb 3d 90 ff 89 3d
       -0.014532361 0.104306914 0.09138937 0.06738198
0003d0 41 9d 26 bd e4 b3 be bd a9 84 73 3d 4a 87 44 be
       -0.040677313 -0.09311655 0.059452686 -0.19192234
0003e0 c4 98 4d be 3e 66 bc bc 16 80 2f be c9 3a 1a 3e
       -0.20077807 -0.022997972 -0.17138705 0.15061487
0003f0 51 49 c9 3b aa 11 83 3d 49 d3 28 3e 95 d3 68 3d
       0.006142773 0.063998535 0.16486849 0.056842405
