save/best_new_0.758.pt (torch, 879432 bytes, 24 tensors)

gconv1.0.A f4 [140, 140]
00000000: 8d7e dc3d 8543 e4bb 1c45 f4bb ccb1 a2bd
00000010: 5290 a9bd d856 ae3d 165a 863d fd96 b43d
00000020: d67a b73d bd02 593b bede 393d 4d1e 14bc
00000030: 0fad ad3b 9a31 e83c 8c08 67bd c250 313d
00000040: 7828 a6bd 689c d93d 3758 babd d52d 023e
00000050: b6b6 12be 3055 0bbe b240 7d3d 3e9d 08be
00000060: fb12 113d 037b 81bd c77c 10bd d285 313d
00000070: 58b6 383e eb9f 033e 8e9b 4d3d b7ea e03c
00000080: 0c0e 6c3d 653a a9bc 9b7d 383d e076 41bc
00000090: f9c5 743e 67dc c63c 7b8c 39bd 8191 d83b
000000a0: 1cc6 2a3b d326 0dbc 67df 10be 4b11 8c3d
000000b0: d05d f3bd 2d45 c3bd 05af 553c 489c 243d
000000c0: a15f 24be fd8d 8bbd fa7f 35bd 4fac 87bd
000000d0: 949f 98bd bb2d 063d b77f 2a3e 361f 99bd
000000e0: 6227 b13c 9fc0 f53d 5ffc 4c3c d509 91bd
000000f0: 51c8 23bd 5388 c23d 6118 01bd 1915 a1bd
00000100: 988b d2bd 325c c13c c867 803c 32e8 013c
00000110: 2005 c03c d255 97bd 8183 0d3e 8721 843d
00000120: 9fcb a73a 33ca 013e 80e7 aa3d 87fe ac3c
00000130: 9fb9 bd3d 88cd cfbd 143a 223d f516 12be
00000140: 4de3 3ebd 67ae d9bd 584b ff3c 3023 e53d
00000150: dc9d 05bd 74f8 10bd fe5e a63c 1f94 c0bc
00000160: 5736 bb3d 4e7a 08be ed39 0aba a8f4 c43d
00000170: 79b8 babd 9af0 2c3d 3cc3 bb3a 729b a43b
00000180: 86f0 833d fa9d 19be 3857 0abe 6fed 893d
00000190: a6c1 0a3d cd84 01be b81b 0ebd 9952 5dbc
000001a0: 3e23 473e a128 cb3d 24c9 fcbc a48f 9f3d
000001b0: 2e71 59bd 8ba4 d43d 69b3 cfbb ecf4 883d
000001c0: 88b9 393b 8f3b 00bc f72a d83c 0a83 25bd
000001d0: b707 04be ef5f 2cbc 534f 48b9 5b35 033d
000001e0: bc94 81bd 9d64 f3bc 0535 8f3d f5ee afbc
000001f0: 50b0 453d f5b7 d13c 810a 8dbd bbc5 01ba
00000200: ff41 d5bc 3f0b 00bd b7a0 633b c898 d5bd
00000210: f5bc dabc e0ee 9fbd 1793 70bb 3666 563d
00000220: bf59 52bc 3039 6fbc c74e 78bc 2147 e53b
00000230: 1051 043e e1b9 dabd b19e 143d 8ca8 9d3d
00000240: 791c 06bd abed e439 158c a93d d77a abbd
00000250: d04a ac3d 4aaa 48bd 7dde 973d cc79 23be
00000260: aade 323c 902f 69bd 70cd fdbd f59f 8d3d
00000270: a707 64bd cbed 56bc 268c e4bd be8a 65bc
00000280: b3e8 8a3c e8fe 0ebe 071f 863d 9ac5 133e
00000290: c9c6 3a3c 96ab 763d f8e5 ffbc e833 2c3d
000002a0: 00c2 853d 96d1 043e 5e24 ca3c cc11 5a3d
000002b0: d603 15bd 991f 243c a9e0 86bd da89 95bc
000002c0: 0708 16be a05e 5f3d 56ae 553d 254f 453d
000002d0: 2d26 13be 8404 1b3e 3447 04bb 4a10 ef3c
000002e0: a2f8 e93c 5936 8abd 3219 c6bd 3415 9dbd
000002f0: d1b6 033e c315 713d 7a28 493d dec3 1ebd
00000300: c9fe 073e f2f2 81bd 7b6f e3bd a340 a13d
00000310: e83e 14be 5cbe 193d 3303 493d dcf0 61bd
00000320: 7427 22bd 7f6f e5bd 8c5c 353e c779 6ebc
00000330: 6a4d 923d 61a4 5e3d 91e0 c43c 2f9c 803c
00000340: 6238 c3bc c5c2 92bd 46c7 d0bd f0cf a33d
00000350: 2f7b 8b3c 0ff9 16be f499 f43d 969e ffbd
00000360: 09df 1cbc c134 8fbd b11e 0c3c a450 cb3d
00000370: c89f 8cbd 83c7 a83d 2221 f1bc 6926 f33d
00000380: 9eb4 c33d 4f2e ae3d 70f9 2fbd 6667 b73c
00000390: 63ce ba3c aa6b 5abd 67c7 9d3d ecb1 523c
000003a0: b63b bd3d d1f3 b23d 241e 47bd 5e4b 2d3e
000003b0: 6e58 953d 9e7a 77bc f322 623c 029f 86bc
000003c0: 4d7c 24bd e2c5 f23d 5c94 ccbd ad0d 0a3d
000003d0: ecf1 c93c e7e2 d0bd 4649 d7bd 87da 1abc
000003e0: 44dc d0bd c955 923c 343e c63d b198 aebb
000003f0: 5b4f 08be 60ea 16bd 7f61 c33c 261a 10be
0.10766325 -0.006966057 -0.0074545275 -0.07944068 -0.0827948 0.08512658 0.06560151 0.08817861
0.08958976 0.0033113204 0.04537844 -0.009040427 0.005300171 0.028343964 -0.056404635 0.043289907
-0.081131876 0.10625535 -0.09098857 0.12712796 -0.14327511 -0.13606715 0.061829276 -0.13341233
0.03541849 -0.06322291 -0.035275247 0.04334051 0.18038309 0.12853973 0.050197177 0.02745567
0.057630584 -0.020657727 0.04504166 -0.011808127 0.23903646 0.024275018 -0.04529999 0.0066091423
0.0026058024 -0.008615213 -0.14147721 0.06839236 -0.11883128 -0.095346786 0.013042216 0.040188104
-0.16052105 -0.068141915 -0.0443115 -0.06624662 -0.07452312 0.032758456 0.16650282 -0.07476656
0.021625225 0.1199963 0.012511342 -0.070819534 -0.03998596 0.09498658 -0.03151739 -0.07865352
-0.10280532 0.023603532 0.015674487 0.007928895 0.023439944 -0.07389416 0.13819696 0.06451707
0.0012801773 0.12674789 0.08344936 0.021117462 0.0926392 -0.10146624 0.03960617 -0.1426657
-0.04660349 -0.10628968 0.031163856 0.11188352 -0.03262125 -0.035393193 0.020308968 -0.02350813
0.09141224 -0.13327906 -0.0005272914 0.09616977 -0.091172166 0.042221643 0.0014325152 0.0050234133
0.064423606 -0.1500167 -0.13509834 0.0673474 0.033876084 -0.12648316 -0.034694403 -0.013508462
0.19447038 0.09919859 -0.03085763 0.07791069 -0.053086452 0.103829466 -0.006338526 0.0668734
0.0028339345 -0.0078267 0.026387675 -0.04040817 -0.12893568 -0.010520919 -0.00019103037 0.032033306
-0.06327197 -0.029711062 0.069925345 -0.021476248 0.048263848 0.025600413 -0.06886769 -0.00049504236
-0.026032446 -0.031260725 0.0034733245 -0.10429531 -0.02670143 -0.07809234 -0.0036708766 0.05234357
-0.01283878 -0.014601037 -0.015155501 0.0069970046 0.12921548 -0.10679985 0.036284152 0.076981634
-0.032741997 0.00043664625 0.08278672 -0.08373039 0.08412707 -0.048990525 0.07415483 -0.1596443
0.010917345 -0.056930125 -0.123927 0.06915275 -0.05567136 -0.013118218 -0.11159544 -0.0140101295
0.016956663 -0.13964427 0.06548887 0.14430848 0.011399933 0.06022223 -0.031237587 0.04204169
0.06531143 0.12970576 0.024675544 0.05323963 -0.03638061 0.010017299 -0.06585819 -0.01825421
-0.146515 0.0545336 0.052168213 0.04817118 -0.14370032 0.15138441 -0.0020184042 0.029182572
0.02856094 -0.06748647 -0.096727744 -0.0767006 0.12862708 0.058858644 0.049110867 -0.038761012
0.13280787 -0.06345166 -0.111052476 0.078736566 -0.14477122 0.037535056 0.049075317 -0.055161342
-0.039588407 -0.11202907 0.17711085 -0.014555401 0.07143672 0.054355983 0.024032863 0.015699474
-0.023830596 -0.071660556 -0.101942584 0.07998645 0.017026512 -0.14743446 0.11943427 -0.1248142
-0.00957466 -0.06992484 0.008552239 0.0992749 -0.06866413 0.08241179 -0.029434744 0.118725605
0.09555934 0.085049264 -0.04296249 0.022388171 0.022803491 -0.053325333 0.077040486 0.012859803
0.092399046 0.087379105 -0.04861273 0.16923282 0.07292257 -0.015104918 0.013802278 -0.016433243
-0.040157605 0.118541494 -0.09989235 0.03370445 0.02465149 -0.10199528 -0.10512023 -0.009451515
-0.10198262 0.017863171 0.09679833 -0.005328261 -0.13311522 -0.03684461 0.0238502 -0.14072475

gconv1.0.W.weight f4 [140, 140]
00000000: 76c9 b43d 8c1f c63d d1db 38bd eddf cd3d
00000010: 7332 493c e2c2 80bd fb64 c5bc 743f a5bd
00000020: 6682 dfbd bc40 5ebd 7392 ac3d 8026 b6bd
00000030: a56c f63d 60db 9fbd 453f 20bc 3c8f 8dbd
00000040: 4891 113e a87a d2bd 9509 0dbe 5c39 003e
00000050: b36b 00bd a788 99bd e0de ea3d d0b2 5cbd
00000060: 5ec9 bbbd 29d9 a63c 1039 05be 73a4 02bb
00000070: f33b 17bd 01d4 37bd 0744 90bd 2132 a93d
00000080: b45c be3d 5574 133c 9a16 afbd 2201 34bd
00000090: 97fd 35bd f181 913d 619b 453d ec97 073e
000000a0: 1c9a 9abc f12c 863c fe2f 18bd 6da1 90bd
000000b0: 52c7 213d 1ad7 13bd 8fc1 d23c 5c2e 663d
000000c0: 0ed2 cf3d 559e 853d f237 043e 9440 013e
000000d0: 2b2e 823d a69d bbbc c7fe 90bb 9c41 e5bd
000000e0: a888 0dbd c736 9b3d 17ca 2b3d 51ef d6bb
000000f0: 11fe 1fba 82b2 963d 50a5 273d 62d9 bebd
00000100: e062 8cbd 42ce 0e3e e7fc abbd 9a39 58bd
00000110: c82d fabd adf0 473d 0db3 1f3c 8631 573d
00000120: a221 623d 4734 3abc 055c 2bbd 1d17 30be
00000130: fb1e 88ba 979a 28bd 6667 103d c39c 7a3c
00000140: b64c 7dbb 94d5 b5bd 7e35 87bd 3084 86bc
00000150: afdf 9c3d b325 c4bd 6f32 cb3d 27bf 9e3d
00000160: 7291 dabd d627 60bd 23a9 53bd bb36 83bd
00000170: 717f 9f3d 5168 dcbd e01a f2bd e840 06bc
00000180: 5c5c 623d f7c6 31bd 744e 6fbc 8abb 793c
00000190: b647 8ebd 28b6 04be 26c3 c23d dece ae3c
000001a0: 6f93 183e db8e 7fbc 4acc d43d 7cac a53d
000001b0: 69a2 4f3e 9b66 53be b93a 643d d240 c43d
000001c0: b8ee d23d 756e c2bc b4d4 ec3d 2637 0dbe
000001d0: 083d 1d3e 35ff 8d3d ce7a bfbb cadd 923d
000001e0: 4bb2 ba3d 2788 0a3e 712c 4e3c 1a6f 94bd
000001f0: 3f3b 293e 3d61 173d c912 0f3e 6306 9c3c
00000200: a6c5 3a39 aa46 f2bd 51b7 96bd eda3 b03c
00000210: 2dc8 03bc 3ba5 a83d 7c04 90bd a0e2 8dbb
00000220: 617f 973c babf ddbd a514 313d 1245 55bd
00000230: d2a9 05bd e266 68be d826 853d 6666 9a3d
00000240: 7b73 e3bd 97d6 abbc 5174 8bbd 17ba 88bd
00000250: ea25 ddbd 0266 db3c 37c1 90bd af89 4a3d
00000260: 4ebb 0cbe d8ea d1bd d700 e7bd 10a9 20be
00000270: 9e4a 3d3c ef5b 45bd 9abd 373d 8ae1 f13d
00000280: eec0 d9bd 2fab 2cbd 268c 96bd 5da1 8dbd
00000290: f4d4 2a3e 1c5a 39be e6f1 8abd f9d8 5bbd
000002a0: 1a09 d73d f976 06bd 25ea 963d 61f8 553d
000002b0: e98a 20be d2c9 943d 9c90 21bd e83f 20bd
000002c0: d938 4ebd 5275 8bbc 2653 0b3d 02ec eabd
000002d0: de21 42be 1c39 5bbd c0f8 03bc a3f5 543b
000002e0: 3a34 d63c 9613 a5bc a0ed d4bc 09d2 4abd
000002f0: 5240 f73c 6c05 843d 3ddf 773d cd43 b0bd
00000300: e349 f63b 7b17 46bd 926e 9d3c 2895 6a3c
00000310: 586d 2d3e afa8 50be ee45 c73d 071f 96bc
00000320: 4302 203d 8c2e c5bd db1a 813c 20b3 1abc
00000330: f54c 073e be15 82bd 4b78 f3bc 9e8c 9c3d
00000340: e8f7 86bd 9112 69bd 316a c73d 74e7 0cbd
00000350: a314 9f3b b24c 053d ba5b 56bd 46f2 253d
00000360: f2e7 05be eb68 593d 01b8 c8bd b497 723d
00000370: dc3f 16bc 43ad 483d 47c3 663c 1805 b6bd
00000380: 825b ee3d 42b1 b6bd 4785 013d c89f 793c
00000390: 7ca6 fcbc 065f 333d 7537 2ebd 5faa e93b
000003a0: 6358 803d c62b 9e3d 8771 3bbd fade 7e3d
000003b0: 1c9a cb3d 5310 8abd d4e2 57bd 9bfd 573e
000003c0: f7bf 87bd 50e6 0cbd b377 933c 2302 863d
000003d0: 5bb4 d7bd 2060 1ebd 2d47 4ebc cd39 b1bd
000003e0: cfb9 f03c 2551 4dbd 1089 b0bc d807 47bb
000003f0: b6af aebd 58d3 273c 91ab e1bc 6a37 bc3d
0.08827488 0.09673986 -0.04513151 0.10052476 0.012280094 -0.06287171 -0.024096003 -0.08068743
-0.109135434 -0.054260954 0.084263705 -0.08894062 0.12032441 -0.07805514 -0.00978071 -0.069120854
0.14215577 -0.10277301 -0.13773187 0.12521881 -0.03135271 -0.074967675 0.11468291 -0.053881466
-0.09169267 0.020367222 -0.13010049 -0.0019934445 -0.036922406 -0.044879917 -0.07044225 0.082615145
0.092950255 0.008999904 -0.08549233 -0.043946393 -0.044431295 0.071048625 0.048243884 0.13241547
-0.018872313 0.016378852 -0.037155144 -0.070620395 0.039496727 -0.03609381 0.025727062 0.056196555
0.101474866 0.0652434 0.12911966 0.12622291 0.06356462 -0.022902321 -0.004424903 -0.111941546
-0.034554154 0.07578807 0.041940775 -0.0065592905 -0.00061032275 0.073582664 0.04092914 -0.09318806
-0.068547964 0.13945869 -0.08397847 -0.052789308 -0.12215763 0.04881351 0.009747279 0.052537464
0.055207856 -0.011365003 -0.041835804 -0.17196317 -0.001038521 -0.041163053 0.03525486 0.015296164
-0.003865046 -0.088786274 -0.06602 -0.016420454 0.07659852 -0.09577503 0.09921729 0.07751303
-0.10672273 -0.05472549 -0.051674973 -0.064069234 0.077879794 -0.10762084 -0.11821532 -0.008194186
0.055263862 -0.04340264 -0.014606107 0.015242467 -0.069472715 -0.12960112 0.09509878 0.021338876
0.14899991 -0.015598024 0.103905275 0.080895394 0.20276798 -0.2064461 0.055720065 0.09582676
0.10299438 -0.02373431 0.115640074 -0.13790569 0.15355313 0.069334425 -0.005843497 0.07171209
0.09116038 0.135285 0.012583838 -0.072477534 0.16526507 0.036957968 0.1397201 0.019046014
0.00017811972 -0.11829884 -0.073591836 0.02156254 -0.008043331 0.0823464 -0.07032105 -0.0043299943
0.018493356 -0.108275846 0.04323258 -0.052067824 -0.032632656 -0.22695497 0.065015495 0.07539062
-0.111060105 -0.020976348 -0.06809295 -0.06676119 -0.10798247 0.02678204 -0.07068103 0.04944771
-0.13743326 -0.10249871 -0.11279457 -0.15689492 0.011553435 -0.048183378 0.044858553 0.11810596
-0.106325015 -0.04215544 -0.0735095 -0.06915543 0.16682798 -0.1810078 -0.0678442 -0.053673718
0.10499783 -0.032828305 0.07368878 0.052238826 -0.1567799 0.07265057 -0.03944455 -0.039123446
-0.050347183 -0.017023716 0.034014843 -0.11470796 -0.18958232 -0.05352126 -0.008054912 0.0032495044
0.02614795 -0.02015094 -0.025992215 -0.04951671 0.030182038 0.06446347 0.06051563 -0.08606682
0.007516132 -0.048362236 0.019217763 0.014317788 0.16936243 -0.20376848 0.09730135 -0.018325342
0.039064657 -0.09628019 0.015759876 -0.009442121 0.1321295 -0.06351803 -0.029720446 0.07644008
-0.06590253 -0.056902472 0.09737051 -0.03440042 0.004854755 0.032543845 -0.05233357 0.040514253
-0.13076761 0.053078573 -0.09800721 0.059226707 -0.009170499 0.04899336 0.014084644 -0.0888769
0.116385475 -0.08920528 0.031621244 0.015235849 -0.030841105 0.043791793 -0.042533357 0.0071309055
0.062668584 0.07723193 -0.045762565 0.062224366 0.099415034 -0.06741395 -0.052706555 0.21092837
-0.06628411 -0.03439933 0.018001413 0.06543376 -0.10532447 -0.03866589 -0.012590212 -0.08653603
0.029385475 -0.050126214 -0.021549731 -0.0030369665 -0.08529608 0.010243259 -0.02754763 0.09190257

gconv1.0.W.bias f4 [140]
00000000: 2d8c 12bd 1bf3 333d b1f9 80bc e36a a5bb
00000010: e56a e3bc 1158 d4bc 73c1 3cbd 87e2 893d
00000020: e32d c0bd 9d4a 5cbd 6f73 8abd 7e25 033d
00000030: 2e53 14bd ad9d 41bd d887 7b3d 93b6 af3b
00000040: c33f f13d 24ec 933d 6b81 2c3d 2f58 52bd
00000050: ce25 183d 2592 5a3d 8ea1 94bd fa21 09bd
00000060: 7dc6 d03b 2f6b a6bd e5e5 26bd e215 05bd
00000070: 5d1e bcbd 6751 523b ac92 e93c 64a6 463d
00000080: 1d8c cb3d a54e 98bd 3f37 443d cce8 ec3b
00000090: 2e83 35bd fc90 9abd 316c acb9 a2ae aebc
000000a0: 3360 353d dc9d 2a3a dbb8 d33b c774 29bd
000000b0: 0125 8abc 67a5 b8bd 4c27 3a3d 70ff f93c
000000c0: 2dd7 b6bc d7f8 51bd fbed 86bc a1cd 8d3c
000000d0: 2c03 e33c 8fc4 a63d 8389 a83d f14c aabd
000000e0: dde5 5cbd e78b 6c3d 2ff5 0d3c 6457 433d
000000f0: dd33 85bd 7ad9 9e3b 5292 cfba 2659 b73c
00000100: e6ba 44bc 4bb9 c03b bb07 c6ba c5d7 0dbd
00000110: 709c cd3d d33d a53d d169 39bd f03b e8bc
00000120: d378 6bbd a94e d2bc d516 473d e006 0bbc
00000130: c323 883d 743d f0bb b833 81bd 243e 263d
00000140: d4b0 483d 0219 e0bc b5c9 2dbc f99f 973c
00000150: 2dcf 21bd f011 a7bd 29e1 cb3b 49a0 a43d
00000160: 4427 143c 640a 7fbd 965b 8dbd c938 9bbd
00000170: 239c 003d 6f38 7e3b 9f0c 173d e0d3 a9bd
00000180: f2e1 933d 3e94 87bc b566 853c 708c 053d
00000190: a7aa b63b 0fcc 213d 325b 863d 738a 4bbc
000001a0: 50b1 093c 8d8b 7e3d c22e b33a a1b8 26bd
000001b0: b518 983d 94f4 0c3d f1c5 97bd bfda 8d3d
000001c0: c68d 97bd 2064 da39 3978 a03d 61ef 8cbb
000001d0: c402 a13d e14f b63d caf2 acbc e653 b6bb
000001e0: 436d 7d3d e428 44bc fdaf 53bd 3df5 673d
000001f0: 4ac7 3ebd 027a 64bc 9d22 9d3d 731c b73b
00000200: d46a 10bc 0a18 ab3d 9f4e 223d fbbc b53b
00000210: 8591 173e f3ba 963c b210 263d f2f2 f03b
00000220: 2dee 95bd f839 133d 9546 9fbd afcf 4abd
-0.035778213 0.043933015 -0.015744062 -0.0050481423 -0.027760932 -0.0259209 -0.046082925 0.0673266
-0.09383752 -0.053782094 -0.067602985 0.032018177 -0.03621214 -0.047269512 0.061408848 0.0053623407
0.1177974 0.072227746 0.04211561 -0.05135363 0.03714543 0.05336203 -0.072573766 -0.03347967
0.006371318 -0.081259124 -0.04074659 -0.032491572 -0.09185479 0.0032091977 0.028512321 0.048498526
0.09938834 -0.07436875 0.04790425 0.0072299 -0.044314556 -0.07547185 -0.00032887005 -0.021323506
0.044281196 0.0006508508 0.0064612455 -0.041371133 -0.016863348 -0.09015923 0.045447633 0.03051731
-0.0223194 -0.051262703 -0.0164709 0.017309966 0.027711473 0.08142959 0.08229353 -0.08315457
-0.053930152 0.05775061 0.008664413 0.047690764 -0.06504033 0.0048477026 -0.0015836454 0.022381376
-0.012007451 0.0058814636 -0.0015108505 -0.034629602 0.10039604 0.08068433 -0.04526693 -0.028348893
-0.057488274 -0.025672274 0.04860576 -0.008485526 0.06647446 -0.0073315445 -0.06308693 0.040586606
0.04899676 -0.027355675 -0.010607173 0.018508898 -0.03950422 -0.08157718 0.0062219095 0.080383845
0.009042565 -0.06226577 -0.06902234 -0.0757919 0.031398904 0.0038790961 0.03687727 -0.08292365
0.0722083 -0.01655018 0.016284326 0.032604635 0.0055745426 0.039501246 0.06560363 -0.012423146
0.008404091 0.062144805 0.0013670551 -0.04070342 0.074265875 0.034412935 -0.07410801 0.06926488
-0.07400088 0.000416548 0.07835431 -0.004300997 0.078618556 0.089019544 -0.021111865 -0.0055642007
0.06187178 -0.01197264 -0.051681507 0.05663036 -0.046576776 -0.013945105 0.076726176 0.005588108
-0.008814532 0.083541945 0.03962576 0.00554621 0.14801605 0.018399691 0.040543266 0.00735318
-0.07320819 0.035943955 -0.07777134 -0.04951447

gconv1.0.gate.weight f4 [1, 280]
00000000: e904 ed3c 8ba2 f4bd b7c3 7d3d 0e06 15bd
00000010: 3935 e6bd a689 943d 4171 01be b3c2 00be
00000020: 6441 ebbd 1cbc 583e a7ef 91bd 84d2 05bd
00000030: 5794 5a3c b675 943d 003d 4d3d 95b3 e3bd
00000040: 94b5 50bd 7deb af3d 4ec0 f43d efc2 ef3c
00000050: 30fb d7bd fdec 153e 1bab a3bd fd54 653c
00000060: 5afd 93bd 34c0 24bd 38c4 823d 0954 6ebd
00000070: e35e b3bb 1b26 e33d 38cb c6bd ddac 83be
00000080: 553f 16bd 9606 953c 2df2 9a3d f7d0 2abe
00000090: cb47 d5bd 050a 26bd da5d b13b f0d2 dabd
000000a0: 51a0 303d a91f 783b 31ea bc3c 6fec fc3c
000000b0: 370e 393d ca1e 043d 659d 013d 18ec a5bd
000000c0: c50f b53c 9179 38bd d8be be3d 53a6 c8bd
000000d0: f026 883d 0308 1e3b fa64 933e 1b0b 09bd
000000e0: ecfa 64be 5a64 39bc 2083 973c c367 223d
000000f0: f086 293c d291 383e 7197 733d a4e3 a93d
00000100: 1184 183c 718c f63d d4eb 2b3b 68bf 03bc
00000110: 6e7b e73d 2536 a2bd 2912 bfbd e4ea 8f3c
00000120: 49e2 e5bc 1b05 e3bd 4405 403d 1456 9cbd
00000130: a2e9 a33a 829c cabc eb9d 463c 31bc 3dbd
00000140: 3d5d 1dbe 8d67 b7ba 2546 babd 78ce ee3d
00000150: ceac 3fbc 0350 ad3c 2c57 67bd 543e d03d
00000160: a605 0a3d e526 bf3d 49a7 a8ba a2f3 1f3e
00000170: 7e25 743d 2895 aebd bfc9 4a3e ef96 83bd
00000180: b39d ff3d ce1b 35be d1d9 4e3d 91cc dcbb
00000190: 8ab7 183d 255b 18be 7baa 82bd 9191 533c
000001a0: 47bb 833c 6b43 ce3d 49af 22be 936d 663c
000001b0: 2a0d ea3d 8b92 353b 08ef 4abe 0ecc 913b
000001c0: 12c7 143e fbf5 dd3d 10b5 31bd 368d 533e
000001d0: 4d5c 1b3e 4fee 573b 4a24 203d a8d7 adbd
000001e0: d232 49bc 8232 d63d 9e51 97bd aba4 0e3d
000001f0: 4306 153d 1f8d 93bc 01f4 ea3b ed03 a23c
00000200: 530c d8bd 663f 57bd d601 cb3b da1b be3d
00000210: 2fee 9bbd a658 cebd 7f42 01bc 7779 a7bd
00000220: f679 09bd 26f0 dd3d c4e4 2ebd 1848 9c3d
00000230: 4f8d f2bd c66d b7bd 78d3 2abe 3e5d 1d3e
00000240: 92a2 823d c3d2 96bc 78f0 5b3d ea87 ab3d
00000250: 6a6d dfbd 74ad 48bb 726e 113c 4d14 74bd
00000260: 6919 dc3c f4bd 01bd 61ff f33d 7333 e63c
00000270: 9abc 123d 1d1d d63d 8369 e63b dad7 35bc
00000280: b110 1a3d dd89 75bd 92cc 01bd edcb 293e
00000290: c73e 963d 17b5 a13d 02bc e4bd 4b85 703d
000002a0: 9aa7 833c a16e 0a3d 3db5 4f3d e6fd a4bd
000002b0: 81a8 a7bc 156f 06bd ef39 1ebe f324 eabc
000002c0: 92aa 08bd 5fe5 79bd 0149 70bd 4d98 7ebd
000002d0: 5718 b13d 5dfc 9bbd 7b4d 76bd dbfe 9fbd
000002e0: 8182 a3bd 2ad2 773a ae71 4e3e eba8 22be
000002f0: 7220 e03d c304 06be 6f54 39bd 4d32 493d
00000300: 3fa6 1dbe 9bb8 98bc 747d 8f3d 1c0f 663d
00000310: b048 723d 6766 073e cfc9 943e 3b9e ec3b
00000320: 7186 ddbc 7997 8cbd b44b a3bc 0bad cabd
00000330: 495d b83d eb58 b7bc 4fc0 1d3e 5b06 ca3c
00000340: 90fe 5dbd 45a8 72bd a02f 053e 9097 ec3d
00000350: 62a6 943d ac74 3bbd 5aeb 1d3d e947 d1bc
00000360: c5cd 0abe 151e 31bd 1a08 ddbb 7063 08bc
00000370: 8656 04be 72c0 333c 4b14 2abd ea31 b73b
00000380: f65c 833d 9b46 f5bc d384 683d bbf3 afbd
00000390: dd1d 10be e584 29be 4c42 9d3c e2e9 25be
000003a0: 5eef 173c f946 8abd 99e0 cdbd 9e37 4bbd
000003b0: ef7b 27be d0b2 8d3d dbba 8fbd ddf9 ea3c
000003c0: 817c 983b 5bce 98bd 9f6b f03d 88e1 813c
000003d0: 7191 913b d1ad adbd 43da e63c c835 10be
000003e0: b5a0 b4bd 6f99 11bb c0ec 803e 595d 023e
000003f0: b29b c63d 8763 1cbd 72ac acbc 77f6 5ebd
0.028933005 -0.11945065 0.061954226 -0.036382727 -0.1124062 0.07252817 -0.12640859 -0.12574272
-0.11487082 0.21165508 -0.07125788 -0.032671466 0.013341031 0.07249014 0.050107002 -0.11118237
-0.050954416 0.08589838 0.11950742 0.029267756 -0.10545957 0.14641185 -0.0799162 0.013997314
-0.07226057 -0.04022236 0.06385082 -0.05818561 -0.005473958 0.110912524 -0.0970673 -0.25717822
-0.036681492 0.018191617 0.075657226 -0.16681276 -0.10414084 -0.0405369 0.0054127993 -0.106847644
0.04312164 0.0037860668 0.02306089 0.03087446 0.045179572 0.032255925 0.031644244 -0.08101672
0.022102246 -0.04503781 0.09313744 -0.09797349 0.06648052 0.0024113662 0.28787977 -0.033457857
-0.22361344 -0.01131543 0.018495142 0.039649736 0.010347113 0.18024376 0.059470598 0.08295372
0.009308831 0.12038506 0.0026233094 -0.00804124 0.11302839 -0.079204835 -0.09329636 0.01756806
-0.028062003 -0.11084958 0.04688002 -0.076336056 0.0012505541 -0.024732832 0.0121226115 -0.04632205
-0.15367599 -0.0013992653 -0.0909541 0.116604745 -0.011698915 0.021156317 -0.056479618 0.10168138
0.033696793 0.093335904 -0.0012867238 0.15620282 0.059606068 -0.08524543 0.19803523 -0.06425273
0.124812506 -0.17686388 0.050500695 -0.0067382534 0.03728441 -0.14878519 -0.06380173 0.012913124
0.016080512 0.10071453 -0.15887178 0.0140642105 0.11428292 0.0027705755 -0.19817746 0.004449374
0.14529064 0.10837933 -0.043385565 0.20659336 0.15171929 0.003294844 0.039097108 -0.08488399
-0.012280183 0.10458852 -0.07388614 0.03482501 0.036382925 -0.018011628 0.007170201 0.019777263
-0.10549226 -0.052550696 0.006195287 0.09282656 -0.07613789 -0.10075502 -0.007889389 -0.081774645
-0.033563577 0.1083682 -0.042698637 0.07630938 -0.11843359 -0.089564845 -0.16682231 0.153676
0.06378664 -0.018411046 0.053696126 0.08375533 -0.10909541 -0.0030620964 0.00887643 -0.059589673
0.026867585 -0.031675294 0.11913944 0.028100705 0.035824396 0.10454772 0.007031621 -0.011098826
0.037613574 -0.05994593 -0.031689234 0.16581698 0.073361926 0.07895868 -0.11168672 0.058720868
0.01607113 0.03379691 0.05070995 -0.0805624 -0.020466091 -0.03282078 -0.15451787 -0.028582072
-0.033365794 -0.06100976 -0.058663372 -0.062156964 0.086472206 -0.07616494 -0.060132485 -0.07812282
-0.07983876 0.0009453619 0.20160553 -0.1588475 0.109436885 -0.13087754 -0.045246538 0.049120236
-0.15395449 -0.018642714 0.0700635 0.056166753 0.05915135 0.13222657 0.29060218 0.007221011
-0.027041646 -0.068648286 -0.019933559 -0.098962866 0.09002168 -0.022381267 0.15405391 0.024661234
-0.054197848 -0.059242506 0.13006449 0.11552346 0.072582975 -0.045765564 0.038554527 -0.025546985
-0.13555057 -0.04324158 -0.0067453505 -0.008324489 -0.12923631 0.0109711755 -0.04152326 0.005590667
0.06414215 -0.029940894 0.056767296 -0.0859141 -0.14073892 -0.16554601 0.019196652 -0.162025
0.009273378 -0.06751818 -0.10052604 -0.049613588 -0.1635587 0.069188714 -0.07018062 0.028683597
0.004653514 -0.07461234 0.11739277 0.015854612 0.004442387 -0.084804185 0.028180247 -0.14083016
-0.08819715 -0.0022216698 0.25180626 0.12730922 0.09697665 -0.038180854 -0.021078322 -0.054434266

gconv1.1.A f4 [140, 140]
00000000: ae5f 4dbd f273 16be 31c4 0f3e a362 c13d
00000010: a345 a4bc f346 94bd 7774 9a3c 229e c73d
00000020: 1cd2 8ebc cbac 753c d7b9 9b3d 0600 633d
00000030: fcec 9d3d b809 38be 97c8 563d 0ab8 143d
00000040: d42b 733d 063d 123d e65e 853c cd0f 9abd
00000050: 9612 fb3d 60eb 2a3e 832b 363e a430 483d
00000060: 995c 13bc dce8 123d c6c4 303d 2d8a d1bd
00000070: 1006 cabc c26a 433d 4d1c 17bd f589 81bc
00000080: b83e d8bd 9141 be3d 6660 ddbd 2241 073e
00000090: 2518 63bd 951f 893d 8855 b63c 2f14 b63d
000000a0: bd4c d33d 73b1 c9bc 4a13 873d 40ba 0e3b
000000b0: 67df 9ebd 8e0d 2a3c 1b3c d3bd c7ca d23b
000000c0: 67f8 20bd b178 ca3d e163 003e 34c5 d7bd
000000d0: 1f3e 9c3d 45f2 3c3c 6887 25bd b1d5 c53d
000000e0: c69b e2bc 2f4e 983c c2f1 dabd bfa8 de3d
000000f0: cd06 a63d 9ff0 a8bc 12bc 44bd 960c 78bd
00000100: c8fa 043e ad76 62ba 16f2 163e b78b 8a3d
00000110: fe41 05bd 7aaa 7b3d d3ac 7dbd f1be 20bd
00000120: 5bea 993c 5841 0e3d 2c38 acbc 61b7 09be
00000130: e55c 143d 4001 d13b 288e b93d d040 05bd
00000140: c475 26be 72c2 9abd 0978 a3bc 77ea 76bd
00000150: 48f8 103e 6162 96bc 513a 9d3d 4b98 15bd
00000160: 3ddd 2dbe f33b 3f3e 2c77 96bc 4469 17bd
00000170: 5da2 5f3d 503f 323d 55a4 293d 99f2 c93d
00000180: 5962 053d e43b 43bd fb7d 9abd 586c a93d
00000190: cdd4 673c 549f 5fbd 7e8e b3bd f14f f4bd
000001a0: 02ce 673d b804 04bd 3456 0c3e 4800 73bd
000001b0: 2d67 f53d 2612 573d 0383 653e 647b ba3c
000001c0: 201c 143e fe4a d2bd 87a3 bc3d a750 253d
000001d0: f28e c53c cc2c b9bd 39ee abbd e842 8abd
000001e0: 2b7b 583e a0dc 1a3e a359 d3bd c7ba 973d
000001f0: 073e cbbd 82d4 093c 333a 083d 6bbf 8dbd
00000200: f8bd 0e3e 1328 abbd d726 613d d1b1 143d
00000210: 77c8 a43d cc1f 0dbe 001d cc3b 4193 57bc
00000220: f31e 093c 9e9c d43c 15e8 4c3d c06c a5bc
00000230: ad4f 143e 2660 913c 986e cbbd e06b 603c
00000240: 9e0f d03b 5d25 013e f55b f83c 3f02 da3d
00000250: 2e69 983c 851d e53d 7eae afbd 1c63 dfbc
00000260: d94b 993d e095 513d ad22 04be 4555 1dbd
00000270: 77aa fcbd 6b5e 873c 7af6 d33c b3a2 c4bd
00000280: b26f ad3d 3d2c 753c b4f1 debd f3c1 703d
00000290: fc52 fabd 2ea7 88bd 1695 35bd fa4e 04be
000002a0: 2281 aabc 031f dcbd 5f53 cfbd 601a 243d
000002b0: 5b20 c93b 1b01 1a3d a9e2 433c a192 f1bc
000002c0: 40d2 90bd 0595 183c 1009 973d f6d6 babc
000002d0: 1f5d 653e aa10 d13c 98bd b3bd 97c6 3ebd
000002e0: 3164 293e 85e3 fd3d db06 ee3d 97d1 05bd
000002f0: 3672 143c bd7a 5039 71c5 cdbd 26d4 40bd
00000300: 0503 4ebd 6d54 c3bb b331 913d f562 1ebd
00000310: ecc7 aa3d 0ee5 943d 8ed5 7fbc bf97 243d
00000320: 5608 32bd 360b 23bc 9cca 243d 1477 d43d
00000330: daf3 9dbc 995c ce3d c6b0 b13d 86d9 233d
00000340: 8a21 423d 2ed1 70bd c8f0 363d afc5 52bd
00000350: 051e 7cbd bfc9 63bc b0ec f83c cce6 033d
00000360: 9099 e7bd 6c25 323c d6f7 26bd 9bd0 b83c
00000370: 0c79 923c 3587 3e3e cc35 a8bc c1d5 fe3b
00000380: 4c0d 803d 5ed4 98bd 9b9b bc3c 39bf 453d
00000390: d50a 1c3c 213e 38bd 64fb 6bbc 0a46 8dbd
000003a0: 67c0 4e3d 1dd2 82bc 20b7 803d 1962 5f3d
000003b0: 1d8f babb f38d 183e 3daf 35be 1b4c 8e3d
000003c0: 151d 363d c8a6 67bd f9d8 8e3d 7d15 1d3d
000003d0: 395d 09be 4ea7 d2bc a853 dfbc fc40 0cbe
000003e0: beda 2fbd 2d6e 33bd b68c 2c3d bb23 d03d
000003f0: 9de2 a1bc 0b53 c1bc 0b63 303e a236 79bc
-0.050140075 -0.14692667 0.14039685 0.094426416 -0.020052737 -0.07240095 0.018854363 0.09746958
-0.017434172 0.01499481 0.076038055 0.055419944 0.07711217 -0.17972457 0.05243739 0.036308326
0.05936797 0.035702728 0.016280603 -0.07522545 0.12259404 0.16691351 0.17790036 0.048874512
-0.008994245 0.035866603 0.043156408 -0.10231433 -0.024661094 0.047709234 -0.036892224 -0.015812853
-0.10558838 0.092898495 -0.10809402 0.1320844 -0.055442948 0.06695477 0.022257581 0.088905685
0.10317371 -0.024620747 0.06595476 0.0021778494 -0.07757454 0.010379208 -0.103141986 0.0064328643
-0.039299395 0.09886301 0.12538101 -0.105356604 0.07629036 0.011532371 -0.040412337 0.09659899
-0.02766217 0.018591968 -0.10690643 0.108720295 0.08106766 -0.02062255 -0.04803092 -0.060558878
0.1298629 -0.00086389 0.14740786 0.0676493 -0.03253364 0.061441876 -0.061932396 -0.039244596
0.018788507 0.034730285 -0.021022879 -0.1344886 0.036221404 0.006378323 0.09060317 -0.032532513
-0.16255862 -0.07556619 -0.019954698 -0.060282197 0.14157212 -0.018357458 0.076771386 -0.03652219
-0.16978927 0.18675213 -0.018367372 -0.036965623 0.0545982 0.04351741 0.041416485 0.09860725
0.032564495 -0.047664538 -0.0754356 0.08272618 0.014149857 -0.054595307 -0.087674126 -0.1192931
0.05659295 -0.032231063 0.13704759 -0.05932644 0.1198257 0.052507542 0.22413258 0.022763915
0.14463854 -0.1026821 0.09210878 0.04036012 0.024116013 -0.090417475 -0.08395047 -0.067510426
0.21140735 0.15123224 -0.10319831 0.07408672 -0.0992394 0.008412482 0.033258628 -0.06921276
0.13939655 -0.08357253 0.05496868 0.03630239 0.08046048 -0.13781661 0.006229043 -0.013157667
0.008369195 0.025953587 0.05002602 -0.020193458 0.14483519 0.017746042 -0.099332035 0.013697594
0.006349518 0.12611909 0.030317286 0.1064496 0.018604841 0.11187271 -0.085782036 -0.027268939
0.0748517 0.051168323 -0.12903853 -0.038411397 -0.12337201 0.016524514 0.025874365 -0.09601345
0.0846857 0.0149641605 -0.10885945 0.058778714 -0.12222859 -0.06672512 -0.044331633 -0.12920752
-0.020813528 -0.107481025 -0.10123324 0.040064216 0.0061378903 0.03759871 0.011955895 -0.029488863
-0.07071352 0.009312873 0.073747754 -0.02280758 0.22398804 0.025520641 -0.087763965 -0.04657611
0.16542126 0.123969115 0.11622401 -0.032670584 0.009060433 0.0001988215 -0.100474246 -0.04707732
-0.05029585 -0.005960992 0.070895575 -0.03866859 0.08338913 0.07270251 -0.01561488 0.04018378
-0.04346498 -0.009951403 0.040232286 0.10374275 -0.019281317 0.10076255 0.08676295 0.04000237
0.047395267 -0.05879324 0.04466322 -0.051458057 -0.061552066 -0.0139030805 0.030386299 0.032202527
-0.113085866 0.01087318 -0.0407637 0.022560408 0.017879985 0.18606265 -0.020533465 0.0077769463
0.06252536 -0.07462381 0.023023417 0.048278067 0.009524067 -0.044981126 -0.014403198 -0.068981245
0.050476458 -0.01596933 0.06284928 0.054536913 -0.00569333 0.148979 -0.1774263 0.0694811
0.04446133 -0.05655554 0.06974978 0.03835057 -0.13414468 -0.025714543 -0.02726157 -0.13696665
-0.04293322 -0.043806244 0.04212638 0.10163065 -0.019761378 -0.023599168 0.17225282 -0.015210779

gconv1.1.W.weight f4 [140, 140]
00000000: 632a 083d 38ba e6bc 6fed 42bd 1db7 193e
00000010: 7e94 28be 31f7 f9bc 5e57 923c 5ddf 25be
00000020: ce1b b6bc 59e2 b23c f4ea b03d eb87 57bb
00000030: f007 1dbe 2f61 9cbd d69c 893c d237 d23d
00000040: ef68 56bc c891 b63d 359a a83d c907 b13d
00000050: fcd1 08bd 2675 2ebe e012 0dbb 5121 473d
00000060: e416 edbd f8af 37ba 81cc 5ebd f81e 6dbc
00000070: c1dc 123d 0ffe 08bb 7659 923d 7b57 963d
00000080: ebe2 96bd 2db1 92bd f859 b33c e7a4 9f3d
00000090: 0108 97bd 0ab0 d6bc edd5 123e 3a62 be3d
000000a0: b955 b5bb f512 b83d 09ba d1bd cd93 4fbd
000000b0: b486 683d 26fd abbd 6311 7a3d b171 6f3d
000000c0: 7e3c 08be 632c 00be 21fa 063e df10 213e
000000d0: 70df f33c 1217 16bc 2fce 273d 00a6 4e3e
000000e0: a930 0ebc e9b6 cebc 8bd4 9abc 4273 06be
000000f0: 2470 943c f987 d8bb 9489 ca3c 4f75 c0bd
00000100: f4de c33c 5868 2abe e2ed 113e 03f6 e9bc
00000110: 5165 49bd 4a04 0e3d f7c1 2a3c 7ed5 7ebc
00000120: b534 d93c 73f6 9ebd 148a ba3d f5bc bb3b
00000130: 6c72 e23c ab0a 63bd ee6a be3d 7b7b d6bb
00000140: d058 dbbc 3932 1fbc c3b0 f23c 25ad 3abd
00000150: 6827 663e f099 df3c 8436 a5bc 8ab3 2dbd
00000160: 2ef4 85bc 4d53 d3bd b40d 103d e341 debd
00000170: beb3 7dbd 98b2 c83d d95e f8bd 88f4 d9bc
00000180: 6f98 bc3b 6983 f7bd 44a9 963d c7a6 fdbd
00000190: 469b 34be dcbe d23c 19f7 3c3d 9b31 4bbd
000001a0: 847f 0c3d 83d8 0e3d 2ac0 613d bc74 b23a
000001b0: 34b7 96bb 622e 573d eae9 94bd e6a5 afbd
000001c0: e02a bcbd 5d0d 8d3c d777 dcbb 382e 303d
000001d0: e5bc d63d 0dfe 413e 5bd1 fc3c 7465 10bd
000001e0: bb3b d13d 8499 f13d ba31 f63c 5e5e ab3d
000001f0: e02b 823c 6cce 6bbe 1e28 34bd e9c8 1f3d
00000200: fe4e 0dbe c87b 493d 5837 ebbc ad1c 873c
00000210: 45fe 95bc 5f9b b73d fbd9 1b3e c367 583d
00000220: aa45 373e 5533 b23d 255c 1b3a 5e39 09bd
00000230: 0e70 b8bd 95c2 963d 88f5 4fbd a5d9 8ebc
00000240: fedc e0bb f8fe f1bd 667d cabc 50ab af3c
00000250: bb8c cbbc bba6 2f3d 8c83 10bd e903 b7bd
00000260: 2b7b a6bc fe5b 50bd 058c 333e bf44 e93b
00000270: aeea ef3c 572d d2bc 4dad 82bd f72c d93a
00000280: 77f0 53bd dc61 07bd 9c52 aebd 0900 bc3d
00000290: 78da 6abd dce7 0d3e 97b0 063d 43ea bc3d
000002a0: 8564 47bd 4735 8b3c b2ae 0a3d 77b3 35bd
000002b0: d3e4 17be 66ec 56bd d2d7 25be 99e5 db3c
000002c0: bd83 42bd 8811 27be 2137 5abe 6be5 193d
000002d0: 86e0 27be c988 823a 5688 c03d a699 c23d
000002e0: fa73 2c3e a637 bfbb 9b04 a6bd 6384 ed3b
000002f0: 2a77 f1ba 0879 b23c 774b 71bc 0882 8b3c
00000300: 9a7f dcbc 3fef f2bc 5f60 afbd 20c0 983d
00000310: 6b05 3a3c 526b 10be f1ba e03d 4942 913c
00000320: 5327 d33d 56af 86bd 4091 74bc a3aa c1bd
00000330: b52f 28bd 5692 66bc 76f7 efbd 55ca 23be
00000340: d407 ef3d cbdf b7bd 9008 9e3d 7d65 a9bd
00000350: 0f33 80bd df28 883e 1a3b 513d acbd bc3b
00000360: 1580 823b c422 263d ec06 b43b fae2 e2bd
00000370: 98fa e9bc afec 08bd a423 b6bd 18b3 15bc
00000380: dfc9 32bd 8697 46bd 8c91 4e3d 5bb4 b3bd
00000390: cb0a a1bd c1d2 803d 9695 843d 085a a9bc
000003a0: 9e12 5dbd 6f30 7d3d 4c45 903d 36f0 52bd
000003b0: a51f 8dbd 197a 9f3c 7a43 32bd 2c99 40be
000003c0: 2d1d a33d 3c79 1e3e 347a 6fbd 5f15 90bc
000003d0: d88f 33bd 0def 2dbc 918b f5bc e705 39bc
000003e0: 1e2c f5bc 1b8e 40be 4c58 0abe 0030 aa3d
000003f0: 4423 f7bd 3d47 ffbd 0744 2b3d d148 503d
0.033243548 -0.028164968 -0.047589716 0.15011258 -0.16462895 -0.030513378 0.017863926 -0.16198488
-0.022230055 0.021836447 0.08638564 -0.003288741 -0.15335059 -0.07635724 0.016798418 0.10264553
-0.013086542 0.08914524 0.08232538 0.08644063 -0.03340338 -0.17036876 -0.0021526143 0.048615757
-0.11576632 -0.00070071174 -0.05439425 -0.014472716 0.03585506 -0.0020903384 0.071459696 0.07340904
-0.073675 -0.071627 0.021893486 0.077951245 -0.073745735 -0.026206989 0.14339419 0.09296079
-0.0055339006 0.08987991 -0.102405615 -0.050678063 0.056769088 -0.083978936 0.061051738 0.058458034
-0.13304326 -0.12516932 0.13181354 0.15729092 0.02976963 -0.009160774 0.040968116 0.20180511
-0.008678594 -0.025233703 -0.018900177 -0.13129905 0.018119879 -0.006608006 0.024723805 -0.09397375
0.023910023 -0.16641366 0.14250901 -0.02855969 -0.04916889 0.03467206 0.010422221 -0.01555383
0.02651439 -0.0776185 0.091083676 0.0057293125 0.027642451 -0.055430096 0.09297739 -0.0065454817
-0.026775748 -0.009716564 0.029625302 -0.04557528 0.2247597 0.027295083 -0.020167597 -0.04240755
-0.016351786 -0.10318623 0.03516932 -0.10852411 -0.061938994 0.09799689 -0.12127466 -0.02660586
0.005755476 -0.120856114 0.073565036 -0.12385326 -0.17637357 0.025725774 0.04613409 -0.049607854
0.034301296 0.03487445 0.055114903 0.0013615112 -0.0045994762 0.05253447 -0.07271178 -0.085765645
-0.09187865 0.017218286 -0.006728153 0.043012828 0.104852475 0.18944569 0.030861547 -0.035253003
0.10216471 0.11796859 0.030053008 0.083676085 0.015890062 -0.23027962 -0.04398357 0.039009962
-0.13799664 0.049190313 -0.028712913 0.016493166 -0.018309722 0.089651816 0.15219872 0.05283333
0.17897668 0.08701197 0.00059265114 -0.033501975 -0.09005748 0.07361332 -0.050771266 -0.017437765
-0.006862282 -0.118162096 -0.024717998 0.021443993 -0.024847379 0.042883616 -0.035281703 -0.08936293
-0.020322403 -0.05086898 0.17533882 0.007118791 0.029286709 -0.025656385 -0.06380711 0.0016569187
-0.051742997 -0.03305231 -0.0851185 0.09179694 -0.057337254 0.13857979 0.032883253 0.092243694
-0.048679847 0.016993178 0.03385801 -0.044360604 -0.14833383 -0.05247154 -0.1619561 0.02684288
-0.047488917 -0.16315281 -0.21310093 0.037572306 -0.16394243 0.0009958978 0.09401004 0.09501962
0.16841117 -0.005835491 -0.08106347 0.0072484477 -0.0018422354 0.021786228 -0.014727465 0.017029777
-0.026916314 -0.029655097 -0.08563303 0.0745852 0.011353831 -0.1410344 0.10973156 0.017731803
0.10310235 -0.065764114 -0.014927208 -0.094563745 -0.041061122 -0.014072975 -0.11717121 -0.15995152
0.11671415 -0.08978232 0.07716477 -0.082713105 -0.06259739 0.26593682 0.051081754 0.0057599153
0.0039825537 0.0405605 0.005493989 -0.110784486 -0.028561875 -0.033428844 -0.08893517 -0.009136938
-0.04364955 -0.048484348 0.050431773 -0.087746345 -0.07863387 0.06290198 0.06473844 -0.020672813
-0.053972833 0.061813768 0.07044467 -0.051498614 -0.06890801 0.0194674 -0.043521382 -0.1880843
0.07964549 0.15475935 -0.05846615 -0.017588316 -0.043838352 -0.010616076 -0.029973777 -0.011292911
-0.029928263 -0.18804209 -0.13510245 0.083099365 -0.12067273 -0.124647595 0.041812923 0.050850693

gconv1.1.W.bias f4 [140]
00000000: 8cfe 84bd 91ea ec3d 5a53 1b3e d560 aebc
00000010: 5257 32bb 883c 1fbd b0d7 81bd 4b62 8dbc
00000020: 36a4 143c ea2d ba3d 99e7 37bd 1c11 a83d
00000030: 0265 863d 61ff a1bc d9ca 04bd 8b4e 8ebd
00000040: 7397 a8bd 24ec d2bc 9681 7bbc c580 92bd
00000050: e49a 02bd c03b f7bd 2cab 693d dfe1 543d
00000060: 9299 04bd 3411 463d bcc6 19bd 04aa 79bc
00000070: ee65 d63c d1b1 043e 2bc5 22bd 21f8 d83d
00000080: a563 7abd cff4 2ebd 5f90 fa3d e352 023e
00000090: 3bce 233c d015 9bbd 04b0 693d dff7 f3bd
000000a0: f27b a13d c0c0 8d3d 41d7 ffbc aec7 2bbd
000000b0: 02d6 203d 210b 0dbd 7805 41bc 4514 233d
000000c0: 7017 413d afda f43c 4edf 26bd d5b9 c63c
000000d0: 6af7 9fbd 3d01 6a3d 6cbe dc3b afdd 7abd
000000e0: 0c82 033e 6571 273e c0ae 643c 5901 8fbd
000000f0: 8390 d93b 243f 16bd 76e0 063e 18f0 a13d
00000100: 1129 9c3d 11ef 1cbd 82d2 0bbd a38a 223d
00000110: cd85 9f3c 04b4 763c 1d3f 9c3d a42a b6bd
00000120: 574a f4bc b29c fb3b cd89 a93d 1b1c d9bc
00000130: b9ff 853d 22b6 41bd e4e6 e7bc aaaf 8c3d
00000140: 2fa0 ee3d b9ee 01bc 27e7 b13d 31ea 763d
00000150: d9d5 ac3d 6f15 fbbc 3182 de3d 44bc 1ebd
00000160: df6b 1cbd bb7f 033c 39ab fbbc 399c c23d
00000170: e17b a63d 4dbe 97bd d2b4 df3d 1479 49bd
00000180: 6dac ed3d cef2 f13d e6c3 a63d af51 0f3d
00000190: bc80 03bd cf4d 6c3c 2787 6fbc bdb9 98bd
000001a0: 7a95 30bd 4f70 0c3d 41ee 8d3d b8f8 70bd
000001b0: 3f32 88bd 713e 6f3d 9702 013d dbda 86bc
000001c0: d557 7b3c bd14 903b 3665 cdbc a6a5 ea3c
000001d0: 9690 a7bd 4bd2 6f3d 9988 34bc 13c4 ae3d
000001e0: 8f6d 143e ddd4 5fbd c037 07bd 4fc5 33bd
000001f0: 7b37 453d 9ba0 93bd 5eb9 aa3d d79e cabc
00000200: 73cf 3fbd c8de 19bc dd25 08bd de19 143d
00000210: becd 71bd 44e7 b2bd bf1e f93a 6f91 c93d
00000220: 1888 013d b227 2c3c 0edb 7abc 8b7e e53d
-0.064938635 0.115681775 0.15168515 -0.021286407 -0.0027212691 -0.038876086 -0.06339967 -0.017258784
0.009072354 0.09090789 -0.044898603 0.08206388 0.065622345 -0.019775094 -0.032420013 -0.06948575
-0.08232012 -0.025747366 -0.01535072 -0.07153467 -0.031885996 -0.12071943 0.057048008 0.05197322
-0.03237302 0.04835625 -0.037543043 -0.015238289 0.02617165 0.12958457 -0.039738815 0.10594202
-0.061130185 -0.042713936 0.12234568 0.12726931 0.0099979 -0.0757252 0.057052627 -0.11912512
0.07884969 0.0692153 -0.03123057 -0.041938476 0.039266594 -0.03443444 -0.011781089 0.039814252
0.047141492 0.029889433 -0.040740304 0.024258533 -0.07810862 0.057130087 0.0067365672 -0.06124657
0.12842578 0.1635185 0.013957679 -0.06982679 0.0066395416 -0.03668131 0.13171563 0.079071224
0.0762502 -0.03831393 -0.034136303 0.039682996 0.01947298 0.0150575675 0.076292254 -0.08894852
-0.029820604 0.0076785916 0.082782365 -0.02650266 0.06542916 -0.047292836 -0.02830834 0.06869443
0.11651646 -0.007930451 0.08686667 0.060281936 0.08439226 -0.030649869 0.10864676 -0.038753763
-0.03818881 0.008026059 -0.030721294 0.09502453 0.08129097 -0.07409344 0.109231606 -0.049187735
0.11605153 0.118138894 0.081428334 0.03499001 -0.032105193 0.014422848 -0.014619625 -0.07457302
-0.043111302 0.034286793 0.06930209 -0.058830947 -0.06650209 0.05840916 0.03149661 -0.01646178
0.015340765 0.0043970034 -0.025072675 0.02864344 -0.081818745 0.05855016 -0.011018896 0.08533492
0.14494918 -0.05464636 -0.03301215 -0.04388934 0.048148613 -0.072083674 0.08336137 -0.024733944
-0.0468287 -0.009391494 -0.033239234 0.03615748 -0.0590341 -0.08735517 0.0019006355 0.098421924
0.03162393 0.010507511 -0.015311016 0.11205777

gconv1.1.gate.weight f4 [1, 280]
00000000: 9432 083e 0290 c73c ee51 a0bc e76b e53c
00000010: 578d 6cbd c20b e4bc f71a 9e3d 1a49 06bd
00000020: 748b 273d 6c8f d73d d4d4 1b3d 1c50 d13d
00000030: bb06 373c 3e96 56bd 66a8 83bd aae0 613d
00000040: 81d2 353d 17ef 1dbb 5efe 843d cf44 673d
00000050: fb57 f33d 20f6 063d f659 073e 93c6 c33d
00000060: 5568 27bd aca3 88bd 11ab 713d 91ff b13d
00000070: 96ad df3d 5e03 26bd 8dc6 a8bb 80e3 773e
00000080: 390d 9e3d a55a f3bd 6acb 733d 45b5 b63d
00000090: cd3b 21bd 09c5 493c bf4b 083e ade6 143d
000000a0: f34a 9f3c e772 27bd 2249 b43d df7a 2dbd
000000b0: 9154 46bc b9c1 5f3d 22f3 e53c c348 7f3b
000000c0: 7941 0b3e 7707 36bd d3fd 433c a318 103d
000000d0: 097d debd bb2f 723c f3ae 2cbd 93e5 2a3e
000000e0: db40 343e 551a be3c 01f8 fabd 4401 30be
000000f0: 9b28 51bc 644e 163d 0472 abbc f8a2 47bd
00000100: 5ad3 dd3d 5f10 723d 0dde 733d 9de5 073d
00000110: e075 643d 163e 833d 2ebf 933d ba5f f4bd
00000120: e291 68be 8129 a23d 714f 8c3d 2e46 c6bd
00000130: b0af d5bc c7ee 833d 2618 b23d fe86 5e3c
00000140: dcf7 f23d e4e5 44bd 6e2e bc3d f51d 863d
00000150: cf79 29be eb2c 39bc 3640 fb3d 5e42 46bc
00000160: e22f e33d 8697 c93d b196 073e c0be 203d
00000170: d582 adbd 1b4e bfbd 56d9 23bd 0f25 9bbd
00000180: 8234 113c a7c7 d43b 8f2c c8bd 754e 25bc
00000190: 7b37 4dbc 3c92 0abc fdbe 86bd a6b7 e63d
000001a0: 8e9b e43d cba5 bf3d 0892 b53d 3bb7 c9bd
000001b0: 8296 2c3c f729 cb3d 2de3 653d 4aca cfbd
000001c0: 9be7 87bc b040 b53c 097c ae3b 0138 583e
000001d0: 6a58 dbbd 9c81 853d b2a8 32bd ef04 223d
000001e0: cca9 b73d 6cab 93bd 1898 c8ba 067b 1abd
000001f0: 3065 7abd 8dcd 273d 802b 523e 38cf 9c3c
00000200: 4e2a 8dbc 8511 bb3d 8383 d6bc 54a5 ae3e
00000210: 8acb 02bc 53ba 0bbe 3bd7 303e 81d6 89bd
00000220: fb0c d33c c622 063d 20cb 4c3d 9924 253d
00000230: 1304 cdba 9079 203e 5db4 e73c 420a 95bd
00000240: e6e6 333c 0fa1 e73c 936d 5abd 52ca f3bc
00000250: 3805 033e ae6f 533e f006 853c 06a5 493d
00000260: ea9a 153d dc30 823d 2295 d73d 8751 01bd
00000270: 3aa2 a2bb 1454 563c a83b 2dbe a53b f73c
00000280: e079 9ebd 151b 5f3c e144 e73d 5e74 c3bd
00000290: 83c9 39be 4899 3a3d bef1 c8bb 1f9e 0d3e
000002a0: cee3 083d 45cf 993d 5f02 3dbd eb90 d53d
000002b0: 5d82 b53d 338b e5bd 1730 193e 41d0 5b3d
000002c0: 70df 3abe 34f7 163c c102 7bbd a1c6 a33c
000002d0: c1aa 5bbc 4d8a 2dbd bbee 873d 7bf4 e73b
000002e0: b83a 9abd 258d 62bd a14e 3abe 8335 543d
000002f0: 5612 e7bd b73a 273d ee30 4cbc 1d15 8e3d
00000300: 242f 013e 1e67 a93d f546 08be 1991 053d
00000310: c02f ca3c 87f2 0c3e 1e42 4abd 016f 2c3d
00000320: 1225 07bd 190a f53d f3ba 343e cd8f 103d
00000330: 8dde 503d 3f9e 5fbc aab3 163c af2e 583d
00000340: 8f0b 7abd 7d8d c43d c4be 573e cbec 753c
00000350: f251 ad3d bdcd 7bbd e527 86bd 4980 55be
00000360: 5e9c b2bd 7e26 d53c d608 a5bd 4375 00be
00000370: feda 1b3d a4db 2dbb fd75 573d a55c 923d
00000380: d5be 2c3d ad5c 073e b039 313d e5fe fb3c
00000390: 70a2 e7b8 27e3 55bc 22ef f6bc f354 1b3d
000003a0: f5d7 7d3e 6072 97bc 436b 55bb 1480 6abc
000003b0: d546 2c3e ddc5 d93d 72e9 1a3e e581 64bd
000003c0: 56f3 df3d 4079 f33d 5b92 fc3d ed09 69bd
000003d0: dfdb e5bd e156 cdbd 2ad8 753e ebe2 cebc
000003e0: 77a8 243e 2f94 6b3b 0a74 57bd c035 2d3e
000003f0: 731e c3bc d824 9d3d 21b5 41bd 8aa7 aa3d
0.13300544 0.02436066 -0.019570317 0.028005553 -0.05775198 -0.027837638 0.07719987 -0.03278456
0.040904477 0.105254024 0.038044766 0.10220358 0.011171038 -0.052389376 -0.06428604 0.055145897
0.044390205 -0.0024098807 0.06493829 0.056462105 0.11882015 0.032949567 0.13217911 0.095593594
-0.040870983 -0.06671843 0.059001032 0.086913235 0.10921781 -0.040530555 -0.005150622 0.24207878
0.07717366 -0.118825234 0.059520163 0.08921293 -0.03936367 0.012315043 0.13310145 0.036352802
0.019444918 -0.040881064 0.088030115 -0.042353507 -0.012105123 0.054628108 0.028070036 0.0038953281
0.13599195 -0.044440713 0.011962372 0.035179745 -0.10863692 0.014781888 -0.042159032 0.16689138
0.17602865 0.023205915 -0.12254334 -0.17187983 -0.012766029 0.036695853 -0.02092839 -0.048739403
0.10831328 0.059097644 0.059537936 0.03317796 0.055776477 0.06408326 0.07214199 -0.11932321
-0.227119 0.079180725 0.0685109 -0.096813545 -0.02608475 0.064420275 0.08696012 0.013581989
0.11863682 -0.048070803 0.09188543 0.065486826 -0.16550373 -0.011302213 0.12268107 -0.012100784
0.11093117 0.09843354 0.13241078 0.039244413 -0.0847222 -0.09341069 -0.04000219 -0.07575428
0.0088626165 0.006493527 -0.09774124 -0.010089506 -0.012525435 -0.008457717 -0.06579397 0.11265497
0.11162482 0.093577944 0.08865744 -0.098494016 0.010533931 0.099201135 0.056124855 -0.101460055
-0.01658993 0.022125572 0.0053248447 0.21115114 -0.10710223 0.06518862 -0.04361791 0.039555486
0.08967933 -0.072104305 -0.0015304117 -0.03771498 -0.061131656 0.040967513 0.20524406 0.019141778
-0.017232087 0.09134201 -0.026185757 0.3411051 -0.007983098 -0.13645296 0.17269604 -0.067303665
0.025763026 0.032748006 0.049998403 0.040318105 -0.0015641473 0.15671372 0.028284246 -0.07277347
0.010980343 0.02827504 -0.053327154 -0.02975956 0.1279496 0.20648071 0.01623866 0.049229644
0.03652469 0.063569754 0.10526492 -0.03157189 -0.0049631866 0.013081569 -0.16917288 0.030179808
-0.077380896 0.013617297 0.112924345 -0.0954368 -0.18143277 0.045556337 -0.0061323335 0.1382985
0.033420376 0.07510237 -0.04614484 0.104280315 0.088627554 -0.11208191 0.14959751 0.053665403
-0.18249297 0.009214211 -0.061281923 0.019992175 -0.01340741 -0.042368222 0.06637331 0.007078705
-0.07530731 -0.055310387 -0.18194057 0.051808845 -0.11282794 0.04082748 -0.012462838 0.06937621
0.12615639 0.08271621 -0.13308318 0.03260908 0.024680972 0.13764392 -0.04937946 0.04209805
-0.032994337 0.119648166 0.1764944 0.03529339 0.05099349 -0.013648569 0.009198109 0.052778896
-0.06104618 0.09597299 0.21068865 0.015010069 0.084628955 -0.061475504 -0.06550578 -0.20849718
-0.08721231 0.026019331 -0.08058326 -0.12544732 0.038050644 -0.002652862 0.052602757 0.07146577
0.04217418 0.13218947 0.043267906 0.030761192 -0.00011045195 -0.013054646 -0.030143324 0.03792281
0.24789412 -0.018487155 -0.0032565154 -0.014312763 0.16823895 0.106334426 0.15128115 -0.05578794
0.109350845 0.11888361 0.123326026 -0.05689423 -0.11223578 -0.100263365 0.24008241 -0.025254687
0.16079889 0.0035946479 -0.052600898 0.16915035 -0.02381823 0.07673043 -0.04729188 0.08332737
