save/best_new_opt123_0.811.pt (torch, 971864 bytes, 44 tensors)

gconv1.0.A f4 [140, 140]
0.06711762 -0.013236035 -0.03758846 -0.042295866 -0.026888365 -0.07744168 0.051590715 0.20518062
-0.16305225 0.14292642 0.09789086 -0.13790314 -0.010989901 0.023170896 -0.06132486 -0.08379147
0.07897147 0.05720114 -0.09672869 0.09440751 0.049645156 0.07083038 0.09079321 -0.047817208
-0.014585159 0.05432118 0.015109766 0.15206777 -0.136523 -0.028768344 -0.085101366 -0.0031967235
0.08311273 0.031162625 -0.05771122 -0.0928833 -0.11679143 0.07514048 -0.03829611 0.046339642
0.20275971 0.20047826 -0.1277641 -0.06857449 0.073475905 -0.07832629 -0.02119354 0.055612896
-0.14131597 -0.008826329 -0.06109398 -0.04242866 0.022744203 0.057123665 -0.18130328 0.012133762
0.093753174 0.04582803 0.0016473983 0.07862629 0.035677873 0.09542527 0.080289595 -0.10831485
0.14747156 -0.22019787 -0.11876529 0.16417095 0.12482435 0.009696901 -0.080098726 0.09510117
-0.034606285 -0.19880809 0.07979036 0.11020414 -0.006507704 -0.114091225 0.07915755 -0.045814067
-0.025577584 0.0038064632 0.0004481266 0.02972274 -0.11718863 0.16758554 0.05990053 0.16084003
-0.0514118 0.03631158 0.1305448 0.034107905 0.049127575 0.015985882 -0.04850728 0.039025247
0.08941885 0.094970815 0.030513333 0.07046683 0.07088648 -0.050761722 -0.165873 -0.07952747
0.021308478 0.111630045 0.058768135 0.030890064 0.003912983 -0.027474478 -0.028208384 -0.10273543
-0.011543714 -0.011097394 -0.015395236 0.039950833 -0.14647713 0.17049532 -0.05237248 -0.083599865
0.0074329553 -0.03216821 -0.14443976 -0.068954736 0.08812813 -0.08422242 0.19969913 0.03250552
-0.1458363 -0.07070856 0.10740994 -0.1317464 0.04494807 -0.050982833 -0.11755412 -0.003197788
-0.05828134 -0.054548245 0.02376259 0.0360828 0.20565408 -0.079612926 -0.216536 -0.015863076
0.13844661 -0.019937366 -0.030735347 0.03807007 0.08122109 -0.07489033 0.116998516 0.16704258
0.030316079 0.039515443 -0.041074876 -0.058902204 0.07035339 0.042431902 -0.022980178 0.026077576
-0.07863726 -0.10041697 -0.093275204 0.027829377 0.03782337 0.14864504 -0.09634794 -0.0014681428
0.054129742 0.12585872 0.10761811 0.12418277 -0.08414939 0.061414585 -0.0886925 0.11756275
-0.16774835 0.05027987 0.033594828 -0.023202715 0.0070502697 -0.031614102 0.019339953 -0.011190907
-0.080630325 0.049878318 -0.11378868 0.14099 0.012806052 -0.14378162 0.08737882 -0.021926872
-0.038398575 -0.0484253 -0.05666426 -0.10313469 0.04080648 -0.010848738 -0.045627814 0.04693841
-0.0047998526 0.034057267 -0.010195934 0.064576946 0.071006745 -0.115275554 0.05567887 -0.014565111
-0.070271045 0.035103846 -0.0682514 -0.056232955 0.0075714383 -0.09882167 -0.08941518 0.063735776
-0.046358567 -0.047278922 -0.031734567 -0.040080335 -0.059473723 -0.09198578 -0.035792183 -0.03585004
-0.0063174483 -0.00054731185 -0.09709269 -0.04883438 0.03391535 0.08350674 0.0008159543 0.03978403
0.015117113 -0.07105169 0.024779834 -0.056906343 0.064214624 -0.021364735 0.018269233 -0.14380659
0.08147809 0.07133554 -0.007604453 -0.025680676 0.047406815 -0.018052656 0.010120742 -0.0727576
0.093163885 0.084042944 -0.06815151 0.060756765 0.022010263 -0.08572652 -0.01975199 0.066042624
00000000: f674 893d f4db 58bc 5bf6 19bd 6e3e 2dbd
00000010: fd44 dcbc be99 9ebd c950 533d de1a 523e
00000020: 2bf7 26be 4e5b 123e 017b c83d 7b36 0dbe
00000030: fc0e 34bc e4d0 bd3c c72f 7bbd dd9a abbd
00000040: cbbb a13d be4b 6a3d b119 c6bd b958 c13d
00000050: b858 4b3d 850f 913d caf1 b93d fadb 43bd
00000060: 97f6 6ebc e37f 5e3d f48e 773c a7b7 1b3e
00000070: afcc 0bbe 97ab ebbc a049 aebd 1f80 51bb
00000080: 0237 aa3d c348 ff3c 9a62 6cbd 9939 bebd
00000090: 5830 efbd 41e3 993d 62dc 1cbd a3ce 3d3d
000000a0: 3ea0 4f3e 2c4a 4d3e 98d4 02be c870 8cbd
000000b0: 897a 963d 8969 a0bd 139e adbc 59ca 633d
000000c0: 22b5 10be 4f9c 10bc ae3d 7abd adc9 2dbd
000000d0: 0d52 ba3c 81fa 693d 91a7 39be b0cc 463c
000000e0: aa01 c03d 2cb6 3b3d 84ed d73a d206 a13d
000000f0: f622 123d 536e c33d df6e a43d 2dd4 ddbd
00000100: c902 173e 8d7b 61be 373b f3bd 6e1c 283e
00000110: e9a3 ff3d c0df 1e3c cd0a a4bd 67c4 c23d
00000120: 52bf 0dbd 5994 4bbe 2169 a33d b5b2 e13d
00000130: 943e d5bb a9a8 e9bd 5b1d a23d 88a7 3bbd
00000140: 1588 d1bc db75 793b 89f2 ea39 1b7d f33c
00000150: 9800 f0bd 8b9b 2b3e 425a 753d 40b3 243e
00000160: 2e95 52bd 74bb 143d 89ad 053e bbb4 0b3d
00000170: ff39 493d d3f4 823c 92af 46bd f0d8 1f3d
00000180: 3b21 b73d 0f80 c23d 19f7 f93c ea50 903d
00000190: ee2c 913d 86eb 4fbd 9dda 29be 4cdf a2bd
000001a0: 1e8f ae3c 4b9e e43d dbb6 703d 290d fd3c
000001b0: 7b38 803b 2812 e1bc 4515 e7bc f466 d2bd
000001c0: d921 3dbc d8d1 35bc 4d3c 7cbc 7ca3 233d
000001d0: 1afe 15be 5396 2e3e 8784 56bd 6836 abbd
000001e0: 2690 f33b d0c2 03bd 04e8 13be 2438 8dbd
000001f0: 857c b43d ce7c acbd ee7d 4c3e 8224 053d
00000200: 1c56 15be a6cf 90bd bef9 db3d 87e8 06be
00000210: 781b 383d 60d3 50bd 37c0 f0bd fb91 51bb
00000220: 6ab8 6ebd fb6d 5fbd c3a9 c23c 8fcb 133d
00000230: fc96 523e 1a0c a3bd 9dbb 5dbe 48f3 81bc
00000240: f3c4 0d3e b053 a3bc b2c8 fbbc 5def 1b3d
00000250: 3e57 a63d 1a60 99bd eb9c ef3d 360d 2b3e
00000260: 6d59 f83c f2da 213d 213e 28bd 7043 71bd
00000270: 7015 903d 13cd 2d3d ed40 bcbc a4a0 d53c
00000280: 920c a1bd 6aa7 cdbd 1207 bfbd 6ffa e33c
00000290: aeec 1a3d 6836 183e 1252 c5bd b36e c0ba
000002a0: 26b7 5d3d 1ce1 003e e266 dc3d 8953 fe3d
000002b0: 8456 acbd dc8d 7b3d 6aa4 b5bd bdc4 f03d
000002c0: 39c6 2bbe 44f2 4d3d bb9a 093d 9f13 bebc
000002d0: f305 e73b ca7d 01bd d26e 9e3c 115a 37bc
000002e0: 8321 a5bd 354d 4c3d 0a0a e9bd af5f 103e
000002f0: 7ad0 513c 7d3b 13be abf3 b23d fc9f b3bc
00000300: d347 1dbd 9b59 46bd c818 68bd 4838 d3bd
00000310: b224 273d e8be 31bc 3be4 3abd 7d42 403d
00000320: 1548 9dbb a27f 0b3d d90c 27bc eb40 843d
00000330: fc6b 913d 9715 ecbd 870f 643d 81a2 6ebc
00000340: 44ea 8fbd 0dc9 0f3d 64c7 8bbd 8754 66bd
00000350: d419 f83b 0463 cabd 4e1f b7bd e787 823d
00000360: 7be2 3dbd 8ba7 41bd 1bfc 01bd 472b 24bd
00000370: b89a 73bd 0a63 bcbd d39a 12bd 7ed7 12bd
00000380: 9902 cfbb 7a79 0fba 88d8 c6bd 8f06 48bd
00000390: d2ea 0a3d 9505 ab3d c4e5 553a 94f4 223d
000003a0: c4ad 773c 8c83 91bd 14ff ca3c a016 69bd
000003b0: f582 833d 1905 afbc 5ca9 953c 0942 13be
000003c0: fcdd a63d 5e18 923d c62e f9bb 4860 d2bc
000003d0: a62d 423d 2ae3 93bc 78d1 253c f001 95bd
000003e0: b5cc be3d b51e ac3d 0593 8bbd 16dc 783d
000003f0: de4e b43c 6391 afbd edce a1bc 5b41 873d

gconv1.0.W.weight f4 [140, 140]
-0.09441225 -0.04358477 0.04886122 0.15494175 -0.022268254 0.18410116 -0.08333004 0.053167634
-0.11505789 -0.102649026 0.007011257 0.12022978 0.085480765 -0.068587415 0.10209263 0.043639097
-0.079261236 -0.12253521 -0.011189064 0.02478704 -0.065389425 -0.0076977527 0.10102736 0.002206854
-0.080781974 0.08937261 -0.016822655 0.031192508 0.22188945 0.18963727 -0.021587381 0.0103871655
0.055593386 0.04015656 -0.03643395 -0.045983903 0.12214251 0.041274384 -0.02529279 -0.013856107
0.06941828 0.06872649 -0.019445535 0.11411347 -0.020601429 0.0053088223 -0.097582415 -0.07513258
-0.03933702 -0.049101125 -0.091578305 0.02284122 -0.20725377 -0.018526096 -0.07620261 0.037163474
-0.05783731 0.07663491 -0.0018010353 -0.19496171 -0.08450001 0.007923856 0.12895755 -0.11008424
-0.005391568 -0.00012601391 0.14291845 -0.25631148 0.21319433 0.15081723 0.06315958 -0.015688248
-0.00021982014 -0.03994455 -0.0015015351 -0.10509831 0.015979175 0.20178041 -0.114659 0.10868904
0.06300865 -0.008313832 -0.06607672 0.12667024 0.030121114 -0.059442177 0.20044142 -0.08617466
0.045252886 -0.104024336 -0.030000282 -0.02336217 0.17336452 0.12561624 -0.13780883 0.06819518
-0.025984088 -0.06502952 0.06249704 -0.049411695 -0.071241975 0.057437092 0.024677683 0.09556076
0.118321635 0.15051115 -0.0014173798 0.055594724 0.00753062 0.04448324 0.075206846 0.0022048764
-0.09563933 0.0364497 0.0024211106 0.091936 0.059694566 0.026628943 -0.0054888567 -0.043496035
-0.07075831 -0.18844923 -0.08942342 -0.03026908 0.019686121 0.1441513 0.14533123 0.05526966
0.066261284 -0.015429035 -0.095690496 0.08969829 0.039542202 0.07936577 0.13680743 -0.19499682
-0.021595713 0.099384576 0.14605199 0.026607143 -0.07934165 0.07875985 0.043426096 0.072829425
-0.11335817 -0.07094183 -0.104912706 -0.04561893 0.03534383 -0.0024858995 0.04640441 0.03775191
-0.053893235 0.020885754 0.14629672 0.15220703 -0.020564543 -0.00080234563 -0.12338766 -0.2017946
0.029793544 -0.16331998 -0.014885093 -0.074914455 -0.15655285 -0.12311766 -0.019717945 0.124741845
-0.16086645 0.03549356 0.23551348 -0.037992086 0.12606181 -0.036532532 -0.03264201 -0.0035039596
0.16657415 0.036562122 0.007925052 -0.05359082 -0.08362064 -0.02667219 0.12725271 -0.09456368
0.1115841 0.18453822 0.012725899 -0.04929209 0.036133155 -0.17522976 -0.099229924 0.1232525
-0.08494986 0.022505192 0.043161117 -0.003375919 0.029187322 -0.20940404 0.15317987 0.06963583
-0.11350994 -0.07281707 -0.10777104 -0.063512556 0.14305279 -0.01088944 0.018269293 0.15279269
-0.029169075 -0.07666403 -0.16398506 -0.013681302 -0.00075479655 -0.005695728 -0.3173992 -0.03438734
-0.026398659 0.016507352 0.014231421 -0.05871887 0.04395946 0.0137775615 0.1497225 -0.09322647
-0.018960977 -0.004327454 0.08123035 -0.03432745 0.017361328 0.043422345 0.04109946 -0.03794567
0.1458655 0.020210665 0.051900662 0.012135669 0.06041454 0.07163844 0.029863771 0.059484493
-0.13882421 0.14873654 -0.12599072 -0.010763224 -0.026083754 -0.06587889 -0.05882533 -0.07744255
-0.061558854 -0.08444757 -0.09503529 -0.02570942 0.005249422 -0.004030544 0.0706463 0.0033459985
00000000: 365b c1bd f285 32bd b422 483d 0da9 1e3e
00000010: ea6b b6bc 0485 3c3e f1a8 aabd 4ec6 593d
00000020: 79a3 ebbd a739 d2bd b0be e53b 083b f63d
00000030: 8a10 af3d 8f77 8cbd f115 d13d e9be 323d
00000040: b753 a2bd bdf3 fabd 5652 37bc 310e cb3c
00000050: e4ea 85bd 6e3d fcbb 6fe7 ce3d dea0 103b
00000060: 0571 a5bd fd08 b73d aacf 89bc 6e87 ff3c
00000070: fd36 633e 4630 423e 05d8 b0bc ee2e 2a3c
00000080: e4b5 633d 347b 243d c43b 15bd 9e59 3cbd
00000090: da25 fa3d 540f 293d d332 cfbc ba04 63bc
000000a0: 2c2b 8e3d 79c0 8c3d 3e4c 9fbc 53b4 e93d
000000b0: 54c4 a8bc a1f5 ad3b 4ad9 c7bd 1cdf 99bd
000000c0: db1f 21bd 431e 49bd 688d bbbd 831d bb3c
000000d0: 553a 54be 0ac4 97bc 1d10 9cbd ba38 183d
000000e0: d1e6 6cbd c4f2 9c3d b710 ecba 0ba4 47be
000000f0: 570e adbd 10d3 013c 730d 043e d973 e1bd
00000100: c0ab b0bb 9a22 04b9 3759 123e 423b 83be
00000110: 9d4f 5a3e d56f 1a3e cf59 813d a484 80bc
00000120: 857f 66b9 e59c 23bd 28cf c4ba c83d d7bd
00000130: c2e6 823c 869f 4e3e 56d2 eabd 5c98 de3d
00000140: ae0a 813d bd36 08bc 3b53 87bd d8b5 013e
00000150: 8ec0 f63c a479 73bd 8440 4d3e 577c b0bd
00000160: 175b 393d b60a d5bd 27c3 f5bc 0662 bfbc
00000170: 7886 313e 8ba1 003e c21d 0dbe eaa9 8b3d
00000180: 95dc d4bc 322e 85bd e5fc 7f3d eb63 4abd
00000190: 50e7 91bd 2843 6b3d da28 ca3c 5cb5 c33d
000001a0: 9d52 f23d 981f 1a3e 60c7 b9ba 4bb7 633d
000001b0: 6bc3 f63b 0f34 363d 0c06 9a3d b07f 103b
000001c0: 8ede c3bd 484c 153d 7fab 1e3b f148 bc3d
000001d0: 4a82 743d f124 da3c dedb b3bb e628 32bd
000001e0: bce9 90bd d6f8 40be a023 b7bd ddf6 f7bc
000001f0: ca44 a13c 669c 133e b6d1 143e 7062 623d
00000200: ffb3 873d 10ca 7cbc 61f9 c3bd bdb3 b73d
00000210: 01f7 213d 858a a23d 3f17 0c3e 3fad 47be
00000220: 7ee9 b0bc 248a cb3d a78e 153e 39f7 d93c
00000230: e07d a2bd d84c a13d 90df 313d 9827 953d
00000240: 5428 e8bd f349 91bd 79dc d6bd eada 3abd
00000250: b1c4 103d 79ea 22bb 8d12 3e3d bfa1 1a3d
00000260: 27bf 5cbd 9a18 ab3c cfce 153e 29dc 1b3e
00000270: f976 a8bc 8154 52ba abb2 fcbd 3ea3 4ebe
00000280: 9711 f43c 5a3d 27be 9be0 73bc c06c 99bd
00000290: 644f 20be 1d25 fcbd 8787 a1bc a778 ff3d
000002a0: 2dba 24be b261 113d 722a 713e 979d 1bbd
000002b0: 5916 013e 23a3 15bd a1b3 05bd b0a2 65bb
000002c0: 6a92 2a3e 2ac2 153d 14d8 013c 0c82 5bbd
000002d0: 4c41 abbd a37f dabc 894e 023e 9aaa c1bd
000002e0: 3486 e43d 96f7 3c3e 4a80 503c 81e6 49bd
000002f0: 5c00 143d 6e6f 33be 0f39 cbbd cf6b fc3d
00000300: 31fa adbd cf5c b83c b6c9 303d 863e 5dbb
00000310: 401a ef3c 036e 56be 2fdb 1c3e 3b9d 8e3d
00000320: e677 e8bd 1e21 95bd 10b7 dcbd df12 82bd
00000330: 6e7c 123e 9f69 32bc 7ca9 953c b075 1c3e
00000340: fcf3 eebc 0802 9dbd b3eb 27be 8a27 60bc
00000350: 8add 45ba 3ba3 babb 2682 a2be bdd9 0cbd
00000360: 0042 d8bc 6d3a 873c e82a 693c 3383 70bd
00000370: d60e 343d 48bb 613c db50 193e 85ed bebd
00000380: 0d54 9bbc 51cd 8dbb 195c a63d f19a 0cbd
00000390: 5839 8e3c a1db 313d e857 283d eb6c 1bbd
000003a0: c45d 153e d690 a53c ca95 543d afd4 463c
000003b0: 3d75 773d 2db7 923d dea4 f43c 03a6 733d
000003c0: ef27 0ebe 644e 183e b603 01be 3c58 30bc
000003d0: 99ad d5bc 83eb 86bd d4f2 70bd 339a 9ebd
000003e0: 2325 7cbd d9f2 acbd dda1 c2bd 909c d2bc
000003f0: 5803 ac3b a712 84bb 02af 903d 8a48 5b3b

gconv1.0.W.bias f4 [140]
-0.06878207 -0.010610049 -0.008350169 -0.061730664 -0.107030466 0.07203054 0.047338262 -0.024289407
0.009004622 -0.052764867 -0.09906172 -0.03933881 0.05884227 -0.042849008 0.08370961 -0.08552365
0.009406452 -0.04108282 -0.0010458108 -0.08960633 -0.037480667 0.026348984 0.02443604 0.012169341
0.073009096 0.0019884156 0.001767877 -0.002732226 -0.042236317 -0.06681618 -0.03852105 0.05436764
-0.020097867 -0.078068495 0.030494573 -0.011086852 0.01990501 -0.08726779 0.036636624 -0.05509239
-0.12781882 -0.036311395 0.064668 -0.088436045 -0.009234004 -0.06683604 0.013471193 0.0020317028
-0.01310502 -0.006936586 0.08387229 -0.025764348 0.08116055 0.003449496 0.0004259402 -0.05954853
0.06742728 -0.088265724 -0.044971973 -0.06548198 0.0044966135 -0.021027442 0.038030457 -0.09453584
0.004705451 0.10054717 -0.05207031 -0.08252227 -0.015579885 -0.0020950302 0.047114056 0.09013301
0.068992846 0.0209198 0.06755307 0.04008407 -0.024311937 0.046634942 -0.09377441 0.01178306
-0.029152982 0.04369813 0.030212136 0.08540534 0.03166204 0.07973407 -0.030886265 0.010584088
0.06088375 -0.07599152 -0.03354577 -0.06906351 -0.0856898 0.060355976 0.03091737 0.009815506
-0.040939134 0.013658672 -0.017859807 0.04696158 0.10809997 -0.06994307 0.018945 0.005096901
0.075374104 0.06256579 0.024360279 -0.08427294 0.045787934 -0.015145911 -0.077664405 0.045193024
-0.08184044 0.009770686 -0.097091384 -0.03881513 -0.05722281 0.07417659 -0.052719947 -0.048637018
-0.025385708 -0.034603596 -0.023075147 -0.09418092 -0.06503269 0.019212857 -0.108801916 -0.09079086
0.063575014 -0.015643999 0.05318128 0.0758744 0.04228112 0.08197188 0.008303248 -0.014461666
-0.02535472 0.07821471 0.06826641 0.010855077
00000000: 9ddd 8cbd c5d5 2dbc 26cf 08bc 4bd9 7cbd
00000010: ca32 dbbd bf84 933d c4e5 413d 94fa c6bc
00000020: 1f88 133c f91f 58bd dfe0 cabd bb21 21bd
00000030: 9804 713d 7182 2fbd f26f ab3d 0627 afbd
00000040: 851d 1a3c 7646 28bd 9613 89ba 8683 b7bd
00000050: 5485 19bd d3d9 d73c 172e c83c ea61 473c
00000060: cb85 953d 1450 023b 1cb8 e73a 250f 33bb
00000070: fdff 2cbd ecd6 88bd 40c8 1dbd 9ab0 5e3d
00000080: 48a4 a4bc 60e2 9fbd c1cf f93c a1a5 35bc
00000090: d50f a33c 75b9 b2bd 4910 163d 8fa8 61bd
000000a0: f0e2 02be 42bb 14bd a870 843d f51d b5bd
000000b0: 384a 17bc 55e1 88bd 47b6 5c3c 5126 053b
000000c0: 70b6 56bc 4d4c e3bb 3cc5 ab3d c10f d3bc
000000d0: 8137 a63d f110 623b ba50 df39 29e9 73bd
000000e0: 5017 8a3d a9c4 b4bd 8834 38bd 6b1b 86bd
000000f0: 5458 933b be41 acbc d3c5 1b3d 029c c1bd
00000100: 2f30 9a3b adeb cd3d ad47 55bd 7001 a9bd
00000110: c642 7fbc c64c 09bb abfa 403d a897 b83d
00000120: 1f4c 8d3d 0060 ab3c 4459 8a3d 322f 243d
00000130: d429 c7bc 4804 3f3d cc0c c0bd bc0d 413c
00000140: 3cd2 eebc cffc 323d 717f f73c ffe8 ae3d
00000150: 0eb0 013d 9e4b a33d 3105 fdbc e268 2d3c
00000160: 3d61 793d 71a1 9bbd 4a67 09bd 2b71 8dbd
00000170: 227e afbd d437 773d 6d46 fd3c 37d1 203c
00000180: cbaf 27bd 9fc8 5f3c bb4e 92bc c95a 403d
00000190: 8463 dd3d 503e 8fbd 8b32 9b3c e803 a73b
000001a0: bd5d 9a3d 7e22 803d 358f c73c 4b97 acbd
000001b0: 218c 3b3d 8e26 78bc 840e 9fbd 521c 393d
000001c0: f69b a7bd 3a15 203c d9d7 c6bd 9dfc 1ebd
000001d0: 7762 6abd e5e9 973d dff0 57bd 9c37 47bd
000001e0: b0f5 cfbc 80bc 0dbd 1708 bdbc ede1 c0bd
000001f0: dc2f 85bd 4864 9d3c 8ad3 debd 8ff0 b9bd
00000200: 9e33 823d d827 80bc 9dd4 593d 0a64 9b3d
00000210: f82e 2d3d dfe0 a73d 590a 083c a0f0 6cbc
00000220: b4b4 cfbc 092f a03d 42cf 8b3d 7ed9 313c

gconv1.0.input_gate_u.weight f4 [1, 140]
0.18712685 0.020905282 0.15814272 0.06276872 -0.17476776 0.15251787 0.23261003 0.15380451
-0.07297197 0.18402386 0.020589273 0.052075222 0.12225188 -0.08012779 -0.17751719 -0.05033986
-0.07630964 -0.006517534 0.020592507 -0.014028523 -0.017796231 0.048073266 0.061534453 -0.020835726
0.09452042 0.043808077 -0.13064547 0.099540986 -0.0898014 0.14198421 -0.07315682 0.113764174
0.25938538 -0.11844511 0.11726849 -0.021488726 0.044497594 0.009061186 0.119226135 0.28040892
0.08681342 0.023437586 -0.12198266 -0.08146873 -0.089901164 0.07415721 0.10648327 -0.01978095
-0.06755902 -0.2096118 0.30009806 -0.008798557 -0.11323824 0.1505056 0.21950994 -0.102960154
0.122384965 0.09643928 -0.14720775 0.16957575 0.12743182 -0.16182823 0.06305362 0.048047703
-0.11243661 0.049935542 0.059147418 0.048986353 0.026457496 0.10464697 0.2153186 0.067274295
-0.061706547 -0.06224199 -0.121605396 0.13357991 0.04901822 0.12734403 0.024736166 0.14124432
0.085338704 0.27178037 -0.016106997 -0.1367094 -0.10108617 -0.16862425 0.08463517 -0.21894373
0.04484304 0.10120299 0.07264938 -0.24181733 0.13527882 0.15352836 -0.1331152 0.04607386
0.044223793 0.10889151 -0.020622708 -0.022958426 -0.066458836 0.1643578 0.23834078 0.008765825
-0.00067666377 -0.0795828 0.24997552 -0.12227176 0.08935786 0.022845516 0.11102547 0.08327688
0.29299536 0.027415235 -0.081505 0.097192094 0.10460053 -0.01257901 -0.056561727 0.17472194
-0.0699022 -0.025225142 0.190678 0.13315053 -0.07785419 0.07328375 0.06556523 0.048064522
0.1845997 0.07428153 0.07869063 -0.011760512 0.048972506 -0.012338262 0.16710135 -0.077790044
-0.15185414 0.08307272 0.06997308 0.21350095
00000000: 2e9e 3f3e 8e41 ab3c 2af0 213e e38c 803d
00000010: 52f6 32be a52d 1c3e 5331 6e3e ee7e 1d3e
00000020: 5472 95bd c070 3c3e d6aa a83c d44c 553d
00000030: 325f fa3d 0a1a a4bd 11c7 35be 2b31 4ebd
00000040: 3b48 9cbd 0a91 d5bb 9eb1 a83c e4d7 65bc
00000050: 67c9 91bc 79e8 443d 8d0b 7c3d afaf aabc
00000060: ec93 c13d 1970 333d edc7 05be 25dc cb3d
00000070: cce9 b7bd 4f64 113e 3ed3 95bd 31fd e83d
00000080: 29ce 843e 5a93 f2bd 762a f03d 2009 b0bc
00000090: 1c43 363d 5e75 143c d52c f43d c291 8f3e
000000a0: 3ccb b13d 2e00 c03c 0bd2 f9bd 14d9 a6bd
000000b0: 1a1e b8bd bcdf 973d e713 da3d a90b a2bc
000000c0: 625c 8abd 7aa4 56be 74a6 993e d327 10bc
000000d0: 73e9 e7bd 241e 1a3e 37c7 603e c6dc d2bd
000000e0: f8a4 fa3d f581 c53d a1bd 16be 44a5 2d3e
000000f0: 7d7d 023e 4db6 25be 4222 813d abcd 443d
00000100: 2a45 e6bd 3689 4c3d 9044 723d eaa5 483d
00000110: 64bd d83c 2751 d63d 7b7c 5c3e 1bc7 893d
00000120: 01c0 7cbd 75f1 7ebd 400c f9bd 2cc9 083e
00000130: 54c7 483d 7966 023e 80a3 ca3c 5aa2 103e
00000140: 0fc6 ae3d cc26 8b3e d2f2 83bc 8dfd 0bbe
00000150: 4406 cfbd d6ab 2cbe 3455 ad3d c932 60be
00000160: 56ad 373d 8343 cf3d 33c9 943d f69e 77be
00000170: 8886 0a3e 8a36 1d3e 5a4f 08be f2b7 3c3d
00000180: 0224 353d 8302 df3d f4f0 a8bc 4f13 bcbc
00000190: 921b 88bd 694d 283e 9b0f 743e 899e 0f3c
000001a0: 2362 31ba 4ffc a2bd 95f9 7f3e 9e69 fabd
000001b0: 4101 b73d 8526 bb3c 5261 e33d 128d aa3d
000001c0: 7d03 963e ea95 e03c 18ec a6bd a60c c73d
000001d0: cd38 d63d 3118 4ebc 45ad 67bd 4fea 323e
000001e0: e228 8fbd f5a4 cebc 1841 433e 9d58 083e
000001f0: 0472 9fbd ca15 963d 1047 863d 4edf 443d
00000200: b407 3d3e ea20 983d 8e28 a13d 2aaf 40bc
00000210: 6597 483d 6c26 4abc 9e1c 2b3e 6350 9fbd
00000220: a77f 1bbe 0822 aa3d 0c4e 8f3d fe9f 5a3e

gconv1.0.input_gate_w.weight f4 [1, 140]
0.0011076661 -0.082983136 0.12123664 0.13599853 0.21414277 -0.12691347 0.008818365 -0.018309396
0.19429453 -0.066483736 -0.1639198 -0.10788441 -0.1378923 -0.020672308 0.05002829 -0.011161825
0.08993126 0.25647175 -0.029394912 -0.25849915 -0.0014295017 0.0070137484 0.020801688 -0.0031933575
0.073736764 -0.06345912 0.2816796 0.039617844 0.09416496 0.018252341 -0.05640571 -0.009834137
0.046353605 -0.021651477 -0.0968622 0.114586316 0.20364039 -0.045752272 0.13023612 -0.0075935167
0.0325057 0.20055456 -0.25133997 -0.22380352 -0.036719125 0.033447374 0.21467108 0.047450166
-0.20078203 0.044432048 0.04532601 -0.018820612 -0.058871012 0.00087793043 -0.025632381 -0.19326387
0.014257993 -0.0907857 0.18259628 -0.14527194 -0.13617902 -0.018332008 -0.047896367 -0.06552779
-0.15225473 -0.079927236 -0.26114804 0.1977797 0.16225697 0.0479665 0.12572439 -0.103664115
0.21509764 -0.06975016 0.06895248 0.045561783 -0.08363246 0.12070815 0.16561224 -0.032397345
0.14886895 -0.02432054 -0.01472066 -0.070360996 0.18944038 0.05403473 -0.14306688 -0.19202779
-0.12795658 0.1653077 -0.06497726 -0.11541941 -0.0013862642 -0.06979803 0.23426932 0.024475792
0.18756172 -0.07466353 0.17009856 -0.07938847 -0.10602964 -0.24418755 0.26181167 0.08183031
-0.047111187 0.07757053 0.022044715 -0.15461469 -0.10178611 0.056839637 0.11633896 0.17260583
0.16994035 0.0726984 -0.06817437 0.31798136 0.042346947 0.13894257 -0.025960226 0.04626851
0.044196382 -0.18077788 -0.13150442 0.12383438 0.058360904 0.10688706 0.05224979 0.034289807
0.07499598 -0.04415606 0.06781412 0.14053443 -0.005806177 0.15657467 -0.19808821 -0.2177639
0.02796641 -0.030500948 -0.07779235 -0.08265929
00000000: 1b2f 913a 10f3 a9bd ea4a f83d 3343 0b3e
00000010: 3e48 5b3e 9bf5 01be e77a 103c 96fd 95bc
00000020: 25f5 463e a028 88bd 98da 27be 80f2 dcbd
00000030: a433 0dbe f958 a9bc 77ea 4c3d 16e0 36bc
00000040: e12d b83d 4450 833e 99cd f0bc 005a 84be
00000050: 1e5e bbba 96d3 e53b 4d68 aa3c a647 51bb
00000060: 4d03 973d dbf6 81bd 4f38 903e 5246 223d
00000070: 8fd9 c03d ef85 953c ac09 67bd 5c1f 21bc
00000080: 47dd 3d3d 705e b1bc b05f c6bd 3bac ea3d
00000090: 1b87 503e bc66 3bbd 9e5c 053e 09d3 f8bb
000000a0: b224 053d 2d5e 4d3e a2af 80be c02c 65be
000000b0: cb66 16bd 1d00 093d bcd2 5b3e 1b5b 423d
000000c0: ce99 4dbe 61fe 353d c4a7 393d af2d 9abc
000000d0: bb22 71bd ea24 663a 00fb d1bc f7e6 45be
000000e0: 5b9a 693c daed b9bd 85fa 3a3e 2bc2 14be
000000f0: 8372 0bbe 022d 96bc fb2e 44bd 6f33 86bd
00000100: aae8 1bbe e4b0 a3bd 32b5 85be c386 4a3e
00000110: b126 263e 8578 443d e5bd 003e da4d d4bd
00000120: 8e42 5c3e 2cd9 8ebd f536 8d3d fe9e 3a3d
00000130: 7f47 abbd d635 f73d 4196 293e 14b3 04bd
00000140: 1a71 183e de3b c7bc ec2e 71bc 6d19 90bd
00000150: a9fc 413e 8553 5d3d 2080 12be efa2 44be
00000160: 0d07 03be 6c46 293e cc12 85bd 0361 ecbd
00000170: 4fb3 b5ba 45f2 8ebd 4ce4 6f3e 7581 c83c
00000180: 2e10 403e 31e9 98bd 512e 2e3e 6c96 a2bd
00000190: 1126 d9bd 4d0c 7abe 2e0c 863e a696 a73d
000001a0: a9f7 40bd 4cdd 9e3d 1e97 b43c 5053 1ebe
000001b0: 3c75 d0bd aed0 683d 1f43 ee3d 95bf 303e
000001c0: d804 2e3e e6e2 943d 019f 8bbd 74ce a23e
000001d0: fe73 2d3d f646 0e3e 8aaa d4bc 0d84 3d3d
000001e0: 4407 353d d61d 39be 18a9 06be e19c fd3d
000001f0: d80b 6f3d 9ae7 da3d e003 563d 7873 0c3d
00000200: 7e97 993d fcdc 34bd 21e2 8a3d 42e8 0f3e
00000210: be41 bebb 1c55 203e a3d7 4abe 80fd 5ebe
00000220: d019 e53c 20dd f9bc 9851 9fbd 4649 a9bd

gconv1.0.forget_gate_u.weight f4 [1, 140]
0.34385377 0.104318894 -0.12451136 0.012343058 0.061932962 -0.018243063 -0.1311009 0.14224143
-0.13943568 -0.24935493 0.050020926 0.32503024 -0.37234664 0.24819155 -0.2928847 -0.106609456
0.03613266 -0.2026677 0.05231973 0.17356232 -0.1123167 0.042528104 -0.05863195 -0.014404075
-0.02417634 0.009186182 0.036306612 0.13361305 0.070011735 0.0929899 -0.12226143 0.09968186
0.03271778 -0.012339992 0.05441421 0.2537512 -0.11368835 0.23876666 0.107744165 0.06629769
-0.22046429 -0.0004923269 0.010304948 -0.1290001 -0.10584257 -0.16412234 -0.06425922 0.21554822
0.19551657 -0.22718143 0.061702643 0.055956148 0.13894093 0.052438714 -0.2325401 -0.040970664
-0.016549129 0.0329089 -0.26059166 0.07690147 0.0804254 -0.06721951 -0.20914288 0.044374723
-0.013846525 0.026806315 0.02579256 -0.10250151 0.0009790836 -0.055950668 -0.07649568 -0.062384874
-0.15474626 -0.09182871 -0.2017719 -0.048960622 0.0023406795 0.12820569 0.11310392 -0.22429742
0.09474303 -0.19761774 0.073471256 0.03000727 -0.037457354 0.08298549 -0.08237394 0.019502131
-0.14402308 0.07364979 0.11479799 -0.23593804 0.16035676 -0.0533142 0.04065251 0.17296024
0.042716425 -0.086025774 0.066508055 0.04550784 0.06917106 -0.020648973 0.18418315 -0.12174403
-0.022720836 -0.010281064 0.050865237 0.0027617714 -0.06825528 -0.049654856 0.0124309175 -0.0902396
0.024171928 0.07765664 0.11129222 0.0689859 0.32971707 0.051596463 0.047459327 -0.2295077
0.0402797 -0.40397367 -0.0871725 0.16561216 -0.16616909 0.21622573 -0.06851125 0.036801074
0.089550056 -0.08794105 0.07055542 0.24837111 0.19277115 -0.022845188 0.05831201 -0.21288544
-0.115265615 -0.15031955 -0.050649904 0.06286829
00000000: 9a0d b03e 25a5 d53d d0ff febd 8a3a 4a3c
00000010: 6bad 7d3d 7a72 95bc 503f 06be bda7 113e
00000020: 3ac8 0ebe e656 7fbe bee2 4c3d 5d6a a63e
00000030: 38a4 bebe ed25 7e3e fcf4 95be 0f56 dabd
00000040: d7ff 133d 1f88 4fbe 374d 563d 52ba 313e
00000050: 4c06 e6bd f331 2e3d 0e28 70bd 12ff 6bbc
00000060: 760d c6bc a481 163c 3eb6 143d dcd1 083e
00000070: 5062 8f3d 7d71 be3d 3364 fabd 0126 cc3d
00000080: 1403 063d ae2d 4abc 6fe1 5e3d adeb 813e
00000090: 70d5 e8bd 3f7f 743e f9a8 dc3d 15c7 873d
000000a0: 64c1 61be 800f 01ba 16d6 283c 9a18 04be
000000b0: fdc3 d8bd b00f 28be 579a 83bd acb8 5c3e
000000c0: 7f35 483e 40a2 68be e9bb 7c3d 4632 653d
000000d0: 8846 0e3e fac9 563d fe1e 6ebe dbd0 27bd
000000e0: 0a92 87bc 7ccb 063d 456c 85be 857e 9d3d
000000f0: 12b6 a43d 62aa 89bd 8d29 56be 45c2 353d
00000100: 89dc 62bc eb98 db3c eb4a d33c 50ec d1bd
00000110: 9854 803a 872c 65bd c4a9 9cbd 4887 7fbd
00000120: ce75 1ebe b110 bcbd 4b9d 4ebe ef8a 48bd
00000130: 1666 193b 5a48 033e 07a3 e73d 39ae 65be
00000140: a208 c23d 4e5c 4abe 1978 963d ced1 f53c
00000150: e26c 19bd 4cf4 a93d abb3 a8bd efc2 9f3c
00000160: c97a 13be b3d5 963d 351b eb3d be99 71be
00000170: 9034 243e fe5f 5abd 3f83 263d 7d1c 313e
00000180: 6bf7 2e3d 482e b0bd 6035 883d 6e66 3a3d
00000190: 8fa9 8d3d 0928 a9bc 829a 3c3e ef54 f9bd
000001a0: 0c21 babc e871 28bc 1158 503d d6fe 343b
000001b0: 6dc9 8bbd e462 4bbd 0cab 4b3c 8acf b8bd
000001c0: 3504 c63c 720a 9f3d 2ded e33d 7b48 8d3d
000001d0: add0 a83e d056 533d b664 423d 1104 6bbe
000001e0: 54fc 243d a3d5 cebe 7f87 b2bd 3c96 293e
000001f0: 3b28 2abe 476a 5d3e a04f 8cbd b9bc 163d
00000200: 0566 b73d 701a b4bd 5c7f 903d ff54 7e3e
00000210: cd65 453e d525 bbbc 93d8 6e3d a4fe 59be
00000220: 6110 ecbd 5eed 19be 4676 4fbd 17c1 803d

gconv1.0.forget_gate_w.weight f4 [1, 140]
-0.0152953155 0.0959094 0.21290664 0.05174714 0.018449973 -0.11550562 -0.0885881 0.1937945
0.16489507 -0.07349041 -0.15213968 0.014476002 -0.065289855 -0.06931143 -0.07676993 -0.018032387
0.11077619 0.012596573 0.16706048 0.020711843 0.16657831 0.040635288 0.22367606 0.12970102
0.045242745 -0.0022134292 0.06859525 -0.18837266 -0.037033416 0.090784684 -0.04158386 -0.15309526
0.029536353 0.11069055 0.17452405 0.13640082 0.06807725 0.13683145 -0.006033401 0.19145547
0.16319616 -0.12134394 0.06929883 0.2250756 0.120797426 -0.062725954 -0.031463742 0.004775151
-0.042000424 0.0593499 0.1350673 -0.02136525 -0.052409895 0.057972196 -0.09947913 0.09305279
-0.059942342 0.2592057 0.026631951 0.11641176 -0.082765415 -0.05681597 0.09217941 0.024773985
-0.109007254 0.0074028163 0.054009948 -0.24214517 -0.0016257588 -0.25229627 0.00840933 0.023070484
-0.1576674 -0.13833843 0.017571613 -0.0034865928 -0.16395466 0.1841356 0.011579395 0.06677602
-0.08147289 0.2258975 -0.0024864636 -0.095888875 0.100562215 -0.19427739 -0.099394195 0.0016358972
0.09939751 0.074295245 -0.050903127 -0.18949465 -0.10823098 -0.020761482 -0.13049011 -0.13577124
0.053645156 0.23365767 0.112960614 0.068055674 0.0655727 0.09096126 0.1419206 0.06200423
-0.046404667 0.1355656 0.009711322 -0.19559209 -0.16836786 -0.14645217 0.113132074 0.075669356
-0.09248398 -0.2587274 0.043417007 -0.10233541 0.08998195 0.065175086 0.07401961 -0.073284
0.02267283 0.022421315 0.07619525 -0.15582736 -0.09437093 -0.028411644 0.019320386 0.03979976
-0.21592118 -0.35555008 0.02127384 -0.14043833 -0.09256217 -0.031093337 -0.056324545 -0.061591476
0.033308268 0.12300618 0.18945381 0.032407913
00000000: 3499 7abc 266c c43d 3304 5a3e cff4 533d
00000010: 6624 973c 368e ecbd ae6d b5bd 1172 463e
00000020: 41da 283e 2482 96bd 81ca 1bbe c12c 6d3c
00000030: b0b6 85bd 27f3 8dbd 8e39 9dbd a8b8 93bc
00000040: a1de e23d db61 4e3c e711 2b3e e2ab a93c
00000050: 8193 2a3e 3071 263d 560b 653e 58d0 043e
00000060: 7550 393d 2e0f 11bb ab7b 8c3d c3e4 40be
00000070: 5ab0 17bd 52ed b93d d653 2abd 01c5 1cbe
00000080: 39f6 f13c bab1 e23d 6fb6 323e a8ac 0b3e
00000090: 166c 8b3d 8b1d 0c3e d6b3 c5bb e70c 443e
000000a0: e51c 273e 2c83 f8bd 8cec 8d3d 387a 663e
000000b0: a464 f73d 7776 80bd 20e0 00bd df78 9c3b
000000c0: a308 2cbd e118 733d 154f 0a3e 2d06 afbc
000000d0: c2ab 56bd 4174 6d3d b7bb cbbd 7692 be3d
000000e0: 1a86 75bd 9cb6 843e 402b da3c 4a69 ee3d
000000f0: ea80 a9bd ddb7 68bd 8fc8 bc3d d0f2 ca3c
00000100: 323f dfbd 5393 f23b 8939 5d3d e7f4 77be
00000110: 6a17 d5ba fa2c 81be 49c7 093c 50fe bc3c
00000120: 9073 21be 97a8 0dbe 58f2 8f3c 527f 64bb
00000130: bbe3 27be 0b8e 3c3e 81b7 3d3c dec1 883d
00000140: 42db a6bd ad51 673e f0f3 22bb 6361 c4bd
00000150: 90f3 cd3d a7f0 46be 2f8f cbbd 9a6b d63a
00000160: ec90 cb3d 1b28 983d cc7f 50bd e30a 42be
00000170: 34a8 ddbd fc13 aabc 339f 05be 9e07 0bbe
00000180: 06bb 5b3d f543 6f3e e557 e73d c660 8b3d
00000190: fb4a 863d e649 ba3d a253 113e 26f8 7d3d
000001a0: d212 3ebd b5d1 0a3e 3d1c 1f3c 4b49 48be
000001b0: a068 2cbe 8ff7 15be cab1 e73d 89f8 9a3d
000001c0: 3e68 bdbd eb77 84be 08d6 313d 3a95 d1bd
000001d0: 7548 b83d 847a 853d 9897 973d ec15 96bd
000001e0: 5fbc b93c e8ac b73c 410c 9c3d 3591 1fbe
000001f0: 8c45 c1bd 89bf e8bc c945 9e3c 1305 233d
00000200: 711a 5dbe a90a b6be 7a46 ae3c 11cf 0fbe
00000210: 3c91 bdbd 74b7 febc 91b4 66bd 5847 7cbd
00000220: 406e 083d aaea fb3d 2e00 423e 29be 043d

gconv1.0.output_gate_u.weight f4 [1, 140]
0.08846899 0.22723722 0.13484553 0.15038322 -0.112327136 0.013448392 0.087423384 0.02807547
-0.08328166 -0.034037665 -0.07317784 0.13753414 -0.060748298 0.10335305 0.115153834 -0.016691362
0.057077337 -0.17556114 0.026160525 -0.0147187505 0.10485347 -0.23231168 -0.04032369 0.03618577
-0.12717159 -0.004636928 0.06313544 -0.17912497 0.2426557 -0.06471067 0.18018627 -0.023943145
-0.013626937 0.20581149 0.023311714 -0.08025439 0.05428839 0.13682419 -0.0733884 0.09075353
-0.051648825 0.046512406 -0.1408303 0.11662031 0.19623555 -0.05717926 0.012736563 -0.099015124
0.12033175 -0.11813714 -0.12403625 0.16612852 -0.047486987 0.070016585 0.15271178 0.013892157
-0.03715102 0.25541964 -0.050621722 -0.09394045 -0.016155964 -0.13882338 0.03905174 -0.017915536
-0.051391494 -0.22461991 -0.017088694 0.21346799 -0.09161877 0.058517016 0.054210585 0.06921499
-0.13382606 -0.18420908 0.12862615 0.07003057 0.21097901 0.18471912 0.06661053 0.09981336
0.08232045 0.06638687 -0.09228959 0.11447083 0.22366245 0.07061978 0.021466877 -0.3110115
0.16466412 -0.30270803 -0.07051601 -0.15597717 0.001728524 0.057484128 -0.10388225 0.016665084
0.20833102 0.21730618 0.0707437 0.16897804 0.034965623 0.22047713 0.09727653 -0.13601443
-0.14680873 -0.045381594 -0.107466586 -0.22698985 -0.027644403 0.019046692 0.043722495 -0.046513047
-0.046338152 -0.053484473 -0.049549326 -0.04056292 0.16795911 0.07138657 0.004492947 0.25080112
-0.20091583 0.021657908 -0.30299428 -0.25766125 -0.06525658 0.1856473 0.15406927 0.19479991
0.07264893 -0.12405157 0.1352063 0.010140734 0.16473082 0.11134791 0.009209138 -0.058828164
0.16693929 -0.14220242 -0.076872475 0.095741756
00000000: 3b2f b53d e0b0 683e f214 0a3e 0ffe 193e
00000010: c50b e6bd a556 5c3c 080b b33d 87fe e53c
00000020: 938f aabd 146b 0bbd 43de 95bd c0d5 0c3e
00000030: 35d3 78bd c4aa d33d c6d5 eb3d 53bc 88bc
00000040: edc9 693d 4dc6 33be 994e d63c ea26 71bc
00000050: 6bbd d63d 1de3 6dbe 742a 25bd 8837 143d
00000060: 4539 02be 5ff1 97bb 274d 813d 896c 37be
00000070: bc7a 783e 0787 84bd c082 383e 6a24 c4bc
00000080: 8443 5fbc 3fc0 523e 35f8 be3c 6a5c a4bd
00000090: 815d 5e3d a41b 0c3e a84c 96bd fddc b93d
000000a0: b88d 53bd cb83 3e3d d135 10be a1d6 ee3d
000000b0: f9f1 483e cd34 6abd 04ad 503c 71c8 cabd
000000c0: 7e70 f63d e3f1 f1bd b806 febd 981d 2a3e
000000d0: b781 42bd db64 8f3d 7a60 1c3e ee9b 633c
000000e0: ab2b 18bd 5dc6 823e b958 4fbd da63 c0bd
000000f0: 8359 84bc b727 0ebe b8f4 1f3d 9ac3 92bc
00000100: e37f 52bd c302 66be 97fd 8bbc 5a97 5a3e
00000110: 9fa2 bbbd 8aaf 6f3d eb0b 5e3d 97c0 8d3d
00000120: b309 09be 4ea1 3cbe 93b6 033e 306c 8f3d
00000130: e20a 583e 0227 3d3e 1a6b 883d f26a cc3d
00000140: a097 a83d d7f5 873d 5302 bdbd af6f ea3d
00000150: c507 653e 1aa1 903d 4edb af3c e63c 9fbe
00000160: b69d 283e 8cfc 9abe b36a 90bd 7bb8 1fbe
00000170: a48f e23a 7a74 6b3d 38c0 d4bd 3785 883c
00000180: ba54 553e 8385 5e3e 13e2 903d 9408 2d3e
00000190: 1d38 0f3d c2c4 613e eb38 c73d 5e47 0bbe
000001a0: 0755 16be 0de2 39bd 7117 dcbd 0770 68be
000001b0: 8476 e2bc cf07 9c3c 5c16 333d 7784 3ebd
000001c0: 13cd 3dbd 8912 5bbd 3cf4 4abd 4e25 26bd
000001d0: 79fd 2b3e 1f33 923d 9239 933b 0169 803e
000001e0: e1bc 4dbe ed6b b13c 1122 9bbe 2dec 83be
000001f0: 3ea5 85bd 531a 3e3e 56c4 1d3e a179 473e
00000200: f6c8 943d c00e febd 8573 0a3e 5225 263c
00000210: 32af 283e 5f0a e43d ede1 163c cdf5 70bd
00000220: 22f2 2a3e 839d 11be 516f 9dbd 4114 c43d

gconv1.0.output_gate_w.weight f4 [1, 140]
0.05904459 0.16103378 0.15788732 0.1445524 -0.05504724 0.047600526 0.023749534 -0.07449841
-0.071542114 -0.034199752 -0.05908977 -0.008695126 0.0613541 0.09952756 0.057605095 -0.045658085
-0.086345464 -0.19286603 -0.035001084 0.10833377 -0.2084547 0.21172892 0.060914073 -0.053069636
0.12062447 0.14874586 -0.018313475 0.17158675 -0.076517686 -0.06498912 -0.19887194 -0.17814882
0.1292782 -0.101884544 0.02183289 -0.10979949 -0.23088108 -0.05418692 -0.115897395 -0.052772366
0.14104934 0.07595795 -0.027496252 -0.03788858 0.042361267 0.041526683 -0.0555705 0.08409387
0.015707297 -0.08276851 0.04905218 0.005086775 -0.08791086 0.066303276 0.037868135 0.19377728
-0.10999321 -0.04226934 -0.034706976 0.3181488 -0.01638259 -0.034049552 -0.09839838 0.08293662
-0.13698453 -0.25093383 0.04751878 -0.14131199 -0.1896223 -0.2198096 0.061339155 -0.11691958
-0.062406316 0.025191015 -0.024686024 -0.07380176 0.085910514 0.03566576 0.028789638 0.06253283
0.1062088 0.1475211 0.17170207 -0.02844828 0.13677326 0.07523942 0.09147009 0.024319686
0.025837488 0.028439436 -0.13797727 -0.024866568 0.07344475 0.15232824 0.011585243 -0.0449035
0.0004493685 -0.41049722 0.25392434 0.046497237 -0.014028772 -0.093795784 -0.060225572 0.06695136
-0.08521561 0.13701388 0.13845558 -0.025843566 -0.039222028 0.28057313 0.013508316 -0.034158614
-0.27634212 0.010293538 -0.16860414 0.08828723 0.107886635 -0.054046314 -0.025944332 -0.09911585
-0.04204943 -0.08750948 -0.08334268 -0.065444194 0.03227795 -0.20591125 -0.15835416 0.05125179
-0.14264189 0.19284773 0.10320171 0.2778982 -0.13562469 -0.11609574 0.16851033 -0.03525146
0.17327003 0.063505456 -0.048262365 -0.015788555
00000000: bdd8 713d 0ae6 243e 37ad 213e 8b05 143e
00000010: 3779 61bd c5f8 423d 628e c23c 9f92 98bd
00000020: ac84 92bd 0a15 0cbd 1d08 72bd 0076 0ebc
00000030: 704e 7b3d 1bd5 cb3d 52f3 6b3d f903 3bbd
00000040: e4d5 b0bd ac7e 45be 4c5d 0fbd 18de dd3d
00000050: 2675 55be 77cf 583e 0981 793d 8c5f 59bd
00000060: f609 f73d d650 183e 2406 96bc 70b4 2f3e
00000070: 4eb5 9cbd 0419 85bd 16a5 4bbe a56c 36be
00000080: 8161 043e d8a8 d0bd e4da b23c 8ede e0bd
00000090: 176c 6cbe 1bf3 5dbd 9d5b edbd d627 58bd
000000a0: 3d6f 103e d78f 9b3d d23f e1bc 0e31 1bbd
000000b0: 0283 2d3d e217 2a3d e59d 63bd 6839 ac3d
000000c0: 97ac 803c 8982 a9bd f0ea 483d f6ae a63b
000000d0: 9c0a b4bd 03ca 873d 9e1b 1b3d 8d6d 463e
000000e0: 1f44 e1bd 9e22 2dbd e728 0ebd 66e4 a23e
000000f0: c834 86bc 8b77 0bbd 1785 c9bd adda a93d
00000100: ac45 0cbe 667a 80be 0da3 423d 17b4 10be
00000110: 592c 42be c515 61be c43e 7b3d 8873 efbd
00000120: c49d 7fbd 635d ce3c 583a cabc 6125 97bd
00000130: daf1 af3d 4316 123d 3fd8 eb3c 3611 803d
00000140: 0084 d93d c50f 173e abd2 2f3e 5e0c e9bc
00000150: 4a0e 0c3e 2017 9a3d ac54 bb3d 143a c73c
00000160: 24a9 d33c d2f9 e83c ea49 0dbe f9b4 cbbc
00000170: 336a 963d effb 1b3e 08d0 3d3c bbec 37bd
00000180: 3899 eb39 b12c d2be 5f02 823e e373 3e3d
00000190: efd8 65bc 0118 c0bd 17af 76bd cb1d 893d
000001a0: 8685 aebd 5e4d 0c3e 4dc7 0d3e e3b5 d3bc
000001b0: 47a7 20bd 48a7 8f3e fc51 5d3c e7e9 0bbd
000001c0: b77c 8dbe 3aa6 283c 90a6 2cbe efcf b43d
000001d0: abf3 dc3d ab5f 5dbd 3589 d4bc 40fd cabd
000001e0: 063c 2cbd 2c38 b3bd 91af aabd 9b07 86bd
000001f0: e235 043d 66da 52be 9827 22be 66ed 513d
00000200: b710 12be e079 453e 6b5b d33d ac48 8e3e
00000210: 33e1 0abe 9ac3 edbd f98d 2c3e d663 10bd
00000220: b36d 313e 260f 823d c2ae 45bd 0057 81bc

gconv1.1.A f4 [140, 140]
0.015336753 0.07360378 0.20274076 0.07196805 0.061312795 0.019535871 -0.045053907 0.07369097
-0.09397883 -0.06864441 0.052172203 0.057000987 0.12520857 -0.18613602 -0.06681942 -0.1060936
0.012014477 -0.0066851266 0.026186077 0.10170361 -0.047087207 -0.10991784 0.04996523 -0.0048276857
0.14984977 -0.089568846 0.15010042 0.07777767 0.1931208 -0.15685658 -0.059191972 -0.02031331
-0.03330516 0.08413096 0.076483175 -0.16923815 -0.024585836 0.00810315 0.036242045 0.017382497
0.11089076 0.09814031 -0.03326086 -0.16386607 -0.005032946 -0.20837958 -0.021959046 -0.12779744
-0.05592608 0.09964471 -0.014671881 -0.03541328 -0.032896034 0.09971606 -0.0042731944 0.146727
0.04930674 -0.0659281 0.17422232 0.00019432737 -0.03645133 -0.108469754 -0.030373992 0.15723789
-0.16178967 -0.046111528 0.14756002 0.090645395 -0.010118516 0.11039432 -0.0137718795 0.1455382
-0.013495322 0.087874524 -0.04927948 0.11058568 -0.0071659395 -0.15958966 -0.0073309485 0.08235387
-0.020142404 -0.01576147 -0.059391104 -0.13149172 -0.009516605 -0.08396735 0.07206931 -0.034876414
-0.1111807 -0.01331492 0.23366778 0.10647218 -0.043231424 -0.13881485 0.05541422 0.038496636
-0.05879313 0.018193109 -0.0031465127 0.114968926 0.052150566 -0.08876901 0.087964624 0.04131422
-0.029629901 0.15603286 0.098615944 0.04736559 0.10009586 0.11079569 -0.22798666 0.048311476
-0.044650014 -0.06517054 -0.015054259 -0.0024539572 -0.21332507 -0.1825949 -0.09474554 -0.07773151
0.035047386 -0.10398002 0.0056715105 0.07068606 -0.25146088 -0.17187366 0.0074934065 0.017449485
-0.003925678 0.08437067 0.07955779 -0.064178586 0.22128727 0.029249592 -0.066558525 0.24904893
0.011721639 0.10201317 -0.0870816 0.14809336 0.07685745 -0.0653358 0.00042178482 0.06394879
-0.116894856 0.09269436 -0.110618405 -0.051795803 0.14243412 -0.053456713 0.042954504 -0.089784496
-0.033139247 0.028442482 -0.073823676 -0.080897674 -0.043627933 -0.111333735 0.11772275 0.15373461
0.03174361 0.018140906 0.0033171286 0.033469994 0.0048570214 -0.029645542 -0.08210449 0.20180008
-0.17587799 -0.07964705 0.09018345 -0.024658296 0.08024052 0.13297194 -0.1025619 -0.020143168
0.11744663 -0.055676077 -0.069139436 -0.048478827 0.06348678 0.06106982 -0.021620678 -0.06467055
0.1057171 -0.07458467 -0.046745755 -0.013733879 0.015872965 -0.02229005 -0.09213896 0.026670257
-0.11426237 0.0036191123 0.10917717 0.067887396 -0.11904517 -0.028284041 0.13702242 0.07503521
-0.03629656 -0.010454448 0.12036064 -0.08584384 0.10404227 0.045295555 0.09704653 -0.049377184
0.0472499 0.053977523 0.0965419 0.020690093 0.038348254 -0.020303393 -0.087447695 -0.005765352
-0.08957309 0.23906857 -0.05795038 0.068998694 0.140742 0.0547616 -0.027983276 0.17242295
0.009171597 0.016398748 -0.006832941 0.07042264 0.08187388 0.059386823 0.14307041 -0.04224968
0.019016195 0.05492495 -0.14369844 0.09558951 0.07628898 -0.06914469 0.02554604 -0.03589701
-0.117769554 0.023048503 0.17459542 -0.14278775 -0.026212508 0.026123233 0.22487785 0.09737581
-0.13621078 -0.0449605 -0.08401369 0.09987815 -0.14341009 0.028526388 -0.15184624 -0.03508261
00000000: 0147 7b3c 94bd 963d 469b 4f3e fc63 933d
00000010: 2023 7b3d b109 a03c 728a 38bd 4beb 963d
00000020: f977 c0bd 7195 8cbd 85b2 553d de79 693d
00000030: ad36 003e 719a 3ebe 9fd8 88bd 9a47 d9bd
00000040: 5ed8 443c e80e dbbb 2f84 d63c fb49 d03d
00000050: 84de 40bd 9b1c e1bd 57a8 4c3d 9031 9ebb
00000060: 3872 193e df6f b7bd edb3 193e e649 9f3d
00000070: 76c1 453e 039f 20be 4873 72bd 1968 a6bc
00000080: fe6a 08bd da4c ac3d 36a3 9c3d c44c 2dbe
00000090: 3c68 c9bc 13c3 043c 8a72 143d bd65 8e3c
000000a0: b21a e33d c9fd c83d 8a3c 08bd 82cc 27be
000000b0: 69eb a4bb 7561 55be 75e3 b3bc 55dd 02be
000000c0: bf12 65bd 8712 cc3d 5462 70bc 840d 11bd
000000d0: febd 06bd ef37 cc3d 2706 8cbb 9a3f 163e
000000e0: ddf5 493d 5005 87bd 5667 323e 5bc4 4b39
000000f0: fd4d 15bd 6425 debd e1d2 f8bc f802 213e
00000100: 31ac 25be 71df 3cbd f919 173e 4ba4 b93d
00000110: 22c8 25bc 6b16 e23d 73a3 61bc f707 153e
00000120: 7c1b 5dbc 8ff7 b33d 48d9 49bd bf7a e23d
00000130: 42d0 eabb 796b 23be 7438 f0bb 25a9 a83d
00000140: af01 a5bc 331e 81bc 1644 73bd c4a5 06be
00000150: 89eb 1bbc 13f7 abbd 1399 933d 92da 0ebd
00000160: b5b2 e3bd d226 5abc 9b46 6f3e 160e da3d
00000170: 6f13 31bd 7b25 0ebe 05fa 623d a6ae 1d3d
00000180: 11d1 70bd b709 953c b935 4ebb d474 eb3d
00000190: d59b 553d 87cc b5bd cc26 b43d 1939 293d
000001a0: 68ba f2bc 14c7 1f3e 28f7 c93d 6c02 423d
000001b0: 0fff cc3d dae8 e23d 5675 69be 41e2 453d
000001c0: efe2 36bd 2278 85bd 24a6 76bc 92d2 20bb
000001d0: e371 5abe 28fa 3abe f309 c2bd b331 9fbd
000001e0: d98d 0f3d 7af3 d4bd 14d8 b93b dac3 903d
000001f0: 7bbf 80be a6ff 2fbe 408b f53b 39f2 8e3c
00000200: f9a2 80bb 88ca ac3d 32ef a23d 1070 83bd
00000210: 2199 623e d79c ef3c d64f 88bd af06 7f3e
00000220: 1e0c 403c 48ec d03d d757 b2bd c9a5 173e
00000230: 7067 9d3d c7ce 85bd 0023 dd39 95f7 823d
00000240: 9266 efbd 8ad6 bd3d e78b e2bd d627 54bd
00000250: 40da 113e 6df5 5abd 10f1 2f3d efe0 b7bd
00000260: 05bd 07bd 3500 e93c de30 97bd aead a5bd
00000270: 34b3 32bd f102 e4bd a018 f13d 9b6c 1d3e
00000280: 9605 023d 3d9c 943c 2f64 593b d517 093d
00000290: a627 9f3b 35db f2bc 6626 a8bd aea4 4e3e
000002a0: 5c19 34be fe1d a3bd 1ab2 b83d 3200 cabc
000002b0: 2455 a43d cc29 083e f90b d2bd 4903 a5bc
000002c0: dc87 f03d 990c 64bd fa98 8dbd bc91 46bd
000002d0: 5b05 823d 5924 7a3d d91d b1bc fe71 84bd
000002e0: 3582 d83d d9bf 98bd 7a78 3fbd 1004 61bc
000002f0: 0508 823c 9f99 b6bc 5ab3 bcbd 957b da3c
00000300: 6402 eabd a12e 6d3b 4898 df3d 8c08 8b3d
00000310: f4cd f3bd efb3 e7bc 9b4f 0c3e 0fac 993d
00000320: b4ab 14bd 2249 2bbc a47f f63d e5ce afbd
00000330: 1d14 d53d d587 393d 55c0 c63d bb3f 4abd
00000340: 1c89 413d 8917 5d3d c2b7 c53d 457e a93c
00000350: 0f13 1d3d 4d53 a6bc c717 b3bd 47eb bcbb
00000360: 1972 b7bd 64ce 743e 615d 6dbd 304f 8d3d
00000370: ac1e 103e b34d 603d 2f3d e5bc a48f 303e
00000380: 7744 163c ab56 863c dde6 dfbb bf39 903d
00000390: 7ead a73d 993f 733d 0d81 123e 000e 2dbd
000003a0: dac7 9b3c fcf8 603d af25 13be 6fc4 c33d
000003b0: 663d 9c3d bb9b 8dbd ee45 d13c be08 13bd
000003c0: 2a31 f1bd 37d0 bc3c 24c9 323e f436 12be
000003d0: 9dbb d6bc 6400 d63c 6146 663e f86c c73d
000003e0: d77a 0bbe 8028 38bd 5f0f acbd ea8c cc3d
000003f0: 18da 12be 2cb0 e93c 957d 1bbe c8b2 0fbd

gconv1.1.W.weight f4 [140, 140]
0.0025118624 -0.3358449 -0.0869255 -0.10758316 0.08980797 -0.029622478 0.04489687 0.15115686
-0.06672421 0.06759132 -0.19215836 -0.052101582 -0.042403948 -0.081730776 -0.07472496 -0.074060835
-0.09868253 -0.11252227 -0.0798457 0.027683195 -0.056753058 0.037982706 -0.10089605 0.21376318
-0.12476881 0.0149861695 -0.062403083 0.018992586 0.06909272 -0.19883293 -0.04404866 -0.013232033
0.026165226 -0.15216163 -0.0924827 -0.049007643 -0.07150971 -0.07062138 -0.10728859 -0.029587973
0.085661314 -0.0026169703 -0.15118596 -0.025036935 -0.1132866 -0.011517909 0.013710733 0.09362498
-0.23828681 -0.11805395 -0.080235995 -0.1309419 -0.088241145 -0.109366275 0.049576454 -0.11721144
-0.05939573 0.0005184576 -0.08794547 -0.15609024 -0.16266732 0.025836872 -0.13316327 -0.09996281
-0.08766758 0.0067571467 -0.02379056 -0.06658186 0.007871397 -0.18428175 -0.015423273 -0.045965154
-0.029406803 -0.18996768 -0.06959685 -0.0561192 -0.08936611 -0.04081043 -0.08251132 -0.009789633
-0.04329046 -0.06382052 0.10745885 -0.01888345 -0.074411616 -0.03603545 -0.03088706 0.04735185
-0.08447306 0.22490239 -0.06672094 -0.089691356 -0.13803421 0.0018849575 -0.19799356 -0.0073126648
0.007643185 -0.1534429 0.018959668 -0.06878954 -0.02060397 0.08069408 -0.09382451 0.1556748
0.033703294 0.09864707 -0.053488813 -0.11907389 0.12299603 -0.029694779 -0.14456208 -0.05758945
-0.091281414 -0.07513645 -0.054408778 -0.013126905 -0.056380577 -0.08378274 -0.123752825 -0.028799552
0.1653071 0.07532342 0.1294725 0.1585268 0.119030826 -0.13321783 -0.22650115 0.051487554
-0.2150745 -0.1179124 -0.1330069 -0.11193578 -0.119856134 -0.0297273 -0.1391481 -0.061749235
-0.13642173 -0.115179546 -0.007133342 -0.0015131632 0.045372628 0.22272715 -0.03281718 0.019791672
-0.10596766 -0.1797011 0.036322117 0.0077027497 -0.0011535299 0.08157718 0.06069536 0.02217044
0.0056861937 0.057933386 0.043321077 -0.07992776 -0.15437248 0.0484629 -0.040923044 -0.044976756
0.0536987 -0.12843467 -0.088091806 0.10212309 -0.011493701 0.096012376 -0.116280384 -0.057852205
0.1345182 0.022996742 0.015050645 0.024267955 0.026141644 0.00045686623 0.15650158 -0.10701742
0.07131591 0.14254679 -0.003345038 -0.15243348 -0.028056318 -0.0012563786 -0.032111797 -0.038150486
-0.09764437 0.03732164 0.020735169 0.097359195 -0.18247342 0.09759723 -0.05178228 0.11667844
-0.18438761 0.016262349 -0.015713785 -0.15826164 -0.04426368 -0.017327048 -0.081848204 0.0047607757
0.011113693 0.03892258 0.04256538 0.064457014 -0.0052753277 -0.07277656 -0.0007210641 0.1316906
0.030642658 0.047833875 -0.041107364 0.050441176 0.06447231 0.053286213 -0.051206075 -0.07059823
-0.10950537 0.12113714 0.0012059198 0.11214115 0.12572281 -0.14741372 -0.024071453 -0.08216749
0.0020618376 -0.07615597 0.041555695 -0.013392017 -0.018933045 -0.060532097 0.016941888 -0.052666616
-0.042605694 -0.07952584 -0.061738454 0.10344679 0.00045652417 0.0058232737 0.050339513 -0.021607192
0.11306107 0.17224215 -0.14514308 -0.067681655 0.015150567 0.12688833 -0.026397036 -0.026517594
-0.06113633 -0.041158017 -0.11068392 -0.010633479 0.012026626 -0.17487496 0.05355038 0.023011612
00000000: 0f9e 243b ddf3 abbe ff05 b2bd 8f54 dcbd
00000010: 3eed b73d d7aa f2bc c8e5 373d ddc8 1a3e
00000020: b4a6 88bd 516d 8a3d 29c5 44be 7868 55bd
00000030: c3af 2dbd 7762 a7bd 6609 99bd 35ad 97bd
00000040: 111a cabd 1372 e6bd 2486 a3bd dec7 e23c
00000050: e575 68bd c193 1b3d 97a2 cebd bce4 5a3e
00000060: ca86 ffbd 8d88 753c 609a 7fbd 5796 9b3c
00000070: 7c80 8d3d dc9a 4bbe 5e6c 34bd 2bcb 58bc
00000080: 7558 d63c 42d0 1bbe 9267 bdbd 3dbc 48bd
00000090: af73 92bd f1a1 90bd 1fba dbbd 7a62 f2bc
000000a0: 336f af3d 7a81 2bbb 7ed0 1abe 421a cdbc
000000b0: ce02 e8bd 9db5 3cbc fba2 603c 74be bf3d
000000c0: 7501 74be 45c6 f1bd c552 a4bd a215 06be
000000d0: c6b7 b4bd 6dfb dfbd ae10 4b3d 8d0c f0bd
000000e0: f048 73bd 1ae9 073a c11c b4bd 1fd6 1fbe
000000f0: 4392 26be d9a7 d33c f45b 08be 4db9 ccbd
00000100: 0f8b b3bd 0e6b dd3b 6ce4 c2bc 125c 88bd
00000110: 08f7 003c 5bb4 3cbe e5b1 7cbc f545 3cbd
00000120: 89e6 f0bc e386 42be cb88 8ebd 3fdd 65bd
00000130: 9405 b7bd d628 27bd b2fb a8bd b264 20bc
00000140: 5651 31bd 55b4 82bd 6313 dc3d 77b1 9abc
00000150: 1e65 98bd e899 13bd dc06 fdbc 03f4 413d
00000160: 3600 adbd d04c 663e fda4 88bd 1ab0 b7bd
00000170: d758 0dbe ae10 f73a d3be 4abe 149f efbb
00000180: af73 fa3b 2320 1dbe 4e51 9b3c 88e1 8cbd
00000190: a8c9 a8bc f042 a53d 1127 c0bd 3769 1f3e
000001a0: 770c 0a3d 7a07 ca3d 1617 5bbd 03dd f3bd
000001b0: 58e5 fb3d 7742 f3bc 1508 14be eae2 6bbd
000001c0: c0f1 babd 24e1 99bd bddb 5ebd 3b12 57bc
000001d0: 52ef 66bd 4996 abbd 1f72 fdbd 0aed ebbc
000001e0: 4446 293e 2a43 9a3d 7094 043e d954 223e
000001f0: 6fc6 f33d 416a 08be ebef 67be 9de4 523d
00000200: 7d3c 5cbe 0e7c f1bd f632 08be 963e e5bd
00000210: 2277 f5bd ab86 f3bc d77c 0ebe c4ec 7cbd
00000220: 23b2 0bbe 41e3 ebbd cfbe e9bb 5555 c6ba
00000230: a6d8 393d 9612 643e 4f6b 06bd 2522 a23c
00000240: 9305 d9bd 9103 38be 80c6 143d 5967 fc3b
00000250: 0a32 97ba f011 a73d b39b 783d c89e b53c
00000260: 4053 ba3b 8f4b 6d3d 7171 313d 2ab1 a3bd
00000270: d213 1ebe 0981 463d ec9e 27bd 8c39 38bd
00000280: 2bf3 5b3d 6184 03be 7a69 b4bd e925 d13d
00000290: 1350 3cbc 23a2 c43d 6924 eebd 6ff6 6cbd
000002a0: 24bf 093e aa63 bc3c fb96 763c 97cd c63c
000002b0: 0027 d63c 8c87 ef39 f341 203e f32b dbbd
000002c0: 130e 923d c9f7 113e 6d38 5bbb 8617 1cbe
000002d0: 5dd6 e5bc 12ad a4ba a987 03bd af43 1cbd
000002e0: c5f9 c7bd 93de 183d cddc a93c 4264 c73d
000002f0: 50da 3abe 0ee1 c73d a819 54bd 1bf5 ee3d
00000300: 1bd0 3cbe 9e38 853c 32ba 80bc 570f 22be
00000310: d54d 35bd 74f1 8dbc 08a0 a7bd 4800 9c3b
00000320: 3516 363c 496d 1f3d 0959 2e3d 0a02 843d
00000330: a8dc acbb e10b 95bd cb05 3dba e7d9 063e
00000340: 5006 fb3c 74ed 433d 3260 28bd 689b 4e3d
00000350: 0f0a 843d a542 5a3d 76bd 51bd ce95 90bd
00000360: 5a44 e0bd c016 f83d f40f 9e3a 42aa e53d
00000370: 7bbd 003e 9ff3 16be 7f31 c5bc 6e47 a8bd
00000380: e51f 073b a9f7 9bbd 4e36 2a3d 316a 5bbc
00000390: 7919 9bbc 81f0 77bd b7c9 8a3c f3b8 57bd
000003a0: 4f83 2ebd 72de a2bd 76e1 7cbd e9db d33d
000003b0: a359 ef39 29d1 be3b ce30 4e3d 9101 b1bc
000003c0: 908c e73d 3f60 303e 63a0 14be ae9c 8abd
000003d0: 153a 783c 04ef 013e 993e d8bc 6d3b d9bc
000003e0: 176a 7abd 4f95 28bd 40ae e2bd 0b38 2ebc
000003f0: 530b 453c 6c12 33be a557 5b3d d982 bc3c
