save/best_origin_opt123_0.889.pt (torch, 979472 bytes, 44 tensors)

gconv1.0.A f4 [140, 140]
0.04192346 0.09834311 0.07877445 0.021579927 -0.05800887 -0.12093925 0.16345635 -0.044729132
-0.055442028 -0.03179869 0.039423842 0.02248811 0.17734207 0.01552078 0.07116705 -0.018375214
0.03465944 -0.038659744 -0.12555815 -0.0074987873 -0.021072473 0.045884617 0.03933187 -0.020638684
-0.111674786 -0.19401614 0.09815472 -0.052408714 -0.034080718 0.101075016 -0.0807257 0.09086276
-0.19859715 0.012283246 -0.02097826 -0.039015267 0.018105185 0.05356231 -0.20323728 0.14217253
0.020111727 0.053445403 0.06744924 0.040676273 -0.30248854 -0.030722558 0.046110608 -0.06753484
0.058585204 -0.035073433 0.15045324 -0.012993611 0.14439777 -0.11956515 -0.02924956 0.15172313
0.031181937 -0.13308401 0.039227933 0.0460771 0.079800054 -0.055178408 -0.021924688 -0.10937268
0.046972044 0.08027663 0.008145367 0.13642429 -0.03329596 -0.12706876 0.0056551336 -0.007852079
-0.106303886 0.014550402 -0.058291484 0.045798752 -0.041892577 0.08677377 -0.024645409 0.12679927
0.051076684 -0.14220802 -0.06974493 -0.06682818 -0.071923964 0.11784361 -0.06894118 0.086180165
-0.05819474 0.02631548 0.08074001 -0.08439852 0.00076206034 0.023851007 0.21164921 0.021995846
0.119203396 0.017459048 -0.04200035 -0.20644958 0.012937471 0.09146285 0.063306786 0.07386955
0.12858771 -0.17345643 0.026579045 0.103772275 -0.16011602 -0.022495277 0.004896115 -0.06926483
-0.20582111 -0.006282469 0.21954133 -0.21692625 0.009123378 -0.055015966 0.0635612 0.0067606745
-0.006978624 -0.049206983 0.0126914205 0.00810753 0.062710054 -0.060970392 -0.06829639 0.047243696
-0.008221372 -0.06022706 -0.13345303 0.029175352 -0.034076788 0.079794794 0.13086398 0.0039077573
-0.009771279 0.061998565 -0.02869685 0.10343803 -0.02231432 -0.113931246 0.13144173 -0.10843798
-0.06273132 0.052852057 -0.010233323 -0.11418345 0.071591474 -0.042327266 0.11498061 -0.06207487
-0.09747454 0.1737331 0.033178456 -0.019157989 -0.005684457 -0.03525834 0.041381065 -0.11883555
-0.045644898 -0.049697362 -0.03805822 -0.06322546 0.0439339 -0.0076528494 -0.012658594 0.026871748
-0.06818015 0.05956012 -0.03514202 0.05840225 0.027298225 -0.05183246 -0.07765569 0.0180435
0.023343742 -0.007521365 0.055891287 -0.14140433 -0.10765311 0.15073942 -0.0032282204 0.05640487
0.0733118 -0.11434859 0.035170205 -0.003648903 -0.0037634028 0.05186605 0.062133763 0.061399117
-0.11008201 0.16062301 -0.03681102 -0.14732262 -0.16116172 -0.05834167 0.017618882 -0.09551068
-0.042502362 -0.06556418 0.0058724266 -0.118162334 0.024880288 0.0024371236 -0.04489462 -0.071521156
-0.018669313 0.101793505 -0.06226895 0.13607363 -0.0040159943 -0.0135425925 -0.03341283 -0.040953506
0.057882868 -0.14208399 -0.06691651 -0.17315744 -0.098746516 -0.099890105 -0.010344981 0.055295974
-0.023349166 0.045008473 -0.019142883 0.07493872 0.013710306 -0.041192625 -0.03867841 0.05848807
-0.16378137 0.08008703 0.08436926 -0.07891859 -0.023734404 -0.10916154 0.014338248 -0.04998223
0.0062320195 -0.11766333 0.017742695 -0.008448008 0.03126047 0.107585154 -0.09667098 -0.014589155
0.08316964 0.036563314 0.030861098 0.13084503 0.03969216 -0.0073395716 -0.1067205 -0.059098266
00000000: efb7 2b3d 1d68 c93d 8054 a13d 63c8 b03c
00000010: b59a 6dbd ffae f7bd 1a61 273e e535 37bd
00000020: 2e17 63bd 583f 02bd e57a 213d fc38 b83c
00000030: 2999 353e df4a 7e3c 08c0 913d 9e87 96bc
00000040: 0ff7 0d3d ae59 1ebd 5192 00be 63b8 f5bb
00000050: 2ea0 acbc 82f1 3b3d 741a 213d 7512 a9bc
00000060: c0b5 e4bd 2bac 46be 5805 c93d 85aa 56bd
00000070: 3998 0bbd 6b00 cf3d 8453 a5bd 4116 ba3d
00000080: 0d5d 4bbe ab3f 493c 9ada abbc 79ce 1fbd
00000090: 5351 943c 2764 5b3d 6f1d 50be ad95 113e
000000a0: 59c1 a43c 91e9 5a3d d422 8a3d 2a9c 263d
000000b0: c7df 9abe e0ad fbbc 7ade 3c3d b54f 8abd
000000c0: 0af7 6f3d 29a9 0fbd 6a10 1a3e 28e3 54bc
000000d0: 02dd 133e 93de f4bd c69c efbc 4f5d 1b3e
000000e0: 4371 ff3c 2d47 08be 78ad 203d 57bb 3c3d
000000f0: 366e a33d c102 62bd 679b b3bc c9fe dfbd
00000100: c265 403d 1368 a43d 2574 053c cfb2 0b3e
00000110: 5861 08bd 501e 02be b34e b93b 02a6 00bc
00000120: dab5 d9bd cf64 6e3c 0dc3 6ebd 7997 3b3d
00000130: 8d97 2bbd 72b6 b13d 2be5 c9bc abd7 013e
00000140: c935 513d fb9e 11be 6ed6 8ebd 36dd 88bd
00000150: df4c 93bd fe57 f13d 0931 8dbd 3a7f b03d
00000160: 9c5d 6ebd 9093 d73c 055b a53d 22d9 acbd
00000170: 01c5 473a 3063 c33c 92ba 583e a230 b43c
00000180: e920 f43d 4706 8f3c 8f08 2cbd 8567 53be
00000190: b0f7 533c e050 bb3d fda6 813d eb48 973d
000001a0: 7fac 033e 909e 31be 4cbc d93c 8f86 d43d
000001b0: 74f5 23be 0448 b8bc 976f a03b b8da 8dbd
000001c0: c5c2 52be 2bdd cdbb 71cf 603e ea21 5ebe
000001d0: 397a 153c 6c58 61bd 602c 823d a688 dd3b
000001e0: f1ac e4bb 438d 49bd adef 4f3c 72d5 043c
000001f0: 216e 803d 17bc 79bd fade 8bbd 9b82 413d
00000200: efb2 06bc a6b0 76bd e9a7 08be 2601 ef3c
00000210: 1a94 0bbd 746b a33d 3501 063e a50c 803b
00000220: b717 20bc 35f2 7d3d a815 ebbc 51d7 d33d
00000230: 85cc b6bc c954 e9bd a998 063e bb14 debd
00000240: 4779 80bd 667b 583d aba9 27bc 03d9 e9bd
00000250: 8d9e 923d 5b5f 2dbd f47a eb3d 3842 7ebd
00000260: bba0 c7bd 17e7 313e 22e6 073d 37f1 9cbc
00000270: ae44 babb 0d6b 10bd 317f 293d 0e60 f3bd
00000280: 25f6 3abd 768f 4bbd f0e2 1bbd 5a7c 81bd
00000290: 08f4 333d c1c4 fabb fe65 4fbc 2422 dc3c
000002a0: 09a2 8bbd 50f5 733d 14f1 0fbd 3337 6f3d
000002b0: 87a0 df3c 464e 54bd f209 9fbd f6cf 933c
000002c0: 603b bf3c c875 f6bb 43ee 643d 4ccc 10be
000002d0: 3c79 dcbd 6f5b 1a3e 8d90 53bb cb08 673d
000002e0: 7f24 963d 982f eabd a20e 103d 6f22 6fbb
000002f0: 6ca3 76bb 7f71 543d f97f 7e3d a47d 7b3d
00000300: ad72 e1bd 5c7a 243e 27c7 16bd bedb 16be
00000310: 9407 25be adf7 6ebd 7955 903c 1a9b c3bd
00000320: f516 2ebd 8346 86bd 7c6d c03b 18ff f1bd
00000330: bfd1 cb3c 26b8 1f3b 6ce3 37bd af79 92bd
00000340: 63f0 98bc 1d79 d03d ba0d 7fbd e356 0b3e
00000350: 9a98 83bb c0e1 5dbc e4db 08bd ddbe 27bd
00000360: 9616 6d3d 777e 11be 860b 89bd 2f50 31be
00000370: 9d3b cabd 2f93 ccbd ff7d 29bc 087e 623d
00000380: c046 bfbc ce5a 383d 89d1 9cbc 7979 993d
00000390: 31a1 603c 99b9 28bd 416d 1ebd 3091 6f3d
000003a0: 4eb6 27be ab04 a43d cac9 ac3d 12a0 a1bd
000003b0: a76e c2bc 1690 dfbd f9ea 6a3c 2bba 4cbd
000003c0: f835 cc3b 79f9 f0bd 2159 913c 8469 0abc
000003d0: fb0a 003d 9b55 dc3d 6ffb c5bd 5a07 6fbc
000003e0: d854 aa3d 6ac3 153d 6ad0 fc3c 3dfc 053e
000003f0: 3f94 223d ca80 f0bb 4790 dabd 0611 72bd

gconv1.0.W.weight f4 [140, 140]
0.114559464 -0.008461906 0.07616129 0.27327454 0.08928183 -0.03040621 -0.027229067 -0.021729957
-0.101431206 0.13305064 0.15084718 -0.049908675 0.040514987 -0.18710582 -0.008994283 0.020198746
0.049840696 0.14748716 -0.020418826 -0.059352156 -0.11971434 -0.22071752 -0.015290114 -0.021280799
0.021274585 -0.05695022 0.016200976 -0.14145847 -0.039581295 0.047383834 0.027200855 0.02756681
0.0057715806 0.019026725 -0.17313427 -0.096447006 0.012849794 0.118819356 0.08361309 -0.008812375
-0.007344483 0.04620879 -0.008332347 -0.121793635 0.05889451 -0.008724493 -0.048744764 0.0063787615
0.029087767 0.07158092 -0.014541892 -0.11956008 -0.013110285 0.002028416 -0.014249002 0.02880894
0.094374076 0.11508245 -0.063548274 0.008595371 -0.10434644 0.009075973 -0.08560694 0.13555941
-0.017418664 0.029765896 0.029825302 -0.020622727 -0.043651182 0.23775582 0.0060196845 0.072390735
-0.026119905 -0.08643591 -0.07181938 -0.04509294 -0.046036907 0.048975162 0.114450835 -0.07085097
0.10160694 0.095590256 -0.16685283 -0.016495299 0.064505145 -0.0672594 -0.011661917 0.1011521
-0.015084185 -0.023741888 -0.07200554 -0.020855473 -0.07764389 0.13046987 0.027867341 -0.054539073
0.009185437 -0.09506322 0.08037155 -0.076800145 -0.1178754 -0.025211338 0.10561201 0.17698261
-0.08975231 0.11868196 -0.10498044 0.13879992 -0.15048313 0.07872133 -0.0053298804 0.18186603
0.12805942 -0.0036306628 -0.12445458 0.12465888 -0.15372773 -0.022173759 0.080832414 -0.04531476
-0.09859314 -0.10354255 0.12579904 0.022646772 0.02762235 0.007918239 -0.20282696 -0.033521876
-0.056941196 0.01875591 0.060577564 0.007506899 0.02013384 0.062419813 -0.17355211 0.034337573
0.027498322 -0.22741239 -0.05353456 0.08408759 -0.068483636 -0.008957909 0.009805862 -0.027709667
-0.08801837 0.040649 -0.07001082 -0.24750832 0.009295524 0.0023305952 0.035373636 -0.059137754
-0.16928226 0.18283659 -0.061483953 -0.009733041 0.23407988 0.024958517 0.0005263304 -0.04188351
0.037339535 -0.02123944 -0.07117355 -0.0112788165 0.13322425 0.07396166 -0.087928094 0.035582162
0.05258875 0.089039095 -0.006956736 0.01714592 0.13447261 -0.0654551 -0.06262697 0.01360156
0.24223378 -0.05312032 0.025995148 0.010125413 -0.00420773 0.04960571 0.103635035 0.08243373
-0.15834133 -5.2813008e-05 -0.010952519 -0.08019283 0.16942205 -0.015874533 -0.15527241 -0.011200802
0.06177085 0.03294555 0.11946501 0.054045007 -0.061293226 0.0806845 0.08197008 0.075039364
-0.09533106 -0.20940405 0.17156677 0.11515113 0.04366554 0.06857588 -0.0070496313 0.077713095
0.0072426447 0.01774409 -0.13539642 0.019721536 -0.08093009 0.0690234 0.016000029 0.06206929
0.017375492 0.045859348 -0.15876736 -0.10778699 -0.08503876 -0.08322979 0.03810627 0.018429507
-0.13275719 0.01451283 -0.007585592 -0.0018614667 0.15755188 0.1245168 0.060840916 -0.034484528
-0.038097803 0.0037940543 0.015397582 0.041009244 -0.012166311 -0.08702249 -0.07028291 0.17800334
0.00025248036 -0.11096445 -0.04050277 -0.029144771 0.13213024 0.061600145 0.011838777 0.0487209
0.1295368 -0.048306238 0.0135136265 -0.07148587 -0.19412217 0.048024047 0.07450932 0.07517454
00000000: 279e ea3d cea3 0abc 73fa 9b3d a4ea 8b3e
00000010: 64d9 b63d 7216 f9bc 7e0f dfbc 0603 b2bc
00000020: 2abb cfbd 6d3e 083e af77 1a3e 0a6d 4cbd
00000030: 0bf3 253d ab98 3fbe c25c 13bc d777 a53c
00000040: c225 4c3d e006 173e 6245 a7bc 3f1b 73bd
00000050: cb2c f5bd c603 62be 6383 7abc 1255 aebc
00000060: 0a48 ae3c a244 69bd e9b7 843c 7dda 10be
00000070: ff1f 22bd 8d15 423d 54d4 de3c cad3 e13c
00000080: 871f bd3b efdd 9b3c 1c4a 31be 0286 c5bd
00000090: f187 523c 9057 f33d 573d ab3d c861 10bc
000000a0: fda9 f0bb 6e45 3d3d 6584 08bc f16e f9bd
000000b0: 5f3b 713d 2df1 0ebc 97a8 47bd ee04 d13b
000000c0: 7849 ee3c 0499 923d 1e41 6ebc eadb f4bd
000000d0: 85cc 56bc 2cef 043b a574 69bc ba00 ec3c
000000e0: 3247 c13d 59b0 eb3d 9925 82bd 99d3 0c3c
000000f0: 96b3 d5bd 64b3 143c b152 afbd 16d0 0a3e
00000100: 96b1 8ebc 9cd7 f33c 3154 f43c fef0 a8bc
00000110: 95cb 32bd 4376 733e c640 c53b 9841 943d
00000120: 69f9 d5bc 4f05 b1bd 0a16 93bd 60b3 38bd
00000130: 3291 3cbd 2e9a 483d 3365 ea3d 501a 91bd
00000140: 4d17 d03d d3c4 c33d 78db 2abe 2621 87bc
00000150: 461b 843d 4cbf 89bd a011 3fbc d528 cf3d
00000160: a823 77bc 597e c2bc a477 93bd 19d9 aabc
00000170: c303 9fbd e599 053e 0d4a e43c 5d64 5fbd
00000180: 847e 163c 81b0 c2bd d799 a43d 6549 9dbd
00000190: a868 f1bd 0288 cebc 1c4b d83d ee3a 353e
000001a0: 0fd0 b7bd 870f f33d fcff d6bd 9121 0e3e
000001b0: 4018 1abe a638 a13d 47a6 aebb 173b 3a3e
000001c0: 0222 033e 6af0 6dbb 0be2 febd 284d ff3d
000001d0: cd6a 1dbe bea5 b5bc 778b a53d f89b 39bd
000001e0: 33eb c9bd 1e0e d4bd 77d1 003e b985 b93c
000001f0: 4448 e23c 80bb 013c dfb1 4fbe 3c4e 09bd
00000200: 2c3b 69bd ffa5 993c 2e20 783d 6ffc f53b
00000210: b9ef a43c ebab 7f3d a5b7 31be 8ea5 0c3d
00000220: 2944 e13c cbde 68be 0e47 5bbd 1d36 ac3d
00000230: 2641 8cbd 32c4 12bc c4a8 203c 62ff e2bc
00000240: fa42 b4bd 917f 263d d561 8fbd d272 7dbe
00000250: 414c 183c e6bc 183b f2e3 103d 6e3a 72bd
00000260: 5458 2dbe 8439 3b3e 99d6 7bbd 5577 1fbc
00000270: a3b2 6f3e ce75 cc3c 6ff9 093a 0b8e 2bbd
00000280: 57f1 183d 56fe adbc 70c3 91bd c9ca 38bc
00000290: f06b 083e 3679 973d a513 b4bd 9abe 113d
000002a0: 4d67 573d 215a b63d 55f5 e3bb 9a75 8c3c
000002b0: 30b3 093e 530d 86bd 9242 80bd 14d9 5e3c
000002c0: 220c 783e b194 59bd c7f3 d43c 0fe5 253c
000002d0: ffe0 89bb 5b2f 4b3d 9b3e d43d 04d3 a83d
000002e0: 3b24 22be 8983 5db8 3272 33bc 233c a4bd
000002f0: f97c 2d3e 4f0b 82bc bbff 1ebe 9283 37bc
00000300: 6e03 7d3d eaf1 063d 12aa f43d 4c5e 5d3d
00000310: 9b0e 7bbd ea3d a53d eedf a73d 3dae 993d
00000320: ee3c c3bd 046e 56be 33af 2f3e 5bd4 eb3d
00000330: a3da 323d 8371 8c3d 9800 e7bb 0b28 9f3d
00000340: b553 ed3b 0e5c 913c 5ca5 0abe 0f8f a13c
00000350: adbe a5bd 245c 8d3d 7e12 833c 5e3c 7e3d
00000360: 0c57 8e3c 03d7 3b3d e993 22be 6dbf dcbd
00000370: cd28 aebd 6174 aabd 5215 1c3d 7af9 963c
00000380: 80f1 07be 39c7 6d3c 8f90 f8bb 75fc f3ba
00000390: 4855 213e aa02 ff3d 5334 793d a63f 0dbd
000003a0: 710c 1cbd aba5 783b 2446 7c3c 4ff9 273d
000003b0: 3555 47bc d938 b2bd 7cf0 8fbd 8246 363e
000003c0: 575f 8439 5441 e3bd 3ce6 25bd 04c1 eebc
000003d0: 264d 073e 6f50 7c3d 6ef7 413c 918f 473d
000003e0: 4ba5 043e c3dc 45bd 4268 5d3c 2f67 92bd
000003f0: f6c7 46be ddb4 443d 5898 983d 1cf5 993d

gconv1.0.W.bias f4 [140]
0.008449473 -0.0052094203 -0.030510195 -0.008250697 0.015927326 0.063215055 0.05816867 -0.053275242
-0.03833918 0.022418527 0.03899098 -0.010472842 -0.04652709 -0.09189027 0.09323247 -0.046661638
0.07257449 -0.078224495 0.0056738914 -0.063218884 -0.0063293725 -0.024142662 0.0122881755 -0.021826921
0.051963974 -0.03213715 0.042341657 -0.04337601 0.06595637 -0.061478883 0.041258875 -0.08159224
0.007545005 0.01750575 -0.016615918 0.082032084 0.024393924 0.007535648 0.009546405 -0.04082049
0.028443094 0.03735157 0.025470277 -0.02781505 0.02049869 0.059934087 -0.05924739 -0.045663655
0.054803815 -0.076103106 -0.007903164 0.01895185 -0.07046608 -0.052768994 0.056437675 0.012534623
0.0106949555 0.053774472 -0.020872017 0.053535715 0.08581222 0.005941887 -0.0004981996 -0.047464803
-0.07310415 0.04471841 0.08934833 0.04717744 -0.036165364 -0.026801927 -0.07728367 0.004997952
0.022719007 0.059243716 0.03939137 -0.008908701 0.059007887 0.056330897 -0.035333116 -0.023648083
0.0061989035 0.027673896 -0.0013088442 -0.0019410347 0.08011308 0.030538522 -0.014783825 0.016289432
0.064520225 0.03916642 -0.010340514 -0.044512015 -0.017298339 -0.009241087 0.013814215 -0.008467876
-0.070087224 -0.033629443 0.0867614 0.07275379 0.026693694 -0.07373292 0.07658768 0.07894167
0.08070157 0.061455153 -0.021922512 -0.030984638 0.05780241 -0.029758522 -0.10688465 -0.03496548
-0.02581275 0.05719197 0.054805934 -0.044824712 0.006965097 -0.015193683 -0.048754077 0.00677756
0.06883374 -0.028861364 0.004398141 0.0122768935 0.011774456 -0.09362865 0.07113395 -0.0146732535
0.021848748 -0.057323366 -0.037892643 0.044173982 0.041373596 -0.07929599 0.013582953 -0.035416707
0.018381534 0.0009422056 0.0015084967 0.08997519
00000000: a96f 0a3c c9b3 aabb 84f0 f9bc ee2d 07bc
00000010: 067a 823c e576 813d 4542 6e3d 2437 5abd
00000020: 8b09 1dbd 0fa7 b73c 01b5 1f3d 4896 2bbc
00000030: 3193 3ebd f730 bcbd aaf0 be3d 4620 3fbd
00000040: efa1 943d 2a34 a0bd 0dec b93b e778 81bd
00000050: a066 cfbb d5c6 c5bc 5854 493c 5fce b2bc
00000060: 2dd8 543d 3fa2 03bd 726e 2d3d 0bab 31bd
00000070: 2214 873d 48d1 7bbd 11ff 283d d519 a7bd
00000080: 173c f73b 3868 8f3c 1b1e 88bc 7000 a83d
00000090: c4d5 c73c 99ed f63b 8668 1c3c 6333 27bd
000000a0: 7e01 e93c f6fd 183d 0ba7 d03c 63dc e3bc
000000b0: deec a73c 727d 753d 64ad 72bd d009 3bbd
000000c0: f779 603d f2db 9bbd 467c 01bc e940 9b3c
000000d0: 8550 90bd 4d24 58bd 312b 673d 055e 4d3c
000000e0: e539 2f3c 9f42 5c3d cbfb aabc 4448 5b3d
000000f0: 51be af3d 29b4 c23b 9c99 02ba 746a 42bd
00000100: a1b7 95bd a72a 373d 42fc b63d 223d 413d
00000110: 2222 14bd b78f dbbc e746 9ebd dcc5 a33b
00000120: 361d ba3c 8aa9 723d d858 213d cdf5 11bc
00000130: 41b2 713d 3abb 663d 75b9 10bd a0b9 c1bc
00000140: 2c20 cb3b 5eb4 e23c 868d abba 516a feba
00000150: 5412 a43d ec2b fa3c db37 72bc 6a71 853c
00000160: 2e23 843d f86c 203d 426b 29bc 3b52 36bd
00000170: 3fb5 8dbc ee67 17bc 0455 623c d9bc 0abc
00000180: e489 8fbd 07bf 09bd f6af b13d f0ff 943d
00000190: bcac da3c 4901 97bd 00da 9c3d 2cac a13d
000001a0: dd46 a53d 66b8 7b3d d796 b3bc 7fd3 fdbc
000001b0: 38c2 6c3d 25c8 f3bc 57e6 dabd f737 0fbd
000001c0: 4375 d3bc 2142 6a3d 307c 603d 1e9a 37bd
000001d0: 783b e43b edee 78bc 5bb2 47bd 4b16 de3b
000001e0: b4f8 8c3d ab6e ecbc 481e 903b 0625 493c
000001f0: a6e9 403c 61c0 bfbd adae 913d 1668 70bc
00000200: 25fc b23c e8cb 6abd 5135 1bbd c7ef 343d
00000210: 5c77 293d f065 a2bd 098b 5e3c 1c11 11bd
00000220: df94 963c 59fe 763a c0b8 c53a ea44 b83d

gconv1.0.input_gate_u.weight f4 [1, 140]
-0.036160182 -0.21544106 -0.12155861 0.016326632 0.10728014 0.3519325 -0.22171316 0.032436114
-0.0046128524 -0.15387952 0.10132322 0.03703041 -0.16180123 -0.20021492 0.20730644 -0.047916677
-0.060438488 0.09739504 0.04043375 0.20447338 0.12934576 0.17022853 -0.21042484 0.07865667
-0.1812192 -0.06432759 0.11865816 -0.16237985 -0.015953412 -0.09472743 -0.20548646 -0.04287165
0.02106008 0.030974364 -0.16717842 0.11247017 -0.08129154 -0.16638573 0.22047903 -0.11686519
0.28710684 -0.12820026 -0.13049954 0.010382801 -0.07029907 -0.15395622 -0.07947154 -0.008178825
0.074777514 -0.21877046 0.07430131 -0.16909286 0.291804 0.15055735 -0.06256619 0.17366199
-0.09501639 0.04125053 -0.007849517 0.0032730878 -0.111457504 -0.040128786 -0.2257745 0.22871628
0.049915243 -0.0046947454 -0.26921147 0.030674942 -0.036955018 -0.20049718 -0.063832104 -0.10994196
0.027140772 0.11333532 -0.20988211 -0.2593321 -0.0029200779 0.1702938 -0.010671705 0.22424787
0.098065734 0.051087845 -0.10502865 0.1188661 0.20309061 -0.05646006 -0.008268312 -0.04326759
0.14876907 -0.04121634 0.050968204 0.21293248 0.07980907 0.11843134 0.013183319 -0.18551369
-0.04929113 0.12987995 -0.09718208 0.06280601 -0.069765024 -0.0393424 -0.24186473 -0.15213345
-0.08005248 -0.03677786 0.084922455 -0.11308121 -0.056820244 -0.05030363 0.2206012 0.21022123
0.16179202 -0.0767117 -0.06509095 -0.24578437 0.19171733 -0.10598086 0.033896722 -0.014269819
0.21320976 0.017483706 -0.015775353 0.034115296 0.10364854 -0.058684308 -0.10455499 0.060870066
0.14574486 0.12612018 -0.030243231 -0.085469574 -0.067551315 -0.08075008 -0.028420936 0.073830895
-0.039513238 -0.14314806 0.09416393 -0.11035507
00000000: b31c 14bd 959c 5cbe b8f3 f8bd 6ebf 853c
00000010: b1b5 db3d 7f30 b43e c608 63be bbdb 043d
00000020: 6927 97bb 9892 1dbe 8c82 cf3d 33ad 173d
00000030: 39af 25be 2405 4dbe 2448 543e 4744 44bd
00000040: 598e 77bd 0d77 c73d dc9d 253d 7861 513e
00000050: 3773 043e 6350 2e3e 9c79 57be c016 a13d
00000060: 8791 39be 2fbe 83bd 0d03 f33d e746 26be
00000070: bbb0 82bc 7400 c2bd 0b6b 52be 2f9a 2fbd
00000080: 3086 ac3c f3bd fd3c d230 2bbe c356 e63d
00000090: 2e7c a6bd 0561 2abe 41c5 613e 0457 efbd
000000a0: abff 923e ee46 03be aca1 05be a01c 2a3c
000000b0: f5f8 8fbd b3a6 1dbe fac1 a2bd 7a00 06bc
000000c0: f424 993d 5d05 60be 492b 983d ae26 2dbe
000000d0: 5567 953e b52b 1a3e b422 80bd 73d4 313e
000000e0: f497 c2bd 51f6 283d 439b 00bc 4d81 563b
000000f0: d543 e4bd 155e 24bd 6e31 67be 9a34 6a3e
00000100: ed73 4c3d 61d6 99bb 16d6 89be 044a fb3c
00000110: 255e 17bd 224f 4dbe 68ba 82bd 4029 e1bd
00000120: 5356 de3c 591c e83d 56eb 56be 2dc7 84be
00000130: c75e 3fbb 7f61 2e3e 60d8 2ebc 3ca1 653e
00000140: b0d6 c83d 7d41 513d 4319 d7bd 1270 f33d
00000150: fcf6 4f3e aa42 67bd d077 07bc 5b39 31bd
00000160: eb56 183e 77d2 28bd 09c4 503d f90a 5a3e
00000170: f072 a33d 218c f23d d9fe 573c 4df7 3dbe
00000180: 7fe5 49bd 40ff 043e 6607 c7bd 70a0 803d
00000190: f7e0 8ebd 7f25 21bd 63ab 77be dfc8 1bbe
000001a0: 8ef2 a3bd 62a4 16bd d3eb ad3d 1f97 e7bd
000001b0: 58bc 68bd 2e0b 4ebd 48e5 613e 3c44 573e
000001c0: cfac 253e 061b 9dbd 674e 85bd e6ae 7bbe
000001d0: 8c51 443e 7e0c d9bd 4ad7 0a3d f5cb 69bc
000001e0: a953 5a3e fd39 8f3c 503b 81bc 7bbc 0b3d
000001f0: b045 d43d f55e 70bd ed20 d6bd e452 793d
00000200: 243e 153e a625 013e a7c0 f7bc ac0a afbd
00000210: 5858 8abd 4c60 a5bd 06d3 e8bc a734 973d
00000220: a2d8 21bd 6895 12be 05d9 c03d d701 e2bd

gconv1.0.input_gate_w.weight f4 [1, 140]
-0.30250058 0.09047527 0.1880952 -0.01874192 -0.027848475 0.074217334 -0.07850562 0.05226968
0.09782356 0.068071894 0.13498381 -0.023950106 0.18780008 -0.0657035 0.115341425 -0.06757092
-0.058380038 -0.15865186 -0.16721167 0.025740726 0.06287687 -0.07108668 0.056478932 0.057510458
-0.16806233 -0.08944316 0.029372884 0.0068596303 -0.09623826 -0.06774185 -0.0010893769 0.094438076
0.21988063 0.0034924997 0.29957032 0.056594085 -0.05301079 -0.1407 -0.10072192 0.010997789
0.10270272 0.036755223 -0.0041390103 0.016309476 -0.08640431 -0.071184605 -0.028436616 -0.050778054
0.07534148 -0.010076564 0.12963763 -0.045829363 0.06642662 0.08987293 0.16204894 -0.039446693
0.00493399 -0.14059311 -0.0041498775 -0.043649998 -0.032842856 0.12646158 0.14743245 -0.007128102
-0.007743135 -0.026364602 -0.0045570415 0.12450302 0.030986471 0.22242844 -0.12281713 -0.14033788
0.32513115 0.01033377 -0.2526246 -0.15143488 -0.06366001 0.09983297 0.0015548896 0.11844044
0.0014956109 -0.07119531 -0.097321704 0.13017385 0.081544876 0.3041648 0.028694836 0.12417035
0.036767866 -0.1392681 -0.10666965 -0.053738248 -0.087165006 0.26051816 0.11495173 -0.003918054
-0.10106456 -0.08674117 0.034320265 0.057497732 0.03945625 0.05433817 -0.016559407 0.021038711
0.06760979 0.22309567 0.065742426 -0.04244405 -0.0759749 -0.07643509 0.06355354 0.020136133
0.019760242 -0.06466732 -0.1271235 -0.022200314 -0.012510283 0.06784257 -0.036770795 0.04133317
0.129314 -0.06711724 -0.074552424 -0.17247912 0.04797497 -0.095523275 -0.0795702 -0.006203575
-0.039023835 0.07517758 0.031024395 -0.06766196 0.18031874 0.119119905 -0.115685545 -0.15339953
0.036768097 -0.069545396 0.040100306 -0.19775683
00000000: 5be1 9abe 194b b93d 079c 403e a888 99bc
00000010: 7c22 e4bc 42ff 973d 8ec7 a0bd bb18 563d
00000020: b857 c83d 4769 8b3d 3239 0a3e 0333 c4bc
00000030: aa4e 403e 8e8f 86bd 2038 ec3d 9f62 8abd
00000040: e81f 6fbd a275 22be 8939 2bbe 37de d23c
00000050: 97c5 803d e595 91bd 7456 673d 1690 6b3d
00000060: 8818 2cbe fa2d b7bd 679f f03c c0c6 e03b
00000070: 9118 c5bd 3dbc 8abd 6cc9 8eba c068 c13d
00000080: 6328 613e 6ce2 643b 4861 993e 33cf 673d
00000090: d821 59bd a913 10be 4b47 cebd 1230 343c
000000a0: ce55 d23d a58c 163d 89a0 87bb 739b 853c
000000b0: bef4 b0bd 3cc9 91bd e8f3 e8bc a6fc 4fbd
000000c0: a24c 9a3d 2c18 25bc babf 043e 92b7 3bbd
000000d0: ae0a 883d 4c0f b83d 28f0 253e db92 21bd
000000e0: 4fad a13b a4f7 0fbe b2fb 87bb 57ca 32bd
000000f0: 3b86 06bd 257f 013e 88f8 163e da92 e9bb
00000100: 20ba fdbb 94fa d7bc 3c53 95bb 70fb fe3d
00000110: 57d7 fd3c 48c4 633e 8c87 fbbd bcb4 0fbe
00000120: 9777 a63e f94e 293c 0358 81be bf11 1bbe
00000130: 2e60 82bd 3a75 cc3d 70cd cb3a e790 f23d
00000140: 6008 c43a d9ce 91bd 9a50 c7bd 4b4c 053e
00000150: 0001 a73d 7dbb 9b3e 6f11 eb3c 064d fe3d
00000160: e799 163d 4c9c 0ebe 9e75 dabd a31c 5cbd
00000170: 9183 b2bd a362 853e d06b eb3d 0563 80bb
00000180: f0fa cebd 5ba5 b1bd 6893 0c3d be82 6b3d
00000190: e09c 213d b391 5e3d 98a7 87bc 6059 ac3c
000001a0: 0077 8a3d 3173 643e f7a3 863d d0d9 2dbd
000001b0: ba98 9bbd 008a 9cbd 5c28 823d 88f4 a43c
000001c0: 3be0 a13c 4d70 84bd aa2c 02be 6fdd b5bc
000001d0: eef7 4cbc 0cf1 8a3d f99c 16bd f84c 293d
000001e0: e46a 043e c374 89bd f1ae 98bd 5e9e 30be
000001f0: 6781 443d b5a1 c3bd b3f5 a2bd 5c47 cbbb
00000200: 75d7 1fbd b4f6 993d df26 fe3c 5b92 8abd
00000210: 7aa5 383e 23f5 f33d 8bec ecbd c414 1dbe
00000220: 259a 163d d16d 8ebd 3840 243d c480 4abe

gconv1.0.forget_gate_u.weight f4 [1, 140]
-0.061239168 0.14113149 -0.20390052 -0.17876679 -0.033770777 -0.077460535 -0.10626805 0.11729127
-0.06678352 0.012850494 0.07438337 -0.18736108 -0.008386684 -0.052264743 -0.012100487 -0.1262147
0.15888515 0.050445795 -0.10052203 0.10633362 -0.03625714 -0.19846943 -0.040356975 -0.0066018645
-0.046323933 0.10759914 0.07890139 -0.19654912 0.081217684 0.02487018 0.06368978 0.016721137
-0.10265622 -0.03385246 -0.038204655 -0.14048187 -0.0066300156 -0.32607377 -0.069231614 -0.05251789
-0.08007172 0.07142711 -0.07438598 -0.21134868 -0.33260003 -0.025944604 0.05618936 0.21072154
0.060376123 -0.11999398 -0.16861232 0.20187914 0.043950114 -0.031537496 0.027425865 0.1978983
0.014121575 -0.092739224 0.04386949 0.06629296 -0.07696303 -0.047714736 0.12211897 0.04120901
0.22277395 0.024433246 -0.12568742 0.012332641 -0.022065297 -0.16064714 0.24292327 0.14048538
-0.011506557 -0.009977944 0.0749723 0.19749062 -0.13160433 0.067243926 -0.19669983 0.12143979
-0.1751836 0.035987478 0.13321207 -0.15660642 0.009467628 -0.14780189 -0.0934215 0.021545917
0.014687994 0.028547859 -0.108741574 -0.03471723 0.00059040124 -0.014466773 -0.082889855 0.12871699
0.05564982 -0.014694276 -0.2494315 -0.051211927 -0.043351185 -0.017853115 -0.08537718 -0.012500628
-0.14916863 0.023778565 -0.013226539 -0.060802385 -0.028771695 -0.053575397 0.14749236 -0.058579125
0.14998043 -0.010533845 -0.03947834 0.2712758 0.008095303 -0.05090605 0.16707289 -0.1082443
0.17872083 -0.049902603 0.10238981 0.15235062 0.051346555 0.06779441 -0.00063661364 0.010736512
-0.17356537 -0.017567877 0.014169576 0.1947574 -0.09346866 0.21148261 0.06428693 0.016564563
0.108658835 0.08504538 0.12546174 -0.036260728
00000000: ecd5 7abd c684 103e 4ccb 50be a40e 37be
00000010: 3a53 0abd a1a3 9ebd 10a3 d9bd 6836 f03d
00000020: ccc5 88bd e18a 523c 4f56 983d 95db 3fbe
00000030: 4d68 09bc 8e13 56bd 1f41 46bc 6d3e 01be
00000040: cab2 223e 40a0 4e3d 7ede cdbd 71c5 d93d
00000050: 5e82 14bd 923b 4bbe 5b4d 25bd 7454 d8bb
00000060: 2abe 3dbd f05c dc3d 0d97 a13d 2c44 49be
00000070: 7555 a63d 8cbc cb3c ca6f 823d c4fa 883c
00000080: 6d3d d2bd e1a8 0abd 7c7c 1cbd 7bda 0fbe
00000090: 9a40 d9bb 24f3 a6be 4ec9 8dbd 001d 57bd
000000a0: a4fc a3bd 6048 923d ad57 98bd ca6b 58be
000000b0: 8d4a aabe c789 d4bc d026 663d 63c7 573e
000000c0: f44c 773d 67bf f5bd b5a8 2cbe 68b9 4e3e
000000d0: 0905 343d 762d 01bd 35ac e03c daa5 4a3e
000000e0: 2e5e 673c 10ee bdbd 7fb0 333d 9ac4 873d
000000f0: cb9e 9dbd 8770 43bd 8319 fa3d c7ca 283d
00000100: db1e 643e 3b28 c83c 34b4 00be d80e 4a3c
00000110: 48c2 b4bc af80 24be e1c0 783e 66db 0f3e
00000120: 0086 3cbc 887a 23bc 148b 993d fb3a 4a3e
00000130: 49c3 06be 2fb7 893d ae6b 49be 6db5 f83d
00000140: 5463 33be 9b67 133d bf68 083e 6f5d 20be
00000150: 1c1e 1b3c 6159 17be c553 bfbd 1081 b03c
00000160: e9a5 703c 33dd e93c e7b3 debd a733 0ebd
00000170: 28c5 1a3a 0b06 6dbc 28c2 a9bd 63ce 033e
00000180: 11f1 633d 43c0 70bc f96a 7fbe 99c3 51bd
00000190: 0391 31bd b240 92bc 3bda aebd 6fcf 4cbc
000001a0: a9bf 18be 44cb c23c 20b4 58bc ec0b 79bd
000001b0: 9eb2 ebbc e071 5bbd 3d08 173e aaf0 6fbd
000001c0: 7894 193e 2696 2cbc 0ab4 21bd a9e4 8a3e
000001d0: 29a2 043c dd82 50bd 2815 2b3e 30af ddbd
000001e0: 9802 373e ac66 4cbd c0b1 d13d cd01 1c3e
000001f0: c450 523d ccd7 8a3d 6be2 26ba 32e8 2f3c
00000200: 1fbb 31be 82ea 8fbc 8227 683c 7c6e 473e
00000210: 7f6c bfbd e68e 583e dea8 833d 68b2 873c
00000220: 8688 de3d 462c ae3d 0b79 003e 2186 14bd

gconv1.0.forget_gate_w.weight f4 [1, 140]
-0.06928819 -0.04968033 -0.024040569 -0.16786595 0.3830235 0.023183482 0.1112697 -0.0067484556
-0.08054317 -0.04974337 0.16298445 -0.075212285 0.020667255 0.044127155 -0.15689863 0.008679411
0.006096753 -0.04361263 0.032762535 0.16501112 0.18147165 0.12655257 0.049265005 0.025696373
0.14046845 0.077885225 -0.052158058 0.19043012 0.057818495 0.0917613 0.059716124 0.34506977
-0.08663206 0.1420275 -0.002821932 0.0750036 -0.098030485 0.013771036 -0.016664462 -0.09050268
-0.08465349 0.12732188 -0.04287215 -0.10561125 -0.0072333 -0.013610303 0.0047616954 0.18922088
0.09771044 0.11162603 -0.05845397 0.04720208 -0.05527551 0.08562486 0.096031226 -0.017495075
0.17874481 -0.20616944 -0.17572834 0.20457442 -0.24541204 0.100525446 -0.0010414271 0.085382774
-0.16393894 0.04344644 0.058263347 0.05475261 0.050073087 0.31301028 0.048008528 0.12376943
0.061146285 -0.09020905 0.12430345 0.11014562 0.025054751 -0.16890383 0.055039614 0.05863216
-0.13320985 -0.041988466 0.011959533 -0.3663782 -0.058752194 0.083644435 -0.12696446 -0.101522915
-0.026745804 0.07362963 0.20646986 0.20652446 -0.0722008 0.0046104356 -0.05566664 -0.11062637
-0.26969996 0.3791471 0.064022705 -0.014026549 -0.0306345 0.07909811 -0.03521204 0.16929972
0.03934827 -0.022836065 -0.034792464 -0.026921 -0.12744352 -0.1265424 -0.10135536 0.09794492
-0.08721005 -0.1372318 0.14658515 -0.08641468 -0.041226517 0.07594803 -0.26676 -0.11673132
0.06972617 0.20004454 -0.043887913 0.10876531 0.16401769 -0.15538344 -0.22135234 -0.21632467
0.22550356 0.029981913 -0.039266508 -0.06289612 0.014095522 0.05523907 -0.13065535 0.24523833
-0.11155895 -0.19497217 0.025226941 0.20378982
00000000: f7e6 8dbd 9a7d 4bbd baf0 c4bc 0de5 2bbe
00000010: a81b c43e 49eb bd3c 5ee1 e33d 2622 ddbb
00000020: d1f3 a4bd b4bf 4bbd 65e5 263e e608 9abd
00000030: 604e a93c adbe 343d 09aa 20be 1734 0e3c
00000040: 45c7 c73b 28a3 32bd 0232 063d adf8 283e
00000050: b4d3 393e ff96 013e 1aca 493d 3381 d23c
00000060: f6d6 0f3e 4a82 9f3d b0a3 55bd 1d00 433e
00000070: 16d3 6c3d 59ed bb3d e598 743d fcac b03e
00000080: 266c b1bd a86f 113e 2af0 38bb 7d9b 993d
00000090: 35c4 c8bd e99f 613c e983 88bc 7859 b9bd
000000a0: cf5e adbd ab60 023e b59a 2fbd b64a d8bd
000000b0: 5105 edbb c0fd 5ebc ff07 9c3b 1ec3 413e
000000c0: 691c c83d 309c e43d 6e6d 6fbd f856 413d
000000d0: 9368 62bd 165c af3d 05ac c43d d551 8fbc
000000e0: e108 373e 151e 53be 21f2 33be f57b 513e
000000f0: 4b4d 7bbe 49e0 cd3d 7f80 88ba 2add ae3d
00000100: 9cdf 27be e5f4 313d 8ca5 6e3d 4644 603d
00000110: 7019 4d3d e242 a03e 97a4 443d d47a fd3d
00000120: 8774 7a3d 86bf b8bd cf92 fe3d 0794 e13d
00000130: 9f3f cd3c 20f5 2cbe 3871 613d 4728 703d
00000140: 2a68 08be 19fc 2bbd ebf1 433c ec95 bbbe
00000150: 24a6 70bd c64d ab3d f902 02be 3feb cfbd
00000160: 041a dbbc 22cb 963d d66c 533e 267b 533e
00000170: 03de 93bd 2313 973b b402 64bd 1490 e2bd
00000180: 1d16 8abe 921f c23e 561e 833d 9ccf 65bc
00000190: 34f5 fabc 31fe a13d 803a 10bd e85c 2d3e
000001a0: a72b 213d b312 bbbc 8b82 0ebd 6e89 dcbc
000001b0: 8e80 02be 5594 01be 6693 cfbd 5997 c83d
000001c0: 2f9b b2bd 7e86 0cbe 6b1a 163e 2efa b0bd
000001d0: 23dd 28bd a48a 9b3d c494 88be d510 efbd
000001e0: 98cc 8e3d 7ad8 4c3e d0c3 33bd 59c0 de3d
000001f0: 41f4 273e d61c 1fbe 30aa 62be 3784 5dbe
00000200: 68ea 663e a19c f53c ebd5 20bd aecf 80bd
00000210: e8f0 663c 5d42 623d 84ca 05be c21f 7b3e
00000220: 0579 e4bd c9a6 47be bba8 ce3c 47ae 503e

gconv1.0.output_gate_u.weight f4 [1, 140]
-0.028541554 0.0034885071 -0.030108461 0.06411679 0.037941758 0.15806775 0.30785787 -0.078676045
0.10359592 -0.16463661 -0.35978913 -0.04189087 -0.05766645 -0.10378069 0.18242182 0.041773055
0.14357656 0.17997506 0.07670594 0.12355304 -0.0457083 0.13787946 0.33870214 0.04823588
-0.12553567 0.010037775 0.31839612 -0.07122033 -0.013505549 -0.010339003 -0.044885486 -0.0043807523
0.056496065 0.06759988 0.33349785 0.10832554 -0.31703794 -0.08807163 0.082539685 -0.006883892
-0.030839004 -0.05967507 0.111047626 -0.0041534044 0.23865603 -0.02701137 -0.015276522 -0.03375887
0.1919968 0.02360567 0.2902736 -0.14891228 0.1290267 0.057445876 0.077481285 0.23186317
0.010736392 -0.0463908 -0.14242136 -0.114453785 0.15006766 0.096557856 -0.29775771 0.21518897
0.06614732 0.068712845 0.04295078 -0.051369045 -0.050666817 0.074814446 -0.1340248 -0.18916805
0.041686635 0.10307129 0.02607179 0.13369478 0.07980248 -0.11904674 0.17593302 0.011398053
-0.049778793 -0.19147606 0.05964506 -0.12558447 0.112288 0.009212675 -0.06488486 -0.25226644
-0.25545213 0.0032514138 -0.08641198 0.033433296 -0.24378408 0.057418156 -0.12686919 -0.029057235
0.14740452 0.09509124 0.014585326 0.25780106 -0.0113584 0.053355422 0.054589596 0.16626123
-0.046257503 -0.041854195 0.06061381 -0.07235611 -0.09621721 -0.056391373 0.02285085 -0.058973
0.133442 -0.11603353 0.07689366 -0.2160506 -0.0454963 -0.17810537 0.16266192 -0.020503419
0.06786863 -0.056625236 0.021751534 -0.05964831 -0.10025516 -0.119002566 0.1333649 -0.0058378163
-0.05423016 0.065843984 0.004837342 -0.19614486 0.20998673 -0.15333125 0.06635527 0.058774713
-0.22680119 -0.039472017 -0.2335027 0.025942437
00000000: facf e9bc 709f 643b 05a6 f6bc aa4f 833d
00000010: d168 1b3d 83dc 213e 8c9f 9d3e e820 a1bd
00000020: 192a d43d 8096 28be 4836 b8be c395 2bbd
00000030: a833 6cbd f88a d4bd c9cc 3a3e 391a 2b3d
00000040: bc05 133e 624b 383e 0118 9d3d 6009 fd3d
00000050: a038 3bbd 4630 0d3e 5e6a ad3e fc92 453d
00000060: 6c8c 00be 7b75 243c d104 a33e f7db 91bd
00000070: 6146 5dbc ec64 29bc d8d9 37bd 6a8c 8fbb
00000080: 6b68 673d ce71 8a3d 3bc0 aa3e c8d9 dd3d
00000090: cc52 a2be e65e b4bd 910a a93d 4692 e1bb
000000a0: 14a2 fcbc d96d 74bd f06c e33d 4819 88bb
000000b0: 3f62 743e f346 ddbc 614a 7abc be46 0abd
000000c0: cf9a 443e ae60 c13c be9e 943e 767c 18be
000000d0: 931f 043e 5e4c 6b3d 82ae 9e3d 8a6d 6d3e
000000e0: b1e7 2f3c 4804 3ebd e8d6 11be bf66 eabd
000000f0: 56ab 193e 20c0 c53d b373 98be 7f5a 5c3e
00000100: 3f78 873d 52b9 8c3d 28ed 2f3d 5968 52bd
00000110: 0288 4fbd 5138 993d cc3d 09be 45b5 41be
00000120: 9bbf 2a3d 0a17 d33d 8294 d53c 49e7 083e
00000130: 7c6f a33d c7ce f3bd c927 343e e6be 3a3c
00000140: d9e4 4bbd 4d12 44be 614e 743d 3799 00be
00000150: 40f7 e53d c2f0 163c 5ae2 84bd 1129 81be
00000160: 9fca 82be ac15 553b c4f8 b0bd 5af1 083d
00000170: 89a2 79be 4d2f 6b3d ffe9 01be 7009 eebc
00000180: 36f1 163e 32bf c23d 4bf7 6e3c 80fe 833e
00000190: 9518 3abc 378b 5a3d 5799 5f3d 6240 2a3e
000001a0: 8278 3dbd 4e6f 2bbd 3046 783d 712f 94bd
000001b0: 870d c5bd a4fa 66bd b531 bb3c ac8d 71bd
000001c0: 05a5 083e fda2 edbd 6c7a 9d3d 5e3c 5dbe
000001d0: 545a 3abd 4161 36be d990 263e c9f6 a7bc
000001e0: b5fe 8a3d ddef 67bd 4630 b23c c951 74bd
000001f0: 9452 cdbd 9eb7 f3bd cf90 083e 274b bfbb
00000200: 7220 5ebd 36d9 863d 9182 9e3b 33da 48be
00000210: c306 573e de02 1dbe 46e5 873d c1bd 703d
00000220: 923e 68be 69ad 21bd 551b 6fbe 3c85 d43c

gconv1.0.output_gate_w.weight f4 [1, 140]
0.006420406 0.12122635 0.08586396 0.15688735 -0.019820161 0.056786153 0.03488687 0.10322792
0.19279169 0.038677145 0.07983701 -0.106770165 -0.064397454 -0.029075341 -0.15784638 0.06635062
0.10884684 0.00601197 0.1031506 -0.022262955 0.105338916 0.047276318 -0.1693694 0.07125407
0.049666427 -0.088756666 0.20541911 -0.041330855 0.1488651 -0.14853051 0.06949256 0.041984655
-0.16760835 -0.17717505 -0.07812817 -0.0092147915 -0.04071356 0.021472927 -0.07701314 0.05815256
0.046494175 -0.29982617 0.017688867 -0.012365348 -0.10639309 -0.28598183 -0.099460766 -0.019776804
-0.10259249 -0.056123637 0.06721846 0.040977918 -0.11610856 -0.03919536 -0.043473303 0.07622128
0.05684254 0.05537099 0.19890936 0.10777505 -0.057465978 -0.10120509 0.040114213 -0.15056254
-0.032215964 0.08783054 0.088258766 -0.010184497 0.13920905 0.002759542 -0.0012481007 0.078344874
0.21165162 0.020964734 -0.12507269 -0.057279903 0.15929952 0.14131194 -0.17573895 -0.10803127
-0.06676859 -0.07884898 0.15313771 -0.12680194 -0.022271983 -0.032038417 -0.14356923 0.028801147
-0.1962618 0.04563909 -0.09445205 -0.20434366 -0.088231914 -0.12618077 0.040761087 0.031284105
-0.019937992 -0.00205315 0.017910525 0.064025566 -0.07911279 -0.0205548 -0.03229595 -0.17605153
-0.06535094 -0.067316785 -0.08990567 0.015714318 0.11742555 0.13984512 -0.20404363 0.079854436
0.11252095 -0.0074357805 0.03799154 0.13996126 0.04068595 0.1074369 0.081124544 -0.23209773
0.06721118 -0.004839395 0.053539727 -0.2503103 0.053228877 0.25043938 -0.029033918 -0.064833194
-0.05341059 -0.07499494 0.0681883 0.10073999 0.05208732 0.22848031 0.056282688 0.15549996
-0.087181635 0.014324651 -0.1864391 -0.16300301
00000000: 4562 d23b 8545 f83d 72d9 af3d 14a7 203e
00000010: e45d a2bc 9998 683d 89e5 0e3d 2969 d33d
00000020: 2f6b 453e ed6b 1e3d 9681 a33d 51aa dabd
00000030: d0e2 83bd 692f eebc 7ba2 21be d5e2 873d
00000040: 18eb de3d 0f00 c53b 9f40 d33d cd60 b6bc
00000050: eebb d73d d0a4 413d 2c6f 2dbe a7ed 913d
00000060: 066f 4b3d 0ec6 b5bd 6359 523e 8b4a 29bd
00000070: 1870 183e 6218 18be 1e52 8e3d 1af8 2b3d
00000080: 86a1 2bbe 606d 35be a901 a0bd a3f9 16bc
00000090: 43c3 26bd fee7 af3c 11b9 9dbd 6131 6e3d
000000a0: ad70 3e3d d182 99be 3ee8 903c 0798 4abc
000000b0: 9fe4 d9bd 366c 92be 16b2 cbbd f702 a2bc
000000c0: 031c d2bd e6e1 65bd d5a9 893d 76d8 273d
000000d0: 53ca edbd 508b 20bd 1011 32bd e719 9c3d
000000e0: b9d3 683d b1cc 623d e5ae 4b3e 2ab9 dc3d
000000f0: 7261 6bbd 9d44 cfbd cd4e 243d 112d 1abe
00000100: e3f4 03bd 80e0 b33d 03c1 b43d e0dc 26bc
00000110: d18c 0e3e 6fd9 343b 4f97 a3ba 4773 a03d
00000120: 34bb 583e 3cbe ab3c 0e13 00be 559e 6abd
00000130: 6a1f 233e 14b4 103e e9f4 33be 803f ddbd
00000140: f8bd 88bd 937b a1bd 22d0 1c3e 5ed8 01be
00000150: bc73 b6bc b73a 03bd d003 13be 62f0 eb3c
00000160: daf8 48be 0ef0 3a3d 1470 c1bd 773f 51be
00000170: efb2 b4bd 8835 01be 19f5 263d c323 003d
00000180: 0055 a3bc 248e 06bb 18b9 923c d61f 833d
00000190: e305 a2bd 8a62 a8bc c248 04bd da46 34be
000001a0: b7d6 85bd 62dd 89bd 7720 b8bd 50bb 803c
000001b0: cf7c f03d 8f33 0f3e d0f0 50be b98a a33d
000001c0: 6271 e63d d9a7 f3bb 049d 1b3d 0152 0f3e
000001d0: 50a6 263d e107 dc3d a024 a63d 07ab 6dbe
000001e0: 04a6 893d ca93 9ebb 794c 5b3d ac28 80be
000001f0: 8606 5a3d 9739 803e 8ad8 edbc 44c7 84bd
00000200: 10c5 5abd f296 99bd 4fa6 8b3d c550 ce3d
00000210: 8359 553d bef6 693e ad88 663d 623b 1f3e
00000220: 498c b2bd f1b1 6a3c e4e9 3ebe 43ea 26be

gconv1.1.A f4 [140, 140]
-0.08061744 0.0850583 0.011784323 -0.06748696 0.13984916 0.14459312 -0.17124082 0.04060695
0.040994555 0.036635663 -0.059306204 -0.02985541 -0.015800571 -0.11867663 0.07939427 0.0032777004
0.015114237 -0.014852661 -0.116467476 0.06428969 -0.108898245 0.0657772 0.0046663866 -0.06632867
-0.10127246 -0.015751045 0.1871295 0.023979522 -0.06375481 -0.015626403 -0.08338988 0.058300976
-0.07509631 -0.05280735 0.00491707 0.04101388 0.11321785 -0.13681275 -0.037613116 -0.044406276
0.022871805 -0.04650103 0.05743929 -0.0941725 -0.102226295 0.028158406 -0.11081757 0.1093021
-0.060411453 0.0765341 0.04137228 -0.09035997 -0.024573527 -0.041244783 -0.025426704 0.10822847
0.09717544 -0.013550342 -0.043325875 -0.05252415 -0.042302083 -0.09721641 0.17675623 0.12172487
-0.08939122 0.029168162 -0.07420272 0.041653685 0.050841294 0.087221265 0.09418795 -0.0018052269
0.010941315 0.09935662 -0.054549284 -0.18301085 -0.117822886 -0.040057193 0.1773623 -0.09513556
0.16217186 -0.031358328 0.11021672 -0.1267087 0.010527981 0.075767115 -0.055845458 0.047303814
0.01915325 -0.0713905 -0.044057976 0.0018780205 0.006388151 0.06829608 0.10044292 -0.077876545
-0.082250156 0.10284241 -0.018352535 0.15107816 -0.056925938 0.063553624 -0.065476045 -0.16198315
-0.083581336 -0.18872643 -0.08157896 0.076922536 -0.0798344 -0.060580708 -0.13653226 -0.04185851
0.019433735 -0.038283616 -0.11620464 -0.030912446 -0.18318771 0.0122061595 -0.10808922 -0.056222968
-0.050921373 -0.08984783 -0.04652426 -0.038739353 -0.039818738 0.09854968 0.062483456 -0.00589909
-0.10049469 0.059566982 -0.15054476 -0.0049314513 -0.08080085 -0.032921534 0.055640478 0.16138306
-0.039303157 0.0022223943 0.05026178 0.042923495 0.13831247 -0.051971134 0.08279975 -0.013176478
-0.11167486 0.08173793 0.11596073 0.047326926 -0.10269096 0.029882722 0.16361976 0.016035177
-0.038896307 -0.025962785 -0.05938509 -0.112750664 0.12252677 -0.03316343 0.016261695 -0.16744961
0.0142236985 0.13247502 0.052738473 -0.057495218 -0.04000748 -0.09813657 0.1007882 0.11582455
-0.05883881 -0.18427059 0.0040315213 0.1265551 -0.0445311 0.163781 -0.070526384 -0.0021255203
0.011859431 -0.058906324 0.07771208 0.06737667 -0.015201324 0.002388934 0.05712428 -0.004238438
-0.02129075 -0.05591141 0.13190217 0.06028917 -0.023219833 0.009037328 0.021928431 -0.015022088
0.027808513 -0.008141042 0.02187394 0.07970743 -0.08022227 -0.025357716 0.08572171 0.18800691
0.02960893 0.025122322 0.12259992 -0.09486019 -0.013081891 0.039759375 -0.05127109 -0.06834875
0.03565102 0.021126244 0.1405152 0.20742506 0.06480902 -0.11357921 -0.0020226918 -0.16768904
-0.08817492 0.021155244 -0.046680637 -0.026058912 0.07179417 0.025331715 0.022664608 0.062933944
-0.029604843 -0.02321157 -0.0806335 0.08407244 -0.05277315 0.033085257 0.0069139353 0.12006996
0.030266246 0.030309219 -0.024926726 -0.056720845 0.005900055 -0.02242572 0.094770804 -0.12287853
-0.09862982 0.009126151 0.012600063 -0.025305586 -0.035202257 -0.13951142 -0.045158062 0.14433314
-0.013406854 -0.10468982 0.043212622 -0.08069177 -0.03038332 0.012019022 -0.09977441 0.04451897
00000000: c21a a5bd 0c33 ae3d 0813 413c 9a36 8abd
00000010: 9e34 0f3e 3810 143e c159 2fbe 7953 263d
00000020: e8e9 273d 470f 163d 10eb 72bd 5593 f4bc
00000030: 3370 81bc bc0c f3bd 7799 a23d b0ce 563b
00000040: b4a1 773c 9358 73bc 8086 eebd 50aa 833d
00000050: 0b06 dfbd 32b6 863d 7de8 983b 53d7 87bd
00000060: ef67 cfbd 5608 81bc e09e 3f3e b470 c43c
00000070: e291 82bd f102 80bc 50c8 aabd 01cd 6e3d
00000080: 18cc 99bd 854c 58bd 5f1f a13b 2cfe 273d
00000090: c3de e73d a418 0cbe 3610 1abd 5be3 35bd
000000a0: a75d bb3c dd77 3ebd 7645 6b3d 83dd c0bd
000000b0: 055c d1bd 75ac e63c 52f4 e2bd c8d9 df3d
000000c0: 0072 77bd e9bd 9c3d fb75 293d a60e b9bd
000000d0: 6c4e c9bc 4af0 28bd aa4b d0bc e3a6 dd3d
000000e0: eb03 c73d 4102 5ebc 7976 31bd 9023 57bd
000000f0: f344 2dbd 6619 c7bd 96ff 343e e34a f93d
00000100: be12 b7bd 12f2 ee3c 98f7 97bd 0e9d 2a3d
00000110: f63e 503d 10a1 b23d 9de5 c03d 5d9d ecba
00000120: 3443 333c 7c7b cb3d 126f 5fbd 3267 3bbe
00000130: 204d f1bd 0313 24bd 769e 353e 6fd6 c2bd
00000140: 6110 263e 9771 00bd 4eb9 e13d edbf 01be
00000150: 8e7d 2c3c ca2b 9b3d 35be 64bd a5c1 413d
00000160: 47e7 9c3c 2f35 92bd 2376 34bd e927 f63a
00000170: b253 d13b d1de 8b3d 05b5 cd3d bd7d 9fbd
00000180: c572 a8bd 0b9f d23d 0e58 96bc 3cb4 1a3e
00000190: 2c2b 69bd 6728 823d 4e18 86bd e9de 25be
000001a0: b12c abbd 8041 41be df12 a7bd 9089 9d3d
000001b0: 3880 a3bd 7a23 78bd 1dcf 0bbe d473 2bbd
000001c0: 7f33 9f3c 48cf 1cbd b3fc edbd 193c fdbc
000001d0: 8f95 3bbe 58fc 473c e25d ddbd 0e4a 66bd
000001e0: ee92 50bd 2402 b8bd 3990 3ebd 28ad 1ebd
000001f0: f918 23bd 6ad4 c93d a7ee 7f3d 274d c1bb
00000200: 29d0 cdbd 82fc 733d 6828 1abe 0398 a1bb
00000210: eb7a a5bd bbd8 06bd 45e7 633d 9a41 253e
00000220: 59fc 20bd 97a5 113b 4cdf 4d3d 8cd0 2f3d
00000230: c9a1 0d3e afdf 54bd ea92 a93d 28e2 57bc
00000240: cab5 e4bd 3766 a73d d27c ed3d e1d9 413d
00000250: a34f d2bd 9ccc f43c f08b 273e 345c 833c
00000260: bc51 1fbd e8af d4bc c83d 73bd d2e9 e6bd
00000270: 51ef fa3d 60d6 07bd 3f37 853c e977 2bbe
00000280: 840a 693c 88a7 073e 4c04 583d 1b80 6bbd
00000290: e2de 23bd d3fb c8bd 0b6a ce3d 6c35 ed3d
000002a0: f700 71bd 6eb1 3cbe da1a 843b a997 013e
000002b0: 3e66 36bd 35b6 273e 2370 90bd 504c 0bbb
000002c0: 0f4e 423c c247 71bd 8327 9f3d c8fc 893d
000002d0: f90e 79bc a98f 1c3b 26fb 693d 98e2 8abb
000002e0: f069 aebc 5d03 65bd 5d11 073e c7f1 763d
000002f0: 8537 bebc 4d11 143c 41a3 b33c 341f 76bc
00000300: aece e33c 0162 05bc fa30 b33c a63d a33d
00000310: 934b a4bd fcba cfbc dd8e af3d e284 403e
00000320: 6d8e f23c 54cd cd3c ab15 fb3d 0f46 c2bd
00000330: 6e55 56bc bada 223d a201 52bd 6efa 8bbd
00000340: ce06 123d f210 ad3c 37e3 0f3e 3c67 543e
00000350: 97ba 843d 389c e8bd 238f 04bb adb6 2bbe
00000360: 0d95 b4bd c34d ad3c 3234 3fbd 8079 d5bc
00000370: d208 933d 7584 cf3c 21ab b93c 83e3 803d
00000380: db85 f2bc 3126 bebc 2d23 a5bd 2c2e ac3d
00000390: a928 58bd 6884 073d 4b8e e23b 3de7 f53d
000003a0: ebf0 f73c 0a4b f83c 2233 ccbc 1e54 68bd
000003b0: 4055 c13b 25b6 b7bc 3217 c23d bda7 fbbd
000003c0: 6efe c9bd da85 153c 7f70 4e3c a94d cfbc
000003d0: 3e30 10bd 15dc 0ebe a9f7 38bd 11cc 133e
000003e0: 6ca8 5bbc 9e67 d6bd b8ff 303d ba41 a5bd
000003f0: 71e6 f8bc 6feb 443c 8756 ccbd 8659 363d

gconv1.1.W.weight f4 [140, 140]
0.029958494 0.045628935 -0.03469989 0.012676435 0.17227747 0.099208854 0.024802504 -0.04156011
0.061169926 -0.023955654 -0.0428878 0.13046701 0.08235388 0.050487522 0.055928715 0.039957073
0.10502235 0.064380616 -0.0030735587 -0.08371679 -0.024226595 0.10484999 0.11630201 -0.073927194
0.06584697 0.07689335 0.24113688 -0.20353884 -0.050471142 0.1906853 -0.06185144 -0.1610684
0.077610284 0.04511046 0.07481416 -0.063041665 -0.117031045 -0.0800484 -0.056894757 -0.018366465
0.0462946 0.1420312 0.10578004 0.026319364 -0.09382542 -0.02858479 0.09864652 0.042497717
-0.22492984 -0.044239927 0.00729625 -0.1007736 0.10087432 0.0036930572 -0.006861142 -0.024451492
-0.00034533086 -0.00647066 0.067112006 0.0071084364 -0.0070168856 0.04195433 0.15646914 -0.026815439
0.09744098 -0.054241575 0.14084408 0.08774544 0.03416545 0.11806594 0.061000794 0.055755332
0.037840668 0.1119387 -0.064231165 -0.05965728 0.037558462 -0.02732267 -0.0045323335 0.036930237
-0.23424119 -0.02878041 -0.0020039103 0.042835385 -0.07044018 -0.08532152 -0.042947218 0.039808072
-0.018529823 0.1141859 -0.108597375 -0.04848602 -0.069397286 -0.047636237 0.05484482 0.13759974
-0.039423514 0.16512156 -0.031048998 0.07543079 -0.015905557 0.041018233 -0.07139028 0.0028529682
-0.041528124 0.09928283 0.029909125 -0.00022753396 0.04737778 0.17170002 0.08102861 0.0727247
0.08228957 0.11110387 0.094851024 -0.051152293 0.009631603 -0.0031666583 0.006223168 0.16962454
0.023631003 0.023863345 -0.028559236 0.03108821 0.050676823 0.001218165 0.06505248 0.016415406
0.036829785 0.04616799 0.08617281 0.17270981 -0.020727126 -0.030798309 0.05182163 -0.03515469
0.03817086 -0.084199764 -0.065798566 -0.0076249717 -0.08818827 0.060669575 0.08242725 0.024494532
-0.033341166 0.054172162 -0.09175922 -0.046032816 -0.09031486 -0.06793565 0.011528962 -0.021981826
-0.05001364 0.022303263 -0.103312485 0.00645651 -0.035033874 0.063810974 -0.20059066 0.015331021
0.06029677 0.0075741764 0.07379303 0.0022628405 -0.13580582 -0.07075574 -0.10611329 0.0021171644
0.066063166 0.049913473 0.01310432 -0.043126926 0.03443412 -0.098979466 -0.05393392 0.04564707
-0.008520493 0.0424697 -0.08574997 -0.093281426 -0.11276425 0.20615317 -0.057249665 -0.011131265
-0.07369892 0.12228651 -0.06501416 0.018284775 0.0759074 0.16334908 0.08105046 -0.0563143
0.03630682 -0.0074128597 0.10979187 -0.026819542 -0.15125346 -0.06107623 0.058344476 0.02148159
-0.066360146 -0.10445912 -0.09353112 -0.043878373 -0.13781217 -0.062870495 0.045275602 0.08377463
-0.10191769 0.02838774 -0.057092562 -0.1293331 -0.08260199 0.010416499 -0.024652202 0.028553635
0.0127652325 0.11001191 -0.11449256 -0.002428638 -0.097356655 0.041026887 -0.16428642 -0.020738268
0.046072695 0.05843062 0.12335871 -0.056135125 0.057280395 -0.11694089 -0.14707223 0.0033614517
0.028108839 -0.05773311 0.033855416 -0.05027166 0.052663986 0.012094045 0.15508293 0.13369462
-0.019415472 -0.024333583 0.021004196 0.06692712 -0.03999483 0.045322794 -0.07802491 -0.024370858
0.05494331 -0.02393423 0.06481121 -0.017695714 -0.1686704 0.057154194 -0.07426358 0.005598895
00000000: 846b f53c 68e5 3a3d 7921 0ebd d2b0 4f3c
00000010: 8169 303e 032e cb3d 9f2e cb3c ef3a 2abd
00000020: 518d 7a3d a63e c4bc 1eab 2fbd 2599 053e
00000030: 27a9 a83d 01cc 4e3d 8215 653d 07aa 233d
00000040: f515 d73d fcd9 833d c26d 49bb b573 abbd
00000050: da76 c6bc 97bb d63d c02f ee3d 2467 97bd
00000060: c7da 863d 437a 9d3d 96ec 763e 7c6c 50be
00000070: d4ba 4ebd 0243 433e f057 7dbd 1def 24be
00000080: 24f2 9e3d bfc5 383d 2b38 993d fd1b 81bd
00000090: f9ad efbd 6af0 a3bd 7a0a 69bd 4575 96bc
000000a0: 689f 3d3d a070 113e 35a3 d83d b59b d73c
000000b0: 8b27 c0bd a62a eabc 3007 ca3d 1612 2e3d
000000c0: 0254 66be ed34 35bd 6215 ef3b 6462 cebd
000000d0: 3297 ce3d 3807 723b 6ed3 e0bb 7f4e c8bc
000000e0: 860d b5b9 d507 d4bb 0572 893d e3ed e83b
000000f0: e7ed e5bb 4ed8 2b3d 7239 203e 0dac dbbc
00000100: 238f c73d 6a2c 5ebd 6e39 103e e2b3 b33d
00000110: 12f1 0b3d 8ecc f13d f8db 793d b45f 643d
00000120: d1fe 1a3d 1e40 e53d a18b 83bd 315b 74bd
00000130: e7d6 193d cbd3 dfbc f883 94bb 2944 173d
00000140: ecdc 6fbe e5c4 ebbc 0954 03bb 2874 2f3d
00000150: f142 90bd 0dbd aebd 6ce9 2fbd ca0d 233d
00000160: dbcb 97bc 4cda e93d 4d68 debd 4799 46bd
00000170: 2a20 8ebd 371e 43bd f6a4 603d f2e6 0c3e
00000180: 8d7a 21bd a015 293e 785a febc 757b 9a3d
00000190: 5f4c 82bc bc02 283d 1135 92bd ddf8 3a3b
000001a0: 6519 2abd cc54 cb3d fb03 f53c 2f96 6eb9
000001b0: 340f 423d 21d2 2f3e 54f2 a53d b0f0 943d
000001c0: 6f87 a83d 6d8a e33d 4141 c23d 1185 51bd
000001d0: dfcd 1d3c b687 4fbb b8eb cb3b 0eb2 2d3e
000001e0: ce95 c13c 107d c33c 0ff5 e9bc b4ac fe3c
000001f0: 8092 4f3d d6aa 9f3a 3c3a 853d 9a79 863c
00000200: d4da 163d a51a 3d3d 5f7b b03d d7da 303e
00000210: efcb a9bc bc4c fcbc eb42 543d 5dfe 0fbd
00000220: 0c59 1c3d ed70 acbd 66c1 86bd e6da f9bb
00000230: 0d9c b4bd a980 783d 9ecf a83d c2a8 c83c
00000240: bf90 08bd a1e3 5d3d 42ec bbbd e88c 3cbd
00000250: fff6 b8bd d921 8bbd f9e3 3c3c 3b13 b4bc
00000260: 1adb 4cbd 55b5 b63c 7f95 d3bd 2291 d33b
00000270: ae7f 0fbd 54af 823d a367 4dbe f62e 7b3c
00000280: bff9 763d cc30 f83b cd20 973d 2a4c 143b
00000290: ae10 0bbe 63e8 90bd ed51 d9bd 20c0 0a3b
000002a0: 204c 873d 1272 4c3d 80b3 563c dca5 30bd
000002b0: cb0a 0d3d bfb5 cabd d0e9 5cbd 6cf8 3a3d
000002c0: 8a99 0bbc b5f4 2d3d ae9d afbd 550a bfbd
000002d0: f1f0 e6bd d119 533e a07e 6abd e95f 36bc
000002e0: 76ef 96bd 5a71 fa3d 2526 85bd f4c9 953c
000002f0: 5775 9b3d fb44 273e c9fd a53d d3a9 66bd
00000300: 76b6 143d 93e7 f2bb 8fda e03d a8b4 dbbc
00000310: 30e2 1abe 122b 7abd 9efa 6e3d 29fa af3c
00000320: d4e7 87bd aaee d5bd 3e8d bfbd cfb9 33bd
00000330: a21e 0dbe 3fc2 80bd e972 393d 0992 ab3d
00000340: 39ba d0bd 688d e83c e4d9 69bd e56f 04be
00000350: 3b2b a9bd f7a9 2a3c 6af3 c9bc 50e9 e93c
00000360: 4425 513c ed4d e13d 137b eabd c929 1fbb
00000370: ed62 c7bd cf0b 283d b33a 28be 4de3 a9bc
00000380: b9b6 3c3d f254 6f3d 7ea3 fc3d f2ed 65bd
00000390: d99e 6a3d b57e efbd 1a9a 16be cd4b 5c3b
000003a0: 8244 e63c 8e79 6cbd faab 0a3d a8e9 4dbd
000003b0: 31b6 573d 1a26 463c 0fce 1e3e 3ee7 083e
000003c0: 320d 9fbc 3957 c7bc fe10 ac3c 1611 893d
000003d0: 9ed1 23bd 65a4 393d 86cb 9fbd 65a5 c7bc
000003e0: 3c0c 613d b811 c4bc bdbb 843d 9af6 90bc
000003f0: efb7 2cbe 841a 6a3d 8117 98bd ef76 b73b
