save/best_old_opt1_0.790.pt (torch, 886152 bytes, 24 tensors)

gconv1.0.A f4 [140, 140]
0	0xbc1786f3	-0.009248483
1	0xbd8b5a78	-0.06804365
2	0xbe3b4f67	-0.18292008
3	0xbe1ab1fa	-0.15106955
4	0xbe365b94	-0.17808372
5	0x3e01871d	0.12649198
6	0xbe0c2a35	-0.13687976
7	0xbdc7cc77	-0.097557954
8	0xbc1d100c	-0.009586345
9	0x3e02c136	0.12769017
10	0xbd80e98a	-0.06294544
11	0xbd9084f7	-0.07056611
12	0xbd058051	-0.032593075
13	0x3da699e6	0.081348225
14	0x3cafff97	0.02148418
15	0x3d8f7776	0.07005207
16	0xbd9d82ea	-0.076909855
17	0x3d43d8a9	0.047814045
18	0xbd592e07	-0.05302241
19	0xbdd0c3dd	-0.10193608
20	0x3e38c018	0.18042028
21	0xbd8f59fe	-0.069995865
22	0x3e3d3efb	0.18481056
23	0x3e196ca4	0.1498285
24	0x3cd5b23f	0.02608597
25	0x3ce39ffd	0.02778625
26	0x3d1e5893	0.03865869
27	0xba697b76	-0.0008906642
28	0xbe244cb9	-0.16044892
29	0x3dafc129	0.08581764
30	0xbd26823a	-0.040651537
31	0x3bc89be9	0.0061221016
32	0xbd067fe1	-0.0328368
33	0xbd844fe3	-0.0646055
34	0x3cbe5d17	0.023237748
35	0xbce8cb3c	-0.028417222
36	0xbd059176	-0.032609425
37	0x3df2e7f3	0.11860647
38	0x3d971d25	0.07378606
39	0x3d903d7a	0.07042976
40	0x3aae482e	0.0013296658
41	0xbd3cc75b	-0.046088558
42	0xbcca3075	-0.02468131
43	0xbd256cb3	-0.040386867
44	0xbce8dccd	-0.028425599
45	0xbd8f98b0	-0.07011545
46	0xbd242e7a	-0.040083386
47	0x3cf9e536	0.030504804
48	0x3c4c1912	0.012457149
49	0xbd3f3996	-0.046685778
50	0x3d4c38eb	0.04985897
51	0xbb8f471c	-0.0043724906
52	0xbda1cd7b	-0.079005204
53	0xbd184632	-0.03717632
54	0xbe1693b2	-0.14704779
55	0x3d8546ad	0.06507621
56	0xbe220a3c	-0.15824217
57	0x3def86dd	0.11695645
58	0x3dad3820	0.084579706
59	0xbe1c040b	-0.15235917
60	0xbcf68968	-0.030094817
61	0x3d965d16	0.073419735
62	0xbd6b298d	-0.057412673
63	0x3ccf9916	0.025341552
64	0x3eab60e4	0.3347236
65	0xbd05f1b3	-0.032701205
66	0xbc794de7	-0.015216327
67	0xbdd2bc60	-0.10289836
68	0xbc925afe	-0.017865654
69	0x3d9b6153	0.075869225
70	0x3da4860f	0.08033382
71	0xbde45727	-0.111494355
72	0x3a323f57	0.00067995995
73	0xbdca8c3f	-0.09890031
74	0x3e3131e5	0.1730419
75	0x3d219656	0.039450012
76	0xbe393708	-0.18087399
77	0x3dc690f4	0.09695616
78	0xbcf2b169	-0.029625611
79	0xbd183613	-0.037160944
80	0x3de6c1b9	0.112674184
81	0xbce0f73e	-0.027461644
82	0xbd3b9a1d	-0.04580127
83	0x3d1adb56	0.03780683
84	0xbd1fd720	-0.03902352
85	0x3ce68869	0.028141217
86	0x3d64b5da	0.05583749
87	0x3c56dbf7	0.013113967
88	0xbdaace83	-0.0834017
89	0x3d57a91a	0.052651502
90	0xbd3d78a4	-0.04625763
91	0xbe181265	-0.14850767
92	0x3bd00b7e	0.006349026
93	0xbc42c3a7	-0.0118874675
94	0xbd2adfe5	-0.04171743
95	0x3c5cbf8a	0.013473401
96	0xbe2d8b37	-0.16947637
97	0xbe1108a8	-0.14163458
98	0xbd46175f	-0.048362132
99	0xbc8bf9c9	-0.01708688
100	0x3dcdce5c	0.100491256
101	0xbc588acf	-0.013216688
102	0xbcaebc6e	-0.021330085
103	0x3bdceece	0.006742335
104	0x3ccd5a10	0.02506736
105	0xbd43030a	-0.04761032
106	0x3ca76d52	0.02043787
107	0xbc1a3b37	-0.009413532
108	0x3d00ab4d	0.031413365
109	0xbe24fbb7	-0.16111647
110	0xbcf76ba3	-0.030202692
111	0xbdf07e74	-0.11742869
112	0x3d8beb88	0.068320334
113	0xbd4c7356	-0.04991468
114	0xbd81cb72	-0.06337632
115	0xbe435d57	-0.19078575
116	0x3d38a3d6	0.04507812
117	0xbb403f73	-0.0029334694
118	0xbcb78a05	-0.02240468
119	0xbd77a723	-0.06046213
120	0xbe28b90b	-0.16476838
121	0xbc792ae3	-0.015207979
122	0xbc41f7e4	-0.011838887
123	0x3d402cbb	0.04691766
124	0xbe2d262e	-0.16909096
125	0xbd45b876	-0.04827162
126	0xbd4a66f3	-0.049414586
127	0xbc971489	-0.01844241
128	0x3dedf6d2	0.11619343
129	0xbca99f32	-0.020705793
130	0x3e1dd0fa	0.1541175
131	0x3d73ad4d	0.059491444
132	0xbd4f6a15	-0.050638277
133	0x3d68ad35	0.056805808
134	0x3d01f8ef	0.031731542
135	0x3ca879d0	0.020565897
136	0xbccbdd05	-0.024885664
137	0xbdbadea4	-0.091244966
138	0x3d2b14d4	0.04176791
139	0xbe34ccca	-0.17656246
140	0x3d204eb2	0.03913755
141	0xbe61ca77	-0.2204989
142	0xbccb8880	-0.024845362
143	0x3db1fd27	0.08690863
144	0x3d036a7a	0.032083966
145	0xbdd5d3a8	-0.10440761
146	0xbae09e5f	-0.0017137042
147	0x3b975157	0.0046178508
148	0x3daabf0b	0.0833722
149	0xbd71987a	-0.058983304
150	0xbd432b48	-0.047648698
151	0x3d12032c	0.035647556
152	0xbdfca412	-0.123359814
153	0x3dd31dcc	0.10308418
154	0xbd4e469a	-0.0503603
155	0x3d0d34bf	0.03447413
156	0x3d54e79d	0.051978696
157	0x3c94f684	0.018183954
158	0xbda9d616	-0.08292787
159	0xbc6f8088	-0.014618047
160	0xbd064cd4	-0.032788113
161	0x3da21b12	0.079153195
162	0xbda6b004	-0.08139041
163	0x3e98938a	0.29800063
164	0xbdd14653	-0.102184914
165	0xbcd1cfd9	-0.025611805
166	0x3ddbe69e	0.10737346
167	0xbdc27c95	-0.094964184
168	0x3d699bf1	0.057033483
169	0x3e128616	0.14308962
170	0x3b96c2e7	0.004600871
171	0xbd60f78b	-0.054923575
172	0x3e18a888	0.1490804
173	0x3dc326be	0.09528874
174	0xbdef3cca	-0.116815165
175	0x3d8cb4ef	0.06870448
176	0x3c2daf87	0.010600931
177	0xbcfc8a56	-0.030827682
178	0xbd34169f	-0.043966886
179	0x3db69d39	0.089167066
180	0x3cad1b09	0.021131055
181	0xbda33d05	-0.07970623
182	0x3e18434c	0.14869422
183	0xbdf9ad66	-0.12191276
184	0x3d17461c	0.036932096
185	0xbd3f6c6b	-0.046734255
186	0xbdb28f88	-0.08718783
187	0xbc425512	-0.011861103
188	0xbcbb43c7	-0.022859467
189	0xbcb803bf	-0.022462724
190	0xbd99984b	-0.07499751
191	0xbd3359ad	-0.043786693
192	0xbdf8fc58	-0.12157506
193	0xbddcaa85	-0.107747115
194	0x3dae8865	0.08522109
195	0xbbb86065	-0.0056267255
196	0xbd6bf62d	-0.05760782
197	0x3cf86f49	0.030326502
198	0x3e52d783	0.20590024
199	0xbd874e92	-0.06606783
200	0xbe01fb11	-0.1269343
201	0x3c2fc999	0.010729217
202	0x3da48aba	0.080342725
203	0x3d8fc2e4	0.07019594
204	0x3d33b3ed	0.043872762
205	0xbd009eb4	-0.03140135
206	0xbcdfb1e2	-0.0273065
207	0x3ce490d1	0.027901085
208	0x3dec7609	0.11545951
209	0xbdd9889c	-0.10621759
210	0xbe3cfa90	-0.18454957
211	0xbe082aa3	-0.13297515
212	0x3ce63195	0.028099814
213	0xb9ffcb99	-0.00048789082
214	0xbd1c68b1	-0.03818578
215	0xbe0e3db5	-0.13890727
216	0x3e042283	0.1290379
217	0x3e0bdc6a	0.136583
218	0x3dbbfc59	0.09178991
219	0x3cd68993	0.026188647
220	0x3e59d03f	0.21270846
221	0x3d8b22de	0.0679376
222	0xbd05d253	-0.032671284
223	0xbca34d9e	-0.019934472
224	0x3dfeae20	0.124355555
225	0x3ced4294	0.028962411
226	0x3ceb9388	0.028756872
227	0xbdde2b0a	-0.10848053
228	0xbdd548a6	-0.10414247
229	0x3e4bd7e6	0.19906577
230	0xbc5a42f7	-0.01332163
231	0x3ca2d200	0.019875526
232	0xbde1a860	-0.11018443
233	0xbd76c82b	-0.06024949
234	0xbe17523b	-0.14777462
235	0xbc3b4e00	-0.011432171
236	0x3d30747c	0.04307984
237	0xbbef2564	-0.0072981585
238	0xbdc9073e	-0.098158345
239	0xbdd82b63	-0.1055515
240	0x3c702252	0.01465662
241	0x3e0a71a2	0.1351991
242	0x3d90e3b6	0.070746824
243	0x3df77a3f	0.120838635
244	0xbd69481d	-0.05695354
245	0x3d23718f	0.03990322
246	0x3c229ff4	0.009925831
247	0x3cdfd918	0.027325198
248	0xbcdc99be	-0.026928779
249	0x3c16fed4	0.009216029
250	0x3d2c2438	0.04202673
251	0xbdc2f67c	-0.095196694
252	0x3d89d5b5	0.067302145
253	0x3bcc064c	0.0062263366
254	0x3deb6744	0.11494306
255	0xbcdf3a01	-0.027249338

gconv1.0.W.weight f4 [140, 140]
0	0x3dd3869d	0.1032841
1	0x3c5a3cd3	0.013320166
2	0x3db075bc	0.08616206
3	0x3d953eb1	0.07287348
4	0xbdfaebac	-0.12251982
5	0xbd09bfe5	-0.03363027
6	0xbd992a2c	-0.07478747
7	0xbd9f4a60	-0.07777858
8	0x3b8f7554	0.0043780003
9	0xbd323c67	-0.043514635
10	0x3d401e43	0.04690386
11	0x3e0023ca	0.12513652
12	0x3bc26176	0.0059320284
13	0x3d98e601	0.07465745
14	0x3dcb6bac	0.09932646
15	0xbd187fd9	-0.0372313
16	0xbd8740d7	-0.06604164
17	0x3d8e6fc0	0.06954908
18	0x3ba5509e	0.0050450107
19	0xbd310e9d	-0.043226827
20	0xbe21f182	-0.15814784
21	0xbdcf8285	-0.101323165
22	0xbda2fb48	-0.07958084
23	0x3db79629	0.08964188
24	0xbe0b84be	-0.13624856
25	0xbd45ef85	-0.048324127
26	0x3c7505d2	0.014955001
27	0xbd7414bd	-0.05959009
28	0x3dfc3107	0.12314039
29	0x3d008b9d	0.031383146
30	0x3d8dfb04	0.06932643
31	0x3c8feb17	0.017568154
32	0x3c601bc0	0.013678491
33	0x3dcf2048	0.10113579
34	0x3caefadf	0.021359859
35	0x3d0e837a	0.034793355
36	0x3ca39489	0.019968288
37	0xbd52f359	-0.051501606
38	0xbc37cd9d	-0.011218456
39	0x3dd1c090	0.102418065
40	0x3df81082	0.121125236
41	0xbd0d44aa	-0.03448931
42	0xbdc240ef	-0.09485041
43	0x3d41b271	0.047289316
44	0x3e082e6c	0.13298959
45	0xbe3158c0	-0.17319012
46	0x3dc0df11	0.094175465
47	0x3aa91a12	0.0012901446
48	0x3cbd79bb	0.023129335
49	0x3c2e3f06	0.010635143
50	0x3e0b703b	0.13617031
51	0x3d384869	0.04499093
52	0xbdc71d7a	-0.09722419
53	0x3e5311ce	0.2061226
54	0xbdcf63db	-0.10126468
55	0xbbd6173d	-0.006533532
56	0x3c0134a2	0.007886084
57	0xbd64b9f5	-0.055841405
58	0x3d675be4	0.056484118
59	0xbb944e5b	-0.0045259423
60	0x3e4ed2ed	0.2019765
61	0xbc49a33c	-0.0123069845
62	0xbd9af1fd	-0.07565687
63	0x3c2f616f	0.010704382
64	0xbb7b93a7	-0.0038387568
65	0xbdfa45b0	-0.12220323
66	0x3cee6b65	0.029103944
67	0x3cf116b0	0.029429764
68	0x3d0acec8	0.03388861
69	0x3d219743	0.039450895
70	0x3c9365e3	0.01799292
71	0x3cc33236	0.023827653
72	0xbe882a38	-0.2659471
73	0x3d1de4d9	0.038548324
74	0x3d49a67b	0.049231034
75	0x3d87f17d	0.06637857
76	0x3e497d26	0.19676647
77	0xbadd6363	-0.0016890581
78	0x3d12435d	0.035708774
79	0xbd1571b9	-0.036485408
80	0xbda1ac5a	-0.078942016
81	0xbd863ed3	-0.065549515
82	0xbd4f722c	-0.050645992
83	0xbe85187e	-0.2599525
84	0x3de708dd	0.112809874
85	0x3c9b128e	0.018929746
86	0x3db9132c	0.0903686
87	0xbd9f1d7c	-0.077692956
88	0xbd772d45	-0.060345907
89	0xbe1129ea	-0.14176145
90	0xbc7cf392	-0.015438931
91	0xbc5777f9	-0.013151162
92	0xbd2a88c1	-0.041634325
93	0x3d837d7a	0.06420417
94	0xbe2100b6	-0.15722927
95	0xbd880425	-0.066414155
96	0xbbfade5f	-0.007655903
97	0x3d487630	0.048940837
98	0x3e249a12	0.16074398
99	0xbdd3d448	-0.10343224
100	0xbe36f469	-0.17866673
101	0x3c753551	0.014966325
102	0x3da01c0a	0.07817848
103	0xbd7e43e2	-0.062076457
104	0xbdc710a4	-0.09719971
105	0x3c089219	0.008335614
106	0x3ab4c4c7	0.0013791554
107	0xbe42f155	-0.19037373
108	0x3d532a0f	0.051553782
109	0xbbd0990d	-0.0063659013
110	0xbdb7cb79	-0.08974356
111	0xbd37b3fc	-0.04484938
112	0xbc4acdf1	-0.012378202
113	0xbdddde8a	-0.108334616
114	0xbd5997da	-0.053123333
115	0x3e30021f	0.17188309
116	0x3e07a2c7	0.13245688
117	0xbe68a016	-0.22717318
118	0xbd28db0e	-0.04122453
119	0x3dad308a	0.08456524
120	0x3ca6d999	0.02036743
121	0xbe8d1b34	-0.27559817
122	0xbc043e49	-0.008071491
123	0xbd252fe9	-0.040328894
124	0x3c54234e	0.01294787
125	0x3ca29eec	0.01985117
126	0xbde4dcb1	-0.11174906
127	0x3ce0d4b2	0.027445171
128	0x3d85419e	0.06506656
129	0x3aba68bd	0.0014221888
130	0x3caa5bc9	0.02079572
131	0x3d25ec2c	0.040508434
132	0xbd1ba468	-0.037998587
133	0xbc547b5d	-0.012968865
134	0x3e3389b1	0.17532994
135	0x3cc0fba3	0.02355749
136	0x3d9027fc	0.070388764
137	0xbbb22c63	-0.00543742
138	0x3e22cfa8	0.15899527
139	0x3d18c00f	0.037292536
140	0x3d515746	0.05110862
141	0xbdb70414	-0.08936325
142	0x3d267067	0.04063454
143	0x3df907c8	0.12159687
144	0xbc893439	-0.016748535
145	0xbb037410	-0.0020058192
146	0x3d45c7f3	0.04828639
147	0xbe35c865	-0.17752226
148	0xbdcfab3f	-0.101400845
149	0x3d23ac35	0.03995915
150	0xbd525b58	-0.051356643
151	0xbd38af85	-0.045089263
152	0x3e32f9e4	0.17478138
153	0x3d95a8ef	0.07307612
154	0xbd0168e8	-0.031594187
155	0xbc8aaed1	-0.016929062
156	0x3c65efd4	0.01403423
157	0xbc3daa05	-0.01157618
158	0xbd6f1976	-0.05837389
159	0xbde6d4ff	-0.112710945
160	0x3dadff17	0.0849592
161	0x3e2f977b	0.17147629
162	0x3d6d3f37	0.057921614
163	0xbdca937a	-0.0989141
164	0xbdccad71	-0.09994019
165	0x3d0afc2b	0.033931892
166	0x3d90354d	0.07041416
167	0x3dd6bb39	0.10484929
168	0xbb5f06d2	-0.0034031165
169	0x3d2c78c2	0.04210735
170	0xbc6cb7ab	-0.014448087
171	0xbd1835e5	-0.037160773
172	0xbcc290fa	-0.02375077
173	0xbc0a29d9	-0.008432829
174	0x3d683cac	0.056698486
175	0x3cc4f5da	0.024043012
176	0xbdb4970c	-0.088178724
177	0xbe2b7e4c	-0.16747397
178	0xbb9bf07a	-0.0047588916
179	0x3d68915f	0.05677926
180	0x3dbeb84d	0.09312496
181	0xbc391064	-0.011295412
182	0x3dd81f5f	0.105528586
183	0xbd853354	-0.06503931
184	0x3dc0b09b	0.09408685
185	0x3d04b7c8	0.03240183
186	0x3e331719	0.1748928
187	0x3dac2208	0.084049284
188	0x3e41f774	0.18942052
189	0x3cf74d37	0.030188186
190	0x3cca03e6	0.024660062
191	0x3e1cb798	0.1530441
192	0xbc54dd5a	-0.012992227
193	0xb9862f4a	-0.00025593705
194	0xbd2e259a	-0.04251633
195	0xbd0c6e02	-0.0342846
196	0xbc0fd870	-0.00877963
197	0xb80cdee9	-3.3586202e-05
198	0xbda9bf39	-0.08288426
199	0x3d9094f3	0.0705966
200	0xbe36f7ef	-0.17868017
201	0xbcdf7a88	-0.027280107
202	0xbdb69224	-0.08914593
203	0xbdcdd380	-0.10050106
204	0x3dc35197	0.095370464
205	0xbdb1369b	-0.08652993
206	0xbd6d67e8	-0.05796042
207	0xbd6ddb55	-0.0580705
208	0xbc967328	-0.018365458
209	0xbe5e7bf3	-0.2172697
210	0x3d3bcbad	0.045848537
211	0xbc6d1cf1	-0.014472232
212	0xbd2014da	-0.039082386
213	0xbd6ca787	-0.057776954
214	0xbdf34b0d	-0.11879549
215	0x3dd39def	0.10332858
216	0x3e228c00	0.15873718
217	0x3e01e254	0.12683994
218	0xbd12f480	-0.035877705
219	0x3c3be67e	0.011468528
220	0xbd0332a2	-0.03203071
221	0xbd880200	-0.066410065
222	0xbd7d0def	-0.061780866
223	0xbd3ec014	-0.0465699
224	0xbd5f2f8b	-0.0544887
225	0xbd6e3153	-0.058152508
226	0x3d0d92af	0.034563717
227	0xbda24a2b	-0.07924303
228	0x3e198b72	0.149946
229	0xbd2e52b6	-0.042559348
230	0x3cfaef07	0.030631555
231	0x3dc58fe3	0.09646585
232	0x3e71a531	0.23598172
233	0x3dced591	0.10099328
234	0x3e281c50	0.1641705
235	0x3c898caf	0.016790716
236	0x3c1a641f	0.009423285
237	0xbc801fea	-0.015640218
238	0x3e562cf4	0.20915586
239	0x3d6d93ad	0.058002163
240	0xbe0ccba5	-0.13749559
241	0x3dedeb5e	0.11617158
242	0xbc953d30	-0.018217653
243	0xbe652b73	-0.22379856
244	0xbdb45348	-0.08804947
245	0xbd7d54d3	-0.061848473
246	0x3d41c994	0.04731138
247	0xbdd796d7	-0.10526817
248	0x3e1d93f5	0.15388472
249	0xbd19e75d	-0.03757416
250	0x3e5fe95a	0.2186636
251	0xbd636bba	-0.055522658
252	0x3e0af38d	0.1356947
253	0xbd8481a1	-0.06470037
254	0xbddb6ecf	-0.107144944
255	0x3d150f3d	0.036391485

gconv1.0.W.bias f4 [140]
0	0x3d7f963d	0.062399138
1	0xbb293872	-0.0025820998
2	0xbcf38542	-0.029726628
3	0xbc8e2e2d	-0.017356003
4	0x3db35445	0.087563075
5	0xbcff8ae6	-0.031194162
6	0x3dc1f842	0.094711795
7	0xbd4137b6	-0.04717227
8	0xbce8c83a	-0.028415788
9	0xbd05c9fa	-0.032663323
10	0xbc87871e	-0.016543921
11	0x3d3cd359	0.046099994
12	0xbda1ae27	-0.07894545
13	0x3bb85e58	0.005626481
14	0xbdb01943	-0.08598568
15	0xbb1da50a	-0.002405467
16	0x3dc41aa8	0.09575397
17	0xbcfafa0d	-0.030636812
18	0x3daf6e8f	0.08566009
19	0x3d9f6868	0.07783586
20	0x3b4c571c	0.003117985
21	0xbd46484b	-0.048408788
22	0xbd01938a	-0.031634845
23	0xbd8b97ef	-0.068160884
24	0x3d01783e	0.031608813
25	0x3dc6c880	0.09706211
26	0xbd90b1bc	-0.0706515
27	0x3c4a06dd	0.012330738
28	0xbc9026af	-0.01759657
29	0x3d0f7623	0.035024773
30	0x3d4f96e4	0.05068101
31	0x39f19dba	0.00046084617
32	0xbdbcc75b	-0.092177115
33	0x3d05464f	0.032537755
34	0xbdd8c5bd	-0.105845906
35	0x3d74b2f6	0.059740983
36	0x3cc5c3f9	0.024141299
37	0x3d56c098	0.052429765
38	0x3d85133e	0.06497811
39	0xbd4deac9	-0.050272737
40	0x3d14515d	0.036210407
41	0x3d0e6f55	0.034774143
42	0x3d1b3a7f	0.037897583
43	0xbd229029	-0.039688263
44	0x3c67e7ab	0.014154355
45	0xbd87a5bc	-0.06623408
46	0x3cd5ca36	0.026097398
47	0x3d4de1de	0.05026423
48	0xbd7e5f23	-0.06210245
49	0x3d5767bc	0.052589163
50	0x3dce07e5	0.100600995
51	0x3ca59876	0.0202143
52	0x3d759709	0.05995849
53	0x3c3ebe9c	0.0116421245
54	0xbc96e3d4	-0.018419184
55	0xbd33032b	-0.043704193
56	0x3db52b4c	0.08846149
57	0x3cf1c1a2	0.029511277
58	0xbd87e9e1	-0.06636406
59	0xbc46ddfc	-0.012137886
60	0x3d78d659	0.060751293
61	0xbd30a983	-0.04313041
62	0x3ca302af	0.01989874
63	0xbc67b178	-0.014141433
64	0xbdb93281	-0.09042836
65	0x3da6552a	0.081217125
66	0xbc35af53	-0.011089164
67	0xbcacb4fe	-0.021082398
68	0xbd687762	-0.056754477
69	0x3d31d044	0.04341151
70	0x3da70461	0.08155132
71	0xbcbf513b	-0.023354163
72	0xbde10eb8	-0.109891355
73	0xbbdbaec9	-0.0067041856
74	0x3cbb75c4	0.022883303
75	0xbc953ea7	-0.018218352
76	0xbcb30666	-0.021853637
77	0xbdc02b5a	-0.09383269
78	0xbc761b9b	-0.01502123
79	0xbd859a22	-0.06523539
80	0xbda375de	-0.07981466
81	0xbd3df082	-0.046371944
82	0xbdbef09a	-0.09323235
83	0xbd2b7f18	-0.041869253
84	0x3dc2518f	0.09488212
85	0x3d058486	0.032597087
86	0xbd8c443e	-0.06848954
87	0x3da825ca	0.08210333
88	0xbcff3d3c	-0.031157129
89	0xbcffb111	-0.031212362
90	0xbd89b6a1	-0.06724287
91	0xbb8ed2df	-0.004358634
92	0x3de295cd	0.110637285
93	0x3c52e441	0.012871803
94	0x3d42cc6b	0.04755823
95	0x3d8c7a35	0.06859247
96	0x3d757868	0.05992928
97	0xbcd579a9	-0.026058989
98	0x3cf59eb7	0.029982908
99	0xbbd3139d	-0.006441547
100	0x3cc5444b	0.024080416
101	0x3d2c7180	0.04210043
102	0xbc2f1ae7	-0.010687566
103	0x3cbfc889	0.023411052
104	0x3cd2c0b4	0.025726654
105	0xbdad2b7f	-0.08455562
106	0x3cf5ce9a	0.030005742
107	0xbd2b4edf	-0.041823264
108	0x3d9d4122	0.07678439
109	0x3d32f3b0	0.04368943
110	0xbca84278	-0.020539507
111	0x3d88dd94	0.06682888
112	0xbdaac7b8	-0.083388746
113	0xbd5c4cc7	-0.053784158
114	0xbd33a95c	-0.043862686
115	0x3dce71cf	0.10080301
116	0xbd0f0d1e	-0.03492462
117	0x3c6bdb9c	0.014395621
118	0x3d22e8b9	0.039772723
119	0x3d3fbde5	0.046811957
120	0xbd5b8ee8	-0.053603083
121	0x3de2d85a	0.11076422
122	0x3cbae314	0.022813357
123	0xba72eb09	-0.00092665904
124	0x3a235c98	0.0006231754
125	0x3d901eb4	0.07037106
126	0xbd78100e	-0.060562186
127	0xbd1a9e83	-0.037748825
128	0xbcf3bfac	-0.029754482
129	0xbd047e4f	-0.03234702
130	0x3cfd7ada	0.03094237
131	0xbd9d8f31	-0.07693327
132	0xbd68b40a	-0.056812324
133	0xbc8ea1bf	-0.01741111
134	0xb9e50e22	-0.00043688813
135	0x3d80f4bc	0.062966794
136	0xbbd13360	-0.006384298
137	0x3ca48c7c	0.02008652
138	0xbde76c3c	-0.11299941
139	0x3c8cf679	0.017207371

gconv1.0.gate.weight f4 [1, 280]
0	0xbb2df845	-0.0026545685
1	0x3dae5fbd	0.085143544
2	0xbd552422	-0.052036412
3	0x3e49f5c7	0.19722663
4	0x3d2ebf07	0.042662647
5	0xbdc5f8a0	-0.09666562
6	0xbdd2f1fd	-0.10300062
7	0x3d52407f	0.05133104
8	0xbe146c75	-0.14494498
9	0x3d3b7893	0.045769285
10	0x3d76aa83	0.060221206
11	0xbc9fc05a	-0.0195009
12	0x3e13ebf4	0.14445478
13	0x3dd3c56e	0.10340391
14	0xbd50494a	-0.050851144
15	0x3d42b72e	0.047537975
16	0x3e21f2d8	0.15815294
17	0x3bc95d69	0.0061451686
18	0x3d4a34b5	0.04936667
19	0xbdfb3cef	-0.122674815
20	0xbb4122fe	-0.002947032
21	0x3d9aa403	0.07550814
22	0xbbf7fc2f	-0.0075679044
23	0x3cd3c4e7	0.025850726
24	0xbda56443	-0.08075764
25	0xbb2439d1	-0.0025058875
26	0xbde946e1	-0.11390472
27	0x3e2ea151	0.17053725
28	0x3cb93541	0.022608401
29	0xbd7f1787	-0.062278297
30	0x3d4e47b3	0.050361346
31	0xba99db02	-0.0011738243
32	0x3e750bac	0.23930234
33	0x3ddc2338	0.10748905
34	0x3dc32c49	0.09529931
35	0x3e039968	0.12851489
36	0x3daef39a	0.08542557
37	0xbac8eddb	-0.0015329676
38	0x3d6b5a59	0.05745921
39	0x3e2648cb	0.16238706
40	0x3dc4e678	0.09614271
41	0xbdaad853	-0.08342042
42	0xbcd69d5b	-0.02619808
43	0xbd4454dc	-0.04793249
44	0xbc838b07	-0.016057504
45	0xbda60c97	-0.0810787
46	0x3d70b747	0.058768537
47	0xbe3f233b	-0.18665783
48	0x3df71496	0.12064473
49	0x3db55797	0.08854597
50	0x3e2e0404	0.1699372
51	0x3d7e2325	0.062045235
52	0xbe077ea9	-0.13231911
53	0xbe2ec819	-0.17068519
54	0x3d0af946	0.033929132
55	0x3c403fbc	0.011733945
56	0x3e4d4951	0.20047499
57	0x3def9517	0.116983585
58	0x3db02069	0.08599932
59	0xbcc665a4	-0.024218388
60	0xbd686cf4	-0.05674453
61	0xbe02f447	-0.12788497
62	0xbd8269b5	-0.06367818
63	0xbe36f976	-0.178686
64	0x3e01b1b9	0.12665452
65	0xbd3be3ce	-0.04587155
66	0x3e4fdcab	0.20299022
67	0xbc8302f4	-0.01599262
68	0x3dffbea5	0.124875344
69	0xbe8cd53d	-0.27506438
70	0x3e1a14f5	0.15047057
71	0x3bbece95	0.0058229663
72	0x3da0e992	0.0785705
73	0xbe07d696	-0.13265452
74	0xbd9537b1	-0.07286013
75	0x3def7f6a	0.11694224
76	0x3de843c4	0.1134105
77	0xbda3aa1b	-0.079914294
78	0x3e0cdcbb	0.13756077
79	0x3bcc872b	0.006241699
80	0xbc980901	-0.01855898
81	0xbd0b8dfe	-0.03407096
82	0x3c81a570	0.015825957
83	0x3d9972e6	0.07492618
84	0x3e3ed5f2	0.18636301
85	0xbe05d087	-0.13067828
86	0xbe4c8cfc	-0.19975656
87	0x3db513c2	0.08841659
88	0x3e02ca45	0.12772472
89	0xbd919edb	-0.071103774
90	0x3dc28316	0.09497659
91	0xbd9ad65e	-0.075604185
92	0x3d684a6e	0.056711607
93	0x3e0dcc01	0.13847353
94	0x3dd800bb	0.10547014
95	0xbd5ccc0b	-0.053905528
96	0xbe155577	-0.14583384
97	0x3e92b47f	0.28653333
98	0xbcb30be3	-0.021856254
99	0x3bc54f9b	0.0060214526
100	0x3d2b73fd	0.041858662
101	0x3e378489	0.17921652
102	0x3e521ecc	0.2051956
103	0xbdf4f9c9	-0.11961705
104	0x3d9f64d8	0.07782906
105	0xbd001ec8	-0.031279355
106	0xbd9bc905	-0.07606701
107	0xbdd40c88	-0.10353953
108	0x3e0a17bb	0.13485615
109	0x3ddcde9f	0.10784649
110	0x3c247788	0.010038264
111	0x3e04b526	0.12959728
112	0xbe586c30	-0.2113502
113	0xbbac698f	-0.005261607
114	0x3d5b79e2	0.053583033
115	0xbcf3afda	-0.029746938
116	0x3e1841c5	0.14868839
117	0xbd90b9ea	-0.0706671
118	0xbd049af0	-0.032374322
119	0xbcd5103a	-0.026008714
120	0x3c8bb26f	0.017052857
121	0xbca1016f	-0.019654004
122	0xbd5b3cd2	-0.0535248
123	0x3d822da8	0.063563645
124	0xbda4ff18	-0.08056468
125	0xbe1b92bf	-0.15192698
126	0x3de98c65	0.11403731
127	0x3d053f77	0.032531228
128	0xbcc718d7	-0.024303837
129	0x3def2d5b	0.11678573
130	0xbe09c87e	-0.13455388
131	0xbddc6773	-0.10761919
132	0x3e5d97d1	0.21639945
133	0xbcb29a67	-0.02180214
134	0xbdbdc89c	-0.09266779
135	0x3cdb6b27	0.026784493
136	0x3d6d018d	0.057862807
137	0x3d677f16	0.056517683
138	0x3e25d256	0.16193518
139	0xbdb372cb	-0.087621294
140	0x3d3178e6	0.04332819
141	0x3e43e275	0.19129355
142	0x3d8f423e	0.069950566
143	0xbc84b8ec	-0.016201459
144	0x3cc5192a	0.02405985
145	0xbd58ae54	-0.052900627
146	0x3e74445e	0.23854205
147	0xbd4781e6	-0.048707865
148	0x3d03eded	0.032209326
149	0xbd5e3076	-0.054245435
150	0x3d54b206	0.05192759
151	0x3c99b00d	0.018760705
152	0x3e2d9a91	0.16953494
153	0xbb507279	-0.0031806512
154	0x3e195834	0.14975053
155	0x3b3d0109	0.0028839728
156	0x3d0d8865	0.034553904
157	0x3dd43870	0.10362327
158	0xbd9f6757	-0.077833824
159	0x3d90dbc1	0.07073165
160	0x3cfa3c4b	0.030546328
161	0xbddd719e	-0.108126864
162	0x3e155ced	0.1458623
163	0xbd95f7b8	-0.07322639
164	0xbd441274	-0.04786916
165	0x3bdb1651	0.00668601
166	0x3e27d456	0.16389593
167	0x3db0d3c8	0.08634144
168	0xbe5d0458	-0.21583688
169	0xbc570065	-0.013122653
170	0x3c64be71	0.01396142
171	0xbe8eccc8	-0.2789061
172	0x3db336ff	0.08750724
173	0xbd09b22b	-0.03361718
174	0xbe02f8ba	-0.12790194
175	0x3d87f305	0.06638149
176	0x3d61a3a7	0.05508771
177	0x3ca16d37	0.019705398
178	0x3cc1e113	0.023666894
179	0xbd7ecc8a	-0.062206782
180	0x3a70589f	0.0009168479
181	0x3de904f5	0.113778986
182	0x3d9c2d0b	0.07625779
183	0x3cbdfea6	0.023192715
184	0x3d6f93f2	0.0584907
185	0x3d561912	0.052270003
186	0x3cffd93f	0.03123152
187	0xbdaa74c6	-0.08323054
188	0xbc98cb30	-0.018651575
189	0xbde40aef	-0.11134898
190	0xbd0d83b0	-0.034549415
191	0x3d7edac2	0.062220342
192	0x3d905762	0.07047917
193	0xbddc8234	-0.10767022
194	0xbe3ed69b	-0.18636553
195	0x3cc8714e	0.02446809
196	0x3ab610d7	0.0013890517
197	0xbc8cd6d4	-0.017192282
198	0x3e46b5a0	0.19405222
199	0xbd67aeac	-0.056563064
200	0xbd9106f3	-0.070814036
201	0xbdc745e4	-0.097301275
202	0x3d4057a1	0.04695857
203	0xbe1f6d16	-0.15568957
204	0xbd0df741	-0.034659628
205	0x3dbcf41e	0.09226249
206	0x3ca56810	0.020191222
207	0xbd02e990	-0.031961024
208	0xbd6c55f9	-0.057699177
209	0xbdc49ada	-0.09599848
210	0xbe300043	-0.171876
211	0xbce31d89	-0.027724044
212	0x3be721aa	0.0070535736
213	0x3d61efdd	0.055160392
214	0xbcb5fe17	-0.022215886
215	0xbdd2e4dd	-0.102975585
216	0xbbd099d1	-0.0063659926
217	0x3d4750a2	0.04866088
218	0xbd87fd00	-0.06640053
219	0xbd23b2b1	-0.039965335
220	0xbc1f2860	-0.009714216
221	0xbb003402	-0.001956225
222	0x3dbc43d0	0.09192622
223	0xb9cf31eb	-0.00039519308
224	0x3e6c1440	0.230546
225	0x3d57a704	0.052649513
226	0xbd379e78	-0.044828862
227	0xbdc8b602	-0.0980034
228	0x3d538081	0.051636223
229	0x3da95194	0.08267513
230	0x3c9cff83	0.019164806
231	0xbe002870	-0.12515426
232	0x3cd6bb74	0.026212431
233	0x3d1de6c4	0.038550153
234	0x3e2892b5	0.16462214
235	0x3e08eaab	0.13370769
236	0xbc33e364	-0.010979507
237	0xbd81af44	-0.063322574
238	0xbd835ffa	-0.064147905
239	0x3ce783e2	0.028261129
240	0x3d06e8cf	0.032936867
241	0x3d812f53	0.063078545
242	0x3b4ff599	0.003173208
243	0xbd0286da	-0.031866886
244	0x3df3eb8e	0.11910163
245	0xbd726f5e	-0.05918824
246	0xbe14e62e	-0.14540932
247	0xbc2983db	-0.010346378
248	0xbcf704e2	-0.030153695
249	0x3e0f79ee	0.14011356
250	0x3d652ce9	0.055951033
251	0xbe56ec63	-0.20988612
252	0xbd25e2e6	-0.04049959
253	0x3bc59370	0.006029539
254	0xbd580e68	-0.052748114
255	0x3d9e0060	0.07714915

gconv1.1.A f4 [140, 140]
0	0xbe3df0d9	-0.18548907
1	0x3d4c4d8b	0.04987864
2	0xbc1bec16	-0.0095167365
3	0x3dd87611	0.105693944
4	0xbd929f3a	-0.07159276
5	0xbc587f42	-0.013213934
6	0x3c2e2d72	0.010630952
7	0x3e1df230	0.15424418
8	0x3db209c4	0.08693269
9	0xbb4a1c5c	-0.0030839657
10	0x3d4f4ccc	0.05061035
11	0xbd77a89e	-0.06046354
12	0x3e3fb76c	0.18722314
13	0x3c8d3e32	0.017241571
14	0xbca5979a	-0.02021389
15	0x3d967f10	0.07348454
16	0x3cf26ba7	0.029592348
17	0xbdba8379	-0.09107108
18	0xbd78bdad	-0.060727764
19	0xbc617f1c	-0.013763215
20	0xbd2eb26d	-0.04265063
21	0x3dd00bc2	0.101584926
22	0x3d020b20	0.03174889
23	0x3e0e85ff	0.13918303
24	0x3b891947	0.0041839215
25	0x3c01f628	0.007932223
26	0x3c8d18cb	0.017223736
27	0x3dc617a1	0.096724756
28	0xbba98611	-0.0051734527
29	0x3d48b66e	0.049002104
30	0x3dfa8397	0.1223213
31	0xbcd8bb64	-0.026456542
32	0x3d065664	0.032797232
33	0xbde98040	-0.11401415
34	0x3ccab840	0.02474606
35	0x3bc9167d	0.006136714
36	0x3d44b522	0.048024304
37	0xbdd1e403	-0.10248568
38	0xbdaeaa77	-0.08528607
39	0x3d11f037	0.035629477
40	0xbce7c483	-0.028291946
41	0x3e2929f2	0.16519907
42	0xbaebe9ad	-0.0017998718
43	0x3d98ccf3	0.07460966
44	0x3e058b37	0.13041387
45	0xba837cd7	-0.0010031712
46	0xbd62332f	-0.055224594
47	0xbd91bd0d	-0.07116137
48	0x3d3dbc1b	0.04632197
49	0xbae419a0	-0.0017402656
50	0x3da9e429	0.08295471
51	0xbe076dbe	-0.13225457
52	0x3d9b0a85	0.07570366
53	0x3c48deeb	0.012260179
54	0xbcd017c6	-0.025401961
55	0xbe3ab82e	-0.18234321
56	0x3ccb7dee	0.024840321
57	0x3d42e77d	0.047584046
58	0x3d56870e	0.052374892
59	0xbdad9d57	-0.08477276
60	0x3d14a7f4	0.036292985
61	0x3c953912	0.01821569
62	0xbd6a54c8	-0.05720976
63	0x3e07d7cf	0.13265918
64	0xbd2a8094	-0.041626528
65	0x3d91e550	0.07123816
66	0x3caf6591	0.021410735
67	0x3cf0b192	0.029381547
68	0x3d0e8f51	0.034804646
69	0x3d4da971	0.05021042
70	0x3ce78c37	0.028265102
71	0x3d1d60b0	0.038422287
72	0xbdfd18b2	-0.12358226
73	0xba46a327	-0.0007577412
74	0x3bc47bbe	0.0059961965
75	0xbd70ee1e	-0.058820836
76	0xbe02e09c	-0.12780994
77	0xbe0fee15	-0.14055665
78	0xbe1ea5a0	-0.15492868
79	0x3e265a4e	0.16245386
80	0x3e3663cf	0.17811511
81	0xbd9fe318	-0.078069866
82	0x3d9e5f5a	0.077330306
83	0x3da2bb42	0.07945873
84	0xbe3becfb	-0.1835212
85	0x3e25b229	0.16181244
86	0x3d6cb5d9	0.05779061
87	0x3cc7b5df	0.024378715
88	0x3d70a705	0.058753032
89	0x3cf05412	0.029336963
90	0xbda8366c	-0.08213505
91	0xbd1073c5	-0.035266656
92	0x3e55c3b3	0.20875435
93	0x3de838ac	0.11338934
94	0x3e91a29a	0.28444368
95	0x3b01d414	0.0019810246
96	0x3decb0c8	0.11557156
97	0x3e03e431	0.12880017
98	0x3e526dda	0.20549718
99	0x3e00b6b1	0.12569691
100	0x3d6eb3f9	0.058277104
101	0xbca73314	-0.020410098
102	0xbdcc7c96	-0.099847004
103	0xbdcf01bf	-0.10107755
104	0x3d26ec41	0.040752653
105	0x3ca4f5e6	0.020136785
106	0xbd8b3fcb	-0.06799277
107	0xbdf7fcd7	-0.12108772
108	0x3d6e2bb6	0.058147155
109	0xbc8d7eea	-0.017272431
110	0xbd03e591	-0.032201353
111	0x3e04ccdf	0.12968777
112	0x3d956165	0.07293967
113	0xbcd312d6	-0.025765818
114	0xb742e944	-1.16176125e-05
115	0xbd7ce299	-0.061739538
116	0x3d46a7a8	0.048499733
117	0x3ca2934f	0.019845633
118	0x3d4bdf71	0.049773637
119	0x3c7ccd3f	0.015429794
120	0x3e05492d	0.13016196
121	0xbdf7a1df	-0.12091421
122	0x3da468ba	0.080277875
123	0x3d67a22b	0.05655114
124	0x3e2c4b75	0.1682566
125	0x38960973	7.1543174e-05
126	0x3d753c1c	0.059871778
127	0xbcfbfde4	-0.030760713
128	0xbddba0be	-0.107240185
129	0xbd1cdbeb	-0.038295668
130	0x3daa3add	0.083120085
131	0xbd8ffb84	-0.07030395
132	0xbda13295	-0.07870976
133	0x3c5ba122	0.013405116
134	0xbc709383	-0.014683607
135	0xbcf1909d	-0.029487902
136	0x3e06d98a	0.13168922
137	0xbcbfeb6a	-0.023427684
138	0x3dd2c740	0.1029191
139	0x3d822aad	0.06355796
140	0x3c2f37b8	0.010694437
141	0x3e12d6a4	0.14339691
142	0xbd868f33	-0.06570282
143	0xbd107a25	-0.035272736
144	0x3d306727	0.043067124
145	0x3e181f0e	0.14855596
146	0x3d2524a0	0.04031813
147	0x3e1741f5	0.14771254
148	0xbd778d71	-0.060437623
149	0x3e1fbd4b	0.15599553
150	0x3c93dad7	0.018048687
151	0xbd61ba20	-0.055109143
152	0xbd681f17	-0.056670275
153	0xbd4aa87b	-0.04947708
154	0x3d9d8f14	0.076933056
155	0xbcd2efee	-0.025749173
156	0x3d2db7e2	0.042411692
157	0xbe0c511e	-0.13702819
158	0xbde4ec93	-0.111779355
159	0x3dc765de	0.097362265
160	0xbd589e34	-0.05288525
161	0x3d33c145	0.043885488
162	0xbdf4b310	-0.11948216
163	0xbdc8f179	-0.09811682
164	0x3cc5d9b2	0.024151657
165	0xbd0c7f9a	-0.034301378
166	0x3e028719	0.12746848
167	0xbd327ed1	-0.043577973
168	0x3cf2645d	0.029588873
169	0xbe66e517	-0.22548328
170	0xbe026e74	-0.12737447
171	0xbd8f71ff	-0.07004165
172	0xbdb1b7c8	-0.086776316
173	0x3db36277	0.08759015
174	0x3d4bb909	0.04973701
175	0xbd51d308	-0.051226646
176	0xbd90e3a7	-0.07074671
177	0xbe1c342d	-0.15254278
178	0x3e0dd411	0.13850428
179	0x3cab771e	0.020930823
180	0x3d338bc0	0.043834448
181	0xbdea6d1d	-0.11446593
182	0x3d1c194c	0.038110062
183	0xbdb5650e	-0.08857165
184	0x3dc8a8a4	0.09797791
185	0x3dac2511	0.08405507
186	0x3bb57d8f	0.0055386494
187	0xbd05f519	-0.032704446
188	0xbcd3cea4	-0.02585537
189	0x3e590678	0.21193874
190	0xbd0a4a0b	-0.03376202
191	0xbc6b6bb0	-0.014368936
192	0xbccadd1d	-0.024763638
193	0x3d42ca00	0.047555923
194	0xbd57a3ba	-0.052646376
195	0xbd152125	-0.036408562
196	0x3e15d80d	0.14633198
197	0x3dbcd8f7	0.0922107
198	0xbe5bc008	-0.21459973
199	0x3d8c0e71	0.06838692
200	0x3ddb89f6	0.10719673
201	0x3e28bce2	0.16478303
202	0x3cab96d8	0.020945951
203	0xb96a76c4	-0.00022360223
204	0x3c8381d8	0.016053125
205	0x3d162244	0.036653772
206	0x3d87e130	0.06634748
207	0xbd95751a	-0.07297726
208	0x3ccac9b5	0.024754385
209	0xbe239d16	-0.15977892
210	0xbd8b6307	-0.06805997
211	0xbd647a9c	-0.055780992
212	0xbd8a8330	-0.06763303
213	0x3dc5b314	0.09653297
214	0xbd4e50e5	-0.050370116
215	0x3c1fdd57	0.009757361
216	0x3d1b8ada	0.037974216
217	0x3d1aec2c	0.037822887
218	0x3de033e6	0.10947399
219	0x3cd617b1	0.026134344
220	0xbcfedb41	-0.031110408
221	0x3e26e3c1	0.16297819
222	0xbd8250c5	-0.06363062
223	0x3d80a6d7	0.06281822
224	0xbdf40118	-0.11914271
225	0x3bf3939d	0.0074333684
226	0xbdeed5ae	-0.1166185
227	0xbdb2b0a2	-0.08725096
228	0xbcc6e9e7	-0.024281455
229	0xbd01eecf	-0.031721886
230	0x3d917b50	0.07103598
231	0xbdb396f4	-0.087690264
232	0xbb44b44c	-0.0030014692
233	0x3bb844c3	0.0056234314
234	0xbc5d095e	-0.013491003
235	0x3e1ac5ed	0.15114565
236	0x3da8670f	0.08222782
237	0xbc940991	-0.018070968
238	0xbd130b82	-0.035899647
239	0xbc3316ef	-0.010930761
240	0x3dd63357	0.10459011
241	0x3c2de417	0.010613463
242	0x3d843d04	0.0645695
243	0xbd085b9d	-0.033290494
244	0xbd0e4c53	-0.034740757
245	0xbd3d7d7f	-0.04626226
246	0xbd82d369	-0.063879795
247	0x3d2212c7	0.03956869
248	0x3b3b0e98	0.0028542634
249	0x3e0f6259	0.1400236
250	0x3cfc7c3d	0.03082096
251	0x3dc04e7c	0.0938997
252	0xbc37cd78	-0.011218421
253	0x3d4c8047	0.049927022
254	0x3cab2208	0.02089025
255	0xbd5cb005	-0.053878803

gconv1.1.W.weight f4 [140, 140]
0	0xbcfaaaf9	-0.030599104
1	0xbe39cac2	-0.18143752
2	0xbda7317b	-0.081637345
3	0x3def8544	0.1169534
4	0x3d19bb5f	0.037532207
5	0x3d64b72e	0.055838756
6	0xbe10b830	-0.14132762
7	0x3dfe42f8	0.12415117
8	0x3d847251	0.064671166
9	0xbd5d752d	-0.054066826
10	0x3bc57a7a	0.0060265632
11	0xbd21a34d	-0.039462376
12	0x3df5e834	0.1200718
13	0xbdbf0dbf	-0.09328794
14	0xbcdc9303	-0.02692557
15	0x3e9f84bd	0.3115596
16	0x3e1beaf1	0.15226342
17	0x3d6b7762	0.0574869
18	0xbc45843f	-0.012055456
19	0x3d06adfc	0.03288077
20	0x3d429b76	0.04751154
21	0x3da780ef	0.08178889
22	0x3d3d5316	0.046221815
23	0xbca5280c	-0.020160697
24	0x3df22153	0.11822762
25	0x3d37b10c	0.04484658
26	0x3d1b2b60	0.037883162
27	0x3e8fd3c6	0.28091258
28	0xbdd4f21e	-0.10397743
29	0xbd27e6d3	-0.040991616
30	0x3e07eb6d	0.13273402
31	0xbc59cc00	-0.013293266
32	0x3bc2c83f	0.0059442814
33	0x3e05a2c1	0.13050367
34	0x3dcff1e3	0.10153558
35	0xbd44cbee	-0.048046045
36	0x3de64d90	0.112452626
37	0x3d95fe59	0.073239036
38	0x3d05759d	0.032582868
39	0x3d453f9b	0.048156362
40	0x3d67207a	0.056427456
41	0xbd2b71bb	-0.04185651
42	0x3db77d4c	0.08959445
43	0xbdcbc435	-0.09949533
44	0xbdb164b1	-0.086617835
45	0x3d2af729	0.041739617
46	0xbb14c349	-0.0022699407
47	0xbbd3b114	-0.0064603183
48	0xbd822f14	-0.06356636
49	0xbbb7c9d9	-0.005608779
50	0xbd6721d5	-0.05642875
51	0xbe3f2310	-0.18665719
52	0x3e3385d7	0.17531525
53	0xbdc5c8e6	-0.09657459
54	0x3c1d4555	0.00959905
55	0xbd52e60c	-0.05148892
56	0xbdc0873f	-0.09400796
57	0x3dd67165	0.10470847
58	0xbd2bcff0	-0.04194635
59	0x39b66695	0.00034790175
60	0x3a7ebc33	0.0009717375
61	0x3d3f06e8	0.046637446
62	0x3dcacb02	0.09902002
63	0x3d9aaeeb	0.07552894
64	0x3da809c6	0.08204989
65	0x3d107d27	0.035275605
66	0xbdb9dca5	-0.09075288
67	0x3d159cc0	0.03652644
68	0x3cb720c9	0.0223545
69	0x3dfcd489	0.12345225
70	0xbd3cb9e4	-0.046075717
71	0xbd2c3d50	-0.04205066
72	0x3cf33706	0.029689323
73	0xbcb69c87	-0.022291435
74	0x3e9d3491	0.30704167
75	0xbcc43375	-0.023950318
76	0x3d5f273a	0.05448077
77	0x3e3e5d49	0.18590273
78	0xbc5b492f	-0.013384148
79	0xbd8ba287	-0.06818109
80	0xbd458205	-0.0482197
81	0xbc8597e0	-0.016307771
82	0x3e1b19d4	0.15146571
83	0x3e2092b1	0.15680958
84	0xbd8219ab	-0.06352552
85	0x3e3ed45b	0.18635695
86	0x3d99fdf8	0.07519144
87	0xbd06b4d6	-0.032887302
88	0xbcc34b5d	-0.023839647
89	0xbcbcc629	-0.023043709
90	0x3c808a27	0.015690876
91	0xbd8901ed	-0.066898204
92	0x3daf418e	0.085574254
93	0xbcfa8d05	-0.030584821
94	0x3be3c44a	0.0069508897
95	0xbd527cbb	-0.051388483
96	0xbd43cb4d	-0.047801305
97	0x3df353f6	0.11881249
98	0xbcbc814c	-0.023010872
99	0xbdaec106	-0.0853291
100	0x3de9553b	0.113932095
101	0xbe430fda	-0.19049016
102	0x3dd65a17	0.10466402
103	0x3dc7512c	0.09732279
104	0xbe2c8fa5	-0.16851671
105	0xbdd6b301	-0.10483361
106	0x3d94ef98	0.072722614
107	0xbb450b3d	-0.0030066513
108	0xbe23c33b	-0.15992443
109	0xbdcbf866	-0.099594876
110	0x3db847f1	0.08998097
111	0x3d12f070	0.03587383
112	0x3ddcdb3e	0.10784005
113	0x3dbb732e	0.09152828
114	0xbdf7f012	-0.12106337
115	0x3e168709	0.1469995
116	0x3d54b5d6	0.051931225
117	0xbc524dc2	-0.012835922
118	0xbd874414	-0.06604782
119	0xbe0a2471	-0.13490464
120	0xbe0633d8	-0.13105714
121	0xbd976bf1	-0.07393635
122	0x3cd44cf8	0.025915608
123	0xbe02133e	-0.12702653
124	0xbbda277c	-0.006657539
125	0xbd83531a	-0.06412335
126	0xbd7d02ba	-0.06177018
127	0xbdc7ef35	-0.09762422
128	0x3dd1dd67	0.10247307
129	0x3e2ccc81	0.16874887
130	0xbd3a8d0a	-0.04554466
131	0xbb3b59d7	-0.0028587484
132	0xbd863c0b	-0.06554421
133	0x3cef5bb8	0.02921854
134	0x3d45eafd	0.048319805
135	0xbc5d4583	-0.013505342
136	0x3d2f67e0	0.042823672
137	0x3c327cb2	0.0108939875
138	0xbb0ce87a	-0.0021500872
139	0xbda7114f	-0.08157598
140	0x3e58eb1c	0.21183437
141	0x3d4d6d8a	0.050153293
142	0x3d83d855	0.064377464
143	0x3d53e760	0.05173433
144	0xbd7b8373	-0.061404657
145	0x3c23055b	0.009950007
146	0x3db8e491	0.090279706
147	0x3d7402eb	0.059573095
148	0x3a3abf1e	0.00071238156
149	0xbd60b35f	-0.05485856
150	0x3e2815a8	0.16414511
151	0x3cc45199	0.02396469
152	0xbc78a7c1	-0.015176714
153	0xbd8efc30	-0.06981695
154	0xbdb197ae	-0.08671509
155	0x3d0c57dd	0.03426348
156	0x3d5d0ba7	0.05396619
157	0x3e739813	0.2378848
158	0xbdb02b79	-0.08602042
159	0xbc08c556	-0.00834783
160	0x3d21bb99	0.039485548
161	0x3caa3c2e	0.020780649
162	0xbc5c7054	-0.0134545155
163	0xbe431504	-0.19050986
164	0x3df08ac0	0.117452145
165	0x3e32dec8	0.17467797
166	0x3c8c0d4d	0.017096186
167	0x3e205575	0.156576
168	0x3b582b2b	0.0032984714
169	0x3c6f6999	0.014612579
170	0x3d70d3d2	0.058795758
171	0xbe1e9c04	-0.15489203
172	0xbc7166de	-0.014733998
173	0xbe1e22de	-0.15442988
174	0xbdb4c0bc	-0.08825824
175	0x3db4a442	0.08820392
176	0x3daed8e7	0.085374646
177	0x3b1cf112	0.00239474
178	0xbd146728	-0.03623119
179	0x3d88a4b1	0.066720374
180	0x3da74eae	0.08169304
181	0xbd6fdb10	-0.058558524
182	0xbcd76350	-0.026292473
183	0x3cca8dca	0.024725813
184	0x3d0b3dbd	0.033994425
185	0x3dc1132f	0.09427487
186	0x3e139724	0.14413124
187	0x3d9a5be7	0.0753706
188	0x3cccddac	0.025008045
189	0x3dc7f48e	0.09763442
190	0x3d168ff0	0.036758363
191	0xbd9459fb	-0.07243725
192	0xbd8b5871	-0.06803978
193	0x3dc3c8a7	0.09559756
194	0x3df9c680	0.12196064
195	0x3e277e43	0.16356759
196	0xbdb50256	-0.08838336
197	0xbe218911	-0.15774943
198	0xbda672b2	-0.08127345
199	0x3d33e9cd	0.04392414
200	0xbc8190a5	-0.015816042
201	0x3dcb6e58	0.09933156
202	0x3cd638f8	0.026150212
203	0x3e17e51b	0.1483349
204	0xbddbb2e5	-0.10727481
205	0x3e3a4008	0.18188488
206	0x3d6cd286	0.05781796
207	0x3cb5fbdd	0.022214824
208	0xbc964dd4	-0.018347658
209	0xbbc05c36	-0.0058703674
210	0xbc22cfbb	-0.009937222
211	0x3dbaf30e	0.0912839
212	0xbc9a7fcc	-0.018859766
213	0x3dc5a638	0.09650844
214	0xbe2e825d	-0.17041917
215	0x3dc8845e	0.09790872
216	0x3df7318c	0.12069997
217	0x3da004e5	0.078134336
218	0xbe2b1618	-0.16707647
219	0x3cdbe200	0.026841164
220	0x3e118b87	0.14213382
221	0x3e25fbbd	0.16209312
222	0x3e05aea9	0.13054909
223	0x3e17a55a	0.1480917
224	0x3d6b390e	0.05742746
225	0xbdb14271	-0.08655251
226	0x3ce10126	0.027466368
227	0xbac1e1ab	-0.0014791986
228	0xbddad69a	-0.10685463
229	0x3c810518	0.0157495
230	0x3e4f22a1	0.20228054
231	0x3e017574	0.12642461
232	0xbbf82840	-0.0075731575
233	0x3de47c64	0.11156538
234	0x3c634309	0.013870963
235	0x3dead72c	0.11466822
236	0xbd5f251b	-0.054478746
237	0xbd0a7825	-0.033805985
238	0xbd14c487	-0.036320236
239	0xbda11c1d	-0.0786669
240	0x3d20c52e	0.039250545
241	0xbd2dac49	-0.042400632
242	0x3d687429	0.056751404
243	0xbdf86f52	-0.12130608
244	0xbe55750e	-0.20845434
245	0xbe09b2d0	-0.13447118
246	0x3d66a2e2	0.05630768
247	0xbdd830be	-0.10556172
248	0xb9a47063	-0.00031364252
249	0x3d9f1991	0.07768548
250	0x3e09f075	0.13470633
251	0x3e28990e	0.16464636
252	0x3df49060	0.119416
253	0x3d76dcdf	0.060269233
254	0x3d0e493e	0.034737818
255	0xbdd421a0	-0.10357976

gconv1.1.W.bias f4 [140]
0	0x3de7c3ae	0.1131662
1	0x3d8bd466	0.06827621
2	0xbd4a03b6	-0.049319945
3	0xbde7586c	-0.11296162
4	0xbda25308	-0.07925993
5	0xbdb9c352	-0.090704575
6	0xbc3328fd	-0.010935065
7	0xbd2faab5	-0.04288741
8	0xbd6e9b4f	-0.058253583
9	0xbc623409	-0.013806351
10	0x3d80e655	0.06293932
11	0xbd0a6169	-0.033784304
12	0xbc24938b	-0.010044943
13	0xbd8d85e8	-0.06910306
14	0x3ca50e37	0.02014838
15	0xbd9c55b8	-0.07633537
16	0xbcc665a2	-0.024218384
17	0x3e12114a	0.14264408
18	0xbd16466f	-0.036688264
19	0xbdc708dd	-0.097184874
20	0x3da78e90	0.081814885
21	0x3e20bec5	0.15697773
22	0x3bb7d673	0.005610281
23	0xbd0b2e16	-0.033979498
24	0x3b99f95b	0.004698915
25	0x3d095db2	0.03353662
26	0x3c9654c6	0.01835097
27	0xbc9ef419	-0.019403504
28	0xbd14d172	-0.036332555
29	0xbd941b0a	-0.0723172
30	0xbd1de60c	-0.038549468
31	0x3c84bd39	0.01620351
32	0x3d9ffddf	0.07812094
33	0xbd051d04	-0.032498375
34	0xbd73257f	-0.05936193
35	0xba446b97	-0.0007492839
36	0x3cca5f6b	0.024703702
37	0x3e0fb498	0.14033735
38	0x3e2febc2	0.17179778
39	0xbdaabbb4	-0.08336583
40	0xbd23acd8	-0.03995976
41	0xbc8352c5	-0.016030679
42	0x3e1ab480	0.15107918
43	0x3e112b50	0.14176679
44	0x3e08a45d	0.1334395
45	0xbc9acf2f	-0.018897621
46	0x3d0589f6	0.032602273
47	0x3d9cdacb	0.07658919
48	0x3e03644a	0.12831226
49	0x3decac00	0.11556244
50	0xbd90cf56	-0.07070796
51	0x3dab5bc4	0.08367112
52	0x3d9015f6	0.07035439
53	0xbb9d021d	-0.0047915117
54	0xbdc704f7	-0.09717744
55	0xbd694490	-0.056950152
56	0xbcec06d2	-0.028811846
57	0xbd5ce6cc	-0.053931043
58	0xbd20ff5b	-0.039306026
59	0x3c856705	0.016284475
60	0x3b8c00b9	0.004272547
61	0xbc7fd0cb	-0.015613745
62	0x3da15d0b	0.07879075
63	0x3cebdfc5	0.028793225
64	0x3d59eaa7	0.053202298
65	0x3df21a02	0.11821367
66	0x3dfbd205	0.122959174
67	0x3dd6ea6d	0.10493932
68	0x3c980d79	0.018561112
69	0xbd8d85ce	-0.06910287
70	0x3d8f8006	0.070068404
71	0xbd93c0e0	-0.07214522
72	0xbdc21ddf	-0.09478354
73	0x3bfc6068	0.007701922
74	0xbcfe775a	-0.03106277
75	0x3d5d6e64	0.054060355
76	0x3e098d58	0.13432825
77	0xbd39d348	-0.04536751
78	0xbccbdaed	-0.024884665
79	0x3d12ecfd	0.03587054
80	0xbd5db482	-0.054127224
81	0xbe085f16	-0.13317522
82	0x3de92d4f	0.11385595
83	0x3d84c0a3	0.06482055
84	0x3e2da583	0.16957669
85	0xbce5645a	-0.028001953
86	0x3d80d6c2	0.06290962
87	0x3d968d20	0.07351136
88	0x3dc99aff	0.09844016
89	0x3cc136d4	0.023585714
90	0xbda46525	-0.08027104
91	0xbda49771	-0.08036698
92	0xbd066057	-0.03280672
93	0xbcfbd558	-0.030741379
94	0xba03aa87	-0.0005022664
95	0x3c4984b2	0.012299703
96	0xbdb4d4f5	-0.08829681
97	0x3d98a832	0.07453956
98	0xbb5b083c	-0.0033421656
99	0x3be8e97a	0.0071079107
100	0xbdd3bb1e	-0.10338424
101	0xbd9ffdb9	-0.07812066
102	0xbdb01593	-0.08597865
103	0x3d0694a1	0.032856587
104	0xbb6fdf21	-0.00366015
105	0xbd198ca1	-0.03748763
106	0x3dd972f3	0.10617628
107	0xbdb5d9f8	-0.08879465
108	0xbd5ea0ab	-0.054352444
109	0xbb3ef3cb	-0.002913701
110	0x3d8cd8bf	0.068772785
111	0xbd5c9c09	-0.053859744
112	0xbd971bec	-0.073783726
113	0x3d41d0ab	0.047318142
114	0xbd262007	-0.040557887
115	0xbd6272de	-0.055285327
116	0x3dd3b37d	0.10336969
117	0xbe0cf6d4	-0.13766032
118	0x3dbc9ecf	0.09209978
119	0x3d2d8768	0.04236546
120	0xbc603c7a	-0.013686294
121	0x3d180f4d	0.037123967
122	0xbd93d951	-0.07219184
123	0xbdecf876	-0.11570828
124	0xbd84383e	-0.0645604
125	0xbe01d095	-0.12677224
126	0xbd0e2ddb	-0.0347117
127	0xbdb16b40	-0.086630344
128	0xbd72bf96	-0.05926474
129	0xbc998754	-0.018741287
130	0xbc646b35	-0.013941576
131	0x3ddd7b7a	0.10814567
132	0x3dad16aa	0.084515885
133	0x3dd17a33	0.10228386
134	0x3df87750	0.12132132
135	0x3d83e023	0.06439235
136	0xbd31b120	-0.04338181
137	0x3d391f79	0.04519603
138	0xbda8fbf3	-0.082511805
139	0xbc0460a2	-0.00807968

gconv1.1.gate.weight f4 [1, 280]
0	0xbc873305	-0.01650382
1	0x3dd8ca66	0.105854794
2	0xbd767d36	-0.060178004
3	0x3e1bc988	0.15213597
4	0x3d84c4c9	0.06482846
5	0x3c49b3fe	0.01231098
6	0x3d81b779	0.06333823
7	0x3df49d8c	0.11944112
8	0xbd9b5996	-0.075854465
9	0xbcf4dc1e	-0.029890116
10	0x3dd9a8e2	0.10627915
11	0xbcb9f9ee	-0.022702184
12	0xbe07c0cc	-0.1325714
13	0xbe6468dc	-0.22305626
14	0xbde0825b	-0.10962363
15	0xbdd00797	-0.10157698
16	0x3bee79fb	0.007277725
17	0xbcd2674b	-0.02568402
18	0x3d79329c	0.06083928
19	0x3b1c1f08	0.0023822207
20	0xbc338618	-0.010957263
21	0xbe057a9e	-0.13035056
22	0xbd375236	-0.044756137
23	0xbc5e5e87	-0.013572342
24	0x3dc64d9e	0.09682773
25	0x3957efaf	0.00020593287
26	0x3c419c71	0.011817084
27	0xbc99354c	-0.018702172
28	0x3e561ade	0.20908687
29	0xbc5cb1de	-0.013470141
30	0x3dfe5ea6	0.124203965
31	0xbcc4154d	-0.023935938
32	0x3d262bfd	0.040569294
33	0x3ce1bdf2	0.027556393
34	0x3ced6fcc	0.028983973
35	0x3de4387b	0.11143585
36	0x3dec7ebc	0.1154761
37	0xbda6232a	-0.08112176
38	0x3e60a281	0.2193699
39	0xbd4eea2a	-0.050516285
40	0x3e26ed94	0.16301566
41	0x3e5e6fa7	0.2172228
42	0xbdb2f575	-0.087382235
43	0xbcf567fd	-0.029956812
44	0x3ac4d4eb	0.0015017068
45	0xbda1492d	-0.07875285
46	0x3b691362	0.0035564532
47	0x3e324712	0.17409924
48	0xbd2979b5	-0.041375834
49	0x3d718ee7	0.058974173
50	0x3d2a690b	0.041604083
51	0x3cdc2f24	0.026877947
52	0xbd6e90a6	-0.058243416
53	0x3d88fb8e	0.06688605
54	0x3c647dfa	0.013946051
55	0xbde07d3f	-0.10961389
56	0x3e25d730	0.16195369
57	0xbdc1173c	-0.0942826
58	0x3d5418fe	0.051781647
59	0xbd58e205	-0.052949924
60	0x3e1d2b36	0.15348515
61	0xbd7e0f11	-0.062026087
62	0xbc9d7ffc	-0.019226067
63	0xbd8d0ff3	-0.06887808
64	0x3d6de207	0.058076885
65	0xbc118cad	-0.008883637
66	0xbcc18869	-0.023624616
67	0x3d196ee2	0.03745926
68	0x3c67e177	0.014152876
69	0x3e9ef90c	0.31049383
70	0xbe21017c	-0.15723222
71	0x3d65c4ce	0.05609589
72	0x3da517ed	0.08061204
73	0xbdd880e9	-0.10571463
74	0x3d8c0e71	0.06838692
75	0xbb90d2e8	-0.0044196732
76	0x3d6d22bb	0.05789445
77	0xbce58ede	-0.028022226
78	0x3c83ce5c	0.01608961
79	0xbbd3063e	-0.006439953
80	0x3de85ea9	0.1134618
81	0xbdde64a7	-0.10859042
82	0xbdb234e7	-0.087014966
83	0x3ba36c99	0.004987311
84	0x3d78f146	0.06077697
85	0x3d584022	0.052795537
86	0x3c2dc91d	0.010607031
87	0xbba75ac2	-0.0051072547
88	0xbd35bcf4	-0.044369653
89	0xbe05254c	-0.13002509
90	0x3bc65b0e	0.006053335
91	0x3e0bb4d1	0.13643195
92	0x3e654e46	0.2239314
93	0x3df23c23	0.118278764
94	0x3d83e2af	0.06439721
95	0x3d800e09	0.06252677
96	0x3d9fa097	0.07794302
97	0xbd50a919	-0.050942514
98	0x3e013b64	0.12620312
99	0x3d9a07b5	0.07521001
100	0xbb8b0c8e	-0.00424344
101	0x3e3907fa	0.18069449
102	0xbdbd1129	-0.09231789
103	0x3e0215f3	0.12703685
104	0xbdc15815	-0.094406284
105	0x3e0c0354	0.13673145
106	0xbde125c7	-0.109935336
107	0xbe137261	-0.14399101
108	0xbd3f0376	-0.04663416
109	0x3e44d32b	0.19221179
110	0xbcb69999	-0.022290038
111	0x3dc87e25	0.09789685
112	0xbdae961c	-0.08524725
113	0xbdb446b6	-0.088025495
114	0x3dfd59ae	0.12370621
115	0x3dc861bb	0.097842656
116	0xbdcacdbd	-0.09902523
117	0x3da80973	0.08204927
118	0x3da7c91f	0.08192658
119	0x3c5c8044	0.013458315
120	0x3e26246a	0.16224828
121	0x3e0260ed	0.12732287
122	0xbd1a6049	-0.03768948
123	0x3e2c84c2	0.16847518
124	0x3b0d9f41	0.0021609815
125	0x3d045179	0.03230426
126	0xbc6922f8	-0.014229529
127	0x3cd35df1	0.02580163
128	0xbdfd5cd5	-0.12371222
129	0xbc4b7c5d	-0.012419787
130	0x3d981ef1	0.074277766
131	0x3cc290c7	0.023750676
132	0xbdf486bb	-0.1193976
133	0xbd2fb6f9	-0.042899106
134	0x3df6c1a1	0.120486505
135	0xbd54523c	-0.051836237
136	0xbdc87452	-0.09787811
137	0x3e412311	0.18861033
138	0xbdeae89b	-0.11470147
139	0xbd570f6e	-0.05250495
140	0x3d372132	0.044709392
141	0x3dafb7a8	0.085799515
142	0x3dad8ff8	0.084747255
143	0xbc73c8bd	-0.014879403
144	0x3d869429	0.06571228
145	0xbe1d4b25	-0.15360697
146	0x3c5026aa	0.012704531
147	0xba51bfb6	-0.00080012844
148	0x3b3a09d6	0.002838721
149	0xbd87b21d	-0.06625769
150	0xbd7d34cd	-0.061817933
151	0x3e542793	0.20718221
152	0x3c2b7e0f	0.010467066
153	0xbd8e6f01	-0.06954766
154	0xbde6651d	-0.112497546
155	0xbdb12140	-0.0864892
156	0xbe2b7058	-0.16742074
157	0x3d4a5cd8	0.04940495
158	0xbe4b46c8	-0.1985122
159	0x3e19d962	0.15024331
160	0x3cdab6ac	0.026698433
161	0x3e0319b1	0.12802769
162	0xbdb4117c	-0.087923974
163	0x3cb3e30a	0.021958847
164	0xbda7d936	-0.081957266
165	0xbdf54482	-0.119759575
166	0xbc8c6a21	-0.01714045
167	0xbe2b43ea	-0.16725126
168	0x3d15c06d	0.036560465
169	0x3d4118aa	0.047142662
170	0xbdd5148a	-0.10404308
171	0xbcf82428	-0.030290678
172	0x3cc90b3c	0.02454149
173	0xbd0ba5a0	-0.0340935
174	0xbdcac5b2	-0.09900989
175	0x3b0cc04a	0.0021476918
176	0xbda5bea8	-0.080930054
177	0x3e1ff838	0.15622032
178	0x3d90f905	0.07078747
179	0xbda017ae	-0.078170165
180	0xbddf1e55	-0.10894457
181	0x3d47b314	0.048754767
182	0x3d525c5c	0.051357612
183	0x3d411873	0.047142457
184	0x3cdff096	0.0273364
185	0x3cab009d	0.020874316
186	0xbd537794	-0.05162771
187	0x3dd702ac	0.104985565
188	0xbd754d3c	-0.05988811
189	0x3dbcce04	0.09218982
190	0x3d20cbd6	0.039256893
191	0x3d377455	0.044788677
192	0xbd13fc03	-0.03612901
193	0x3da2781a	0.07933064
194	0xbe0ca8cc	-0.13736266
195	0x3e0f3b11	0.13987376
196	0xbbd45e93	-0.0064810007
197	0xbdc01d58	-0.09380597
198	0xbdd2928d	-0.102818586
199	0xbca297e5	-0.01984782
200	0x3d2fc423	0.04291166
201	0xbd7adde6	-0.061246775
202	0x3e2ff068	0.17181551
203	0xbdd55b00	-0.104177475
204	0x3c5e025f	0.01355037
205	0x3db5ce2b	0.08877214
206	0x3dcf533b	0.10123297
207	0x3c8b189f	0.016979514
208	0xbddeb834	-0.10874978
209	0x3d31b368	0.043383986
210	0xbadef16d	-0.0017009206
211	0x3dcb6c7d	0.09932802
212	0x3d7dbbc0	0.06194663
213	0xbde01cd6	-0.10943
214	0xbd346d3b	-0.044049483
215	0xbc0a4f9e	-0.008441834
216	0x3d915fe1	0.070983656
217	0xbde457db	-0.111495696
218	0xbdb446e7	-0.08802586
219	0x3d4eb263	0.05046309
220	0x3b8cd85e	0.004298254
221	0x3e19eaf1	0.1503103
222	0x3d7f29ef	0.06229585
223	0x3c8c8351	0.01715246
224	0x3e0b39be	0.13596246
225	0xbd24a4f8	-0.04019639
226	0xbd02294a	-0.031777658
227	0x3db7dda6	0.08977823
228	0x3d4abe15	0.049497683
229	0xbd8ef77d	-0.069807984
230	0x3d159c4e	0.036526017
231	0xbdc027fc	-0.093826264
232	0xbdb944ff	-0.09046363
233	0x3abd60fd	0.001444846
234	0xbe047216	-0.12934145
235	0x3d545a67	0.051844027
236	0x3d9b6e39	0.07589383
237	0x3d328e96	0.04359301
238	0x3debc8d2	0.11512913
239	0xbd2169ce	-0.039407544
240	0xbd5d63a7	-0.054050114
241	0x3d9d3342	0.07675792
242	0x3cb40976	0.021977168
243	0x3db31222	0.08743693
244	0xbe1bb820	-0.15206957
245	0xbdb21c16	-0.08696763
246	0x3bbad62c	0.005701801
247	0x3d4e0b71	0.05030388
248	0x3c8d08bb	0.017216077
249	0x3d80cefd	0.0628948
250	0x3d45b7d8	0.04827103
251	0x3ca8f7f1	0.02062604
252	0xbd8644b8	-0.06556076
253	0xbd6e82cd	-0.05823021
254	0xbdaa6640	-0.08320284
255	0xbd165c45	-0.03670909
