save/best_origin_0.858.pt (torch, 879432 bytes, 24 tensors)

gconv1.0.A f4 [140, 140]
000000 d5 12 60 bd 77 82 ec bd ef dd aa bd 61 24 8b 3d
       -0.05470546 -0.11548322 -0.08343112 0.06794048
000010 c6 c6 02 bc ae 24 93 3d 4d d5 3f bc 5f 2d 3b 3c
       -0.007981962 0.071847305 -0.01170857 0.0114243915
000020 f4 91 68 3d 5e dd 3b bc f2 c6 26 3d c8 36 21 be
       0.056779817 -0.011466352 0.040717073 -0.15743554
000030 1a 43 2b 3d e3 60 59 3d b1 2c 80 3b 8b da e8 3d
       0.04181204 0.053070914 0.0039115776 0.11369809
000040 5e 7c ec bb f1 8e 05 be 2d 68 d3 3c 19 11 90 bd
       -0.007216974 -0.13042809 0.02580651 -0.07034511
000050 48 d3 ec 3d ee 41 31 bc d7 e4 e6 bc 9a c3 36 bd
       0.11563736 -0.0108189415 -0.028185291 -0.044620134
000060 50 e3 21 3e 6b 1a 53 bd 51 87 2f bd 2f 12 2c 3d
       0.15809369 -0.051538866 -0.042853657 0.04200953
000070 77 ea 8b 3c 79 bf 57 3d b2 c3 6e 3e 02 7a 30 3d
       0.017079575 0.052672837 0.2331684 0.043085106
000080 ad 48 a9 3c 73 44 24 3e e5 76 70 bd c2 7d 82 3b
       0.020664537 0.16041736 -0.058707137 0.0039822767
000090 32 09 e9 bd c3 a8 f5 bc 32 2d 83 3d 09 e7 d2 3b
       -0.11378707 -0.029987698 0.06405105 0.006436233
0000a0 55 30 24 3e f0 0f 4b 3e 1c 31 88 3b ae ff 5b be
       0.16034062 0.19830298 0.004156245 -0.21484253
0000b0 44 7e 54 3c 71 0b 48 be 1e c4 5e 3c 13 07 1b 3d
       0.012969557 -0.19535615 0.013596563 0.037848543
0000c0 40 9b 97 3d c5 82 ed bc cd b1 21 bc cd 69 77 3d
       0.074026585 -0.02899302 -0.009869051 0.060403634
0000d0 95 2a f7 bd e8 8d 0b 3d 13 de f4 3d 7f 12 89 3d
       -0.12068669 0.03407088 0.1195642 0.06692981
0000e0 3d fb 8b 3c 28 33 ec 3d 42 94 a0 39 e4 ca 84 3e
       0.017087573 0.11533195 0.0003062804 0.25936043
0000f0 30 55 01 3d 4d ee 1b be 14 62 0b 3d cd a1 4c be
       0.03157538 -0.15227623 0.03402908 -0.19983597
000100 9f ae bf 3c 04 e6 7b bd 2f 68 89 bd 6d ce 8b 3b
       0.023398696 -0.061498657 -0.067093246 0.004266551
000110 58 f4 86 bd 60 46 0f be 2f 1c 97 3d 00 01 32 bd
       -0.065895736 -0.1399169 0.073784225 -0.043457985
000120 56 ce 4b bd ac 63 06 bd 01 c7 e4 ba fc be e1 bd
       -0.049757324 -0.0328099 -0.0017454327 -0.110227555
000130 0c 6c b5 3d 20 2d 8b bd 01 81 8f bd 9c 43 44 bd
       0.08858499 -0.06795716 -0.070070274 -0.04791604
000140 a9 89 97 3d 30 56 70 bd aa 2b 64 bd e0 20 48 3b
       0.073993035 -0.058675945 -0.055705704 0.0030537173
000150 c1 a5 71 3c 75 23 16 bd 07 69 14 3d bb 16 99 bb
       0.0147489915 -0.03665491 0.036232974 -0.004671899
000160 41 d5 5c 3d cd 2a 02 bd 61 ac b3 3c 54 99 d6 bb
       0.053914312 -0.0317791 0.021932783 -0.00654904
000170 d6 95 b8 3c 80 9f 43 bd de 7b 93 b9 62 9e e0 bc
       0.022532385 -0.047759533 -0.00028130313 -0.027419273
000180 ab 06 b9 3d 40 a8 dc 3d d7 9d b2 3b 50 bf 2e 3d
       0.09034475 0.10774279 0.005450945 0.04266292
000190 2e 77 bf 3c a7 1c 7f bd 28 ee ba bb 8c df b8 3c
       0.023372259 -0.062283184 -0.00570466 0.022567533
0001a0 61 97 82 bd cc 22 01 3e c3 9e 89 3c fe 52 e4 3d
       -0.063765295 0.1261093 0.016799336 0.11148642
0001b0 dd 87 a2 bd f8 02 e0 bd 75 44 41 be 18 90 2f 3e
       -0.0793607 -0.10938066 -0.1887377 0.17144811
0001c0 35 09 17 3e 5e 0d 01 3d 66 45 9a 3c de c9 2f 3d
       0.14749606 0.03150689 0.01883192 0.042917125
0001d0 7c 47 25 3d c7 a6 07 3e 0c fa e6 bc bd c6 17 bb
       0.040351376 0.13247214 -0.028195404 -0.0023159229
0001e0 a2 73 47 bd dd 88 04 3e 04 30 90 3d 7f a0 22 be
       -0.04869426 0.12942834 0.07040408 -0.15881537
0001f0 12 af f4 bd 88 4c 0f 3e b0 93 93 3c 7c cb 3a 3e
       -0.119474545 0.13994038 0.018014759 0.18241686
000200 1b c0 3d bd d9 26 02 bd 5b 8e 02 3e 0a 25 8b bd
       -0.046325784 -0.03177533 0.12749617 -0.06794174
000210 26 01 d8 3a f4 74 3d 3d 5e 09 78 3b 73 9b 62 3c
       0.0016479834 0.046254113 0.003784738 0.013831007
000220 bd ab 25 bd 9d 97 2c bb d2 f9 c5 3c 62 40 d5 3d
       -0.040446986 -0.0026335486 0.024166975 0.10412671
000230 22 e5 6d bd 84 83 91 3d 4c a6 b8 bd f9 f3 1e 3e
       -0.058079846 0.07105163 -0.090160936 0.15522756
000240 df 62 a8 bd 8d 04 8e 3d 6e 69 6b 3d d3 cc 6d bd
       -0.08221983 0.06934462 0.057473592 -0.058056664
000250 cd 8c 26 3e 65 69 39 3e 81 8a 00 bd e5 19 4f 3d
       0.16264649 0.18106611 -0.031382088 0.050561804
000260 7c e0 29 bd 3e 66 a6 bc c0 ef d9 3d 0f 3d c1 3d
       -0.04147385 -0.020312425 0.10641432 0.09435474
000270 c6 97 b6 3c 8f 03 90 be 29 c7 9c bc 9e 8d 5e bd
       0.022289168 -0.28127715 -0.019137936 -0.054334275
000280 d0 30 7f bc b3 ec e4 3c 2f 79 b7 bd 2f 2d 14 bd
       -0.015575603 0.027944898 -0.08958661 -0.036175903
000290 b1 82 d6 bc 4f b0 cb 3c 2f 18 c5 bc 28 8d 05 3e
       -0.026185365 0.024864344 -0.024059383 0.13042128
0002a0 cf e9 4c bd 27 4e c4 3d b1 ff 16 3d 49 d8 9d bd
       -0.050027665 0.09585219 0.03686494 -0.07707269
0002b0 64 de 11 3e 2e a6 9f bd d7 d9 fc 3d 32 fb 7e bc
       0.14244992 -0.07795368 0.12346237 -0.015562819
0002c0 bb 5c ad bc 72 7d a1 3d 07 3a 07 be 35 6d f6 bd
       -0.021162381 0.07885255 -0.1320573 -0.12032548
0002d0 71 af 11 bc db 33 45 bc 85 18 29 3d f1 4f 8b 3e
       -0.008891926 -0.012036289 0.04128315 0.27209428
0002e0 f5 fb fd bc a6 03 d5 bd 7a 2c 50 be f6 36 e8 3c
       -0.031003932 -0.104010865 -0.20329466 0.02834652
0002f0 a8 7c 80 bd 78 ab c8 3d 96 f2 c2 3d c4 bc e7 bc
       -0.06273776 0.0979833 0.09518926 -0.028288253
000300 26 02 9c bd 22 f2 bf bc c2 ca 05 bd b9 eb c4 3c
       -0.07617597 -0.023430888 -0.032664068 0.024038183
000310 93 d1 9c bd bc 8f 85 3d 68 d4 f0 3d 80 f8 9b bd
       -0.076571606 0.06521556 0.11759263 -0.07615757
000320 dc c3 91 3d d0 b0 bb bb a4 1e bb 3d 1f 0c b3 3b
       0.07117435 -0.005727865 0.091367036 0.0054640914
000330 8e c2 5e 3d 9f 9f 7c 3d ff 61 00 be 8d 8b 87 3b
       0.05438476 0.061675664 -0.12537383 0.004136509
000340 24 4f ce bd 83 30 3c be aa 19 fc bd 6d 79 c1 3d
       -0.100736886 -0.18377881 -0.123095825 0.09446988
000350 01 bf 1f be c9 18 5c bc 09 aa 37 bd fa 16 7c be
       -0.15600206 -0.013433644 -0.044839893 -0.2461814
000360 da 69 e8 3d e5 3e 23 be d9 81 6e 3c 18 b5 0a 3d
       0.113483146 -0.15941961 0.014557325 0.03386411
000370 3c 88 07 be 48 5b 98 3d 85 a1 e6 bb a1 c2 96 bd
       -0.13235563 0.074392855 -0.0070382976 -0.07361341
000380 6a e2 c3 3c d4 04 84 3d a8 37 1f bd 61 5c 86 3d
       0.023911674 0.064462334 -0.038871437 0.06560589
000390 d1 e9 07 bd a3 be 60 3d 0c fe dd 3d 37 61 48 be
       -0.03318197 0.054869305 0.10839471 -0.19568335
0003a0 0f 47 a8 bd 6d 0a a8 3b 28 d0 fe bd 90 05 0a bd
       -0.08216678 0.005128196 -0.124420464 -0.03369671
0003b0 86 eb d1 bc 1c 36 a3 3c 19 d8 34 bd af b2 b1 3c
       -0.025625002 0.019923262 -0.0441514 0.021691648
0003c0 f5 e8 e3 bd d1 c9 fe bb 47 f1 60 3c c0 f8 20 3d
       -0.111284174 -0.0077755232 0.0137294 0.039299726
0003d0 d8 70 a5 bd b4 cc 99 bc 43 fd 54 bd c9 43 de bc
       -0.08078164 -0.018774368 -0.05199934 -0.027131932
0003e0 1d 1b 94 3d 19 37 30 3e 01 25 06 bd dc c3 88 3c
       0.07231734 0.17208518 -0.032750133 0.016694956
0003f0 87 9b 81 3d bb cc d8 bc 30 c8 ab 3d 1d 04 eb 3d
       0.063284926 -0.02646481 0.08387792 0.11475394

gconv1.0.W.weight f4 [140, 140]
000000 69 65 86 3c 22 d9 19 be 90 f1 43 bd 51 e9 68 3d
       0.016405778 -0.15024236 -0.047837794 0.056863133
000010 c1 42 e0 bd eb 92 af 3d df c0 09 bd d8 95 b7 3d
       -0.10950232 0.08572944 -0.0336312 0.08964127
000020 19 9d 84 bd aa b4 df bd 10 a1 08 be ff 56 40 3c
       -0.064752765 -0.10923131 -0.1334269 0.0117394915
000030 78 c3 02 3d 1b f3 0b bd 3c f3 f5 bb 37 78 04 3e
       0.031924695 -0.03416739 -0.0075058024 0.12936483
000040 9d c9 fe 3d e6 c7 1b 3e ba 24 28 3c ca 71 0a 3e
       0.124407984 0.15212974 0.010262663 0.1351997
000050 40 8f ad 3c db 0f 97 bd 5e b6 1d be c2 eb 1f 3e
       0.021186471 -0.07376071 -0.15401599 0.15617278
000060 95 4f 22 be b3 23 83 3d 35 87 b1 3d dd 9b a8 3d
       -0.1585067 0.064032935 0.08668367 0.082328536
000070 59 51 22 bd d9 2c 6c 3d 6a 8d 95 3d e5 6f 20 3d
       -0.03962836 0.057659958 0.07302363 0.03916921
000080 81 22 00 3d 48 d6 a9 3c a7 33 35 3c 84 fc ee 3d
       0.031282905 0.02073206 0.011059678 0.11669257
000090 e0 1e 1e 3e 69 e5 f5 3d b8 d6 38 3e 53 b5 90 3d
       0.15441465 0.12006647 0.18050659 0.07065835
0000a0 54 16 ce bc f9 12 9e 3d e7 25 80 3c 5a 0b 14 3e
       -0.025157131 0.077184625 0.015643073 0.14457455
0000b0 65 04 72 bc ef ca a3 3d 6f aa a3 3b 54 53 40 bd
       -0.014771556 0.07997691 0.0049946825 -0.046954468
0000c0 15 fd 00 bc c7 2b f2 bc aa d6 07 3d 50 6f 87 3d
       -0.007872839 -0.02956189 0.033163704 0.06613028
0000d0 3a 8d a2 3d d3 09 1e bd 2e 4e 7b bc 5d 41 6b 3c
       0.07937093 -0.038583588 -0.015338464 0.014358846
0000e0 77 ec 02 be 95 b7 74 3d 41 39 94 bd e4 f6 97 3d
       -0.12785517 0.05974539 -0.07237483 0.074201375
0000f0 93 46 06 3c 97 04 22 3e c6 af 1f 3d 86 8d 7c 3b
       0.008195537 0.15822063 0.03898599 0.0038536503
000100 96 7d ba bd ae 87 78 3d a1 6e 93 3d 05 8e 7c 3d
       -0.09105985 0.06067627 0.07198835 0.061658878
000110 77 90 b6 3c 8f d6 c4 bd fe 76 f7 3c ae 6e 52 3c
       0.022285683 -0.09611236 0.030208107 0.012843771
000120 1d 59 d1 bd 2c 39 86 bd 1d c6 ce 3d 16 9f fd bd
       -0.10222075 -0.065538734 0.10096381 -0.12383859
000130 19 b8 31 be 23 8b a1 bc 6a ed 9c 3c 13 5e 0c bd
       -0.17355384 -0.019719666 0.019156177 -0.034269404
000140 7b 77 f1 bd c9 92 1d be b6 c0 d6 bd a4 16 19 be
       -0.11790367 -0.15388025 -0.104859754 -0.14950043
000150 51 86 a4 bc ae c8 d8 bd 30 bd 17 bd 0a ec 47 bd
       -0.020083578 -0.105851516 -0.037045658 -0.04880909
000160 7a 16 3c 3b 79 a2 03 bd 24 ad 62 bd 53 c6 49 bc
       0.002869992 -0.032137368 -0.0553409 -0.012315351
000170 8b 5c a0 3d fe b8 a6 bc b2 01 32 3c 8b e8 13 3b
       0.07830151 -0.020351883 0.010864662 0.0022569026
000180 fc f4 e2 bb 0a 2f b9 bc f7 1d 8d 3d 1e 0f 1c be
       -0.006926177 -0.022605438 0.06890481 -0.15240142
000190 75 1f e3 bd 07 be 48 3d c2 9b 2e bd ff 19 f7 3d
       -0.11089984 0.04900935 -0.04262901 0.12065505
0001a0 17 1b 82 3d 28 5f 31 3c ee fb 0a be 0c 99 bc bd
       0.06352823 0.01082591 -0.13572666 -0.09208879
0001b0 c8 61 7d 3d dc a2 26 3c 1e a7 f2 bc 75 21 13 3e
       0.06186083 0.010170665 -0.029620703 0.14368232
0001c0 cd cf ee bb 28 d7 2a bd c0 5a d6 3d 0c d6 56 bd
       -0.0072879554 -0.041709095 0.10466528 -0.052450225
0001d0 32 cb 31 3e 77 ec 35 ba 00 cb 9e 3c 7a 7b 79 bd
       0.17362669 -0.0006939838 0.019383907 -0.060908772
0001e0 35 0e 8a bc 82 10 81 bc c9 0f 00 be cf 74 f0 3d
       -0.016852478 -0.015754942 -0.12506022 0.117410295
0001f0 da d4 20 3c fa 0f 49 3d 42 0a c8 bc 4a 3e f6 3d
       0.009816373 0.049087502 -0.024418954 0.120235994
000200 ca a3 8d 3c c7 5d e0 3d 9d 1d 4c bd 03 43 73 bd
       0.017290015 0.109553866 -0.04983293 -0.05939008
000210 d2 0d 41 be 12 46 18 3e 20 3c cc 3c 16 b2 83 bd
       -0.18852928 0.1487048 0.024931014 -0.064304516
000220 98 60 93 3d e8 16 9a 3d 78 4f 81 bb 1a 99 74 3d
       0.07196158 0.075239 -0.003946241 0.05971632
000230 70 b7 8e 3c 1c b2 b7 3d 3b 1a 72 bd b8 09 04 be
       0.017421454 0.089695185 -0.059107047 -0.12894332
000240 a2 76 92 ba 16 93 56 bb 22 1c c0 3d a3 a9 97 3d
       -0.0011174271 -0.0032741479 0.09380366 0.074054025
000250 90 5b 31 3e cc bf 1f bc d4 56 d3 bc 3d f7 d4 bc
       0.17320085 -0.009750318 -0.025798239 -0.025996799
000260 50 5a 72 bd 65 a3 ce bd 8c 45 93 3d 3e 83 3f 3c
       -0.05916816 -0.10089759 0.071909994 0.011689005
000270 ee 36 0b 3e 73 53 af 3d e4 1c af 3c 99 10 93 bc
       0.13595173 0.085608386 0.02137608 -0.01795225
000280 38 ed 60 3d 89 2d b8 bc 0f 74 97 bd fd 31 96 bc
       0.05491373 -0.02248265 -0.07395183 -0.018334383
000290 c8 91 9a bd 60 e0 26 3d c0 d5 c3 3d 79 e4 d9 3a
       -0.07547337 0.040741324 0.09562254 0.0016623876
0002a0 eb 4f 15 bd 81 38 34 3d 8e a4 2d 3d 57 f7 0f bd
       -0.03645317 0.0439992 0.04239326 -0.03514799
0002b0 76 cd a9 3c b8 4a a4 bd b5 b9 c0 bd c2 e7 f9 bd
       0.020727854 -0.08022064 -0.09410421 -0.122024074
0002c0 15 ab 1c bb 1a 78 74 3d 3a 7e ca 3d 21 6e 80 3c
       -0.0023905684 0.05968485 0.09887357 0.015677514
0002d0 f6 4b 1c bd 26 ed d8 bb 6e a0 51 bd 92 e5 3d bd
       -0.03815838 -0.006620067 -0.05117839 -0.046361513
0002e0 35 e7 f0 3a db e0 83 bc 07 1c b0 3d 87 a9 86 bd
       0.0018379452 -0.01609843 0.08599096 -0.065753035
0002f0 75 65 ac 3d 3f 8d 43 bd 06 14 d6 bd 56 8d 80 3d
       0.08417789 -0.047742125 -0.10453038 0.06276958
000300 70 df d9 3d 7a bd 94 bd 4d 6c e2 3c 10 0e 0e bd
       0.106383204 -0.07262702 0.027639532 -0.03468138
000310 87 0c d4 bd 9c 95 11 3e 66 9a 0f 3d e2 f4 3d be
       -0.10353952 0.14217228 0.035059355 -0.18550447
000320 63 03 9e 3c fd 0a b5 3b e4 db b5 bd c6 af 23 bc
       0.019288724 0.0055249915 -0.088798314 -0.009990638
000330 df 9d a6 3d 89 86 08 3d 3c 84 3b 3c 42 12 a2 3d
       0.0813558 0.033331428 0.011445101 0.07913639
000340 4c 2d 3d bd c7 9c 68 3d 61 89 52 bd 7c 5b 47 3d
       -0.046185777 0.05679014 -0.051400546 0.04867123
000350 7b dc 89 3d 7d b5 b1 bc 1a 16 d9 3c 95 4c af bd
       0.067315064 -0.021692986 0.026499797 -0.08559529
000360 7b 77 fb 3c fd 69 ca bd 62 ad 3f bd 6d 4f 15 3d
       0.030696621 -0.09883497 -0.04679621 0.0364527
000370 93 c1 d2 bd 5a 73 7c 3d ec 55 d6 bd 62 71 c3 3d
       -0.102908276 0.061633445 -0.10465607 0.095431104
000380 86 e4 df bd 1a 18 a2 3d 09 89 a8 bd f8 9c 3d 3d
       -0.10932259 0.07914753 -0.082292624 0.046292275
000390 ef 4c fc 3d 05 84 83 bd 24 e3 56 3d 5b 5a 5d bd
       0.123193614 -0.06421665 0.052462712 -0.054041248
0003a0 39 7d 4e 3e 43 21 ef bd d5 30 21 3e 36 dc ee 3d
       0.20164956 -0.11676266 0.15741284 0.11663096
0003b0 41 65 88 3d 45 3e 7d bd c0 d0 b9 bd 64 de d3 3d
       0.06659938 -0.061826963 -0.09073019 0.10345152
0003c0 7b a3 8b 3d 1b a3 de bb 8d f8 96 3d d2 49 28 bd
       0.06818291 -0.006794346 0.07371626 -0.041086026
0003d0 c1 71 d3 bd cf 38 b8 3b f4 72 65 3d 62 c4 40 3c
       -0.10324431 0.0056220065 0.05601783 0.011765571
0003e0 1a fb b2 bb bc cc 62 bd 6a 5c 25 3c c7 f0 21 be
       -0.0054620625 -0.05537103 0.010092834 -0.15814506
0003f0 e3 76 30 bc 1d b3 dc bd 46 6a 74 3d bc 5e 7b 3d
       -0.010770532 -0.10776351 0.059671663 0.061369643

gconv1.0.W.bias f4 [140]
000000 9c 78 09 3d a1 ac 1a bd 36 a4 01 bc 92 92 37 bc
       0.033562288 -0.037762288 -0.007912686 -0.011204379
000010 32 2e 80 bd 1a 7f 72 3c 6c 28 87 3c 42 e8 9b 3d
       -0.06258811 0.014800811 0.016498767 0.07612659
000020 f4 09 00 bd 77 a5 0a 3c be 2a 23 3d d6 55 a5 3d
       -0.031259492 0.008462301 0.039835684 0.080730125
000030 49 c7 21 bd b1 ca 45 bd 33 1c 3f bd 5b d5 a5 3d
       -0.039496694 -0.048289005 -0.046657752 0.08097335
000040 ad db ab bd 11 96 e1 bb e9 ef 5c 3d e0 ba 9c bc
       -0.08391509 -0.0068843444 0.053939734 -0.019132078
000050 2e 1e 8f bd b9 ea 30 bb 61 35 0d 3c 56 72 37 3c
       -0.06988178 -0.0026995374 0.008618684 0.011196693
000060 75 29 b4 bc 44 83 be 3d f2 a5 8c 3c 0f 8d 07 bd
       -0.021992425 0.09302381 0.017168973 -0.03309351
000070 75 40 a9 3d e1 43 50 3d 37 df 28 3c df de 54 3d
       0.08264247 0.050845984 0.010307125 0.05197036
000080 2c d5 cf 3d 6e d5 a6 bd 50 1b 5e 3c 5c c3 52 3d
       0.10148081 -0.08146177 0.0135563165 0.05145584
000090 27 88 59 bb 1d d7 98 bc ff 14 35 bd 8f 30 41 bb
       -0.0033192725 -0.018657262 -0.044209477 -0.0029478406
0000a0 af 58 6e 3c 70 bd a9 3d 10 a3 95 bc ee 06 7d 3d
       0.014547511 0.082880855 -0.01826623 0.061774187
0000b0 62 03 90 bd f6 48 ee 3d e0 df 50 bc 15 a8 e8 3c
       -0.07031895 0.1163501 -0.012748688 0.02840046
0000c0 ca 37 7c 3d 14 01 8b 3d 03 6f 57 3d b0 43 86 3c
       0.061576642 0.06787315 0.052596103 0.016389698
0000d0 0e d5 1e bd 2b 7b 91 3d 1c f5 3e 3d c7 73 9b bb
       -0.038777404 0.071035706 0.046620473 -0.0047440263
0000e0 f9 36 b6 bc a1 a6 01 3c 44 d5 e8 3b 9d 32 3d 3d
       -0.02224301 0.007913263 0.0071055014 0.046190847
0000f0 65 23 3b bb 5d 8a f1 3d 3d f0 17 3d 83 af 9b bd
       -0.0028555032 0.11793969 0.037094343 -0.076018356
000100 cb fd 30 3a 70 91 87 3d f9 30 14 bd 34 3c bf bc
       0.0006751685 0.06619537 -0.036179516 -0.023344137
000110 95 59 ba 3d cf c0 8a bd a5 8f 67 3d cc 5f c3 3d
       0.09099118 -0.067750566 0.056533474 0.09539756
000120 d5 da 1b bd 4f 89 73 bd 9d 0e 46 3d a7 0d 6d 3d
       -0.03805049 -0.05945712 0.04835378 0.057874348
000130 cb e0 ae bd eb ca 90 3d f3 9e 96 3b d9 83 5c bd
       -0.085389696 0.070699535 0.004596585 -0.053836677
000140 88 eb c6 bd 33 f4 c0 bc 52 a5 00 bd aa 4b 01 bc
       -0.09712893 -0.023553943 -0.03140766 -0.007891575
000150 33 9d 01 3d ef 29 ff bc 16 e2 bf bd 23 71 a9 3d
       0.031644057 -0.031147925 -0.09369294 0.08273532
000160 72 b0 c4 bd 84 fb 85 ba 6b 99 6a 3d ba de 6f bd
       -0.09603967 -0.0010222052 0.057275217 -0.058562018
000170 51 03 92 3d bf 60 8a 3d a3 f0 97 bd ef 17 c0 3d
       0.07129539 0.06756734 -0.07418945 0.09379565
000180 60 8f e3 3d df e9 2e 3d e9 65 ef bc 3a b8 91 bd
       0.11111331 0.042703506 -0.0292234 -0.071152166
000190 ec 92 ce bc 56 ec fd 3c 62 da 0c bd c6 fe a2 3d
       -0.025216542 0.030996483 -0.034387954 0.079587504
0001a0 90 16 46 bd e1 9e 19 3d a1 37 2d bd 44 29 29 3d
       -0.04836136 0.037505034 -0.04228938 0.04129912
0001b0 40 19 90 bb f5 c5 59 bc e4 59 86 bd 30 29 28 3b
       -0.0043975413 -0.013291826 -0.06560114 0.0025659315
0001c0 45 e3 00 3d bd 49 d3 3c 91 78 c9 3d 21 e2 be 3c
       0.03146674 0.025791997 0.09837449 0.023301186
0001d0 d7 c7 23 bd 56 84 3d bd 85 eb ea bc 2c bb e9 3c
       -0.039985504 -0.046268784 -0.028676758 0.028531633
0001e0 15 4f e7 bc 49 05 2b 3c 91 40 49 3d 8b 41 09 bd
       -0.028235951 0.010438272 0.04913384 -0.033509772
0001f0 a2 c5 55 3d 19 ea e3 3d 5f 91 87 3d 0e e5 5a bd
       0.05219043 0.11128635 0.06619524 -0.0534411
000200 26 5c 80 3d cc 52 c2 3c ab 37 10 bd e3 09 97 3d
       0.06267576 0.023721121 -0.03520934 0.073749326
000210 20 13 8d 3d 8e 0b 24 bd 6b 39 dc bc 2f 13 25 bd
       0.068884134 -0.040050082 -0.026882848 -0.040301498
000220 be fa 18 bd 4c cc 5e 3d 6c 2c 27 3d 86 12 9d bc
       -0.0373485 0.05439405 0.04081385 -0.019173872

gconv1.0.gate.weight f4 [1, 280]
000000 c7 5d 82 3d 4b f0 e3 3d cd e6 10 bd ee 83 ad bd
       0.06365543 0.111298166 -0.03537636 -0.08472429
000010 16 d4 57 bc d5 7c 9d 3d bc c4 f2 3d 9b 3c a6 bd
       -0.013173124 0.076898254 0.1185393 -0.08117028
000020 63 e0 22 3c 68 54 1e 3e 10 8a 3e 3d b1 33 c3 bd
       0.009941193 0.15461886 0.046518385 -0.09531344
000030 83 97 c6 bd 2e 09 86 be 39 41 50 3d 3b fc 1d 3e
       -0.09696867 -0.2617888 0.05084345 0.1542825
000040 22 96 da bd 40 79 27 3d af 1f 3d 3d 91 ac 51 3c
       -0.10673167 0.040887117 0.046172794 0.012797491
000050 14 60 90 3d 87 ca 7f 3b 6c 78 e0 3d e5 ba 9e bc
       0.070495754 0.0039030628 0.10960469 -0.019376228
000060 a1 bf 79 be ed 2e f5 bc e1 ba 7d 3e bb d7 a4 bd
       -0.24389507 -0.029929603 0.2477832 -0.0804896
000070 94 8a 82 bd 61 de ab bc d4 27 83 bd c1 d7 58 bd
       -0.06374088 -0.020980062 -0.06404081 -0.052940134
000080 a2 27 43 bd 8f a0 5f 3d c6 37 86 3c dc c7 b4 3c
       -0.04764522 0.05459648 0.016384017 0.022067957
000090 4f ae e5 bd be c8 be bd 95 57 67 3a 4a 0c 14 3e
       -0.11214887 -0.09315632 0.00088250014 0.14457813
0000a0 b5 92 5b 3d ec c6 0a be a1 00 10 3c d3 27 dc bd
       0.053606708 -0.13552445 0.008789212 -0.10749783
0000b0 b3 11 f0 3d 4b 5a 20 bd 1c a6 c3 3c ad 0b 72 3d
       0.11722126 -0.03914861 0.023882918 0.059093166
0000c0 3d bf c5 bd 1e 57 55 3b 09 ec ee bd dc 86 98 3c
       -0.096556164 0.0032553147 -0.11666114 0.018618993
0000d0 62 65 f6 bd 08 f7 91 3d 17 96 5e 3d 03 db 5e 3d
       -0.12031056 0.071271956 0.054342356 0.054408085
0000e0 ba 0c 79 3d f8 eb e4 3c c3 56 b8 bc 77 52 17 3d
       0.060803153 0.02794455 -0.022502309 0.03694388
0000f0 53 af 27 3d 2d a0 26 be d2 6d 3c 3e 56 93 20 bc
       0.040938687 -0.1627204 0.18401268 -0.009800753
000100 3c 83 31 3e 6b 3a 59 3d e5 0f 6e 3c 01 df 8f bd
       0.17335218 0.053034227 0.014530157 -0.070249565
000110 57 15 0b 3e 2d 72 a3 3d 24 18 c4 bd a9 12 6c bd
       0.13582359 0.07980762 -0.09574917 -0.057634983
000120 b3 40 43 3d 3f 6e 11 bd af 49 2e bd 8c a0 3f be
       0.047669124 -0.03550553 -0.04255074 -0.18713588
000130 c8 67 96 bd ca 75 3d bd 28 7a 44 3c 0e 97 fd 3d
       -0.073440135 -0.04625491 0.011992015 0.12382327
000140 d1 22 06 be 29 f9 83 3d 7e 76 12 3c 05 33 be 3d
       -0.13099219 0.06444008 0.008939384 0.09287075
000150 3c 75 b2 3d 62 21 4f 3c 8e da 9b bd c8 8c 17 bc
       0.08713767 0.012642236 -0.076100454 -0.009249873
000160 14 9c 33 bd d4 23 11 be 71 0b 92 bd a6 c3 24 3e
       -0.04385002 -0.14173824 -0.071310885 0.16090259
000170 9f ed d8 bd a5 ca 5d 3d 00 17 93 bd f5 aa d9 bd
       -0.105921976 0.054148335 -0.07182121 -0.106283106
000180 a7 7e 0c 3e 9e 5a 1e 3d 6b 1b 28 be 4b ff b5 bd
       0.13720189 0.038660638 -0.16416709 -0.08886584
000190 56 ec 10 bc 9e 63 52 bd 99 e4 d0 bd d3 ab 41 bd
       -0.008845409 -0.051364534 -0.101998515 -0.047283005
0001a0 3b dd 28 3c 0a 69 99 3d a2 a5 87 bc e6 fc bd 3c
       0.010306652 0.07490738 -0.016558472 0.02319188
0001b0 76 11 8d 3d ae ba de bd b4 96 24 3d 8d a6 8d 3c
       0.06888096 -0.1087545 0.040182784 0.017291332
0001c0 6e 50 16 3d 14 69 ed 3c 4e ec 69 bd 27 75 25 be
       0.036697797 0.02898077 -0.057110123 -0.16157971
0001d0 1b 1b 0e 3d 69 10 09 3e 6c 89 19 be 14 04 99 3c
       0.03469382 0.13385166 -0.14993829 0.018678702
0001e0 27 09 9a 3d 95 23 33 3c c4 be 24 3d aa ad f8 3d
       0.07521277 0.010933776 0.04022099 0.12142499
0001f0 df ff 38 3e d9 f5 59 bd 0b eb 00 3e a3 70 65 3c
       0.18066357 -0.053212974 0.12589662 0.0140039055
000200 7f 6d 15 be 8d 78 2a 3d 03 0e 31 3d c7 1f e9 bd
       -0.1459255 0.041618872 0.043226253 -0.11383014
000210 40 8a b7 bd 22 27 85 bc b2 9c f8 3d 9e bf 71 bb
       -0.08961916 -0.016254012 0.12139262 -0.0036887894
000220 ee e6 ef bc 78 1e 15 bd 49 81 56 bd 86 4b 0d bd
       -0.02928492 -0.03640601 -0.05236939 -0.034495853
000230 23 6a 18 3d 82 ab 11 3e 20 c2 19 bd 2e fc 81 3c
       0.037210595 0.14225581 -0.037538648 0.015867319
000240 20 e2 50 be 2d 3f 14 bd 71 42 a2 3c 55 9f 07 3d
       -0.2039876 -0.03619306 0.019807072 0.033110935
000250 fe 3a 1f 3e 1f 66 90 3d 18 38 aa bd 16 16 ed bb
       0.15549847 0.07050728 -0.0831148 -0.007235299
000260 2c f7 d7 3d 37 9e 52 3d 48 3e 60 bd 27 72 b3 3c
       0.10545191 0.051420417 -0.054746896 0.021905018
000270 89 06 8b bd 8f c4 c9 3d 98 42 19 bd 58 46 d2 bb
       -0.06788356 0.09851944 -0.037417024 -0.006417077
000280 d9 74 13 be a5 17 fd 39 f7 ee 94 bc 91 5d 11 3d
       -0.14400043 0.00048273537 -0.018180354 0.035489623
000290 6e e8 bd bd 0c f6 ec 3d 72 a2 58 bd 94 4b a9 bd
       -0.09272848 0.11570367 -0.052889295 -0.082663685
0002a0 93 77 a9 3d f7 25 93 3d 60 30 62 3d 7c cf 99 bc
       0.0827476 0.071849756 0.055221915 -0.018775694
0002b0 81 96 a3 3c 43 45 49 bc 2c 79 9d bc 7b a3 c5 bc
       0.019969227 -0.01228458 -0.019222818 -0.024125805
0002c0 31 8b 29 be 9b 06 85 bb 1a 2c cc 3d 48 27 59 bd
       -0.16557004 -0.0040596253 0.09969349 -0.053015977
0002d0 49 cd c1 3d 3d 8f b4 bc b8 e8 31 bd 03 96 43 3d
       0.09462983 -0.022040958 -0.04343483 0.047750484
0002e0 a9 ed f9 bc 91 25 97 3d 14 95 23 3d eb e7 4b be
       -0.030508833 0.07380212 0.039937094 -0.19912688
0002f0 1e a2 c6 3d 3b ca 92 3d 49 8c 3c 3d 73 ce 93 3d
       0.0969889 0.07167479 0.046032224 0.072171114
000300 7c 9e 9a 3c 66 7a 8b bc 38 89 74 bd cf 95 66 3d
       0.0188744 -0.017026138 -0.059701174 0.056295212
000310 85 c0 1a be 9c 24 67 bd fa b5 27 bd 56 96 22 3e
       -0.15112503 -0.056431398 -0.04094503 0.15877661
000320 89 3a 8b bd aa f6 61 3e 7e 11 6d bc 18 8a 95 bd
       -0.06798274 0.22066751 -0.0144695025 -0.0730173
000330 1f 83 6c 3d b5 4a 20 be 20 2e 82 3d 65 3e 09 be
       0.057742234 -0.15653498 0.06356454 -0.13402708
000340 eb ae d8 3d 7e cc 4e bb fc 2e 37 be f7 1f 62 3d
       0.10580238 -0.0031554992 -0.17889017 0.055206265
000350 d4 54 25 be d8 55 91 3e f4 8c d2 3d d9 4e 0a be
       -0.1614564 0.28385806 0.10280791 -0.1350664
000360 06 c5 b1 3c bf a7 e1 bc f1 84 b8 bd 64 6b 8e 3e
       0.021700393 -0.027545808 -0.090097316 0.27816308
000370 64 19 8b bd e0 b1 f1 3d 90 33 45 3d ad 43 b3 bc
       -0.06791952 0.11801505 0.048144877 -0.021882856
000380 b7 f7 a8 bd d9 db 89 3c c4 8c c2 bd 22 2c 6b bc
       -0.08250373 0.016828464 -0.09499505 -0.014353784
000390 ab 60 13 be 16 4f 3a 3d 89 62 d4 3d 66 fb 70 bd
       -0.14392345 0.04548558 0.103703566 -0.058833502
0003a0 40 04 31 3d 14 07 23 3e b8 05 8f 3d cc f4 ef 3d
       0.043216944 0.15920669 0.06983513 0.11716613
0003b0 8b c1 8d 3d 95 81 27 be 9c f4 62 bd 83 8a 16 3c
       0.06921681 -0.16358025 -0.05540906 0.009188297
0003c0 58 4c 61 bd 61 97 c8 3d ad 1f 8c b8 8f bf 2d bb
       -0.055004448 0.09794498 -6.68162e-05 -0.0026511883
0003d0 23 d5 de bc ef 6e c0 3d db b9 1f bd 50 df 4a 3e
       -0.02720124 0.09396159 -0.038995605 0.1981175
0003e0 6b 6c 5c 3d 99 d8 81 bd 97 75 93 3c 9e fe af 3c
       0.053814333 -0.06340141 0.018000407 0.021483716
0003f0 98 08 f6 3d 3f f3 82 bd 4c 1e 9c 3d 1f 22 fc 3b
       0.12013358 -0.06394052 0.07622966 0.0076944972

gconv1.1.A f4 [140, 140]
000000 64 c5 16 bc 95 c9 00 bd 84 14 25 bd dd 49 8b 3c
       -0.009202335 -0.031442244 -0.04030277 0.017002994
000010 80 16 be 3d 6a 0b 9d 3d b1 dc 3e 3d fb 91 e8 bc
       0.09281635 0.07668193 0.046597186 -0.028389921
000020 9d 7b dc 3d 5f ab 12 be b8 8f 40 bc 46 3a a5 bd
       0.10765765 -0.14323185 -0.011753015 -0.080677554
000030 a4 7d 33 3d c0 7a df 3a 64 79 fe bd 94 b9 98 bd
       0.043820992 0.0017050132 -0.12425497 -0.07457271
000040 cb da 0b 3d 21 36 97 3c f1 03 97 3d e2 a8 9b 3d
       0.034144204 0.018458428 0.07373799 0.07600571
000050 dd 9c 12 3d 91 c4 94 3c 61 37 a8 bc 2a dd 56 bd
       0.035794128 0.018160136 -0.02053422 -0.052457012
000060 06 07 d9 bc b8 a3 eb bd ce 40 ab bd 29 9c 16 bd
       -0.026492607 -0.11505836 -0.0836197 -0.03677002
000070 e2 a4 4e bd e2 a3 14 bc c9 ba a7 bc 18 58 54 3c
       -0.050450213 -0.009072276 -0.020474808 0.012960456
000080 a0 31 1f 3d 7d a5 89 bd 70 c8 81 3d cf 0d a1 bd
       0.038865685 -0.067210175 0.063370585 -0.07863962
000090 30 fd 09 bd 4e 77 88 3b e7 1a 9e 3d 2b 7a b1 3d
       -0.033688724 0.004164613 0.07719975 0.0866588
0000a0 93 04 84 bc d0 47 28 3d 0d cd 75 3d d4 bb db 3d
       -0.016115462 0.04108411 0.060010005 0.10729185
0000b0 4e aa ff bc 81 dd 8f bb 0c 0b bc bd 17 d6 e6 bb
       -0.031209137 -0.004390419 -0.091817945 -0.0070445645
0000c0 ff 66 4a 3d 15 6d 02 bd 53 a9 8a bc 9c 05 9f bb
       0.04941463 -0.03184231 -0.016926443 -0.0048529636
0000d0 c8 cd 52 3e 3d f9 0d 3e c0 39 9b 3d 57 c4 5d 3d
       0.20586312 0.13864608 0.07579374 0.054142322
0000e0 15 15 1c 3e 59 bb 71 3c 4e bc 36 3d 0d c8 7b bc
       0.15242417 0.01475414 0.044613175 -0.01536752
0000f0 ec 44 8b 3d ab f5 b4 bd 21 9f e1 3d a6 0d af 3d
       0.06800255 -0.0883592 0.110166796 0.08547525
000100 45 37 c8 ba 82 d0 e0 3c b8 c1 d9 3c 37 73 fe bd
       -0.0015275261 0.027443174 0.02658163 -0.12424319
000110 ef b0 21 3e dc 8b 82 3d 83 ab 85 bc 2d 9b f9 3c
       0.15790151 0.06374332 -0.016317135 0.030469501
000120 05 3c 5b 3d f7 2c 21 bd fd 14 1a 3c da b4 cb bd
       0.053524036 -0.039349522 0.009404418 -0.09946604
000130 c4 57 2e 3d 4a dc c9 3c f4 cf 95 3d 6f ce 5d 3d
       0.04256417 0.024641175 0.073150545 0.05415195
000140 e7 32 84 bd ea 67 85 3d 8e f5 2e be b5 bc c0 bd
       -0.06455021 0.06513961 -0.17085859 -0.09410993
000150 b6 bc ff bb c2 bb 64 3d 0b 2b 9c 3c 8d 14 42 bd
       -0.0078044785 0.055843122 0.019063493 -0.04738288
000160 6f fd 7d bd 54 a2 a2 bb b1 52 bf 3d 43 98 a9 bd
       -0.06200927 -0.0049631987 0.09341944 -0.08280995
000170 75 87 2f 3d 5d df d3 bd d7 d4 c9 bc 16 70 56 bd
       0.04285379 -0.103453375 -0.024637623 -0.052352987
000180 a6 b8 26 bd 7c 8d e6 bd 1c f6 6d 3d 45 b7 63 3c
       -0.04070344 -0.11257455 0.058096036 0.013898675
000190 79 08 15 bd c5 b6 ce 3d 94 12 77 bb 3d cc fb 3d
       -0.036385033 0.10093454 -0.0037700282 0.12294815
0001a0 0e e4 ea 3d cf e8 0f bb 95 75 8b bd a5 56 04 be
       0.11469279 -0.0021958833 -0.06809536 -0.12923677
0001b0 04 71 5f 3d 73 2f 14 3d 2a 28 b9 bd ba ba 66 bd
       0.05455114 0.036178064 -0.09040864 -0.05633042
0001c0 ec 11 fd 3d 8c d2 b6 bc db 7e 0e be c9 01 02 be
       0.12356934 -0.022317193 -0.13915579 -0.12695993
0001d0 67 49 da bd 55 9d 9c bc 29 76 69 3c ad ea da 3d
       -0.10658532 -0.01911799 0.014249363 0.10689292
0001e0 bd e8 3f bd 22 a2 c4 3d e3 79 1b 3e 11 0e f2 bb
       -0.046852816 0.09601237 0.15183215 -0.0073869308
0001f0 53 8f f4 bc d8 3f 96 bd 69 4a 20 be d5 44 3b 3d
       -0.029853499 -0.07336396 -0.15653385 0.04571994
000200 c1 b7 10 3c e4 08 d5 3d d8 e7 b1 bd cd 7b 5a 3c
       0.008832873 0.104020864 -0.08686799 0.0133351805
000210 66 d6 03 bd b4 a6 e6 3c 01 c0 eb bd 60 77 4e bc
       -0.03218689 0.028155662 -0.11511231 -0.012601703
000220 f9 9a 0f 3e 5f c7 dd 3c 82 87 6b 3e bd c7 cd bd
       0.14023961 0.027072607 0.23000911 -0.10047863
000230 0e cc e2 bc 80 41 02 bd 20 65 1c bd 4a 20 cb bb
       -0.027685191 -0.031800747 -0.038182378 -0.0061989175
000240 0c e6 fa bd 86 96 3d bc a5 c1 46 3d 52 3c d5 bd
       -0.12250909 -0.011571532 0.048524518 -0.10411896
000250 f0 be bc bd 56 cc 14 bd 0e 6e 9f 3d f0 4b 0a bd
       -0.09216106 -0.036327682 0.07784663 -0.033763826
000260 2e e3 2e 3d b0 6d 2c bd 88 3b c8 bd d3 57 57 3c
       0.042697124 -0.042096794 -0.0977698 0.0131434975
000270 a3 69 88 3d 46 4a 8c bc c1 11 e9 3c 96 7f 1a 3d
       0.066607736 -0.01712526 0.028450849 0.03771933
000280 85 57 79 3e f6 e7 55 bb f6 2a e2 bd fe fe a2 bd
       0.24349792 -0.003263948 -0.110433504 -0.07958792
000290 0c dd a6 3d 4f 1e 28 bc 7b 35 41 be 69 71 93 bd
       0.0814763 -0.010261132 -0.18868057 -0.07199366
0002a0 57 31 60 3c 3b 36 df 3c dd fb 18 be eb 4b 2c be
       0.013683639 0.027247539 -0.14939828 -0.16825835
0002b0 83 e6 e1 3d ac a5 8f 3d 7d fb b9 3c c9 fa 65 3d
       0.11030295 0.07014021 0.022702927 0.05614737
0002c0 89 d3 3f bc 19 43 9e bd d9 5a ef 3c 80 7f dc 3d
       -0.011708149 -0.077276416 0.029218124 0.10766506
0002d0 e2 38 2c 3e 1c 63 d2 bc 19 3d 77 3d 36 84 06 3c
       0.16818574 -0.025682025 0.060361 0.0082102325
0002e0 7b ce 16 bd 39 3b 00 be 88 2c 85 3d 41 12 27 be
       -0.03681801 -0.12522592 0.06502634 -0.16315557
0002f0 f9 6b 30 be 60 59 25 3e c1 71 ad 3d 1b a1 88 bc
       -0.17228688 0.16147375 0.084689625 -0.016678384
000300 b2 77 3d 3e 61 6d e3 3d 44 71 aa bd 1b 71 82 3d
       0.18502691 0.11104847 -0.08322385 0.063692294
000310 f0 60 df bd 18 db a3 bd c6 58 68 3c 7e 45 fa 3d
       -0.10907161 -0.08000773 0.0141813215 0.12220286
000320 d7 a2 21 3e 45 c7 4c be 74 15 6a 3c 3d 2b 81 bd
       0.15784775 -0.1999789 0.014287341 -0.06307075
000330 ef 7f e4 bd f5 25 f4 3c 0c 79 33 3c 21 2f 98 bd
       -0.11157214 0.029803256 0.010954153 -0.07430864
000340 1e c7 1e be 8a 44 29 bd 09 fd 59 bd 5f b6 dd 3d
       -0.15505645 -0.04132513 -0.05321983 0.108258
000350 f9 08 40 3e 8a fc 3a bb 0c 89 cf 3c ff 41 fa bc
       0.18753423 -0.0028531873 0.025333904 -0.030549048
000360 de 49 00 bd ac f4 ec 3d 15 9a f3 bc 71 ce 65 3e
       -0.031320445 0.11570105 -0.029736558 0.22442032
000370 98 1c ec 3d 6e d5 2c bd c9 4f a8 bd 0d 21 7f bc
       0.11528891 -0.04219573 -0.08218343 -0.015571845
000380 5f 87 89 bd 1e 1f 3f 3e 27 02 9e 3d 2c 3e ed bd
       -0.06715273 0.18664214 0.07715254 -0.11584124
000390 b8 8f 1d bd f7 26 57 3c 66 a3 bd 3d 72 2c 81 bd
       -0.03846714 0.013131849 0.092596814 -0.063073054
0003a0 69 bc a0 bc 98 25 5d bd b7 e6 d4 3d 3b c5 99 bd
       -0.019621091 -0.05399093 0.10395568 -0.07508322
0003b0 a0 1e 3c bd be d4 67 bc a1 e5 9f 3c 1f 04 9f 3d
       -0.045927644 -0.014149843 0.019518675 0.07764458
0003c0 d1 f5 80 bd e8 96 65 bd a7 41 8e bc d5 ee c3 bd
       -0.06296886 -0.05605212 -0.01736529 -0.09567038
0003d0 8f d1 03 be 7e fe 7c bd e7 5e 63 3d 23 b3 50 3c
       -0.12872909 -0.06176614 0.055510428 0.012738022
0003e0 c3 06 82 3c f0 73 b1 3d cb de 6d 3c fc b9 22 bc
       0.015872365 0.086646914 0.01451845 -0.009932037
0003f0 1e 43 dd bd b9 a8 81 bd df 93 b6 3d 2a 44 29 bd
       -0.10803817 -0.063310094 0.08914923 -0.041324772

gconv1.1.W.weight f4 [140, 140]
000000 be 31 66 be 22 e0 04 be 9f 3c 4a be ff dd c4 bd
       -0.22479913 -0.12976125 -0.19749688 -0.09612655
000010 a4 4c ab bd 86 dd 3b 3c 1e 01 e6 3d c5 52 da 3d
       -0.083642274 0.0114663895 0.11230682 0.10660318
000020 6d 60 c7 3d f5 b0 ad bd d9 b7 4c bd 7e e7 4b bd
       0.09735189 -0.084810175 -0.04998002 -0.049781315
000030 ff 0c 46 3d 4a b9 f1 bd 8d d5 05 bd 42 51 72 3e
       0.048352238 -0.11802919 -0.03267436 0.2366381
000040 c4 8e 15 3e 9c 1b 94 3d 79 dd f1 3c fa 41 1b 3d
       0.14605242 0.072318286 0.029524552 0.037904717
000050 6e ba 4a bd 13 f0 95 3a 42 44 be 3d 82 7c fc 3d
       -0.0494942 0.0011439346 0.09290363 0.123284355
000060 a4 4f 84 bd e0 83 0b bc 56 3b 9d bb 87 d0 ef bc
       -0.06460503 -0.008515328 -0.004798333 -0.029274238
000070 2d 40 ab bd 84 f0 c6 ba 81 09 a1 3d bf 65 0f 3e
       -0.0836185 -0.001517788 0.07863141 0.14003657
000080 a8 7e e6 3d 5d f3 9f bd 3b 2b c6 3d f3 bc 2b bd
       0.112546265 -0.0781009 0.09676214 -0.041928243
000090 74 8f 1c 3d 14 08 90 3c 60 3c 27 bd 15 21 fb 3d
       0.038222745 0.017581977 -0.040829062 0.12262169
0000a0 6a e8 97 3d f1 76 02 3e 54 f8 59 bd 5b 48 4b bd
       0.07417376 0.12740685 -0.05321534 -0.04962955
0000b0 7b 3e 3a bc 6f 20 54 bd 11 1a d5 3c 08 d3 52 3d
       -0.011367436 -0.051788744 0.026013406 0.051470786
0000c0 cf 52 b5 3d 79 4c 91 3c 1b 03 b3 3d b0 87 bf 3d
       0.08853685 0.01773666 0.08740827 0.09352052
0000d0 61 59 e6 3d c4 95 16 3d 26 31 9b bd 70 d3 3f bd
       0.112475164 0.03676392 -0.07577734 -0.046832502
0000e0 17 6a dc 3d 5c 8d da 3c be 4a 74 3b 70 fe 2e be
       0.107624225 0.026678734 0.0037275995 -0.17089248
0000f0 8b 04 5c 3d 38 d5 d1 bd da 19 10 3d 61 4d 42 bd
       0.05371527 -0.102457464 0.035180904 -0.047437076
000100 f7 6d be 3d af 88 22 be 0c c2 cd bd f2 6c b0 bd
       0.09298318 -0.15872453 -0.10046777 -0.0861453
000110 c3 83 a0 bd 79 74 c4 3d 2b 97 4a 3d a5 b5 57 3d
       -0.078376316 0.09592528 0.04946057 0.052663464
000120 aa cf 53 bc 40 f9 09 be 21 27 26 3d 61 4d 33 bd
       -0.012927929 -0.13473988 0.04056466 -0.043774966
000130 89 e7 2c be 82 ad 52 bc ad 7b 09 be 99 ca 1c 3e
       -0.16885199 -0.01285875 -0.13426085 0.1531166
000140 59 3d 22 3e 1d a4 c1 bc a9 30 68 3b 05 92 1e be
       0.15843715 -0.023637826 0.0035429394 -0.1548539
000150 8a f2 ab bd 96 6b a4 3c c6 06 69 bd e5 b4 13 3e
       -0.0839587 0.020070832 -0.056891225 0.14424475
000160 b4 d5 a6 3d 4a 88 18 3c 0b f0 f7 3b f5 e5 a2 bc
       0.081462294 0.009309838 0.007566457 -0.019885043
000170 69 e6 7e bd 4c b3 95 bc 5f f9 ff 3d b7 ee 61 bd
       -0.062231455 -0.018273972 0.12498736 -0.055159297
000180 f0 65 4a 3d c3 ee 9f 3b a5 0c fc 3c 96 29 97 bc
       0.04941362 0.0048807575 0.030767748 -0.018452447
000190 5b e9 93 3c fc 3e be bd 7f 38 88 3d f0 c9 aa bc
       0.018055608 -0.09289357 0.06651401 -0.020848244
0001a0 22 70 82 3d 9e a8 48 3e 64 a4 ac bd 11 70 63 bd
       0.06369044 0.19595572 -0.084297925 -0.055526797
0001b0 e2 e1 56 bc 2e ea 44 bd fb 10 bf 3d 24 c4 84 3b
       -0.013115378 -0.048074894 0.09329411 0.004051702
0001c0 78 9e f0 bc f1 20 fb bc 7b ed 1f be 77 14 e1 3c
       -0.029372439 -0.030655356 -0.15617935 0.027475579
0001d0 26 c6 3b be c8 61 08 3e 6f ef 6f be ec 4d a4 bd
       -0.18337306 0.1331855 -0.2343118 -0.08022675
0001e0 8a 05 0f be 70 df 8d bd 82 21 ec ba db 1d 23 bd
       -0.13966957 -0.06927383 -0.0018015357 -0.039823394
0001f0 49 55 e1 3d 4f b7 c7 3d 15 29 20 ba f9 97 be bc
       0.11002595 0.0975176 -0.00061096373 -0.023265826
000200 15 44 c2 3d d4 6f 5e 3d 52 69 a2 bd 33 dc 90 3d
       0.09485642 0.054305866 -0.079302445 0.0707325
000210 74 c3 11 3e 38 c3 0f bc 58 f4 b5 3d f6 45 ee bd
       0.14234716 -0.008774571 0.088844955 -0.11634438
000220 d1 a0 9d bb e2 18 99 3a 54 f0 ad bc 79 32 04 be
       -0.0048104306 0.0011680389 -0.021232761 -0.12909879
000230 9f f0 16 be 8c 5d 94 3d ce 82 61 bd 37 92 19 3d
       -0.14740227 0.07244405 -0.055056386 0.037492957
000240 b8 27 01 be ff ba 0c 3d 20 e8 03 bd 1f 93 1f bd
       -0.12612808 0.03435802 -0.032203794 -0.038958665
000250 93 71 30 3e b1 24 1d 3e 0f 24 3a bd 18 f4 39 bc
       0.17230825 0.15346028 -0.045444544 -0.0113497
000260 7a db 14 bd b2 3c af bd 19 be 8e 3d ea 00 42 bb
       -0.03634212 -0.085564986 0.06969852 -0.0029602596
000270 43 50 ab 3d e6 f8 0a 3c ee b5 08 bd 4b cb 5a 3c
       0.08364918 0.008482194 -0.033376627 0.013354133
000280 e9 cb 6b bd f5 d5 07 be 32 f6 26 3e 72 86 2c bd
       -0.05756751 -0.13265212 0.16304854 -0.042120405
000290 9c 02 86 bb db 59 c5 3c a6 6a be 3d 88 c0 93 bd
       -0.0040896665 0.024090698 0.09297685 -0.07214457
0002a0 1c 04 71 bc 85 07 51 bb 47 a0 87 3c 76 c6 3f 3e
       -0.014710452 -0.003189535 0.016555918 0.1872805
0002b0 37 a0 7b 3d c4 68 89 3d d8 06 6f ba 3e 2c 70 bd
       0.06143209 0.067094356 -0.0009118146 -0.058635943
0002c0 8d 73 b4 3c 74 ca 5e 3e 01 c0 d9 3d da 7a 1c bd
       0.022027755 0.21756917 0.10632325 -0.038203098
0002d0 25 23 5d 3e 52 6a 47 bd 58 4f 9d 3d 89 f5 16 3d
       0.21595438 -0.04868538 0.07681149 0.036855254
0002e0 42 9d dd bc a7 53 40 bd ac 8f 20 be c4 9d c5 3d
       -0.027052525 -0.046954777 -0.15679806 0.09649232
0002f0 77 e3 ab 3c 49 eb 39 be fb 33 ce 3c 3d fa e3 bd
       0.020982487 -0.1815616 0.02517127 -0.111317135
000300 69 5b b2 3d 61 fa 53 bd 44 be 40 3d c3 e2 80 3d
       0.08708841 -0.05175245 0.04705645 0.06293251
000310 7f be c0 bd 98 6a 68 3e 91 1c 37 3d 45 69 9a 3c
       -0.09411334 0.22696912 0.044704977 0.018849025
000320 97 25 6f bd 1b 4b da bd cd 66 02 3d 8b 1c 91 3d
       -0.058385458 -0.106588565 0.03183632 0.07085522
000330 74 0f b7 3d ea 6e 91 3d f6 1c 5c bc 25 eb e8 bd
       0.08938494 0.07101233 -0.013434639 -0.11372975
000340 8e e4 b4 bc b0 55 b4 bb af bc 62 3d 4f c0 c3 3c
       -0.02208164 -0.005503379 0.055355724 0.02389541
000350 8d aa be bd 6e 13 f9 3c 89 db 59 3d f5 ce c2 bd
       -0.09309874 0.030404773 0.05318788 -0.0951213
000360 b2 03 84 bc 9b 81 8e 3a 4f ec 95 bc 5c b7 1a bd
       -0.016115043 0.0010872366 -0.018301157 -0.03777252
000370 de 09 11 be 5e 2e 12 bd d2 5c 86 bd b6 8e 00 be
       -0.1416392 -0.03568875 -0.06560673 -0.1255444
000380 27 aa 74 bd b5 e9 dc 3c 35 eb 18 bd 28 e3 3a 3e
       -0.059732582 0.026966909 -0.037333686 0.18250716
000390 dc 50 f4 bc 32 75 69 3d cb 7f 54 bd e7 aa 20 bd
       -0.029823713 0.05699653 -0.051879685 -0.039225485
0003a0 1e 0f 11 3e d1 fe 92 bb 65 e3 92 bc 05 67 16 3d
       0.14165923 -0.004485943 -0.017930696 0.03671934
0003b0 e0 2a 7c bd 0f 70 bb 3c e4 bb 69 bd 5c 36 d5 bd
       -0.061564326 0.022880582 -0.057063952 -0.10410759
0003c0 a2 70 b9 3d d1 5b 99 3c cb c9 75 bd 98 5f 9d bd
       0.09054686 0.01872054 -0.060006898 -0.07684249
0003d0 53 c3 48 3c d2 84 c3 3d d2 1d b2 3b e7 c3 8b bc
       0.0122536 0.09546818 0.0054356838 -0.017061187
0003e0 b4 da 13 bd db c7 90 bd 56 52 37 be 2c 6c c4 bd
       -0.036097243 -0.070693694 -0.17902502 -0.09590945
0003f0 d9 6a 05 bc ee 8e 07 3e aa 56 2d 3d e1 99 34 bd
       -0.00814315 0.13238117 0.042318977 -0.044092063

gconv1.1.W.bias f4 [140]
000000 f4 1c 86 bc a7 5f f1 3d 88 f0 00 bd 03 79 9b bd
       -0.016371228 0.11785822 -0.03147939 -0.075914405
000010 6f be 2c bd 0b 87 56 3d b7 64 4a 3b 2d 4d be 3d
       -0.0421738 0.05237488 0.0030882785 0.09292064
000020 8f 15 b6 bd f7 fe 4a bd f6 ea d6 3d a5 83 99 3d
       -0.08890831 -0.04955956 0.10494034 0.07495812
000030 7c a4 95 bd b3 51 0a 3d a3 1a 4a bd 1b 99 a4 3c
       -0.073067635 0.03376932 -0.04934181 0.020092538
000040 4b 74 02 bd e9 d7 57 bd fc 0a ae 3d 4b 55 ac 3d
       -0.031849187 -0.052696142 0.08498189 0.08414706
000050 ad fa 8a 3b 62 46 2f bd fa ad 90 bc 97 b9 8f bc
       0.0042413087 -0.04279173 -0.017661083 -0.01754455
000060 60 2a 54 3d 23 66 9e 3d 73 6f cd 3d e4 fc 01 bd
       0.051798224 0.07734325 0.10031023 -0.031735316
000070 fc 57 72 3d 04 f0 97 3d b2 f9 52 bd 18 63 f5 bc
       0.05916594 0.07418826 -0.05150766 -0.029954478
000080 38 a0 19 3e 8c 9a b2 3d e5 b9 22 bd 64 f1 18 3d
       0.15002525 0.08720884 -0.039728064 0.037339583
000090 15 9f c9 3d fd e2 f5 3b 15 95 11 bd 56 99 26 bd
       0.098447956 0.0075038658 -0.035542566 -0.040673576
0000a0 7c d3 81 bd 4f 56 96 bd 9b f8 c1 bc 58 be 43 bd
       -0.063391656 -0.07340681 -0.023678115 -0.047788948
0000b0 00 34 50 bd 39 74 4a bd 91 57 8a 3d e8 8b 8f bd
       -0.05083084 -0.049427245 0.06754983 -0.07009107
0000c0 a4 60 97 bc cd 7c 48 bd 2c 37 89 3c e2 3d 76 bd
       -0.018478699 -0.048947144 0.01674994 -0.06011761
0000d0 0a 19 87 bd ce 88 6f 3d 23 cd 89 3a 8b 8c 5f 3d
       -0.06596573 0.058480076 0.0010513406 0.05457739
0000e0 9f 19 29 bd c0 9d 0e 3d a3 16 9c ba b2 4f 68 bd
       -0.0412842 0.03481841 -0.0011908602 -0.05671663
0000f0 27 0a c0 3d b1 93 b3 3d 0d bb 30 3d 9b 3a 1c 3d
       0.093769364 0.08768404 0.043147136 0.038141828
000100 d4 78 17 bd 3b a2 9b 3c 82 57 ce bc 16 32 07 bd
       -0.036980465 0.018998256 -0.025188211 -0.03300675
000110 81 a1 cd bc ec db ab 3d 67 a0 8a 3d 21 83 93 bc
       -0.025101425 0.08391556 0.067688756 -0.018006863
000120 47 3c 88 3d 05 69 d1 3d ea ed cc 3d e0 75 fd bc
       0.06652122 0.10225109 0.10006316 -0.030939996
000130 88 62 c2 3d a8 a1 8d bd fb e7 a6 3d 2f 10 92 3c
       0.094914496 -0.06915599 0.081497155 0.017829983
000140 8f 71 5b bc b3 38 0c bd e0 3e 4f bd 12 b8 7a 3d
       -0.013393774 -0.03423376 -0.05059707 0.0612107
000150 de 1f bc bc 50 ba 87 3d 42 06 b9 3d 79 04 54 bd
       -0.022964414 0.06627333 0.09034397 -0.051762078
000160 82 49 83 bd 36 7e e3 3d 14 89 de 3d c3 ef c3 3d
       -0.06410505 0.11108057 0.10865989 0.09567215
000170 24 7c 98 3d df 05 b0 bc 45 65 c0 3d cf 0d 09 3d
       0.07445553 -0.021487175 0.09394316 0.033460435
000180 73 a2 fc 3c 61 c7 3c 3b 1a d1 4c 3d 0e 83 74 3d
       0.03083918 0.0028805363 0.050004102 0.059695296
000190 10 11 a1 bc 08 0c 2c 3d dc 0e 81 bd 04 14 08 bd
       -0.019661456 0.04200366 -0.06301662 -0.033222213
0001a0 b4 2e 1a bd d2 cf a4 3c 7f 8e ba bd 9d 32 32 bb
       -0.037642196 0.020118628 -0.0910921 -0.0027190812
0001b0 3b 0b 13 3d 71 f6 a1 3d e1 c0 c4 bd b2 af e1 3c
       0.035899382 0.07908333 -0.09607101 0.027549598
0001c0 9e be 8f 3d fe 1d 51 3c ed bc 69 3d f7 b3 59 bc
       0.07018779 0.012763498 0.05706494 -0.013287536
0001d0 4a d5 86 bd 9f 13 5b bd 45 d6 ca 3d c5 88 ce 3d
       -0.065836504 -0.05348551 0.0990415 0.100846805
0001e0 43 50 c9 3d 6c 01 da 3c ca af 47 3d a3 42 c7 bd
       0.09829762 0.026612006 0.04875163 -0.09729507
0001f0 b1 d6 b0 bd 48 35 64 bd 54 a0 9c 3d b4 91 da 3d
       -0.08634699 -0.055714875 0.07647768 0.10672322
000200 70 e1 e6 3d 50 87 a2 bc 49 bc c0 3d 1b 5f 71 3d
       0.112734675 -0.019839913 0.094109125 0.05892859
000210 95 fc 42 3c 25 7d 03 3e c3 99 b3 3d 1d aa 31 bd
       0.011901041 0.12840708 0.08769562 -0.043375123
000220 30 d9 a2 bd 30 50 a7 3d e3 1f 17 bd 30 93 b5 3d
       -0.079515815 0.081695914 -0.036895644 0.088659644

gconv1.1.gate.weight f4 [1, 280]
000000 73 57 0d be a0 b5 93 3d e2 eb a6 3c 41 e1 d0 bd
       -0.1380289 0.072123766 0.02037615 -0.10199214
000010 2f 06 4f be 84 40 0e bd dd 3e 0c 3d be 37 83 bd
       -0.20217203 -0.034729496 0.03423964 -0.06407116
000020 f3 12 b3 3c 83 c5 03 bd a4 1f 05 3d 6c c3 de bd
       0.021859622 -0.032170784 0.032500878 -0.108771175
000030 3a 3b 86 bd 5f 49 14 bd 90 49 de 3d f0 f9 8b 3d
       -0.06554265 -0.036202785 0.10853875 0.06834781
000040 49 62 f5 bd 16 a0 36 bd ba 4e 84 bd 3e 88 e8 3d
       -0.11981637 -0.044586264 -0.064603284 0.11354111
000050 54 0a 74 bb 42 46 30 be b1 60 65 bc c9 98 1e 3e
       -0.0037237601 -0.17214301 -0.014000104 0.1548797
000060 f9 68 ea b8 62 85 87 bd 82 58 df bd b3 0d 92 bc
       -0.00011177542 -0.06617238 -0.109055534 -0.017828798
000070 c6 88 a9 bd 4d af 5e bd 6c a8 bb 3d b6 70 b6 bd
       -0.082780406 -0.0543664 0.09162983 -0.08908217
000080 07 2d b6 3b 8c 77 b2 3d 4d bf 48 3d 2a 65 ea 3c
       0.005559567 0.08714208 0.049010564 0.028612692
000090 1f 4d 8d 3d 9d d9 11 be 6d 6b 96 3d ec 63 b5 bd
       0.06899475 -0.14243169 0.073447086 -0.08856949
0000a0 25 51 b2 3d 60 0f 9c 3d aa 41 e0 bd 68 f6 ee 3d
       0.08706883 0.0762012 -0.109500244 0.11668092
0000b0 9a a9 e5 bc 56 7b 92 bc cd 16 03 bd 43 53 65 3c
       -0.028034974 -0.017881077 -0.032004166 0.013996902
0000c0 99 f5 3a be 8b 5b dd 3d 04 d7 2b 3d 15 c0 f2 bd
       -0.1825775 0.10808476 0.0419531 -0.11853043
0000d0 51 68 3f 3e 59 d8 f3 3c 85 d0 bd 3b 98 16 f2 bd
       0.18692137 0.029766249 0.0057926797 -0.11820716
0000e0 50 40 97 be d1 02 a8 ba 43 f8 65 bd 83 ba 0f 3e
       -0.29541254 -0.0012818222 -0.056144964 0.14035992
0000f0 64 25 86 bd 29 b7 d8 3c f0 2d 12 bd 85 d6 5c 3e
       -0.065501004 0.026454525 -0.03568834 0.21566208
000100 e3 6f f9 bc 71 0d 04 be 32 3e 0a be 60 73 f0 bd
       -0.03044886 -0.12895752 -0.13500288 -0.11740756
000110 0a da e3 bd 30 b8 05 3c 26 a1 94 3c ea de 14 be
       -0.11125572 0.0081615895 0.018143248 -0.1453816
000120 fc f4 08 3e 14 68 ab bc 06 e4 b3 bd 22 6d 08 3d
       0.13374704 -0.020923652 -0.087837264 0.033307202
000130 92 91 01 3e ac 92 a3 bd 18 b1 83 3c 5b 55 8b 3c
       0.12653187 -0.0798696 0.016075656 0.017008474
000140 68 b8 f9 bd 2f de d5 bd cb f1 24 be 06 72 27 3d
       -0.12193376 -0.10442769 -0.16107862 0.040880226
000150 9d f7 06 bd fc aa 82 bd 40 37 12 3d 22 e7 19 3d
       -0.032950986 -0.06380269 0.03569722 0.03757394
000160 9b 32 96 bd bb b3 89 bd 15 7a 9b bd b9 ae a6 3d
       -0.07333871 -0.06723734 -0.07591645 0.081387945
000170 0b f0 77 3d 12 22 c1 bd 02 e8 8d 3b c5 51 99 3c
       0.060531657 -0.094303265 0.004330636 0.018715749
000180 72 13 ff bb 91 88 48 3c 56 b0 b4 bd d9 07 36 3c
       -0.0077843005 0.012239591 -0.08822696 0.011110269
000190 9d 0a 90 3d 13 b1 d8 3d 0d 3c a1 bd a6 58 97 3d
       0.07033274 0.10580649 -0.07872782 0.07389955
0001a0 66 f4 00 be 22 65 47 bc 34 3c 93 bd 11 e9 c7 bd
       -0.1259323 -0.012170108 -0.07189217 -0.09761251
0001b0 53 f0 bf bd 89 f7 12 3d 34 72 fd bc 20 34 42 bd
       -0.0937201 0.0358806 -0.030938245 -0.04741299
0001c0 1e 4c fa bd ec 52 16 3d 9d dd fd bd 83 78 8d 3c
       -0.122215495 0.036700174 -0.12395785 0.017269379
0001d0 4a 8c 12 be 4b 46 1e bc 2d 3d bb 3c ec 41 8d bc
       -0.14311329 -0.009660314 0.02285632 -0.017243348
0001e0 60 0d ef bd 88 76 b4 3b a0 21 d3 bd 8c e9 46 be
       -0.11672473 0.005507294 -0.10309148 -0.19425029
0001f0 46 b5 3e bd 45 37 6b bd 18 a5 6a 3d 5d 7e 9b 3b
       -0.046559595 -0.057425756 0.057286352 0.0047452883
000200 a3 6a 9d bd cc c9 84 bd 36 41 33 bc 36 ec 8b bd
       -0.07686355 -0.06483802 -0.0109408405 -0.06832163
000210 81 ec 28 3e 2b f4 79 3d 4b ab 85 bd 6e 4f bb bd
       0.16496469 0.061023872 -0.06526812 -0.091460094
000220 86 27 20 bd 25 92 d9 3d aa 39 07 be 1f 65 8c 3e
       -0.039100192 0.10623578 -0.13205591 0.274209
000230 ae 59 7f bd 98 69 20 3e 9f 94 fb 3d e1 6a 8d 3d
       -0.062341385 0.15665281 0.122842066 0.06905151
000240 0d 7b 88 bc cd 40 40 bc ba 5e 76 bd e4 d0 18 3d
       -0.016660238 -0.0117342 -0.060148932 0.03730859
000250 ab 22 ce bc 1e 23 ff bd f9 5c b3 3d 8e 72 8e bd
       -0.025163015 -0.1245787 0.087579675 -0.06955443
000260 4f aa b0 bd 64 ef 7c bc b1 3c e5 3d a4 3a 21 3e
       -0.08626234 -0.015437935 0.111932166 0.15745026
000270 7e ee bb 3b a1 68 0f 3c 70 1c 2a 3d 84 c8 ab 3d
       0.0057352176 0.008752973 0.041531026 0.08387855
000280 8e ed 90 bc db bc 2c bd 74 56 f4 3c ba 65 44 3e
       -0.0176914 -0.042172294 0.02982638 0.1917943
000290 3a 9f 5c 3d a8 ae 0a 3b 1f fb 8a 3d eb d2 97 3d
       0.053862788 0.0021161232 0.06786179 0.07413276
0002a0 e5 c2 54 3c fa 73 3f 3e a5 99 a2 bd bd 7a 86 bd
       0.01298592 0.18696585 -0.079394616 -0.06566379
0002b0 80 27 ee 3d 2a a5 a4 bd 9a 42 d3 bc 89 58 9a 3c
       0.11628628 -0.08039315 -0.025788594 0.018841045
0002c0 54 70 e2 3d 43 c2 80 3d 48 44 df 3d bf 4d 49 3d
       0.11056581 0.062870525 0.109016955 0.04914641
0002d0 1c 36 b4 bb d3 45 a2 3d 3b a0 96 bc 06 dd 85 3d
       -0.0054996144 0.07923474 -0.01838695 0.065362975
0002e0 16 8c 5f be f1 97 44 bd d0 94 8b bd 93 b8 ff bd
       -0.21830782 -0.047996465 -0.06815493 -0.124863766
0002f0 1f c5 f3 3d c4 f4 ae 3d 7b 3f e8 3d 75 61 fc 3d
       0.11902832 0.08542779 0.11340233 0.12323276
000300 a5 33 cb 3d a6 86 7f bc 73 31 25 3e ed 2d 52 3d
       0.0992196 -0.0155960675 0.16132145 0.05131333
000310 60 2b 0c 3d 65 81 41 bd 15 3b 14 3d 9c 51 7c 3c
       0.034221053 -0.04724254 0.036189158 0.015400317
000320 40 ec b6 bd 5e 2d 0f 3e f7 7e a1 bc ae b4 24 3d
       -0.0893178 0.1398215 -0.019713862 0.040211372
000330 8f 49 0a 3e b3 2e 8e 3d de cc 90 bd f0 f5 b4 3b
       0.13504623 0.06942501 -0.07070325 0.005522482
000340 1e 13 c8 3d 49 72 74 3d e8 7b cc bd 0c 20 3e 3d
       0.09769271 0.059679303 -0.09984571 0.04641728
000350 bb ec 70 bd 76 73 a5 3d f7 76 24 3e 6d 34 2a 3d
       -0.058819514 0.08078663 0.16061006 0.041553903
000360 ef d9 04 3d 78 cc 68 3d 22 5a 85 3d 38 9e 98 3d
       0.0324344 0.05683562 0.06511332 0.07452053
000370 86 5b 11 3d 71 15 27 be aa 86 11 be 2e b5 77 3d
       0.035487674 -0.16316773 -0.14211527 0.06047552
000380 db 14 ab 3b 27 4a 03 3e 87 16 cd 3d 30 0d b0 bd
       0.005220992 0.12821256 0.100140624 -0.08596265
000390 82 b9 a6 3c c6 3a 2a bb 63 fe 5b bd 84 95 8f 3d
       0.020352129 -0.0025974973 -0.0537094 0.0701094
0003a0 2e 21 14 bd 53 64 cc 3d a9 8b 0b 3d e7 f1 80 bc
       -0.036164455 0.09980073 0.034068737 -0.015740348
0003b0 b7 dd 08 3e 61 82 bd bd 01 c0 bf 3c 87 ca ca 3b
       0.13365828 -0.092533834 0.023406984 0.006188694
0003c0 fa e1 1f bd 32 2e 81 3c cd 3b 8c bd 85 dc a8 3c
       -0.039033867 0.015769098 -0.068473436 0.020612964
0003d0 82 a6 c3 3d b8 83 1a be f7 9a 76 bd 88 0a 08 bc
       0.09553243 -0.15089309 -0.06020638 -0.008303292
0003e0 a7 86 ee 3d d9 46 78 bc f4 cd 0c 3d e6 9f 02 3d
       0.11646777 -0.01515361 0.0343761 0.031890772
0003f0 4c 8a e9 bc a1 3c 36 3e c7 99 0e 3e 13 5a 98 bd
       -0.028508328 0.17796566 0.13925849 -0.07439055
