save/best_old_opt123_0.828.pt (torch, 971864 bytes, 44 tensors)

gconv1.0.A f4 [140, 140]
0	0x3d0ef9f1	0.03490633
1	0xbda37788	-0.07981783
2	0xbd998876	-0.07496731
3	0xbc8e6385	-0.017381439
4	0x3ca8bb71	0.020597192
5	0x3da0d888	0.078538
6	0x3d63de79	0.05563209
7	0x3dbd87bd	0.09254406
8	0xbdb0c899	-0.08632011
9	0xbce53d4d	-0.027983332
10	0xbcecd216	-0.02890877
11	0x3d20b610	0.03923613
12	0xbd29926c	-0.041399404
13	0xbd40bc56	-0.04705461
14	0xbce7915a	-0.028267551
15	0xbd8f2d3e	-0.06991051
16	0x3d9abccf	0.07555544
17	0xbc5e50bb	-0.013569052
18	0xbca2fe5e	-0.019896682
19	0x3caeaf2c	0.021323763
20	0x3c90994f	0.017651228
21	0xbb9cd465	-0.0047860616
22	0xbc116ae5	-0.008875583
23	0x3df2d275	0.11856548
24	0x3e753c6c	0.2394883
25	0x3cf83d19	0.030302571
26	0x3c9c4bb6	0.01907907
27	0xbde636f2	-0.11240949
28	0xbd00b58d	-0.03142314
29	0xbd26bccc	-0.040707394
30	0x3d5588d4	0.052132443
31	0xbe115fba	-0.14196673
32	0xbd4f6406	-0.0506325
33	0xbc887f6b	-0.01666232
34	0x3d9ffad0	0.078115106
35	0xbdb1f685	-0.08689598
36	0x3d314aff	0.043284412
37	0xbda7de93	-0.081967495
38	0xbc9de24a	-0.019272942
39	0x3ddc918d	0.10769949
40	0x3d8f454e	0.06995641
41	0x3cfa36c8	0.0305437
42	0x3dd6e788	0.1049338
43	0x3dcad19c	0.09903261
44	0xbd39761f	-0.045278665
45	0x3e131196	0.14362177
46	0x3de0136c	0.109412044
47	0x3e022c0b	0.12712114
48	0x3e450536	0.19240269
49	0x3d1b7ee5	0.037962813
50	0x3a588b04	0.0008260461
51	0x3cc9c151	0.024628313
52	0x3cd80a2d	0.02637204
53	0xbc7794d8	-0.015111171
54	0xbdeefe65	-0.11669616
55	0xbd3c860d	-0.04602628
56	0xbdb8fb68	-0.09032327
57	0xbc44366f	-0.011975869
58	0xbe042323	-0.12904029
59	0xbcfde8f6	-0.030994873
60	0xbd40dd96	-0.04708632
61	0x3d895c91	0.06707109
62	0x3e0661c0	0.13123226
63	0x3de412e7	0.11136418
64	0xbdf0e469	-0.11762316
65	0x3c9ce359	0.019151377
66	0x3da2e3ac	0.07953581
67	0x3dc72c24	0.09725216
68	0xbdba991b	-0.09111234
69	0x3d0b3de5	0.033994574
70	0xbd670be8	-0.05640784
71	0xbe37905b	-0.17926161
72	0x3e211d49	0.15733828
73	0xbd6e0e5c	-0.058119163
74	0xbb5db93e	-0.0033832337
75	0x3e1c8686	0.15285692
76	0xbbbbe708	-0.005734328
77	0x3a89a852	0.0010502434
78	0x3ddd9247	0.10818916
79	0xbd45fd1c	-0.048337087
80	0x3ac21beb	0.0014809346
81	0xbd41b912	-0.047295637
82	0x3e006c2b	0.12541263
83	0x3bb050cd	0.005380726
84	0xbcb08074	-0.021545626
85	0xbe25e9f2	-0.16202524
86	0x3d085923	0.033288132
87	0xbd5ee8be	-0.05442118
88	0x3d277fd8	0.040893406
89	0x3e1c66ce	0.15273592
90	0x3e003cfd	0.12523265
91	0xbb7f2fa1	-0.00389383
92	0x3d87e221	0.066349275
93	0xbddb3cc6	-0.10704951
94	0xbdce7aa9	-0.10081989
95	0xbe080e4e	-0.13286707
96	0x3da1fc11	0.07909406
97	0xbdc838bc	-0.09776446
98	0xbe4b2f4a	-0.19842258
99	0xbdad72e7	-0.084691815
100	0x3de54807	0.11195379
101	0x3c8d4f22	0.017249648
102	0x3ddd8fb6	0.10818426
103	0x3c95d5b4	0.018290378
104	0xbd74a21f	-0.059724923
105	0xbd7d2189	-0.06179956
106	0xbd095da6	-0.033536576
107	0x3e1d7587	0.15376864
108	0xbca29bc7	-0.019849671
109	0xbd3fc948	-0.046822816
110	0xbd6078e5	-0.054802794
111	0xbdcf94c1	-0.101357944
112	0xbd379048	-0.04481533
113	0x3cf16717	0.029468102
114	0x3d526243	0.05136324
115	0x3d003b53	0.031306576
116	0x3d403f93	0.04693563
117	0x3c9fc2a3	0.01950199
118	0x3d72e613	0.059301447
119	0xbe08ec36	-0.13371357
120	0x3c126d60	0.00893721
121	0xbdc4a594	-0.09601894
122	0xbdcada57	-0.09904926
123	0xbdfe38dc	-0.12413189
124	0x3d63f9cd	0.05565815
125	0xbd23ad7d	-0.039960373
126	0xbdd1b206	-0.102390334
127	0xbd224ce8	-0.039624125
128	0x3e2d4f96	0.16924891
129	0x3dcd32c0	0.100194454
130	0x3e11fc67	0.1425644
131	0x3e47351c	0.19453853
132	0xbe4c1834	-0.19931108
133	0x3d7cffdc	0.061767444
134	0xbd2df397	-0.042468634
135	0x3d09aa11	0.033609454
136	0x3d27c5b7	0.04096004
137	0xbdf1bcaf	-0.11803567
138	0x3d137adc	0.03600584
139	0xbd9ff96d	-0.07811246
140	0x3dc22ac7	0.094808154
141	0xbcb88d69	-0.022528367
142	0xbd0c956b	-0.034322184
143	0xbd1860aa	-0.03720156
144	0xbdc018c4	-0.09379724
145	0xbd2e3f45	-0.042540807
146	0x3d5b8313	0.0535918
147	0x3ca478d9	0.020077156
148	0x3d76b9f4	0.060235932
149	0x3c12c26e	0.008957488
150	0x3e128aa7	0.14310704
151	0xbdd6a2f0	-0.104802966
152	0x3dde7f44	0.10864118
153	0xbdcea8ea	-0.100908116
154	0x3ae78d9f	0.0017666108
155	0xbdec10eb	-0.11526664
156	0xbdf437c1	-0.11924697
157	0xbcd0152f	-0.025400726
158	0xbdb98aca	-0.09059675
159	0x3c3110a7	0.010807193
160	0x3d5cedb5	0.053937633
161	0x3e0e62ec	0.13904923
162	0xbdad1759	-0.08451719
163	0xbc65b103	-0.014019254
164	0xbcea5828	-0.02860649
165	0x3e3dab8f	0.18522476
166	0x3c2f1f16	0.010688564
167	0x3db8da5f	0.09026026
168	0xbe12dc31	-0.14341809
169	0x3e0d4690	0.13796449
170	0xbdabb7a5	-0.08384637
171	0x3ce764a7	0.028246237
172	0xbd757153	-0.059922528
173	0x3d748416	0.05969628
174	0xbca2e61b	-0.019885113
175	0x3ccdf9a0	0.025143445
176	0xbde0d8d1	-0.109788544
177	0x3d4b598c	0.049645945
178	0x3d94b509	0.07261092
179	0x3cee8a1b	0.029118588
180	0x3aafdf85	0.0013418054
181	0xbc954bc6	-0.018224608
182	0xbc2f7c7e	-0.010710834
183	0xbdbedf42	-0.09319927
184	0xbc674b6b	-0.014117102
185	0xbcb73471	-0.022363873
186	0xbd66d585	-0.05635597
187	0xbdb85f2e	-0.09002529
188	0xbd204b5b	-0.039134365
189	0xbdc760ba	-0.09735246
190	0x3b67bf31	0.0035361762
191	0xbdc9712e	-0.098360404
192	0xbd34111a	-0.04396162
193	0x3b9633d2	0.004583814
194	0x3d005c51	0.03133804
195	0x3c93644a	0.017992157
196	0xbbdeeec7	-0.006803367
197	0x3c84498c	0.016148351
198	0xbdc4651e	-0.09589599
199	0xbda26cbb	-0.07930895
200	0xbe24ff88	-0.16113102
201	0x3c4bdc0b	0.012442599
202	0x3dc546aa	0.09632619
203	0xbd2498b4	-0.04018469
204	0x3d7d21b1	0.06179971
205	0x3da14349	0.07874162
206	0x3dc19029	0.094513245
207	0x3dfd6cb5	0.1237425
208	0x3be9b6bf	0.0071323807
209	0x3d5ac499	0.053410146
210	0xbd2e9f0c	-0.042632148
211	0xbd86c2ea	-0.06580146
212	0xbc47592e	-0.012167258
213	0xbc76b379	-0.015057438
214	0xbd95125e	-0.07278894
215	0x3d4af5bb	0.049550753
216	0xbd4ef65e	-0.050527923
217	0xbddc0b8f	-0.10744392
218	0x3b5e41fb	0.003391384
219	0x3d68ef45	0.05686881
220	0x3e523276	0.20527062
221	0xbdcb29dc	-0.099200934
222	0x3c9d105a	0.019172836
223	0xbd1ae787	-0.037818458
224	0xbe03cf2d	-0.12872
225	0x3df8f5d7	0.12156265
226	0x3ddb48b7	0.10707229
227	0x3d3dcbea	0.046337046
228	0x3e15402d	0.14575262
229	0x3cf492c5	0.029855141
230	0x3d85bf60	0.065306425
231	0xbc8a1e16	-0.01686005
232	0xbe0d5522	-0.13802007
233	0x3d501ed9	0.05081067
234	0x3e0025d8	0.12514436
235	0xbdbb1ee7	-0.091367535
236	0xbc94fb0b	-0.018186113
237	0x3d396c19	0.045269106
238	0x3d85835d	0.06519196
239	0x3d37be1a	0.04485903
240	0x3dc4d6e0	0.09611297
241	0x3d303770	0.04302162
242	0xbd8c245c	-0.068428725
243	0x3cac803b	0.021057239
244	0x3dae43b9	0.08509011
245	0x3b66f5d6	0.0035241744
246	0x3cd7053b	0.026247611
247	0xbd55605f	-0.05209386
248	0xbc97de0d	-0.0185385
249	0x3d0c0a34	0.034189418
250	0x3dc0af60	0.0940845
251	0x3cadca2c	0.021214567
252	0xbd6dfc6e	-0.058102064
253	0x3dce494a	0.100725725
254	0xbddb3405	-0.10703281
255	0x3d65d49a	0.056110956

gconv1.0.W.weight f4 [140, 140]
0	0x3e291187	0.16510592
1	0xbb03f763	-0.0020136468
2	0xbc04d059	-0.008106315
3	0xbd8b65db	-0.06806537
4	0xbd087603	-0.03331567
5	0xbc93c12a	-0.018036444
6	0x3d60302f	0.05473345
7	0x3e0f4239	0.13990106
8	0x3d94a09d	0.07257197
9	0xbd2f5bb3	-0.04281206
10	0x3da4a3e1	0.0803907
11	0xbd83a0c9	-0.06427152
12	0xbcf87be0	-0.030332506
13	0x3d76c458	0.06024584
14	0x3d1a0d0a	0.03761009
15	0xbc8eaca1	-0.0174163
16	0x3deb9c50	0.115044236
17	0x3cd669c8	0.026173487
18	0xbd82cffa	-0.06387325
19	0x3ce4b213	0.027916944
20	0x3e0be76a	0.13662496
21	0xbc855d1a	-0.016279746
22	0x3d64eef2	0.05589194
23	0xbe41def8	-0.18932712
24	0x3be4f28a	0.0069869207
25	0xbccc0d5f	-0.02490872
26	0xbde67d6f	-0.11254393
27	0x3dcf06f1	0.10108746
28	0x3cc442c9	0.023957627
29	0x3da05077	0.078278475
30	0xbb5a2a10	-0.0033289231
31	0x3d973986	0.073840186
32	0x3c1a8ce9	0.00943301
33	0x3b2005f9	0.0024417622
34	0x3da4a8f3	0.08040037
35	0x3aa7e704	0.0012809937
36	0x3d20a2d7	0.039217796
37	0xbdd42c01	-0.103599556
38	0xbe3f51a1	-0.18683483
39	0xbda1051d	-0.078623034
40	0xbd7cd2f7	-0.06172463
41	0x3bea6fb3	0.007154429
42	0xbd92b89b	-0.07164117
43	0xbdc0bec0	-0.09411383
44	0xbd22060e	-0.039556555
45	0xbd3ef16b	-0.046616953
46	0x3dc6a6a5	0.09699754
47	0x3c375c30	0.011191413
48	0x3d51d781	0.05123091
49	0x3e0c876a	0.13723531
50	0xbca81eb4	-0.020522453
51	0x3d8acf75	0.067778505
52	0x3cfaf19b	0.030632785
53	0xbd25b6b6	-0.04045745
54	0x3de8f7d6	0.11375396
55	0xbe0887b9	-0.13333024
56	0x3c1c9d73	0.009559023
57	0x3cef18a4	0.029186554
58	0x3ddc55e7	0.10758572
59	0x3e28715e	0.16449496
60	0x3d62caf8	0.055369347
61	0x3d01e6a9	0.031714115
62	0xbd05fe63	-0.032713305
63	0xbdb68d00	-0.08913612
64	0xbe01e75a	-0.1268591
65	0xbdcf2263	-0.101139806
66	0x3d3b4a26	0.04572501
67	0xbd69c029	-0.057068024
68	0x3d8eefa7	0.06979304
69	0x3db2c1aa	0.08728345
70	0xbd560904	-0.05225469
71	0xbd42d2b7	-0.047564235
72	0x3c6830b6	0.01417177
73	0x3d1b580f	0.037925776
74	0x3b37cde5	0.0028046307
75	0xbb7273ec	-0.0036995364
76	0x3e03d036	0.12872395
77	0xbb35ba78	-0.0027729552
78	0x3c12f702	0.008970024
79	0xbd373e8b	-0.04473738
80	0x3e808bdd	0.25106707
81	0xbd849378	-0.0647344
82	0xbd732153	-0.059357952
83	0x3c86e485	0.016466388
84	0x3e3ca6b7	0.18422972
85	0x3cb3808d	0.021911884
86	0x3c7fcc3f	0.015612661
87	0x3cb35226	0.021889757
88	0x3d0c2638	0.034216136
89	0xbe0474ce	-0.12935182
90	0x3c61e049	0.013786384
91	0xbd3584fd	-0.04431628
92	0xbd0a9242	-0.03383089
93	0x3d786407	0.06064227
94	0x3d43cced	0.047802854
95	0xbd138212	-0.036012717
96	0xbdb493c2	-0.08817245
97	0xbc61767c	-0.013761159
98	0x3d343e2a	0.044004597
99	0x3db61e23	0.08892467
100	0xbdb92dac	-0.09041914
101	0xbd3ea013	-0.046539377
102	0x3dd84621	0.10560251
103	0xbc914c57	-0.017736597
104	0xbdb0ea60	-0.086384535
105	0x3d225a1d	0.03963672
106	0xbda49801	-0.08036805
107	0xbdae5a59	-0.08513326
108	0xbc0e49be	-0.008684574
109	0x3ab96a99	0.0014146148
110	0xbe14113f	-0.14459704
111	0xbca2d9b8	-0.019879207
112	0xbdc3a06c	-0.095520824
113	0xbc9897fa	-0.018627156
114	0x3d6334fd	0.055470455
115	0xbc3b0205	-0.011414056
116	0xbb8af5aa	-0.004240711
117	0xbd2230af	-0.03959721
118	0x3c535ac8	0.012900062
119	0xbdc4c98b	-0.09608754
120	0xbd824c1f	-0.06362175
121	0xbc8351eb	-0.016030272
122	0xbdcba8ef	-0.09944331
123	0x3ddf6e6c	0.10909733
124	0x3af49613	0.0018660448
125	0xbd2725f3	-0.040807676
126	0x3d20ecc0	0.039288282
127	0xbbfe4ea9	-0.007760842
128	0xbd09546c	-0.033527777
129	0xbdb9e673	-0.09077158
130	0xbda29f0e	-0.079404935
131	0xbd1dc5e2	-0.038518794
132	0xbd34e5b9	-0.044164393
133	0x3d55a75c	0.05216156
134	0x3d548390	0.05188328
135	0xbd11b865	-0.035576243
136	0x3e043825	0.12912042
137	0xbdbb2fcf	-0.09139978
138	0x3cdac784	0.026706465
139	0xbce6c324	-0.028169222
140	0x3ca177c6	0.019710433
141	0xbe0f3322	-0.1398435
142	0xbdb68e0d	-0.08913813
143	0xbe451232	-0.19245222
144	0x3d171723	0.0368873
145	0x3b8a2510	0.004215844
146	0xbbd723ef	-0.006565563
147	0xbdab3cb2	-0.08361186
148	0xbc81de38	-0.015853032
149	0x3d3ed913	0.046593737
150	0xbdd04667	-0.10169678
151	0xbd074dd6	-0.033033215
152	0x3baacd2f	0.005212448
153	0x3ddf340e	0.108986005
154	0x3dad02bf	0.084477894
155	0xbd364f2b	-0.044509094
156	0xbca40ba0	-0.020025074
157	0x3da0db09	0.07854278
158	0xbe3f163f	-0.1866083
159	0x3c54f9f4	0.012999047
160	0xbcd1957e	-0.025583979
161	0xbd725f9d	-0.059173215
162	0x3dd45460	0.10367656
163	0xbc0819b6	-0.008306911
164	0x3c24abe5	0.0100507485
165	0x39b6c5df	0.0003486117
166	0xbe171a92	-0.1475623
167	0x3ceb989e	0.028759297
168	0xbcabf0e3	-0.020988887
169	0x3df026e9	0.117261715
170	0x3c70b128	0.014690675
171	0xbd6ab0d2	-0.057297535
172	0x3d3a824e	0.045534424
173	0xbc5e3b56	-0.0135639515
174	0xbd4ea6df	-0.05045211
175	0x3ca9aeba	0.020713199
176	0xbe062b1c	-0.13102382
177	0xbd7b25f0	-0.061315477
178	0xbdedef76	-0.11617939
179	0x3de14b00	0.11000633
180	0xbd19f6a4	-0.03758873
181	0xbd53543d	-0.051594008
182	0xbb1e568e	-0.0024160477
183	0x3da185a7	0.0788682
184	0x3dcef2e1	0.10104919
185	0x3e2c5b37	0.1683167
186	0xbd6a72b1	-0.057238284
187	0xbd8c2155	-0.06842295
188	0x3dbce469	0.09223253
189	0x3d589409	0.052875552
190	0xbc551b13	-0.013006943
191	0xbba137c3	-0.0049199774
192	0xbd645169	-0.0557417
193	0xbceef6ad	-0.029170359
194	0x3c67659a	0.014123345
195	0x3d655eef	0.05599874
196	0xbd008704	-0.03137876
197	0xbdb1ff65	-0.08691291
198	0xbd3dfe7e	-0.04638528
199	0xbd9d49b0	-0.076800704
200	0xbd1e8a0b	-0.038705867
201	0xbdaef337	-0.08542483
202	0xbc42961f	-0.011876612
203	0xbd1b9d18	-0.037991613
204	0x3e342be8	0.17594874
205	0x3d22e1c6	0.039766096
206	0x3d5aefb5	0.05345126
207	0xbda2b2ba	-0.07944246
208	0xbd216ad9	-0.03940854
209	0xbdec8553	-0.11548867
210	0xbd687f64	-0.056762114
211	0x3c85d88a	0.016338605
212	0xbe2026a3	-0.15639739
213	0xbd26e977	-0.040749993
214	0x3d88f721	0.06687761
215	0x3db8c343	0.09021618
216	0xbaa982bb	-0.0012932637
217	0xbdf39945	-0.11894468
218	0xbc90c6cb	-0.017672917
219	0x3da5c7bf	0.08094739
220	0x3cd22338	0.02565156
221	0x3da430e3	0.08017137
222	0x3d08575b	0.033286434
223	0x3d7d22e8	0.061800867
224	0x3e21d220	0.15802813
225	0x3d0684bc	0.03284143
226	0xbceafc7a	-0.028684843
227	0xbc1a5013	-0.009418505
228	0x3dc27c1b	0.094963275
229	0x3c7dc144	0.015487973
230	0xbc097587	-0.008389837
231	0xbdd3c8eb	-0.103410564
232	0x3d010d3f	0.031506773
233	0xbd442139	-0.047883246
234	0x3b4a3044	0.0030851522
235	0x3dacc522	0.084360376
236	0xbe47342c	-0.19453496
237	0x3d84b62d	0.0648006
238	0x3d3962f3	0.04526038
239	0x3de88629	0.11353714
240	0xbd58b999	-0.052911375
241	0xbc8ea9c1	-0.01741493
242	0x3bde7a73	0.0067894994
243	0x3d3b3cbc	0.045712218
244	0xbcfdad0d	-0.030966306
245	0xbcccfc57	-0.025022669
246	0xbd1139fb	-0.035455685
247	0xbd7eb2a7	-0.062182095
248	0x3da3b2ff	0.07993125
249	0xbd2f09e1	-0.04273403
250	0x3d35b29d	0.044359792
251	0xbd73aca0	-0.0594908
252	0x3c8d1f91	0.017226966
253	0x3d8e2681	0.06940938
254	0xbd8cbf80	-0.06872463
255	0x3df5dccd	0.12005005

gconv1.0.W.bias f4 [140]
0	0xbc253688	-0.010083802
1	0xbd7b09f5	-0.061288793
2	0x3d4fb087	0.05070546
3	0x3bbcb457	0.005758803
4	0x3d54e258	0.05197367
5	0xbd8ed250	-0.06973708
6	0x3d7c36d0	0.06157571
7	0xbd5405e6	-0.051763438
8	0x3d7609d2	0.06006796
9	0x3b5f7546	0.0034097
10	0xbdc857c2	-0.097823635
11	0xbd972173	-0.07379427
12	0xbd267789	-0.04064134
13	0x3da465ab	0.08027204
14	0x3d140a35	0.036142547
15	0x3d78b4df	0.060719367
16	0x3d05038f	0.032474097
17	0x3d32a530	0.043614566
18	0x3d3932dd	0.045214523
19	0xbc91c751	-0.017795237
20	0xbce3b258	-0.027795002
21	0xbd67c54f	-0.056584653
22	0xbd1b8a91	-0.037973944
23	0x3d2c3049	0.042038236
24	0xbcfd6a46	-0.030934464
25	0xbdaeed2b	-0.0854133
26	0xbdc18b25	-0.09450368
27	0x3cd0f718	0.025508448
28	0xbcee8288	-0.029114977
29	0x3b374d59	0.0027969687
30	0xbd0b4451	-0.0340007
31	0xbcc64bb2	-0.024206016
32	0xbda72c52	-0.0816275
33	0x3d6df6ec	0.05809681
34	0xbd6c10ce	-0.057633214
35	0xbbeb0484	-0.007172169
36	0x3d35c92a	0.044381298
37	0xbc9b96fd	-0.018992895
38	0x3c54c87d	0.012987253
39	0x3d4b4853	0.04962952
40	0x3d86c33d	0.065802075
41	0x3db3c647	0.08778053
42	0x3db7c9d3	0.08974042
43	0x3d7e441b	0.06207667
44	0x3d3af77d	0.04564618
45	0x3c8a087f	0.016849754
46	0x3d24eecd	0.0402668
47	0xbd3ba908	-0.045815498
48	0xbdaf159b	-0.08549043
49	0xbbc9896d	-0.0061504156
50	0xbd1fcdfc	-0.0390148
51	0xbd73951b	-0.05946837
52	0x3d36eca2	0.044659264
53	0xbd656e0c	-0.056013152
54	0xbb2ac41c	-0.0026056832
55	0xbd1eff00	-0.038817406
56	0x3c5e0669	0.013551333
57	0x3d47f66a	0.048818983
58	0xbd620361	-0.055179004
59	0x3c516525	0.012780462
60	0x3d8b314c	0.06796512
61	0x3d75e2d3	0.06003077
62	0xbdc04ba8	-0.0938943
63	0xb90b7493	-0.000132995
64	0x3cbfe6e1	0.023425521
65	0xbd95f53f	-0.073221676
66	0x3d132dec	0.035932466
67	0xbd9c4464	-0.07630232
68	0xbd9c82a9	-0.07642109
69	0xbd716e46	-0.058943056
70	0x3d6e459c	0.058171853
71	0xbd4d9ab2	-0.050196357
72	0xbd6e4ad3	-0.058176827
73	0x3cc77dc0	0.024351954
74	0xbaee2294	-0.0018168264
75	0xbd8d4e81	-0.06899739
76	0xbd67ca61	-0.056589488
77	0xbd9b9e21	-0.0759852
78	0x3d89d864	0.06730726
79	0x3d476509	0.04868034
80	0xbd7f0a04	-0.06226541
81	0x3d134557	0.0359548
82	0xbd3a6247	-0.04550388
83	0xbcec586c	-0.028850757
84	0x3d8c6bc2	0.06856491
85	0x3d88940e	0.06668864
86	0xbd1870ff	-0.037217136
87	0xbcaed9b4	-0.021344043
88	0x3cee493c	0.029087655
89	0xbd2d63ab	-0.04233138
90	0xbcbf9a56	-0.023389023
91	0x3d845146	0.06460814
92	0xbd9010e0	-0.07034469
93	0xbd956f88	-0.072966635
94	0x3d39f404	0.045398727
95	0xbd868017	-0.065674
96	0x3cef864b	0.02923884
97	0xbd809993	-0.06279292
98	0xbda60409	-0.081062384
99	0xbd90a999	-0.07063598
100	0xbd578cee	-0.052624635
101	0xbaf079f9	-0.0018346898
102	0x3d1a93c0	0.03773856
103	0x3c817b6a	0.015805919
104	0x3d0808a6	0.033211373
105	0x3cb677a2	0.022273842
106	0x3ca54526	0.020174574
107	0x3d7249fc	0.05915259
108	0xbd33188d	-0.043724585
109	0xbda22a76	-0.07918255
110	0xbcd05eee	-0.025435891
111	0xbd8da3ae	-0.06915985
112	0x3d7c6b72	0.061625905
113	0xbd7748d3	-0.060372185
114	0x3d762dcf	0.06010228
115	0x3d4fa8fc	0.050698265
116	0x3d324766	0.043525122
117	0xbdacdaba	-0.08440156
118	0xbc5b7266	-0.013393974
119	0xbdd852bf	-0.105626576
120	0x3cde0cc7	0.027105702
121	0x3d5ed6f5	0.054404218
122	0xbad3be0e	-0.0016154663
123	0x3c450991	0.012026207
124	0x3daf3535	0.0855507
125	0xbc86939f	-0.016427813
126	0xbd74679d	-0.059669126
127	0x3c75d36f	0.015004023
128	0x3be008c9	0.006836985
129	0xbcbd33b2	-0.02309594
130	0x3dc7721f	0.09738564
131	0x3daad0e2	0.083406225
132	0xbd2b3345	-0.04179694
133	0x3cb88156	0.02252261
134	0xbddb991e	-0.10722564
135	0xbddb8317	-0.10718363
136	0xbd8cc0bc	-0.06872699
137	0xbd9c272d	-0.0762466
138	0x3d324b1d	0.043528665
139	0x3d6cc829	0.057808075

gconv1.0.input_gate_u.weight f4 [1, 140]
0	0x3c9a4d33	0.01883564
1	0xbdfa4a47	-0.122211985
2	0xbe24e475	-0.16102774
3	0xbe169ab9	-0.1470746
4	0x3d8366f4	0.06416121
5	0xbe2a2113	-0.1661418
6	0xbe4f9b5c	-0.20274109
7	0xbd4ee56f	-0.050511774
8	0xbd897623	-0.06711986
9	0xbe8e4cbc	-0.2779292
10	0xbe0e3dc3	-0.13890748
11	0xbe114818	-0.14187658
12	0x3e5b0eb5	0.21392329
13	0x3e09f14f	0.13470958
14	0xbdd0b3e4	-0.101905614
15	0xbd7833b5	-0.060596187
16	0xbc09c11f	-0.00840786
17	0x3e172d9d	0.14763494
18	0xbdd5b566	-0.1043499
19	0xbd186be4	-0.037212268
20	0xbd44456e	-0.047917776
21	0x3e7f4469	0.2492844
22	0xbe449804	-0.19198614
23	0xbe000735	-0.1250275
24	0xbcd034f1	-0.02541587
25	0x3d0850bc	0.03328012
26	0x3e5a9e45	0.21349438
27	0xbd107501	-0.035267834
28	0x3c5a9ed7	0.013343534
29	0x3dbaac4e	0.09114896
30	0x3e4654d6	0.193683
31	0xbeee0305	-0.4648668
32	0x3e3f247e	0.18666264
33	0xbd99a416	-0.07502
34	0x3d246e01	0.04014397
35	0xbcb0004a	-0.021484513
36	0x3e135c27	0.14390622
37	0xbc0c2ebb	-0.008556063
38	0x3d6bb8b0	0.05754918
39	0x3d6b1b61	0.057399157
40	0xbd1cbdef	-0.038267072
41	0x3ba3d610	0.0049998835
42	0xbd60d25c	-0.054888114
43	0xbd513bcf	-0.05108243
44	0xbe2903c8	-0.16505349
45	0x3d1571ae	0.036485367
46	0x3db5aaf3	0.088704966
47	0x3e149cdc	0.14512962
48	0x3cf40cb8	0.029791221
49	0xbc720157	-0.014770827
50	0x3d83d61e	0.06437324
51	0xbc00dfb8	-0.007865839
52	0xbd72aa05	-0.059244175
53	0x3b9df410	0.0048203543
54	0xbe19eebc	-0.15032476
55	0x3b20e0d8	0.002454808
56	0xbdaedb55	-0.08537928
57	0x3dcaefde	0.09909032
58	0xbe7daa35	-0.2477196
59	0xbe5e5acc	-0.21714324
60	0xbe1a6b59	-0.15080012
61	0xbe29e717	-0.1659206
62	0xbe684b07	-0.2268487
63	0xbe77f914	-0.2421611
64	0xbad91fbb	-0.0016565243
65	0x3ddf011c	0.108888835
66	0xbe51b03a	-0.20477381
67	0x3d1f9234	0.03895779
68	0x3cff25e0	0.03114599
69	0xbd85b388	-0.065283835
70	0xbca0ac4b	-0.019613406
71	0x3c9bcef4	0.019019581
72	0x3df70803	0.12062075
73	0x3e05c4c8	0.13063347
74	0xbd8ec90b	-0.0697194
75	0xbe1152c6	-0.14191732
76	0xbe007b51	-0.12547041
77	0x3d09223e	0.03347992
78	0x3cb52a2e	0.02211484
79	0x3de03272	0.10947122
80	0xbdfd27a0	-0.123610735
81	0xbe67fcb0	-0.22654986
82	0x3a34180f	0.000687004
83	0xbd877b43	-0.06615307
84	0x3bfb13c1	0.007662267
85	0x3dafd7eb	0.08586105
86	0xbdde5653	-0.10856309
87	0x3dc747be	0.097304806
88	0xbd7a9952	-0.061181374
89	0xbc700827	-0.014650381
90	0x3c03c333	0.008042145
91	0xbd09295a	-0.0334867
92	0xbcc6d874	-0.024273135
93	0xbe213953	-0.15744524
94	0x3c1ce5bf	0.00957626
95	0xbe907ec2	-0.2822171
96	0xbc959a5a	-0.018262077
97	0x3d6cf24d	0.057848264
98	0x3ddc7081	0.10763646
99	0xbb51c3e1	-0.0032007622
100	0xbe7748bd	-0.24148841
101	0xbdb01efb	-0.08599659
102	0xbd74eff8	-0.059799165
103	0xbdc3cdb4	-0.09560719
104	0xbddf6c0c	-0.1090928
105	0x3c84e477	0.016222222
106	0xbe4bca93	-0.19901495
107	0xbd0f478b	-0.034980338
108	0x3da9712c	0.08273539
109	0x3d90ec11	0.07076276
110	0x3bca7992	0.006179043
111	0x3e0faca0	0.14030695
112	0xbdb21bb1	-0.08696688
113	0x3d65bdae	0.056089096
114	0xbe400c2c	-0.18754643
115	0x3daa6aa0	0.08321118
116	0xbd32cb18	-0.043650717
117	0x3e10cf15	0.14141496
118	0xbd5bdb84	-0.053676143
119	0x3d65a054	0.056061104
120	0xbdbfbb97	-0.09361952
121	0xbe1b1170	-0.1514337
122	0xbcd8105e	-0.026374992
123	0xbdafa3a2	-0.08576132
124	0xbbf1d0ce	-0.007379628
125	0x3cb47727	0.022029473
126	0xbdeedd86	-0.11663346
127	0x3d3b9663	0.045797717
128	0x3dfde41c	0.12397024
129	0x3db912b6	0.09036772
130	0xbe3a7d6c	-0.18211907
131	0xbc8ef36e	-0.01745006
132	0xbc828ff8	-0.01593779
133	0x3e89d009	0.2691653
134	0x3dd33f45	0.10314802
135	0xbc3349d8	-0.010942899
136	0x3cbba4af	0.022905676
137	0x3d885aa9	0.06657917
138	0x3d80f536	0.0629677
139	0x3dd73134	0.105074316

gconv1.0.input_gate_w.weight f4 [1, 140]
0	0xbe0c2146	-0.13684568
1	0xbd099c39	-0.03359625
2	0x3dc7917a	0.09744544
3	0xbd29fd5e	-0.041501395
4	0xbde07903	-0.10960581
5	0x3e4f214f	0.2022755
6	0x3e327424	0.17427117
7	0xbc4c58aa	-0.012472311
8	0xbde5c2a8	-0.11218768
9	0xbe228dd9	-0.15874423
10	0xbdaab878	-0.08335966
11	0xbe3970a3	-0.18109374
12	0xbcd33d16	-0.025785964
13	0xbdf24b0c	-0.1183072
14	0xbe20ad7c	-0.15691179
15	0x3e2ca118	0.16858327
16	0xbdc3d833	-0.09562721
17	0xbdadbf12	-0.084837094
18	0x3ce1a56e	0.027544703
19	0x3dafc276	0.08582012
20	0xbe679383	-0.22614865
21	0xbdfbffda	-0.12304659
22	0x3e063288	0.13105214
23	0x3dd57e0b	0.104244314
24	0xbc64f5fc	-0.013974663
25	0x3e8b2ae4	0.2718116
26	0x3dcbb8bc	0.09947345
27	0xbd60ec69	-0.05491296
28	0xbd127fde	-0.035766475
29	0xbd6e1acc	-0.058131024
30	0x3bf4bfc0	0.0074691474
31	0x3e98ccce	0.29843754
32	0x3d1c33e4	0.038135424
33	0xbd273985	-0.04082634
34	0xbdd63b41	-0.104605205
35	0x3e903edc	0.28172958
36	0x3da1b317	0.07895487
37	0x3dbf8231	0.09351004
38	0xbd54d9f1	-0.051965658
39	0xbde50c2b	-0.111839615
40	0xbdac8b28	-0.084249794
41	0xbe812c92	-0.25229317
42	0xbe2b2ee0	-0.167171
43	0xbba18b2e	-0.0049299216
44	0x3ca9ab8f	0.020711688
45	0x3e5628e2	0.20914033
46	0xbe3fc380	-0.18726921
47	0x3e8a27ac	0.26983392
48	0x3e2d3e9b	0.16918413
49	0xbde86a75	-0.1134843
50	0x3e80673d	0.25078765
51	0x3e42602f	0.18982004
52	0x3e6a77ef	0.22897314
53	0x3dacef72	0.08444108
54	0x3d35a56c	0.04434721
55	0xbc745790	-0.014913455
56	0xbe465e51	-0.19371916
57	0x3d981437	0.07425731
58	0x3c610da8	0.013736166
59	0xbe425829	-0.18978943
60	0xbd484d72	-0.048901983
61	0x3dc00696	0.09376256
62	0x3e085f10	0.13317513
63	0xbd2ab600	-0.041677475
64	0x3e12687f	0.14297675
65	0x3e36dbc1	0.17857267
66	0xbcb952ba	-0.022622455
67	0x3cb5d9c0	0.022198558
68	0xbdccfdf6	-0.10009377
69	0xbe23c37d	-0.15992542
70	0x3e6fac0e	0.23405477
71	0x3df0a58c	0.117503256
72	0x3d001531	0.03127021
73	0x3d83420c	0.06409082
74	0x3e1e1693	0.15438299
75	0xbd301678	-0.042990178
76	0x3d6ec437	0.058292594
77	0xbdd9ec73	-0.10640802
78	0x3e00abd6	0.1256555
79	0x3db09e9b	0.086240016
80	0xbd80c067	-0.06286698
81	0xbe2edb45	-0.17075832
82	0x3df35d58	0.11883038
83	0xbd764665	-0.060125727
84	0x3d70ae37	0.058759894
85	0xbdb81175	-0.08987705
86	0x3e2a4b02	0.16630176
87	0x3b6fee50	0.0036610551
88	0xbe554806	-0.20828256
89	0xbe16d14a	-0.14728275
90	0xbe378c50	-0.17924619
91	0x3d1c64f3	0.03818221
92	0x3d36ae5f	0.044599887
93	0xbd80338d	-0.062598325
94	0x3ddfc639	0.1092648
95	0xbe04cab7	-0.12967955
96	0x3d55247d	0.05203675
97	0x3d88fe8d	0.06689177
98	0x3e77a0c0	0.24182415
99	0xbe9585b2	-0.29203564
100	0xbe2691ca	-0.16266552
101	0x3d46570b	0.048422854
102	0xbb85d6d1	-0.004084446
103	0x3eaaad0c	0.3333515
104	0x3dfc18b4	0.12309399
105	0xbc95516c	-0.018227302
106	0x3d9c7d95	0.0764114
107	0xbd6c204a	-0.05764798
108	0xbcd15a2a	-0.025555689
109	0xbe8b8621	-0.2725077
110	0x3dac2a57	0.08406513
111	0xbdcdc98e	-0.10048209
112	0x3e9bbc2a	0.30416995
113	0xbda37514	-0.07981315
114	0x3d7c14e6	0.061543368
115	0x3e21d754	0.15804797
116	0xbd732242	-0.059358843
117	0x3c3906e7	0.01129315
118	0xbdc49900	-0.09599495
119	0x3db8ee94	0.0902988
120	0xbcd67da2	-0.026182953
121	0xbd6d74a7	-0.057972576
122	0xbc1da244	-0.009621207
123	0x3cf25d5a	0.02958553
124	0x3dc122d3	0.0943047
125	0x3dc9d650	0.0985533
126	0xbe13864c	-0.14406699
127	0x3d240eeb	0.04005329
128	0xbe05cc09	-0.13066114
129	0x3e9076f2	0.28215748
130	0xbbfcf9ef	-0.007720224
131	0xbe5dca2d	-0.21659155
132	0x3d180efc	0.037123665
133	0xbdb7cd86	-0.08974747
134	0x3d713096	0.058884226
135	0xbd4dd416	-0.05025109
136	0x3d9f29d7	0.07771652
137	0xbd4a442a	-0.049381413
138	0x3e08c370	0.13355803
139	0xbd61aa72	-0.05509419

gconv1.0.forget_gate_u.weight f4 [1, 140]
0	0xbdeb905e	-0.11502145
1	0xbb781a2d	-0.00378574
2	0x3cf30999	0.029667662
3	0xbdfa7bd0	-0.122306466
4	0x3e0605c3	0.13088135
5	0x3e0fd972	0.14047793
6	0x3e122e46	0.14275464
7	0x3d43548f	0.047688063
8	0x3bb480c9	0.0055085164
9	0x3cd399e0	0.02583021
10	0xbd1f6c2a	-0.038921513
11	0xbe75d79c	-0.2400803
12	0xbcce9700	-0.025218487
13	0xbda2147e	-0.07914065
14	0xbe1b8c0d	-0.15190144
15	0x3d85e33f	0.065374844
16	0x3cae4234	0.021271802
17	0x3b0a6588	0.0021117646
18	0xbdc62649	-0.09675271
19	0x3df8715b	0.12130996
20	0x3dd48fe5	0.10379008
21	0x3ddfe812	0.10932936
22	0x3e04ee8a	0.1298162
23	0xbd4caab5	-0.049967486
24	0xbdd43b75	-0.10362903
25	0x3de6598e	0.1124755
26	0xbddb8771	-0.10719193
27	0x3e31777b	0.17330734
28	0xbe0528c8	-0.13003838
29	0x3b539457	0.0032284462
30	0xbcce7853	-0.02520386
31	0x38554ea9	5.0856415e-05
32	0xbe22367c	-0.15841097
33	0xbbfd127e	-0.0077231517
34	0xbcbee867	-0.023304177
35	0x3def88c8	0.11696011
36	0x3d8261c7	0.06366306
37	0xbe7bb57c	-0.2458095
38	0xbe18f23f	-0.1493616
39	0xbe269559	-0.16267909
40	0xbd8c1ab0	-0.06841028
41	0x3c4a77f5	0.012357702
42	0xbde2dfca	-0.110778406
43	0xbe066b48	-0.13126862
44	0xbc8bbdcc	-0.017058276
45	0x3dcea653	0.100903176
46	0xbe01919b	-0.126532
47	0x3e7cfa25	0.24704798
48	0x3d87c7bf	0.066298954
49	0x3c3b56c1	0.011434258
50	0xbbb3e6e7	-0.005490172
51	0xbdd3ce3e	-0.10342072
52	0xbd8527a2	-0.065017
53	0xbde393ab	-0.1111215
54	0xbe198733	-0.1499298
55	0xbdc1ebb1	-0.09468783
56	0xbe67a56d	-0.22621699
57	0xbd923bad	-0.071402885
58	0xbd8a1f36	-0.06744234
59	0x3c6916e1	0.014226646
60	0x3cdc9e23	0.026930874
61	0x3de97b27	0.114004426
62	0xbd1c8366	-0.03821125
63	0x3e679e33	0.22618942
64	0xbd5c89f4	-0.0538425
65	0x3daeac2a	0.085289314
66	0x3da01c55	0.07817904
67	0xbe09ef8a	-0.13470283
68	0x3dc2b1f2	0.095065966
69	0xbe56618a	-0.20935646
70	0x3e2cdf84	0.1688214
71	0x3d67241c	0.05643092
72	0x3d7840ab	0.060608547
73	0x3c969362	0.018380824
74	0x3d6f25f7	0.058385815
75	0xbd78af8d	-0.060714293
76	0xbe4f4e65	-0.20244749
77	0x3de1c8df	0.11024641
78	0x3c1ef44b	0.009701799
79	0xbdac1ade	-0.08403562
80	0xbe21a63e	-0.15786073
81	0x3bafd12a	0.0053655105
82	0x3ce7ac94	0.028280534
83	0xbdc58d47	-0.09646087
84	0x3e7178c7	0.23581229
85	0x3d093874	0.033501104
86	0xbdfdb3ba	-0.12387796
87	0x3c3bae85	0.011455183
88	0x3dd185f7	0.1023063
89	0xbdd9bea9	-0.10632069
90	0xbe22c57c	-0.15895647
91	0xbd9b775f	-0.075911276
92	0xbe107f28	-0.14111006
93	0x3d5121af	0.051057514
94	0xbdbc1139	-0.091829725
95	0x3da5972f	0.080854766
96	0xbda6c15a	-0.08142348
97	0xbe9f2cb8	-0.31088805
98	0x3e25cbb6	0.16190991
99	0x3d2876f1	0.041129056
100	0x3e9a1e40	0.30101204
101	0xbe91cfaa	-0.28478748
102	0x3e50a822	0.20376638
103	0xbaf55ebe	-0.0018720252
104	0xbcdd6423	-0.027025288
105	0xbe0e4be1	-0.13896133
106	0xbcc02b8d	-0.023458267
107	0xbd3bc44a	-0.045841493
108	0xbd81dbcd	-0.06340752
109	0xbe189fd2	-0.14904717
110	0x3e0d99ec	0.13828248
111	0x3c9c532d	0.01908263
112	0xbda8569d	-0.08219645
113	0xbe10215a	-0.14075223
114	0x3d560a3f	0.052255865
115	0xbd0ebb0b	-0.034846347
116	0xbe0d0891	-0.13772799
117	0xbaa98bfe	-0.0012935398
118	0xbd42f308	-0.047595054
119	0x3e41c014	0.18920928
120	0x3b7f7b35	0.003898335
121	0xbe22643d	-0.1585855
122	0xbc6c4bed	-0.014422399
123	0x3e54af1f	0.20769928
124	0xbd01a1af	-0.031648334
125	0xbdfc83b7	-0.1232981
126	0xbdf82501	-0.12116433
127	0xbddd047b	-0.1079187
128	0xbd704494	-0.05865915
129	0x3d5741be	0.05255293
130	0xbd2c5bb7	-0.042079654
131	0xbe3e5d73	-0.18590336
132	0x3bb8319b	0.005621148
133	0x3d261996	0.040551744
134	0x3c88d50b	0.01670315
135	0x3e110c7b	0.14164917
136	0xbd875290	-0.066075444
137	0x3de943d3	0.113898896
138	0xbe4e6a81	-0.20157816
139	0xbe02efab	-0.12786739

gconv1.0.forget_gate_w.weight f4 [1, 140]
0	0xbcd3bf09	-0.025847929
1	0x3d644b9c	0.05573617
2	0xbda837c1	-0.08213759
3	0xbe0f79ba	-0.14011279
4	0xbd84ba2b	-0.06480821
5	0xbd643a10	-0.055719435
6	0xbdce1020	-0.10061669
7	0x3cc7b4e4	0.024378248
8	0xbc36d6bb	-0.011159594
9	0xbdbe75aa	-0.092997864
10	0x3e60fb88	0.21970952
11	0xbc948b2e	-0.018132772
12	0xbe2e5511	-0.17024638
13	0x3e6c68bc	0.23086828
14	0xbe078092	-0.1323264
15	0x3ba05f43	0.0048941686
16	0x3e14972a	0.1451079
17	0x3e7495e8	0.2388531
18	0x3d49dc51	0.049282376
19	0x3ac6c81f	0.0015165842
20	0xbc85f71f	-0.016353188
21	0xbe190722	-0.14944127
22	0xbdcbd087	-0.09951883
23	0x3d0e2fbd	0.034713496
24	0x3d8e4347	0.06946426
25	0xbded5a96	-0.115895435
26	0x3d2d71d1	0.042344872
27	0x3dfbaa99	0.12288398
28	0xbd34deba	-0.04415772
29	0xbe09cb37	-0.13456427
30	0x3d447227	0.047960427
31	0xbe1a81bd	-0.15088554
32	0xbe56b1a1	-0.20966198
33	0x3c8ef571	0.01745102
34	0x3de6310e	0.11239825
35	0xbda2d4da	-0.079507545
36	0xbe80a3d1	-0.25124982
37	0xbcdc2d6a	-0.026877124
38	0x3d9de5f4	0.07709876
39	0xbc04df88	-0.008109935
40	0xbe550a9f	-0.20804833
41	0xbd66f87b	-0.056389313
42	0x3e27aa6f	0.16373609
43	0xbe42dd42	-0.19029716
44	0xbe3c90c5	-0.184146
45	0x3dc79ae7	0.09746342
46	0xbdffa3ab	-0.12482389
47	0xbb5e6cac	-0.0033939285
48	0x3db1265e	0.08649896
49	0x3de1b30a	0.11020477
50	0x3e548ba0	0.20756388
51	0x3e0e97ba	0.13925067
52	0xbe2802b6	-0.16407284
53	0x3ba83ebb	0.005134431
54	0xbd9e0882	-0.077164665
55	0xbd3d051d	-0.046147455
56	0x3b5462b9	0.0032407476
57	0xbcec6e1f	-0.028861104
58	0x3eb59d5d	0.3547162
59	0x3e71a227	0.23597012
60	0x3e05e1e9	0.13074459
61	0xbd956a68	-0.07295686
62	0x3e921cfc	0.28537738
63	0xbe7fc653	-0.24977998
64	0x3e6bd344	0.2302981
65	0xbdee3c3e	-0.11632584
66	0x3db993b7	0.090613775
67	0x3e707da3	0.23485427
68	0x3dc335ba	0.09531732
69	0xbabb6f06	-0.0014300055
70	0x3e19e42f	0.15028451
71	0x3c3d93e0	0.011570901
72	0xbced2b5d	-0.028951341
73	0xbe2e80c7	-0.17041312
74	0x3e269653	0.16268282
75	0x3dd1807b	0.10229584
76	0x3d3ef992	0.046624728
77	0xbd9e7e37	-0.07738917
78	0xbe01077e	-0.12600514
79	0xbe970e2a	-0.29502994
80	0xbd31fffc	-0.043457016
81	0xbe167548	-0.14693177
82	0xbd2eb80c	-0.04265599
83	0xbe65686b	-0.22403114
84	0xbd88bd84	-0.06676772
85	0x3d603e57	0.054746952
86	0xbe85a7c3	-0.26104555
87	0x3b45ec35	0.0030200605
88	0xbd6675a2	-0.056264527
89	0x3e32f9a2	0.1747804
90	0xbdc3c0f7	-0.095582895
91	0xbe22ac92	-0.15886143
92	0xbe1122a2	-0.14173368
93	0xbe26149a	-0.16218796
94	0x3c567d9e	0.013091473
95	0xbe809fd3	-0.25121936
96	0x3e0afbc8	0.1357261
97	0xbc678aa1	-0.014132173
98	0x3e63cdae	0.2224643
99	0xbe77e911	-0.24210002
100	0x3e236cd3	0.15959482
101	0x3bd9da4a	0.0066483365
102	0x3e3e5448	0.18586838
103	0x3b8c78c0	0.0042868555
104	0xbe01b00b	-0.12664811
105	0x3d4aecc2	0.049542196
106	0x3c35bfe7	0.011093116
107	0xbd6315c0	-0.055440664
108	0xbe7f270a	-0.24917236
109	0xbc8e0cbc	-0.017340057
110	0xbe29ba8b	-0.16575067
111	0x3d458b67	0.048228648
112	0xbd64eedf	-0.055891868
113	0xbe405ad3	-0.18784647
114	0x3af4e0d8	0.0018682731
115	0xbe6d2317	-0.23157917
116	0x3e960c7a	0.29306394
117	0x3db408a2	0.08790709
118	0x3e2aa6c1	0.16665174
119	0xbd874440	-0.066048145
120	0xbe428a27	-0.18998013
121	0x3ca06fce	0.019584563
122	0x3cbba12b	0.022904
123	0xbd88e105	-0.06683544
124	0x3d34cff5	0.044143636
125	0xbad061a7	-0.0015898243
126	0x3e55db46	0.20884427
127	0xbcbd11b4	-0.02307973
128	0x3b8f45ea	0.004372348
129	0xbd7f4a81	-0.06232691
130	0x3eb92870	0.36163664
131	0xbdbefb05	-0.09325222
132	0xbcef5723	-0.029216355
133	0x3dec1eb6	0.11529295
134	0xbc97303d	-0.018455619
135	0x3cc1776c	0.023616515
136	0xbd57617b	-0.0525832
137	0xbe4b9834	-0.1988228
138	0x3d56e5a6	0.052465104
139	0x3db0929b	0.08621713

gconv1.0.output_gate_u.weight f4 [1, 140]
0	0xbd29d411	-0.041462008
1	0x3d23d655	0.039999325
2	0xbdbdbccf	-0.09264528
3	0xbe4cf755	-0.20016225
4	0xbe2f1046	-0.17096052
5	0xbdd27b5e	-0.10277437
6	0xbdb3573a	-0.087568715
7	0x3dd4bb45	0.10387281
8	0xbe063ead	-0.13109846
9	0xbe2f21db	-0.17102759
10	0x3e13b9ea	0.1442639
11	0x3d3bf111	0.045884196
12	0x3bcb0f95	0.006196926
13	0xbd37d794	-0.044883326
14	0xbe2d5786	-0.16927919
15	0x3bcab5e5	0.0061862343
16	0x3d3d376c	0.046195433
17	0x3d3b07ab	0.04566161
18	0x3e2c2954	0.1681264
19	0x3e039f4b	0.12853734
20	0xbd5dfedf	-0.054198142
21	0x3dc32bdd	0.09529851
22	0x3daf4d5f	0.08559679
23	0xbde4028d	-0.11133299
24	0x3e99c4cf	0.30032966
25	0x3d0e72a9	0.034777317
26	0x3d8b3eec	0.06799111
27	0x3d81501e	0.06314109
28	0xbd82fd84	-0.063960105
29	0x3e3a1a8c	0.1817419
30	0x3e157eab	0.14599101
31	0x3bfd29c2	0.007725925
32	0xbda9fa38	-0.082996786
33	0x3d1f029d	0.03882085
34	0x3ec39b70	0.38204527
35	0x3de6b96a	0.11265834
36	0xbdaab43c	-0.08335158
37	0x3d13a1d7	0.036043014
38	0x3cc1dd9a	0.023665238
39	0xbd0add59	-0.0339025
40	0xbd8eb962	-0.06968953
41	0x3d8c5f81	0.068541534
42	0x3e2f6c52	0.17131165
43	0xbd6f5b3c	-0.058436617
44	0xbe000307	-0.12501155
45	0x3c9e8794	0.019351758
46	0xbd7160c2	-0.058930166
47	0x3eaa5591	0.33268407
48	0x3c56bb23	0.01310614
49	0xbc097613	-0.0083899675
50	0xbe0207c7	-0.1269828
51	0x3dbac191	0.09118951
52	0x3d84594b	0.06462344
53	0xbd4c49e5	-0.04987516
54	0x3d248f39	0.04017565
55	0xbd4abbb7	-0.049495425
56	0x3c83ffb1	0.016113134
57	0xbad61e8a	-0.0016336006
58	0xbd53048c	-0.051518008
59	0xbdd13b62	-0.102164045
60	0x3ca415de	0.020029958
61	0xbbb2e20a	-0.005459075
62	0xbe051c07	-0.12998973
63	0xbe34e9fc	-0.17667383
64	0xbdbf36bf	-0.09336614
65	0xbe82bdaf	-0.25535342
66	0x3dae277f	0.08503627
67	0x3d27efb4	0.041000083
68	0xbe17c9ec	-0.14823121
69	0x3e986a87	0.29768774
70	0x3d5227b3	0.05130739
71	0xbe153c0a	-0.14573684
72	0xbd03a8d9	-0.032143448
73	0x3d42b998	0.047540277
74	0x3d47141c	0.048603162
75	0xbdff7da7	-0.12475138
76	0xbe4d8fc6	-0.20074376
77	0x3d287870	0.041130483
78	0xbc4a4e6b	-0.012347798
79	0xbd4e84da	-0.050419666
80	0xbe10d245	-0.14142711
81	0xbdf91b94	-0.12163463
82	0x3e1dbbf1	0.15403725
83	0x3e74a02e	0.23889229
84	0x3e0e3f66	0.13891372
85	0xbe5372e7	-0.206493
86	0xbdbfddcb	-0.093684755
87	0xbd86df5b	-0.065855704
88	0x3e273267	0.1632782
89	0x3e14bc70	0.14525008
90	0xbda8eea1	-0.0824864
91	0x3e672624	0.22573143
92	0xbcf05416	-0.02933697
93	0x3d6319ff	0.055444714
94	0xbe06e570	-0.13173461
95	0xbdd07cf2	-0.101800814
96	0x3da8aad5	0.082357086
97	0x3d276ecf	0.04087716
98	0x3e0a5d39	0.13512124
99	0xbd709d00	-0.058743477
100	0x3d9cd7f3	0.076583765
101	0x3e11dfe2	0.14245561
102	0xbd4e435d	-0.05035721
103	0x3e253be1	0.16136123
104	0xbe2d6d0f	-0.16936134
105	0xbd9751ba	-0.07388635
106	0xbe3a3448	-0.18184006
107	0x3e884f6c	0.26623094
108	0x3d4a26d8	0.04935345
109	0x3e12679e	0.1429734
110	0x3df209a8	0.11818248
111	0xbd8a8939	-0.067644544
112	0x3df489be	0.11940335
113	0x3cc40893	0.02392987
114	0x3e6af357	0.2294439
115	0xbe457e68	-0.19286501
116	0xbe7338d8	-0.23752153
117	0xbc94e5d4	-0.018175997
118	0x3c9e48af	0.019321768
119	0xbc933aa9	-0.017972307
120	0xbd869790	-0.06571877
121	0x3b31f92e	0.002715658
122	0x3dde87e9	0.108657666
123	0x3d1d0d3d	0.038342703
124	0xbb0c5f8c	-0.0021419255
125	0x3e1062d0	0.14100194
126	0x3ca9797e	0.020687815
127	0xbe131a2c	-0.14365453
128	0xbe131bd4	-0.14366084
129	0x3e1dfd46	0.15428647
130	0x3d172fef	0.036910947
131	0xbdb46565	-0.08808402
132	0x3d65e83f	0.05612969
133	0x3d9dae2b	0.076992355
134	0x3e16176c	0.14657372
135	0x3c988845	0.018619666
136	0xbac407d2	-0.0014955944
137	0x3e127a93	0.14304571
138	0x3d8a9602	0.06766893
139	0x3d25689e	0.040382974

gconv1.0.output_gate_w.weight f4 [1, 140]
0	0xbd6363e6	-0.055515192
1	0x3d01cb67	0.03168812
2	0x3e7d16eb	0.24715774
3	0xbd4d4581	-0.050115112
4	0x3e4ee801	0.2020569
5	0x3d3e4088	0.04644826
6	0xbdbb499e	-0.09144901
7	0x3d818dc2	0.06325866
8	0xbd203e13	-0.0391217
9	0x3cdf183a	0.027233232
10	0x3d1e4438	0.038639277
11	0xbe2d0e0f	-0.16899894
12	0x3c407b0b	0.011748086
13	0xbcdbd532	-0.026835058
14	0xbcf84637	-0.030306919
15	0x3d6eb44f	0.058277424
16	0xbdfa9b11	-0.12236608
17	0xbe05e755	-0.13076527
18	0xbb84ec94	-0.0040565226
19	0x3e499a5b	0.19687788
20	0x3d93b080	0.07211399
21	0xbe57c74d	-0.21072121
22	0x3c245d10	0.010031953
23	0xbdd1890c	-0.10231218
24	0x3dc660ca	0.0968643
25	0x3e07d36f	0.1326425
26	0xbdb728c2	-0.08943321
27	0xbebc67fd	-0.36798087
28	0x3dc681bc	0.096927136
29	0xbe10b605	-0.14131935
30	0x3e021972	0.12705019
31	0x3e1171ad	0.1420352
32	0xbdac1acf	-0.08403551
33	0x3d96e083	0.07367041
34	0xbd26eca3	-0.040753018
35	0x3e50a507	0.20375453
36	0xbd4b1885	-0.04958393
37	0xbde24ece	-0.11050187
38	0x3df712f1	0.1206416
39	0x3cc3e64f	0.02391353
40	0xbd4c0980	-0.049813747
41	0xbe1604bf	-0.14650248
42	0x3d3ee3cf	0.046603974
43	0x3db2fc8f	0.08739578
44	0xbde7da74	-0.113209635
45	0xbc26da1d	-0.010183838
46	0x3e19ff77	0.15038858
47	0x3d764ef1	0.06013388
48	0xbe2d95bb	-0.16951649
49	0xbdfc6ff1	-0.12326039
50	0x3d5ca8e6	0.05387201
51	0x3e92ad72	0.28647953
52	0x3e0fb1cc	0.14032668
53	0xbd38e4d9	-0.04514012
54	0x3da8bf09	0.08239562
55	0x3cf6f1e3	0.030144637
56	0xbd828e11	-0.06374753
57	0xbd67af92	-0.05656392
58	0xbd962886	-0.07331948
59	0xbcf8804d	-0.030334616
60	0x3ae84667	0.0017721177
61	0x3db5d6bc	0.08878848
62	0xbe3c3c61	-0.18382408
63	0x3dc41fec	0.09576401
64	0x3c367ab1	0.01113765
65	0x3d009948	0.03139618
66	0x3e8433ef	0.25820872
67	0x3dfe2f9d	0.12411425
68	0xbaed8f21	-0.0018124321
69	0xbdfe299d	-0.12410281
70	0xbe3f2956	-0.18668112
71	0xbb0bc893	-0.0021329268
72	0x3dd84aae	0.10561119
73	0xbd399afe	-0.045313828
74	0x3df34991	0.11879266
75	0xbdb1e6b8	-0.08686584
76	0xbc8cedd0	-0.017203242
77	0xbe10a509	-0.14125456
78	0xbdb9207c	-0.09039399
79	0x3d20bcf3	0.039242696
80	0xbda444e7	-0.080209546
81	0xbdc639e1	-0.09679008
82	0xbd715265	-0.05891647
83	0xbd3fcf61	-0.04682863
84	0xbd0945a2	-0.033513673
85	0xbdb05d69	-0.086115666
86	0xbdc722db	-0.09723445
87	0xbdcf6135	-0.10125963
88	0xbe9e41b6	-0.30909508
89	0x3e43b85e	0.19113299
90	0x3dc6bced	0.097040035
91	0x3d4f3cee	0.050595216
92	0x3db845db	0.08997699
93	0xbcbbe8b4	-0.02293811
94	0xbe323eb8	-0.17406738
95	0x3e7f3891	0.24923922
96	0x3e9ecf46	0.31017512
97	0x3e917dd5	0.28416315
98	0xbd0ed30d	-0.034869242
99	0x3e570868	0.209993
100	0xbe1a895a	-0.15091458
101	0xbe4764f5	-0.19472106
102	0xbdf5bfc0	-0.11999464
103	0xbe9be0a7	-0.30444834
104	0x3d945f5f	0.07244753
105	0xbcbe9ba9	-0.023267584
106	0x3de936b7	0.11387389
107	0xbcb4095e	-0.021977123
108	0xbd9c075f	-0.076185934
109	0xbd733ce7	-0.059384253
110	0x3b8e24cf	0.004337884
111	0xbe1e4006	-0.1545411
112	0x3e0fcb62	0.14042428
113	0x3c510987	0.012758619
114	0x3e59ca21	0.21268512
115	0x3e13962a	0.14412752
116	0xbe407061	-0.18792869
117	0xbd76ceae	-0.0602557
118	0xbbece455	-0.0072293677
119	0xbde70571	-0.11280335
120	0xbd17f57c	-0.037099347
121	0x3e6be8ba	0.23037997
122	0x3e21b612	0.1579211
123	0x3d47eaae	0.048807792
124	0x3e1ab6e3	0.15108828
125	0x3e2c5b86	0.16831788
126	0x3ce6bbb8	0.028165683
127	0xbdc359b0	-0.09538591
128	0x3d451864	0.048118964
129	0xbdd9cf0a	-0.10635193
130	0xbd9f3b28	-0.07774955
131	0x3d219f52	0.03945858
132	0x3d0abbd0	0.03387052
133	0xbd2d3535	-0.04228707
134	0xbd6cd1b2	-0.05781717
135	0x3e3ec215	0.18628724
136	0xbd9086ff	-0.070569985
137	0xbe3a5c72	-0.18199328
138	0xbcafe559	-0.021471666
139	0xbd7bc0a6	-0.06146302

gconv1.1.A f4 [140, 140]
0	0xbd48d988	-0.04903558
1	0x3dd74458	0.105110824
2	0xbcc6db9a	-0.024274636
3	0xbdb55af6	-0.0885524
4	0x3cc41e40	0.023940206
5	0xbda916a9	-0.08256275
6	0xbcf6f4bc	-0.030145995
7	0xbdd62120	-0.10455537
8	0xbd553779	-0.052054856
9	0x3c8f5958	0.017498657
10	0x3def8cf4	0.116968066
11	0x3d68a2cb	0.056795876
12	0x3db34847	0.0875402
13	0xbe774c9d	-0.2415032
14	0x3d21c175	0.039491136
15	0xbe198e5d	-0.14995714
16	0x3b5a71e3	0.0033332042
17	0x3e064ecd	0.13115998
18	0xbe46d628	-0.19417632
19	0xbd031134	-0.031998828
20	0x3bc8f46d	0.0061326534
21	0xbe000839	-0.12503137
22	0xbd832d1f	-0.064050905
23	0xbe3bbbe1	-0.18333389
24	0xbd0878c6	-0.033318304
25	0x3d741124	0.05958666
26	0xbded76ca	-0.11594923
27	0xbd8b16a5	-0.067914285
28	0xbc662cc0	-0.014048755
29	0x3d71982c	0.058983013
30	0xbd27e48f	-0.040989455
31	0x3e0ecb89	0.1394483
32	0xbe60be7d	-0.21947666
33	0xbd9c0541	-0.076181896
34	0x3bf8d7a3	0.0075940653
35	0x3db16eba	0.086636975
36	0xbd4dad3a	-0.05021403
37	0xbcd26f79	-0.02568792
38	0x3c1c2311	0.009529845
39	0xbc1c6b4b	-0.009547065
40	0x3d5859f3	0.052820157
41	0x3c116df8	0.008876316
42	0xbcde6d50	-0.027151734
43	0xbddfcae8	-0.10927373
44	0x3d7a0c03	0.06104661
45	0x3d49618c	0.049165294
46	0x3d8d119f	0.068881266
47	0xbd9d0e5d	-0.07668755
48	0xbd3012ca	-0.04298667
49	0xbd72fc05	-0.059322376
50	0x3d0ea851	0.034828488
51	0xbde05dae	-0.10955368
52	0x3de98df9	0.11404032
53	0x3d1658c8	0.036705762
54	0xbda11f06	-0.078672454
55	0xbc6c1f72	-0.014411794
56	0xbdbf4491	-0.0933925
57	0x3cbfe0a3	0.023422545
58	0x3dd160a1	0.102235086
59	0xbe1406af	-0.14455675
60	0x3d6fb604	0.058523193
61	0xbdf36cd7	-0.11885994
62	0xbdba10a8	-0.09085208
63	0x3e1d04ff	0.15333937
64	0x3d7e0eeb	0.062025946
65	0x3d5a3fab	0.053283375
66	0xbd70db0b	-0.058802646
67	0xbe31c229	-0.17359222
68	0xbd8cb211	-0.06869901
69	0xbcf26d0b	-0.029593011
70	0xbdbcd9d3	-0.09221234
71	0x3dbb08cf	0.091325395
72	0x3e1a9c70	0.15098739
73	0x3d5f1b50	0.054469407
74	0xbd08d051	-0.03340179
75	0x3b92f76a	0.0044850605
76	0xbe205cf8	-0.15660465
77	0xbd38313d	-0.044968832
78	0xbdf61a26	-0.12016706
79	0x3cd53f97	0.026031299
80	0x3cbc11f9	0.022957789
81	0xbc35a8c0	-0.011087596
82	0x3e11d9b7	0.14243208
83	0x3cd6b06a	0.026207168
84	0x3e127a55	0.14304478
85	0x3d4375d0	0.047719777
86	0x3e5e5b79	0.21714582
87	0xbd0685de	-0.03284251
88	0x3dda1a20	0.10649514
89	0xbd4f7dca	-0.05065707
90	0x3d52bbca	0.05144862
91	0xbd13bb43	-0.03606726
92	0xbd39064e	-0.04517203
93	0xbc31f76e	-0.0108622145
94	0x3d93e82c	0.07222018
95	0x3dd74153	0.105105065
96	0xbe166061	-0.14685203
97	0xbd3ab507	-0.045582797
98	0x3d78c217	0.060731973
99	0x3dbdc025	0.09265164
100	0xbc360fb2	-0.0111121405
101	0xbd8ed64b	-0.06974467
102	0x3d84e7e0	0.06489539
103	0xbe18c7cc	-0.14919966
104	0x3d14ea3e	0.036356203
105	0x3d4a58a3	0.049400937
106	0x3e444f29	0.19170822
107	0x3a1c1404	0.00059539103
108	0x3d2bbb08	0.041926414
109	0xbcc7a74d	-0.024371767
110	0x3dc268a1	0.09492613
111	0xbd4a5e81	-0.049406532
112	0x3d3715ca	0.044698514
113	0xbdbe7f18	-0.09301585
114	0xbe047cc9	-0.12938227
115	0x3d83e651	0.06440414
116	0x3d73c2f3	0.05951209
117	0x3ca7be66	0.020476531
118	0x3d88316c	0.066500515
119	0x3da93048	0.08261162
120	0x3c579555	0.013158162
121	0x3c80abd5	0.015706936
122	0x3c19bc4f	0.009383275
123	0x3c221a86	0.009894019
124	0xbddf4a23	-0.10902812
125	0x3d9acd91	0.0755874
126	0xbc4b435b	-0.0124061955
127	0xbdc96285	-0.09833244
128	0xbd9f9fc1	-0.077941425
129	0x3d003b72	0.03130669
130	0xbe09a082	-0.13440135
131	0x3e1e6149	0.15466799
132	0xba4a56a0	-0.00077185966
133	0x3c1cb09f	0.009563594
134	0x3e258a5b	0.1616606
135	0x3d57cc60	0.05268514
136	0x3d744456	0.059635483
137	0xbd27659f	-0.040868398
138	0x3dbcdbd9	0.0922162
139	0x3d193f61	0.03741396
140	0x3c9bd70d	0.019023443
141	0xbe17f11a	-0.14838067
142	0x3d56e11b	0.05246077
143	0xbda15690	-0.078778386
144	0x3dd7c145	0.1053491
145	0xbd949bd2	-0.07256283
146	0xbd67c405	-0.056583423
147	0xbd412889	-0.047157798
148	0xbdd90cc5	-0.10598139
149	0xbd7d63fe	-0.061862938
150	0x3c84074c	0.01611676
151	0x3ccd1e32	0.025038812
152	0xbcc95028	-0.024574354
153	0xbd82a784	-0.06379607
154	0xbcc54ba2	-0.024083916
155	0x3d8bf3b2	0.068335906
156	0xbd8af4a5	-0.067849435
157	0xbd52fe2e	-0.051511936
158	0x3da6e1d4	0.08148542
159	0x3dd1399c	0.10216066
160	0xbdd31375	-0.103064455
161	0xbcb22b8f	-0.021749286
162	0xbd1e462d	-0.038641144
163	0xbda7a1bb	-0.081851445
164	0xbbbda996	-0.0057880385
165	0x3d826252	0.06366409
166	0xbd3075cf	-0.0430811
167	0xbd32e1dd	-0.04367243
168	0x3df55943	0.11979916
169	0xbbc3346b	-0.0059571764
170	0xbdf3afe8	-0.11898786
171	0x3d92bfee	0.07165514
172	0xbdd69c63	-0.10479047
173	0xbd665742	-0.05623556
174	0xbc907982	-0.017636064
175	0x3d1ff83a	0.039055087
176	0xbd256ffe	-0.040390007
177	0xbbc47da8	-0.0059964247
178	0xbc2d230a	-0.010567436
179	0xbdcc0e3a	-0.09963651
180	0xbdd3a20e	-0.10333644
181	0xbe01078d	-0.12600537
182	0x3d233a78	0.039850682
183	0x3d2f7606	0.042837165
184	0x3d961e06	0.07329945
185	0x3c50dad4	0.012747485
186	0x3e0a9223	0.13532309
187	0x3c07e31e	0.008293895
188	0x3dabfc9a	0.08397789
189	0xbda238ea	-0.07921012
190	0x3d985b03	0.07439234
191	0xbcfb4ab7	-0.030675275
192	0xbd865065	-0.06558303
193	0x3d68ff8e	0.05688434
194	0x3dd8ed97	0.10592192
195	0xbe25a057	-0.16174446
196	0x3cbfad6d	0.023398126
197	0xbc3a5dcd	-0.011374903
198	0x3da58318	0.08081645
199	0xbc2c8ff8	-0.010532372
200	0xbca17fcc	-0.019714259
201	0xbad50c53	-0.0016254283
202	0x3ca2abb3	0.019857263
203	0x3da1a770	0.07893264
204	0xbd7999c8	-0.060937673
205	0xbd452b2d	-0.04813688
206	0xbd56ee84	-0.05247356
207	0xbe444061	-0.19165184
208	0x3e48f857	0.19625984
209	0xbdad4d01	-0.08461953
210	0xbdd3f00b	-0.10348519
211	0x3de9034c	0.11377582
212	0xbd4b5aa7	-0.049647
213	0x3d66ab76	0.05631586
214	0xbcead4bd	-0.028665895
215	0xbde9021d	-0.11377356
216	0x3e21670c	0.15761966
217	0x3db9737a	0.090552285
218	0xbb8b12a8	-0.0042441674
219	0xbd0119c7	-0.031518724
220	0xbc91d745	-0.017802844
221	0x3d05fed3	0.032713722
222	0x3bd75b43	0.0065721585
223	0x3cd36491	0.02580479
224	0x3da937ff	0.082626335
225	0xbe2bf6bb	-0.16793339
226	0xbde69d9a	-0.11260529
227	0xbdc6655f	-0.09687304
228	0x3cd3ba11	0.02584556
229	0xbdb7e0e0	-0.089784384
230	0xbe27fa54	-0.16404086
231	0xbdbaca3c	-0.091206044
232	0x3cf3fdda	0.029784132
233	0xbc916049	-0.017746108
234	0xbd07b87e	-0.03313493
235	0x3cca2728	0.024676874
236	0x3af2ffb1	0.0018539337
237	0xbd9f516a	-0.077792004
238	0xbb7e0571	-0.0038760568
239	0x3e113ca2	0.14183286
240	0xbcc3ed90	-0.02391699
241	0xbdd3252a	-0.10309823
242	0xbcf297a4	-0.029613324
243	0x3e21ef95	0.1581405
244	0xbdcbf51a	-0.09958859
245	0x3da99e9f	0.08282208
246	0x3cb2900a	0.021797199
247	0x3d9706da	0.07374354
248	0xbe34d849	-0.17660631
249	0xbdab130b	-0.083532415
250	0x3d458fc7	0.04823282
251	0xbca08c3b	-0.019598117
252	0x3e10a47c	0.14125246
253	0xbceef94b	-0.029171607
254	0x3b8ea75f	0.0043534483
255	0x3cbefaed	0.02331301
