save/best_new_opt2_0.785.pt (torch, 951112 bytes, 24 tensors)

gconv1.0.A f4 [140, 140]
-0.06816023 0.0022768443 0.041258574 -0.026518386 -0.0058578355 -0.062264394 0.18185802 0.07864832
0.043745056 -0.05275871 0.10916373 -0.015748682 -0.07505281 -0.1622098 0.077589 -0.19369598
-0.018014539 -0.027932048 0.15957953 0.05677572 -0.0068246596 0.15253928 -0.069140434 0.14445108
0.078724876 -0.006020726 0.03318211 -0.0053215646 -0.027732078 -0.112117596 -0.047572322 -0.098068856
-0.04013847 -0.02882745 -0.07397657 -0.027379127 -0.09106129 0.05522476 0.028511181 -0.10964671
0.19352983 0.1105662 0.03775301 -0.054482903 0.07263878 -0.13765667 0.04420503 -0.17753889
0.09558573 -0.14256756 -0.074811585 0.0821127 0.14067648 0.0011881222 -0.08606687 -0.044582874
0.012576146 0.078286715 -0.059522647 0.12086774 -0.113590926 -0.062236365 0.07772864 -0.053776007
0.004829516 0.069246896 0.045695413 -0.011668196 0.13445903 -0.033289686 -0.040810462 0.12569027
-0.03279022 -0.10852885 -0.05169334 0.05701172 0.029167471 0.00023520406 0.045476932 0.08312389
-0.030713027 -0.053503282 0.015696868 -0.052631233 -0.0020883903 0.04265717 0.07131175 0.031588413
0.17404181 -0.009610645 -0.0757335 -0.15090956 -0.07126029 -0.04500864 -0.0362214 0.08929138
0.063796885 -0.02821529 0.11285222 0.0034128763 0.02927691 -0.05560344 0.05299222 -0.0022897653
0.07488462 -0.096214555 0.07781756 0.06661701 0.025523663 -0.044693027 -0.0005352313 -0.022123635
0.06203907 0.0739576 0.001772611 0.04553572 0.03603422 -0.0428081 0.0039093876 -0.06116467
0.08959997 -0.10141961 -0.08418539 -0.033691186 -0.013510524 -0.007038639 -0.024529874 -0.13998532
-0.06267062 -0.17714868 -0.02370656 0.0037235105 -0.0353604 0.064714655 -0.025079835 0.02592515
0.018810123 0.0562547 -0.014108526 -0.032946672 0.13761094 -0.06976616 -0.03827635 0.09610667
-0.060034655 -0.1344842 0.1316127 -0.032089777 0.017206965 0.15313382 0.088757046 -0.10213631
0.13935663 -0.08963794 0.08980112 -0.004583331 -0.092590615 0.030105473 0.08690404 -0.05004444
-0.065105334 0.124047026 -0.0392873 -0.051721383 -0.1274698 -0.1365314 -0.10189204 -0.035740066
0.047691025 0.061978303 0.20134558 -0.1211303 0.10452962 0.019247485 0.03363864 0.075377285
-0.11623327 0.06500636 0.02761025 -0.06128889 0.156163 -0.00717141 -0.054764032 0.032581758
-0.050466668 0.008626067 -0.033012897 0.12094103 -0.07233834 -0.10739776 0.037576396 -0.03403665
-0.0042464 -0.05033994 -0.07502869 -0.11937682 0.02245942 -0.08530566 -0.09250996 -0.041122336
-0.14390424 0.007085415 -0.02494705 -0.09565602 -0.013590345 -0.06798372 -0.19959252 -0.041917693
0.080379225 0.013459149 -0.060485907 -0.14332716 0.088347144 0.013819551 0.073561504 0.117535464
-0.20432657 -0.058469336 -0.046565857 -0.10792025 0.011880403 -0.036201388 0.18325901 -0.05913057
-0.03514917 -0.12820253 0.16388229 -0.045759227 -0.034148626 -0.087082714 0.03766468 0.042461604
0.0015837351 -0.1210407 -0.026898498 -0.16277312 -0.037204504 0.09439011 -0.10351757 0.0881848
-0.020351771 0.07781231 0.101878345 0.02300178 0.051254477 -0.08449982 0.014099879 0.14068729
0.13892055 0.049012754 -0.095460676 -0.11558326 -0.075677134 0.07007546 0.06998204 -0.044976294
00000000: 9797 8bbd 1c37 153b c0fe 283d 163d d9bc
00000010: 16f3 bfbb f308 7fbd fd38 3a3e 5f12 a13d
00000020: 042e 333d 8419 58bd 3c91 df3d 6103 81bc
00000030: 4ab5 99bd 531a 26be fbe6 9e3d 3d58 46be
00000040: 3a93 93bc c0d1 e4bc d168 233e a88d 683d
00000050: 65a1 dfbb 4233 1c3e 8099 8dbd fcea 133e
00000060: 823a a13d 8349 c5bb f7e9 073d 8560 aebb
00000070: 622e e3bc e99d e5bd 32db 42bd 53d8 c8bd
00000080: 3c68 24bd 8b27 ecbc 0781 97bd 314a e0bc
00000090: 577e babd 5c33 623d 4890 e93c 748e e0bd
000000a0: af2c 463e 8870 e23d e6a2 1a3d 7729 5fbd
000000b0: a4c3 943d dff5 0cbe 5510 353d c1cc 35be
000000c0: 74c2 c33d 3bfd 11be d136 99bd b42a a83d
000000d0: 7f0d 103e c4ba 9b3a d443 b0bd 889c 36bd
000000e0: 2e0c 4e3c c954 a03d 05ce 73bd 8189 f73d
000000f0: 5ca2 e8bd 8feb 7ebd 3130 9f3d 3b44 5cbd
00000100: eb40 9e3b 51d1 8d3d 1d2b 3b3d f62b 3fbc
00000110: a1af 093e c45a 08bd df28 27bd f3b4 003e
00000120: 0a4f 06bd 6044 debd 65bc 53bd 1f85 693d
00000130: 9ff0 ee3c 1ca1 7639 0546 3a3d dc3c aa3d
00000140: e399 fbbc 4226 5bbd b896 803c d993 57bd
00000150: 60dd 08bb 49b9 2e3d e50b 923d da62 013d
00000160: 0438 323e f775 1dbc 2a1a 9bbd 0988 1abe
00000170: eaf0 91bd fb5a 38bd e45c 14bd 66de b63d
00000180: f1a7 823d c023 e7bc 111f e73d 90aa 5f3b
00000190: 21d6 ef3c 6fc0 63bd 5f0e 593d e30f 16bb
000001a0: 1c5d 993d 230c c5bd d05e 9f3d 806e 883d
000001b0: 0017 d13c 0910 37bd c44e 0cba a03c b5bc
000001c0: ae1c 7e3d 1577 973d f556 e83a aa83 3a3d
000001d0: 9e98 133d 8c57 2fbd 521a 803b ce87 7abd
000001e0: 3080 b73d 16b5 cfbd 6469 acbd c5ff 09bd
000001f0: 3f5b 5dbc 62a4 e6bb e0f2 c8bc 5058 0fbe
00000200: 7459 80bd 7766 35be 4234 c2bc 2406 743b
00000210: 11d6 10bd 1e89 843d 3a74 cdbc fb60 d43c
00000220: b017 9a3c 546b 663d 7227 67bc 17f3 06bd
00000230: e2e9 0c3e 8fe1 8ebd a9c7 1cbd 93d3 c43d
00000240: e6e6 75bd 3ab6 09be 7bc5 063e 9270 03bd
00000250: 9ff5 8c3c 1dcf 1c3e 41c6 b53d d72c d1bd
00000260: 81b3 0e3e 1994 b7bd a6e9 b73d c42f 96bb
00000270: 26a0 bdbd c19f f63c bffa b13d 66fb 4cbd
00000280: f255 85bd 5e0c fe3d b8eb 20bd cdd9 53bd
00000290: 7187 02be e3ce 0bbe c6ac d0bd 2d64 12bd
000002a0: aa57 433d f6dc 7d3d 892d 4e3e 2a13 f8bd
000002b0: a013 d63d e7ac 9d3c acc8 093d 685f 9a3d
000002c0: b50b eebd 0e22 853d e42e e23c 0f0a 7bbd
000002d0: 32e9 1f3e 26fe eabb 4050 60bd 7374 053d
000002e0: 23b6 4ebd 5954 0d3c 8838 07bd eeaf f73d
000002f0: 2026 94bd 5bf3 dbbd b5e9 193d 046a 0bbd
00000300: 6325 8bbb 4131 4ebd a4a8 99bd d67b f4bd
00000310: d1fc b73c bcb4 aebd dd75 bdbd e56f 28bd
00000320: a25b 13be c52c e83b c15d ccbc 4ee7 c3bd
00000330: 0aaa 5ebc 0c3b 8bbd fb61 4cbe e3b1 2bbd
00000340: dd9d a43d c383 5c3c 12c0 77bd 5bc4 12be
00000350: 59ef b43d 666b 623c 6aa7 963d 6fb6 f03d
00000360: fc3a 51be 8b7d 6fbd d7bb 3ebd 4b05 ddbd
00000370: 06a6 423c e847 14bd 40a8 3b3e e632 72bd
00000380: 93f8 0fbd 8647 03be c2d0 273e 076e 3bbd
00000390: 6edf 0bbd 6c58 b2bd 4846 1a3d 38ec 2d3d
000003a0: 5595 cf3a 30e4 f7bd 3d5a dcbc ffad 26be
000003b0: c063 18bd 9a4f c13d 0501 d4bd 3c9a b43d
000003c0: c2b8 a6bc 0f5c 9f3d 98a5 d03d 3b6e bc3c
000003d0: 37f0 513d 3e0e adbd 2e03 673c 5410 103e
000003e0: 3041 0e3e 99c1 483d e380 c3bd ebb6 ecbd
000003f0: 9dfc 9abd b983 8f3d be52 8f3d 1039 38bd

gconv1.0.W.weight f4 [140, 140]
0.05452792 -0.15698162 0.09109633 -0.036336828 0.13019182 0.101327084 0.2177643 0.08748296
0.14312401 -0.0061484776 -0.066544384 0.1363894 -0.15109159 0.10250519 -0.104706086 -0.09392398
0.0033747756 0.0055474816 -0.03338529 0.017723288 0.06896102 0.07464415 -0.09331781 0.06047208
-0.003911088 -0.057913043 0.15945785 0.027824868 0.05943102 -0.045165908 0.10528211 -0.012449095
0.10897624 -0.0036900593 0.027680974 0.0010695937 0.07577758 0.07805348 -0.089025676 0.021718217
0.043507587 0.11870065 -0.088633545 0.041914392 -0.0072985804 -0.016190957 0.19319792 -0.05326222
-0.010937236 0.053325832 0.15113597 0.014181699 0.1377975 -0.016261725 -0.090646185 -0.067727655
0.009178546 -0.16975857 0.032195725 -0.012292037 0.17227942 0.027240396 -0.007041011 -0.15670167
-0.053003922 0.055413134 0.12795028 0.05401589 -0.12146825 0.13191698 -0.055511095 -0.033993818
0.018942485 -0.060093995 0.012766142 0.05934885 -0.05307209 0.057708785 0.059962302 -0.0026923898
0.026654059 -0.16544954 -0.06935614 -0.022012413 -0.055705886 -0.036512647 -0.18144055 0.0033201727
-0.008115861 -0.0826598 0.012483448 0.03151678 0.1736623 0.025819773 -0.056893308 -0.051715925
0.06480067 0.036679685 -0.154014 -0.03770738 -0.01731508 0.07056618 0.083097406 0.011485782
-0.07474721 0.21778238 -0.029865965 0.00026717316 -0.08044172 -0.036228552 -0.18576738 -0.022014735
-0.08652034 0.08422723 -0.07754489 -0.036692582 -0.088776134 0.12869464 -0.15005763 -0.031949524
0.123383485 0.017501136 0.002197569 0.035195813 0.009049968 0.010152928 0.13350767 -0.04185803
-0.16772057 0.05271033 0.058091696 0.012668996 0.18363695 -0.14409402 0.08707321 0.10214224
-0.08028004 -0.05865182 0.0001000545 0.047362164 0.0012254862 0.0740488 -0.03666855 0.07379372
-0.038727995 -0.11888572 0.03625866 0.0358147 0.06043111 -0.06627449 -0.12952802 -0.09279093
-0.017066995 -0.0213989 -0.0075267456 0.17495397 -0.0044463854 -0.04870037 -0.061470315 -0.016521612
-0.09300252 0.15618882 0.16472422 0.03106434 0.13228813 0.07793752 0.06678088 -0.017070647
0.047855515 0.081877746 0.039845686 -0.08069365 0.089742415 -0.016987782 -0.048701886 -0.10722726
0.0011606863 0.041285235 -0.034526017 0.08420396 0.09052837 0.03795141 0.018166097 0.027143814
-0.012427375 -0.120350786 0.041788884 0.13427033 -0.063775614 0.09280334 -0.08744956 0.04371263
-0.0391676 0.101491034 0.1824478 -0.07322363 0.032369103 0.0067544617 -0.075305276 0.011841013
0.06487857 -0.0642383 0.092486426 0.2503018 0.051371276 -0.16327693 0.016174877 -0.0088066785
0.03898367 0.18415688 0.004329939 0.040108364 -0.06794531 -0.1064513 -0.07680787 0.021438954
-0.114732206 -0.074660845 0.089835726 -0.04012572 0.01639611 -0.063927144 0.015773753 -0.081255786
0.034638196 0.056471113 -0.1398145 0.014266128 -0.03352654 -0.108388774 -0.028718732 -0.107890755
0.06571041 0.13442731 -0.014032911 0.05852876 -0.10693414 0.025654549 -0.09274707 0.041253634
0.00494782 0.05587059 -0.0153192375 0.06407548 0.033592414 0.011421543 0.054526158 0.050963722
-0.023535574 -0.004118559 0.03400471 0.06886696 0.046319257 0.16486722 -0.004062738 0.029314864
00000000: ab58 5f3d cabf 20be b690 ba3d edd5 14bd
00000010: 0151 053e 9384 cf3d 9bfd 5e3e 442a b33d
00000020: 1a8f 123e 2b79 c9bb 6c48 88bd aaa9 0b3e
00000030: c1b7 1abe 3eee d13d 2570 d6bd 375b c0bd
00000040: 572b 5d3b a6c7 b53b 04bf 08bd 6e30 913c
00000050: 6f3b 8d3d 08df 983d 681d bfbd 92b1 773d
00000060: 9628 80bb 3a36 6dbd eb48 233e faf0 e33c
00000070: f16d 733d e3ff 38bd 269e d73d 4af7 4bbc
00000080: ef2e df3d ecd4 71bb 36c3 e23c 9c31 8c3a
00000090: 4731 9b3d 81da 9f3d 1853 b6bd 67ea b13c
000000a0: 0335 323d 5419 f33d 8185 b5bd 6dae 2b3d
000000b0: ee28 efbb e6a2 84bc add5 453e 7c29 5abd
000000c0: 1832 33bc 306c 5a3d 63c3 1a3e 5b5a 683c
000000d0: ca1a 0d3e 4f37 85bc b5a4 b9bd ccb4 8abd
000000e0: 9d61 163c 31d5 2dbe aadf 033d 8a64 49bc
000000f0: 046a 303e 4027 df3c 48b8 e6bb 6776 20be
00000100: a41a 59bd e2f8 623d 6605 033e c43f 5d3d
00000110: 59c4 f8bd 3f15 073e 9a5f 63bd 1a3d 0bbd
00000120: 452d 9b3c 1f25 76bd 1529 513c c817 733d
00000130: 1f62 59bd 0c60 6c3d 089b 753d ce72 30bb
00000140: 9d59 da3c 9b6b 29be 980a 8ebd 6053 b4bc
00000150: db2b 64bd 498e 15bd 8dcb 39be 4197 593b
00000160: 63f8 04bc 8b49 a9bd 6087 4c3c bd17 013d
00000170: 88d4 313e fd83 d33c f508 69bd 14d4 53bd
00000180: 37b6 843d 703d 163d d9b5 1dbe 0e73 1abd
00000190: 5bd8 8dbc 0085 903d f92e aa3d dd2e 3c3c
000001a0: 1115 99bd 5802 5f3e 78a9 f4bc 6013 8c39
000001b0: a1be a4bd 6464 14bd ce39 3ebe 3f58 b4bc
000001c0: 9331 b1bd 537f ac3d dbcf 9ebd f64a 16bd
000001d0: 43d0 b5bd 87c8 033e b5a8 19be 81dd 02bd
000001e0: 7bb0 fc3d 8b5e 8f3c 1705 103b 7c29 103d
000001f0: 5146 143c 7758 263c 3cb6 083e 5373 2bbd
00000200: f1be 2bbe c9e6 573d 8ff1 6d3d 9f91 4f3c
00000210: 530b 3c3e 628d 13be 7053 b23d f32f d13d
00000220: dd69 a4bd e43c 70bd 5ad4 d138 d4fe 413d
00000230: 7ea0 a03a e6a6 973d c331 16bd 2921 973d
00000240: 3fa1 1ebd 5b7a f3bd f683 143d 6fb2 123d
00000250: 9d86 773d ebba 87bd fea2 04be 2c09 bebd
00000260: 15d0 8bbc bf4c afbc eba2 f6bb 2227 333e
00000270: fcb2 91bb 0a7a 47bd 4cc8 7bbd 5558 87bc
00000280: 1b78 bebd f6ef 1f3e 77ad 283e a57a fe3c
00000290: 8a76 073e b59d 9f3d 6ac4 883d bed7 8bbc
000002a0: 2504 443d 85af a73d 3b35 233d b642 a5bd
000002b0: dfca b73d f629 8bbc a17b 47bd f799 dbbd
000002c0: 2b22 983a b51a 293d 276b 0dbd 2073 ac3d
000002d0: f066 b93d f072 1b3d 11d1 943c b45c de3c
000002e0: 309c 4bbc 797a f6bd d22a 2b3d 297e 093e
000002f0: ca9c 82bd ad0f be3d c118 b3bd 040c 333d
00000300: 356e 20bd 88da cf3d 99d3 3a3e 45f6 95bd
00000310: 7795 043d 8854 dd3b a739 9abd cf00 423c
00000320: 0edf 843d 5f8f 83bd 8669 bd3d 8f27 803e
00000330: b06a 523d 1132 27be 2d81 843c e349 10bc
00000340: 57ad 1f3d 9f93 3c3e 29e2 8d3b ab48 243d
00000350: e926 8bbd 2403 dabd 724d 9dbd bfa0 af3c
00000360: b8f8 eabd c9e7 98bd cbfb b73d de5a 24bd
00000370: 2351 863c 3cec 82bd f537 813c 6f69 a6bd
00000380: c8e0 0d3d 414e 673d 882b 0fbe 7abc 693c
00000390: 2053 09bd effa ddbd 8c43 ebbc d4f5 dcbd
000003a0: 2e93 863d 50a7 093e 4bea 65bc dabb 6f3d
000003b0: 4900 dbbd 7d29 d23c 2df2 bdbd 92f9 283d
000003c0: 5321 a23b 8fd8 643d 8afd 7abc 013a 833d
000003d0: 3398 093d 6c21 3b3c d256 5f3d 56bf 503d
000003e0: adcd c0bc faf4 86bb 8648 0b3d 1f0a 8d3d
000003f0: 43b9 3d3d f4d2 283e b720 85bb ba25 f03c

gconv1.0.W.bias f4 [140]
0.05300148 -0.0026112685 0.019408066 -0.07890719 -0.061755408 -0.009488791 0.01808883 -0.08694922
-0.06844523 0.04201014 0.035810784 -0.053903244 0.029350422 -0.023744551 0.035961498 -0.08421686
0.07655059 -0.02638627 -0.07369884 -0.03961376 -0.044671595 -0.077929504 -0.009205727 -0.0491052
0.057989966 -0.022046886 -0.048180588 0.02221512 -0.08538114 0.026052076 0.036115617 0.048264578
-0.061471906 -0.078495875 -0.043342497 -0.032307353 0.010610863 0.006201603 0.046622723 0.04353459
0.05538924 0.059983194 -0.0990359 -0.03771583 0.06544451 -0.05949128 -0.060244948 0.008683666
-0.038874894 0.008809686 -0.04417523 0.02845629 0.06415472 0.017935993 -0.00071811577 -0.090797774
-0.054246828 -0.036093105 0.0636988 0.08195095 -0.021810118 -0.03390504 -0.008620644 0.008808113
0.06473138 -0.07344379 0.034357905 0.01046817 0.08307187 -0.05347974 0.024353044 0.11036772
0.015387957 0.06760707 -0.08987953 -0.010429209 -0.0038465676 0.05594396 -0.021726392 -0.04247781
-0.05122009 -0.012027432 0.08363226 0.071170725 0.026121385 -0.0059127565 0.009135106 0.022859717
-0.07634268 -0.030782567 0.039994672 0.03997571 0.028505836 0.054575693 -0.07707847 -0.078208804
-0.07235431 -0.008005316 0.076309964 0.0052269604 0.088344246 0.053808454 0.0358271 0.10347224
0.09802433 0.027843695 0.029287906 0.09366561 0.038856745 -0.06479204 -0.0533647 -0.01418186
0.051992048 0.015310491 0.054913826 0.0055601923 0.034239274 -0.06853788 0.10466712 0.038601954
0.033842895 -0.06742979 -0.009098104 0.038961746 -0.062451918 0.038104985 -5.0276547e-05 0.05008686
-0.050209284 -0.027096992 0.024444396 0.09281542 -0.010484355 0.032290418 -0.029578889 0.0025456084
0.078206554 0.062139127 0.048190787 0.057121176
00000000: 1418 593d d121 2bbb aafd 9e3c 189a a1bd
00000010: 3df3 7cbd e076 1bbc 072f 943c 6f12 b2bd
00000020: 032d 8cbd d312 2c3d 54ae 123d a6c9 5cbd
00000030: 4c70 f03c ef83 c2bc 5d4c 133d e479 acbd
00000040: 8ec6 9c3d 0528 d8bc 6bef 96bd 0a42 22bd
00000050: 90f9 36bd 8199 9fbd 9ed3 16bc 8922 49bd
00000060: e386 6d3d ac9b b4bc 0259 45bd 7cfc b53c
00000070: 4fdc aebd 2a6b d53c f8ed 133d 14b1 453d
00000080: f7c9 7bbd 72c2 a0bd e787 31bd b754 04bd
00000090: 2fd9 2d3c d136 cb3b 78f7 3e3d 5451 323d
000000a0: d4df 623d f0b0 753d 55d3 cabd ea7b 1abd
000000b0: c507 863d 21ad 73bd 68c3 76bd ef45 0e3c
000000c0: 483b 1fbd 8056 103c 16f1 34bd 2a1d e93c
000000d0: 8d63 833d 81ee 923c ef3f 3cba 2ff4 b9bd
000000e0: ec31 5ebd 5dd6 13bd 8474 823d e6d5 a73d
000000f0: 22ab b2bc 03e0 0abd 9a3d 0dbc e74f 103c
00000100: e391 843d b369 96bd e0ba 0c3d b082 2b3c
00000110: 9621 aa3d 920d 5bbd 0980 c73c 7908 e23d
00000120: c51d 7c3c 9375 8a3d c212 b8bd 46df 2abc
00000130: b216 7cbb 7e25 653d 8cfb b1bc 36fd 2dbd
00000140: 28cc 51bd b50e 45bc 6447 ab3d f5c1 913d
00000150: 84fc d53c ccbf c1bb 69ab 153c 4d44 bb3c
00000160: 8d59 9cbd b92b fcbc 74d1 233d 92bd 233d
00000170: 1285 e93c c38a 5f3d 51db 9dbd f02b a0bd
00000180: 7f2e 94bd bb28 03bc 6648 9c3d ec46 ab3b
00000190: d4ed b43d 4166 5c3d 70bf 123d 41e9 d33d
000001a0: fbc0 c83d 7618 e43c 31ed ef3c c1d3 bf3d
000001b0: 4028 1f3d b0b1 84bd f294 5abd 085b 68bc
000001c0: 9df5 543d dbd8 7a3c 52ed 603d 4632 b63b
000001d0: 7b3e 0c3d 975d 8cbd b75b d63d 151d 1e3d
000001e0: d99e 0a3d a118 8abd 3710 15bc 5a96 1f3d
000001f0: 95cd 7fbd f913 1c3d 08e0 52b8 e127 4d3d
00000200: 40a8 4dbd 83fa ddbc 9d3f c83c 0316 be3d
00000210: 92c6 2bbc f542 043d 6d4f f2bc 39d4 263b
00000220: c22a a03d 9985 7e3d b463 453d e5f7 693d

gconv1.0.gate.weight f4 [1, 280]
0.103646174 -0.07005237 0.11325016 0.013534146 0.090943664 -0.060065273 0.020562716 -0.000786059
-0.011380233 0.13354403 0.04597809 0.046224747 -0.046444647 0.061723284 0.019371454 0.018121414
0.001173224 -0.07286883 -0.09070439 0.015996441 -0.027692653 0.094213836 0.11918222 0.05281668
-0.018894615 -0.016920175 0.03953442 -0.02882922 0.02318252 -0.10665576 0.011593872 -0.07332757
-0.088081144 -0.055902913 -0.11556839 0.026039265 0.092089266 0.07965317 0.14205904 0.06610296
0.07732644 -0.20990913 -0.18528995 0.091736816 0.034643814 -0.0045457953 -0.14265475 0.07067049
-0.052608375 0.080621205 -0.072689995 -0.024330223 -0.13569346 -0.06661298 -0.1714084 -0.1549487
0.03994739 0.035788424 -0.02119937 -0.09399526 0.07531169 -0.021598114 -0.03941655 0.006460535
0.024251115 -0.07594197 -0.058485284 0.033216327 0.09301339 0.1489694 -0.08756046 0.034628663
-0.01957633 0.003609137 -0.09972618 -0.0068800724 -0.014101031 0.099358276 -0.015600425 -0.12476752
-0.15344381 0.0388344 -0.08396289 -0.011745055 0.08107594 -0.0099879345 -0.14514874 -0.12531042
-0.056692008 0.10110706 0.12035018 -0.17479315 0.02369256 0.08733724 0.0012945058 -0.11051504
-0.12144175 -0.018707512 0.012647065 -0.09669803 -0.018784566 -0.06726421 0.011320265 0.034531515
8.331487e-05 0.13912918 -0.03380439 -0.065367185 -0.030891923 0.016995309 -0.1552435 0.16640261
0.16563223 -0.008359067 -0.17039831 0.0049049016 -0.0060662483 -0.07978928 0.1366284 0.084706716
-0.027032483 0.06617698 0.12772386 0.093207896 0.18666928 -0.10915129 0.032443322 0.018378912
0.029405162 -0.09387573 0.029433826 0.006883172 -0.020956267 -0.120408945 -0.0829073 -0.017834764
0.0121844085 0.14767712 -0.036947183 -0.063818805 0.021530427 0.047346164 -0.07118217 -0.0044939686
0.1235192 -0.06935836 0.118473366 -0.083611555 0.20330785 -0.010233321 -0.035968397 -0.035072714
-0.026287425 -0.1645229 0.04442372 0.07302804 -0.030408965 -0.00016735945 -0.1642022 -0.003396531
0.0131524 -0.10390133 -0.14322777 0.0590817 0.17729895 0.14531879 -0.023677079 -0.039771605
-0.046846945 0.14839491 -0.07106976 -0.088362455 -0.0076410295 0.05367951 -0.058753554 -0.1165014
0.075124025 -0.0037456495 -0.06427482 0.09948417 -0.05222474 -0.025095133 -0.03614607 0.0143441595
0.047686 0.064778104 -0.19080105 -0.07248647 -0.029022824 0.14065559 0.12961905 0.00046795502
0.1259115 -0.018252485 -0.021620315 -0.028663453 -0.011520752 -0.21200593 -0.045864046 0.015553999
0.09649318 -0.014715511 0.071963616 -0.10684275 0.09656251 0.16534092 -0.07581595 0.059665564
0.005724268 -0.04186714 -0.20964113 0.054892033 0.030175338 0.24974234 -0.0030568498 -0.05467875
0.049190357 0.04519021 0.06487371 -0.02758018 -0.08976126 -0.07963021 0.14456977 0.12193769
0.015992414 -0.10297681 -0.14977583 0.13990162 0.18119645 -0.035204645 -0.08532458 0.04297425
-0.037705492 0.09031199 -0.09169396 -0.0041985153 0.022513064 -0.17504352 0.09122962 -0.03658933
0.10693567 -0.12728994 0.056709535 0.07593781 0.09010678 0.21484654 0.054123297 -0.0008387448
-0.12312668 -0.021996913 0.016327592 0.0793738 0.04267391 0.05400983 0.116008125 0.015382278
00000000: 7244 d43d 9e77 8fbd b3ef e73d 53be 5d3c
00000010: ac40 ba3d 0107 76bd 2473 a83c 870f 4eba
00000020: 2874 3abc c4bf 083e 8653 3c3d 2956 3d3d
00000030: be3c 3ebd 8ed1 7c3d e2b0 9e3c 5c73 943c
00000040: ddc6 993a 413c 95bd 39c3 b9bd f80a 833c
00000050: b4db e2bc 2ff3 c03d cf15 f43d 4e56 583d
00000060: e1c8 9abc 2e9c 8abc d8ee 213d 422b ecbc
00000070: 45e9 bd3c 566e dabd 39f4 3d3c c42c 96bd
00000080: e363 b4bd 74fa 64bd 1faf ecbd 4c50 d53c
00000090: 4c99 bc3d 3421 a33d ed77 113e fd60 873d
000000a0: 535d 9e3d 6bf2 56be a6bc 3dbe 83e0 bb3d
000000b0: ace6 0d3d e5f4 94bb 1614 12be b1bb 903d
000000c0: e17b 57bd bb1c a53d 7ede 94bd 2d50 c7bc
000000d0: 3af3 0abe 636c 88bd af85 2fbe dfaa 1ebe
000000e0: e09f 233d e296 123d 4daa adbc 9680 c0bd
000000f0: 043d 9a3d 87ee b0bc 4073 21bd e5b2 d33b
00000100: 46aa c63c 7787 9bbd 448e 6fbd d80d 083d
00000110: ce7d be3d 6f8b 183e e652 b3bd c9d6 0d3d
00000120: 8a5e a0bc 4587 6c3b 3d3d ccbd 3b72 e1bb
00000130: 0308 67bc 5a7c cb3d ed98 7fbc 1d86 ffbd
00000140: 6020 1dbe d210 1f3d bcf4 abbd 556e 40bc
00000150: 240b a63d 6fa4 23bc dfa1 14be 6051 00be
00000160: e135 68bd 3811 cf3d 287a f63d fafc 32be
00000170: e616 c23c dedd b23d 68ac a93a b655 e2bd
00000180: 74b6 f8bd 7f40 99bc a335 4f3c 9e09 c6bd
00000190: 17e2 99bc d1c1 89bd a278 393c eb70 0d3d
000001a0: 55b9 ae38 e177 0e3e 7976 0abd 3bdf 85bd
000001b0: 0f11 fdbc bf39 8b3c 27f8 1ebe 7265 2a3e
000001c0: 7f9b 293e 78f4 08bc e57c 2ebe 4cb9 a03b
000001d0: 61c7 c6bb 9068 a3bd 51e8 0b3e b77a ad3d
000001e0: 3a73 ddbc cc87 873d 0bca 023e c8e3 be3d
000001f0: 3b26 3f3e b68a dfbd 4ae3 043d 5f8f 963c
00000200: 18e3 f03c eb41 c0bd 351f f13c 3b8c e13b
00000210: 7aac abbc f798 f6bd 4dcb a9bd 361a 92bc
00000220: 1da1 473c ac38 173e ee55 17bd 6fb3 82bd
00000230: 9460 b03c 0dee 413d f5c7 91bd 2442 93bb
00000240: a2f7 fc3d c10b 8ebd 2aa2 f23d 893c abbd
00000250: ef2f 503e a9a9 27bc 9953 13bd 68a8 0fbd
00000260: ba58 d7bc b178 28be a6f5 353d ba8f 953d
00000270: 391c f9bc 367d 2fb9 9f24 28be 5698 5ebb
00000280: 2a7d 573c 38ca d4bd 4daa 12be a7ff 713d
00000290: db8d 353e 73ce 143e 6ff6 c1bc 8de7 22bd
000002a0: 95e2 3fbd d6f4 173e 068d 91bd 60f7 b4bd
000002b0: 9a61 fabb 0cdf 5b3d 91a7 70bd 4998 eebd
000002c0: a0da 993d 9279 75bb 84a2 83bd 5bbe cb3d
000002d0: 9ce9 55bd 4f94 cdbc e70d 14bd c403 6b3c
000002e0: 6552 433d 62aa 843d 5a61 43be c973 94bd
000002f0: 46c1 edbc 0508 103e dbba 043e dc57 f539
00000300: f2ee 003e 3c86 95bc 161d b1bc 9ecf eabc
00000310: 89c1 3cbc 1518 59be f0db 3bbd 33d6 7e3c
00000320: 379e c53d 5419 71bc a961 933d 5fd0 dabd
00000330: 91c2 c53d 214f 293e 6545 9bbd e163 743d
00000340: a492 bb3b e17c 2bbd 2aac 56be 78d6 603d
00000350: 4532 f73c 75bc 7f3e 6e55 48bb d3f6 5fbd
00000360: d47b 493d 5f19 393d 82dc 843d d4ef e1bc
00000370: c0d4 b7bd 2a15 a3bd 190a 143e 78ba f93d
00000380: 8602 833c 81e5 d2bd d65e 19be 5f42 0f3e
00000390: 908b 393e bf32 10bd a7be aebd c405 303d
000003a0: 1371 1abd 7ef5 b83d 0bca bbbd b393 89bb
000003b0: 516d b83c 9c3e 33be 98d6 ba3d b1de 15bd
000003c0: 1701 db3d 4b58 02be 4248 683d 4885 9b3d
000003d0: e789 b83d bb00 5c3e 64b0 5d3d 36df 5bba
000003e0: d729 fcbd df32 b4bc 71c1 853c bb8e a23d
000003f0: d6ca 2e3d 6939 5d3d ab95 ed3d f305 7c3c

gconv1.1.A f4 [140, 140]
-0.04092641 0.040208157 0.07709417 0.053820502 0.23335542 -0.06070482 -0.0052321 -0.121481694
-0.12468593 0.037580054 -0.077356346 -0.022151146 0.026347632 0.09033696 -0.0692312 -0.03695985
0.07717365 -0.06228748 -0.115915194 0.039231136 0.002984105 0.08392039 -0.10127501 0.13379371
-0.090750635 0.14172302 -0.014165567 0.025429985 -0.0013287567 0.058002383 0.00024468967 -0.11221576
-0.07302879 0.092070036 0.02692018 -0.10644755 -0.17822091 0.23963332 0.023879018 -0.05817927
0.054742254 -0.08366148 -0.110519655 -0.056650493 -0.0108159995 0.14994963 0.11277001 -0.017711047
-0.08797402 0.0658501 -0.004734396 0.09224628 -0.030607963 -0.0020176996 0.04717602 0.035964858
0.034302678 0.07227015 0.026711196 -0.011164091 0.08550545 0.06758535 0.27340105 0.07958033
-0.08070488 -0.023580797 0.029930882 0.05826323 -0.04325996 -0.073197104 -0.11629068 0.066179335
-0.033430878 -0.06848031 -0.093299314 -0.23097786 0.014929946 -0.042967916 0.09308169 -0.0036184415
0.035504192 0.052298203 -0.09095606 -0.17731899 -0.14172976 0.09284477 -0.08881375 0.074428104
0.06990625 -0.11523722 0.059728164 0.07683481 -0.05642035 -0.043413892 -0.034145635 0.0064118514
0.07397034 0.12640785 -0.17007674 0.020742664 0.062387954 -0.030091053 -0.04184233 0.07563219
-0.048745107 -0.0537263 -0.098061934 0.09571029 -0.097510114 0.039376263 -0.043770667 0.065585695
-0.020523852 -0.07296205 -0.0033462115 0.036498096 -0.09605706 -0.09329472 0.11385313 -0.08288318
-0.012932658 -0.0030669768 0.0590105 0.13085444 -0.21067408 0.028947452 0.051310655 0.0098184
-0.025302175 0.22404978 0.1862091 -0.027184881 -0.121318035 0.0031962402 -0.19238652 0.06391903
-0.17011507 0.04132682 0.0439829 -0.12806657 -0.081020884 -0.008948262 -0.03181317 -0.099155
0.027311577 -0.104853176 0.0010263388 -0.018147703 -0.11538141 -0.10970036 -0.14743918 -0.14577225
0.030155776 -0.052430123 0.15073892 0.045537893 0.08862689 0.09469809 0.039541554 -0.21631253
-0.08417612 0.00999542 -0.14935336 -0.060831968 -0.15112272 0.030491611 -0.09229261 -0.08273412
-0.1737861 -0.032555297 -0.021786822 -0.04357354 -0.05839838 0.019713797 -0.09500356 0.09435116
-0.07192831 -0.05020979 -0.0014043059 0.0064737317 -0.058598835 0.07501568 0.011859354 -0.06028386
0.10039108 0.1130574 -0.047399133 0.119319335 -0.065211155 -0.11677604 -0.06263701 -0.062451165
0.02590044 0.08125353 -0.053466905 0.07853863 0.054133102 0.070019566 -0.13028724 0.122463584
0.04647265 -0.0730131 -0.0112463925 -0.02035157 -0.09592468 0.0065889163 -0.09450971 -0.01234611
0.09228875 0.100991845 -0.0006136511 0.013319581 -0.029929936 -0.11679246 -0.007756502 -0.014158598
-0.12123064 -0.0022749668 0.09329931 0.061014734 -0.06013336 -0.0032199968 0.029563852 -0.033892166
-0.054662522 0.115558736 0.05457476 -0.14639783 -0.12836972 -0.12162023 0.0046573244 -0.012420988
-0.13585545 -0.01536409 0.11205995 -0.07409267 -0.10882051 -0.02814126 -0.12354281 -0.031277798
-0.08480492 -0.08882048 0.051243726 0.040308163 0.1153912 -0.04480785 0.0011163584 0.0035282762
0.07835465 0.00029961567 0.099869475 0.008996301 0.10185333 0.077963606 0.15387923 -0.20543246
00000000: 74a2 27bd 4fb1 243d 8ce3 9d3d e372 5c3d
00000010: b9f4 6e3e 9ea5 78bd 0972 abbb 65cb f8bd
00000020: 565b ffbd 8bed 193d 016d 9ebd 5276 b5bc
00000030: fdd6 d73c 9602 b93d 16c9 8dbd 3663 17bd
00000040: 380d 9e3d 2821 7fbd f264 edbd d4b0 203d
00000050: f990 433b 74de ab3d 4669 cfbd 3801 093e
00000060: 78db b9bd d71f 113e b216 68bc 8b52 d03c
00000070: ad29 aeba e893 6d3d b149 8039 60d1 e5bd
00000080: 1e90 95bd 378f bc3d b687 dc3c 2c01 dabd
00000090: 8b7f 36be 7062 753e ee9d c33c 634d 6ebd
000000a0: 6a39 603d b656 abbd 2158 e2bd 590a 68bd
000000b0: 9735 31bc 658c 193e f7f3 e63d c216 91bc
000000c0: b92b b4bd 6bdc 863d fe22 9bbb 9eeb bc3d
000000d0: 8dbd fabc 623b 04bb a43b 413d e34f 133d
000000e0: f780 0c3d 5f02 943d 70d1 da3c 97e9 36bc
000000f0: 7b1d af3d 306a 8a3d 39fb 8b3e 03fb a23d
00000100: 9a48 a5bd 842c c1bc 9c31 f53c 6da5 6e3d
00000110: 5b31 31bd 5de8 95bd cf29 eebd 0889 873d
00000120: d1ee 08bd 683f 8cbd b613 bfbd 7685 6cbe
00000130: bb9c 743c 20ff 2fbd 9da1 be3d 6023 6dbb
00000140: d86c 113d a436 563d 2c47 babd 1c93 35be
00000150: 9b21 11be 6625 be3d fce3 b5bd c36d 983d
00000160: 022b 8f3d 7e01 ecbd 85a5 743d 925b 9d3d
00000170: 0619 67bd c4d2 31bd 4bdc 0bbd 821a d23b
00000180: c37d 973d 0f71 013e 9928 2ebe 85ec a93c
00000190: 838a 7f3d 8381 f6bc dd62 2bbd 0de5 9a3d
000001a0: f3a8 47bd 1c10 5cbd b2d4 c8bd c203 c43d
000001b0: 62b3 c7bd 0149 213d df48 33bd cb51 863d
000001c0: a321 a8bc 216d 95bd 1d4c 5bbb 077f 153d
000001d0: 90b9 c4bd 4d11 bfbd d42b e93d a8be a9bd
000001e0: 80e3 53bc 55ff 48bb feb4 713d b5fe 053e
000001f0: f2ba 57be 3523 ed3c 1f2b 523d 5bdd 203c
00000200: 8246 cfbc 4e6d 653e 99ad 3e3e d4b2 debc
00000210: 9775 f8bd 0378 513b f900 45be fbe7 823d
00000220: a532 2ebe 5046 293d 6a27 343d e223 03be
00000230: 47ee a5bd bb9b 12bc 874e 02bd c711 cbbd
00000240: 87bc df3c 43bd d6bd 3786 863a 7eaa 94bc
00000250: 174d ecbd 95aa e0bd 4cfa 16be 5245 15be
00000260: 3f09 f73c f8c0 56bd 4e5b 1a3e f185 3a3d
00000270: 0482 b53d 12f1 c13d 53f6 213d 0881 5dbe
00000280: 8864 acbd d5c3 233c 16f0 18be f12a 79bd
00000290: eabf 1abe 8bc9 f93c e803 bdbd 8270 a9bd
000002a0: fcf4 31be b458 05bd 477a b2bc 2b7a 32bd
000002b0: 2433 6fbd d47e a13c 3a91 c2bd 2e3b c13d
000002c0: 264f 93bd c8a8 4dbd b010 b8ba 9921 d43b
000002d0: 5505 70bd d2a1 993d bc4d 423c 35ec 76bd
000002e0: d799 cd3d a38a e73d 9825 42bd b25d f43d
000002f0: 6d8d 85bd 4728 efbd d547 80bd cbcc 7fbd
00000300: 292d d43c 4068 a63d 1d00 5bbd dcd8 a03d
00000310: acba 5d3d 6b66 8f3d 056a 05be 30ce fa3d
00000320: 1b5a 3e3d e487 95bd ca42 38bc 56b8 a6bc
00000330: 2974 c4bd d6e7 d73b 4f8e c1bd 5747 4abc
00000340: e201 bd3d d0d4 ce3d 6edd 20ba 5f3a 5a3c
00000350: a02f f5bc e330 efbd 412a febb 77f9 67bc
00000360: c547 f8bd 9c17 15bb b513 bf3d 96ea 793d
00000370: 664e 76bd 9506 53bb e42f f23c 83d2 0abd
00000380: cfe5 5fbd 0faa ec3d c989 5f3d 50e9 15be
00000390: 5a73 03be 0714 f9bd 789c 983b 6681 4bbc
000003a0: b11d 0bbe aab9 7bbc b07f e53d e6bd 97bd
000003b0: 4add debd 8088 e6bc 0304 fdbd 261d 00bd
000003c0: 34ae adbd 83e7 b5bd f1e4 513d 2c1a 253d
000003d0: 3952 ec3d 7088 37bd c652 923a a73a 673b
000003e0: 6778 a03d bc15 9d39 5e88 cc3d 3965 133c
000003f0: 7b98 d03d 62ab 9f3d 8492 1d3e e35c 52be

gconv1.1.W.weight f4 [140, 140]
-0.042652126 -0.22553225 -0.014777454 -0.07320796 0.026623746 -0.0026733647 0.07795496 0.025403937
0.18784066 0.016985469 -0.027752949 0.012201292 0.15644214 -0.07263156 0.038954817 0.021837005
-0.01832626 0.07773198 -0.032114502 0.08807474 0.1969078 0.028619062 -0.100819066 0.07457856
0.12669413 0.15810461 -0.077727474 0.0010919491 0.11639641 -0.025093377 -0.0028301575 -0.055857
-0.015550328 0.118193895 -0.15535188 0.022146478 0.10810398 -0.004112802 0.08346666 -0.08842163
-0.030143749 0.018703312 0.059429444 0.1381098 -0.038425643 -0.02189654 0.04545944 0.06305409
0.03990075 -0.09042856 -0.094679646 -0.17534669 -0.07150297 0.1040831 -0.051070984 -0.16490015
0.081189066 0.05297698 0.136943 0.017204504 0.107828796 -0.00459282 0.013754573 -0.038163535
0.14744991 0.1154826 0.02674062 0.03681358 -0.044109397 -0.28839326 0.053192154 -0.017351937
0.11634212 0.051269356 -0.03626788 -0.016396647 -0.070157595 -0.049693186 0.03637087 0.07040563
-0.04032009 0.022674015 -0.056516677 -0.0069099506 -0.06885589 0.06284225 0.1005797 0.025707474
-0.051584058 0.14265817 -0.05336231 0.018121213 -0.17459475 0.023709206 -0.011292796 0.039214894
-0.09547993 -0.06320392 -0.052633822 -0.0505492 0.10424733 -0.05129201 -0.0075938865 0.061840948
0.09131618 0.11651538 0.0013082112 0.078700066 0.0677977 -0.13193372 -0.012416654 -0.023623886
-0.013462034 -0.0950791 0.04386553 -0.098450206 0.08139927 0.03237849 -0.14858703 0.014860215
-0.07608315 -0.077446856 0.113542244 -0.09108858 0.030247688 0.074254826 -0.040939175 -0.043073546
0.079354815 -0.13030139 -0.027184084 0.04301774 0.08192218 -0.17503873 -0.018935502 -0.11559341
-0.13522534 -0.10264626 -0.059846774 0.084181346 -0.051558577 0.10225392 0.02282503 0.08390764
-0.045690816 0.019451428 -0.0027497003 0.095249355 -0.004845758 -0.0966327 0.19793606 0.075583935
-0.07034508 0.05838255 0.105579 -0.0024547575 0.09675764 0.07015131 0.019704122 0.04059783
-0.11050877 0.0033394718 -0.05153637 0.12077079 0.11974894 -0.03366792 0.034162104 0.003774961
0.040882327 -0.027041202 -0.080749705 -0.019164942 -0.002473119 0.04980261 -0.06357933 0.0019909556
-0.09687911 -0.036004867 0.029252889 -0.08166633 0.029824508 -0.04150383 -0.020280907 -0.017087767
-0.13632017 0.1323709 -0.12389232 -0.059570666 0.08685408 -0.0029622577 0.13125044 0.06398843
0.0396911 -0.15652874 -0.044337563 -0.052179858 -0.04369693 -0.045108397 -0.06517454 0.09334635
-0.04936538 0.033928987 0.061897304 -0.054103747 -0.16838767 -0.11110921 0.020509608 -0.22390378
-0.13038285 -0.09793991 0.08093266 0.0013873224 0.011947205 -0.006866851 0.051272422 -0.014495592
0.062689096 0.022801246 0.043475013 0.0657586 0.1184179 0.03966515 -0.027709486 0.01756916
0.0012029522 -0.022128697 -0.047862273 0.12140057 0.074831516 -0.01985591 -0.09063709 0.037863195
-0.061339363 -0.065695316 0.12771134 0.024440745 0.012009446 0.012776123 -0.05754175 -0.07206255
-0.10497244 -0.040721405 -0.06414768 0.09190097 0.03648745 -0.053057816 0.013610595 0.026791608
0.02617445 -0.052155375 0.22064145 0.056090437 -0.15642962 -0.023329318 -0.04195493 -0.093105026
00000000: ffb3 2ebd edf1 66be 221d 72bc 0eee 95bd
00000010: 0b1a da3c 9e33 2fbb daa6 9f3d eb1b d03c
00000020: 4d59 403e 1c25 8b3c 275a e3bc eee7 473c
00000030: 5e32 203e dbbf 94bd 168f 1f3d 85e3 b23c
00000040: f420 96bc f231 9f3d 7f8a 03bd 8760 b43d
00000050: 33a2 493e 8672 ea3c 3a7a cebd a5bc 983d
00000060: 1bbc 013e 2de6 213e 952f 9fbd bb1f 8f3a
00000070: 3e61 ee3d a090 cdbc 2a7a 39bb 4fca 64bd
00000080: cec6 7ebc a40f f23d 9014 1fbe 886c b53c
00000090: 9f65 dd3d afc4 86bb 91f0 aa3d 6616 b5bd
000000a0: 06f0 f6bc b037 993c 4a6c 733d a86c 0d3e
000000b0: 3564 1dbd 5f60 b3bc ae33 3a3d 8122 813d
000000c0: f86e 233d 9c32 b9bd 67e7 c1bd 158e 33be
000000d0: 2670 92bd 8529 d53d cf2f 51bd 96db 28be
000000e0: 7446 a63d 64fe 583d c93a 0c3e 76f0 8c3c
000000f0: 58d5 dc3d 5e7f 96bb dc5a 613c 5e51 1cbd
00000100: 1cfd 163e 2482 ec3d 250f db3c d6c9 163d
00000110: 0eac 34bd 48a8 93be 04e0 593d a625 8ebc
00000120: c744 ee3d d1ff 513d a18d 14bd 4352 86bc
00000130: c9ae 8fbd 158b 4bbd 9ff9 143d d430 903d
00000140: ae26 25bd dbbe b93c 087e 67bd de6c e2bb
00000150: 5104 8dbd 70b3 803d bbfc cd3d 7b98 d23c
00000160: ce49 53bd fc14 123e 7092 5abd f072 943c
00000170: f7c8 32be cf39 c23c 6b05 39bc cc9f 203d
00000180: fb8a c3bd 0f71 81bd 9096 57bd ae0c 4fbd
00000190: a07f d53d 9217 52bd 23d6 f8bb ef4c 7d3d
000001a0: fa03 bb3d 9e9f ee3d 4978 ab3a 802d a13d
000001b0: 85d9 8a3d a219 07be 396f 4bbc e186 c1bc
000001c0: dd8f 5cbc d5b8 c2bd 58ac 333d 43a0 c9bd
000001d0: a9b4 a63d 4f9f 043d 3327 18be 4278 733c
000001e0: 7cd1 9bbd 759c 9ebd d688 e83d a68c babd
000001f0: 00ca f73c ea12 983d d6af 27bd e36d 30bd
00000200: c784 a23d ba6d 05be 28b1 debc 5f33 303d
00000210: d1c6 a73d 5a3d 33be a01e 9bbc 3dbc ecbd
00000220: 8378 0abe 3438 d2bd e421 75bd 4567 ac3d
00000230: 162f 53bd 816a d13d 8ffb ba3c c5d7 ab3d
00000240: 4b26 3bbd 9a58 9f3c 5134 34bb 1812 c33d
00000250: 2ac9 9ebb 5de7 c5bd c0af 4a3e c0cb 9a3d
00000260: 1511 90bd 8a22 6f3d ce39 d83d ffdf 20bb
00000270: df28 c63d 7dab 8f3d 8a6a a13c e949 263d
00000280: 6c52 e2bd 0adb 5a3b cd17 53bd ad56 f73d
00000290: ef3e f53d 5fe7 09bd 90ed 0b3d 5665 773b
000002a0: 3a74 273d 8385 ddbc 1a60 a5bd ccff 9cbc
000002b0: 0d14 22bb d2fd 4b3d e135 82bd b17a 023b
000002c0: 8e68 c6bd d779 13bd c1a3 ef3c ad40 a7bd
000002d0: 8752 f43c ecff 29bd 2524 a6bc a5fb 8bbc
000002e0: 8497 0bbe 3d8c 073e 42bb fdbd 5f00 74bd
000002f0: 8de0 b13d 7022 42bb 8466 063e 5e0c 833d
00000300: 2393 223d 1249 20be 4e9b 35bd 8cba 55bd
00000310: 8dfb 32bd 95c3 38bd 3b7a 85bd 5f2c bf3d
00000320: 5a33 4abd 1ff9 0a3d 0788 7d3d e49b 5dbd
00000330: d16d 2cbe 3a8d e3bd c403 a83c 0847 65be
00000340: 1583 05be b894 c8bd 06c0 a53d d1d6 b53a
00000350: 36be 433c 5203 e1bb 0803 523d eb7e 6dbc
00000360: 2463 803d aec9 ba3c db12 323d 72ac 863d
00000370: 1585 f23d ed77 223d 01ff e2bc 33ed 8f3c
00000380: 61ac 9d3a 3e47 b5bc 3b0b 44bd dda0 f83d
00000390: 4441 993d dda8 a2bc f09f b9bd 7016 1b3d
000003a0: fc3e 7bbd 448b 86bd c3c6 023e f537 c83c
000003b0: 44c3 443c f252 513c e6b0 6bbd 8895 93bd
000003c0: cafb d6bd 7dcb 26bd dc5f 83bd 9336 bc3d
000003d0: dd73 153d 2753 59bd f9fe 5e3c 137a db3c
000003e0: cd6b d63c e0a0 55bd d5ef 613e 16bf 653d
000003f0: 162f 20be 201d bfbc efd8 2bbd d9ad bebd

gconv1.1.W.bias f4 [140]
0.08594538 0.09341627 0.09390667 -0.06296176 0.012218386 -0.02291397 -0.05940505 0.053717934
-0.07998413 -0.028112335 0.035755515 -0.04246664 0.007448582 -0.03684305 -0.0023671142 0.08865227
0.07044982 0.08377836 -0.02232597 -0.06482359 -0.08556198 -0.0413749 0.080363296 0.0044421516
0.048427902 -0.07148966 -0.0136702815 -0.055503182 -0.03187836 -0.00047425038 -0.052571207 0.0788222
0.09440293 -0.06581606 -0.0058581126 0.038907856 -0.061965566 0.10575841 0.05649621 -0.06333954
0.088994205 -0.073769726 -0.014073511 0.0066047567 -0.025169363 -0.010281749 -0.06476965 0.054982364
0.0047860197 -0.021214563 -0.05753338 -0.050178453 0.07628324 -0.036292464 -0.010175723 0.050975233
0.12124524 -0.030396154 -0.08191297 -0.07674272 0.015046501 0.05261403 0.001514929 -0.046624906
-0.05225965 -0.052708365 0.09342704 -0.017332599 0.015872277 0.12467227 -0.05583215 0.06405908
-0.032694392 0.0060018203 -0.020992659 -0.0034256182 0.08700563 0.03104832 0.0663971 -0.0016218221
-0.003814878 -0.07293343 -0.03303263 -0.025975661 0.047162585 -0.025987163 0.087220125 0.10964081
0.1068024 -0.017327167 0.09469494 -0.005230106 -0.05193226 -0.038416512 -0.048478574 0.0010081645
-0.02114696 0.034826048 -0.06596418 -0.0058801407 0.07220888 -0.07956689 0.05057702 0.10577573
-0.05952348 0.06000247 -0.046828907 0.07862879 0.051438693 -0.08607522 -0.028813208 0.008307198
-0.030253222 0.058282718 -0.033117853 0.06356269 -0.05530548 -0.065217674 -0.07171477 -0.008773298
0.054991256 0.08046867 0.03474032 -0.027069425 0.08766758 0.065550186 0.057198495 -0.009018389
0.087543905 0.066841245 0.05877647 -0.043078855 -0.040328942 0.02915065 -0.009286975 0.016071698
0.037261456 -0.029208913 -0.013491991 0.0034761953
00000000: 2204 b03d 0851 bf3d 2452 c03d 18f2 80bd
00000010: a02f 483c 14b6 bbbc b652 73bd 5607 5c3d
00000020: b8ce a3bd d74b e6bc 6074 123d 80f1 2dbd
00000030: 3c13 f43b bde8 16bd 9621 1bbb 528f b53d
00000040: ff47 903d fd93 ab3d f4e4 b6bc 3bc2 84bd
00000050: 1f3b afbd ba78 29bd 8395 a43d 788f 913b
00000060: 565c 463d 2c69 92bd 51f9 5fbc 4e57 63bd
00000070: e292 02bd cfa4 f8b9 e854 57bd 896d a13d
00000080: 5356 c13d 92ca 86bd 69f5 bfbb d85d 1f3d
00000090: 9bcf 7dbd de97 d83d 9268 673d 29b8 81bd
000000a0: 9842 b63d 9514 97bd 9594 66bc b76c d83b
000000b0: fb2f cebc c874 28bc f3a5 84bd 3035 613d
000000c0: 0bd4 9c3b 2aca adbc 1fa8 6bbd ec87 4dbd
000000d0: 633a 9c3d 68a7 14bd 13b8 26bc 68cb 503d
000000e0: 6d4f f83d 5b01 f9bc fdc1 a7bd 4a2b 9dbd
000000f0: 9985 763c cf81 573d 9590 c63a c2f9 3ebd
00000100: 370e 56bd bae4 57bd ad56 bf3d 18fd 8dbc
00000110: 9406 823c 2d54 ff3d 41b0 64bd 6831 833d
00000120: 8eea 05bd ebaa c43b ccf8 abbc 5680 60bb
00000130: 0230 b23d 0c59 fe3c 34fb 873d 5293 d4ba
00000140: 0803 7abb 1f5e 95bd 394d 07bd e9ca d4bc
00000150: 8e2d 413d 08e3 d4bc 77a0 b23d 5c8b e03d
00000160: 37bb da3d b4f1 8dbc 6cef c13d 4f61 abbb
00000170: ecb6 54bd a25a 1dbd 7891 46bd 6324 843a
00000180: 643c adbc c2a5 0e3d 3a18 87bd 32ae c0bb
00000190: 40e2 933d f7f3 a2bd d929 4f3d f2a0 d83d
000001a0: e4ce 73bd 26c5 753d abcf 3fbd 2208 a13d
000001b0: 61b1 523d 3448 b0bd ad09 ecbc ea1a 083c
000001c0: 9bd5 f7bc dcb9 6e3d 96a6 07bd 282d 823d
000001d0: 0088 62bd d890 85bd 31df 92bd e1bd 0fbc
000001e0: 833e 613d c2cc a43d de4b 0e3d b3c0 ddbc
000001f0: 0f8b b33d 2d3f 863d f848 6a3d ddc1 13bc
00000200: 384a b33d 10e4 883d 99bf 703d 7473 30bd
00000210: f62f 25bd 58cd ee3c 6528 18bc cba8 833c
00000220: 789f 183d 8847 efbc 830d 5dbc e1d0 633b

gconv1.1.gate.weight f4 [1, 280]
-0.0003241184 0.04330971 0.13959634 0.079169415 -0.0357216 0.054002754 -0.1107871 0.05262255
-0.02038791 -0.022606097 -0.15771538 0.08654798 -0.09069421 0.006006814 -0.08394866 0.0916847
-0.077736095 0.019285731 -0.036930412 -0.115828 -0.061172787 0.0152990995 -0.18194623 -0.015367575
-0.24739477 -0.12344648 0.005145 -0.09310809 -0.06566105 -0.0011199218 -0.019226497 -0.07868366
-0.0115359975 0.113962576 0.06951421 -0.08245662 -0.12273807 0.08453509 -0.028281463 0.051102713
0.12823881 0.009630393 -0.038353126 -0.032782953 0.020556832 -0.028433064 0.049391966 -0.048991702
-0.05254887 -0.06255698 0.07117019 -0.06829017 0.16209587 -0.16803113 -0.094799794 -0.046227783
-0.025638927 -0.026057474 0.08105632 0.03784318 -0.1570932 -0.02928659 -0.12001546 0.0042819786
0.026200926 -0.10721317 0.11753587 0.11114705 0.008926877 -0.0079062 -0.11224122 -0.14767644
0.051551048 0.14121602 -0.047593907 0.035974003 -0.21178737 0.20834044 0.10521685 0.13970776
0.062532835 0.03859667 0.02756358 -0.10193208 -0.013341148 0.017997198 -0.020867186 -0.16577783
0.05102179 0.037406206 -0.021707173 0.10058309 0.0014269137 0.030857692 0.033270374 -0.09234122
0.01130259 0.043684896 -0.063648395 -0.056823786 -0.010619047 0.033788532 0.08511778 0.060300063
-0.07982711 -0.1905234 -0.0245936 0.028213698 -0.04405803 -0.03298342 -0.0069121583 -0.004139273
-0.10060943 -0.07248687 -0.016257904 0.021396937 0.05898612 0.03236086 0.0056761634 -0.09874031
0.0019867532 -0.13062817 0.022213351 0.03167848 -0.013039881 0.123660095 0.05747368 0.017854897
0.120995544 -0.09417741 0.090658806 -0.06428155 -0.09212187 -0.09274972 0.052751347 0.068033904
0.11056556 0.024601117 0.03690862 0.15504935 -0.08018284 0.06428989 0.012282566 -0.019894635
0.042939015 -0.06291197 -0.13066302 -0.03768662 0.04588212 -0.05197416 -0.020471346 0.19579677
0.08272512 0.037287824 -0.038701903 -0.12476725 0.052347347 -0.029253956 -0.13724141 0.0042933566
-0.05592252 -0.07888461 -0.13910136 0.046741035 -0.120211825 -0.05575031 -0.06721398 -0.13068677
0.056146253 -0.09021796 -0.017501514 0.010021176 0.030993598 0.07067806 0.20278451 -0.07270513
0.052864928 0.019411705 0.043619033 0.0452927 -0.034548346 -0.009181278 0.1699566 0.09448372
-0.04230463 -0.11056861 -0.049507923 0.13840275 0.08440657 0.15269606 -0.1184092 0.17671502
-0.043649968 -0.048466466 -0.10331165 0.1442742 0.040738493 -0.112013295 -0.1480422 0.072061785
-0.046703186 0.06649935 -0.017626885 -0.0014848411 0.15211022 0.05617964 0.059482194 0.04690691
-0.09996101 0.010655309 0.00095687003 0.050859258 0.06842717 0.06912037 -0.04349489 -0.0014901087
0.01684083 -0.13420159 -0.11359705 -0.022392012 0.0048367404 0.069478534 -0.024287837 -0.0037697644
0.010988205 0.15185325 -0.009958308 -0.06465226 -0.13738304 -0.114273764 0.058531087 0.11957594
-0.04147289 0.1800389 -0.053974345 0.09502602 0.023306362 0.012113047 -0.17561883 -0.019115401
-0.09133695 0.04596782 -0.023647487 -0.20377925 0.007263477 -0.099574655 0.14398609 0.025201607
0.078656584 0.117025375 -0.023894161 -0.016226456 -0.08229581 -0.089621484 0.061324004 -0.022780046
00000000: 6fee a9b9 8665 313d 58f2 0e3e 9323 a23d
00000010: d050 12bd fe31 5d3d 59e4 e2bd be8a 573d
00000020: 8c04 a7bc 6c30 b9bc 2480 21be 1140 b13d
00000030: e3bd b9bd cfd4 c43b 46ed abbd 30c5 bb3d
00000040: 1a34 9fbd 1cfd 9d3c 5844 17bd 3b37 edbd
00000050: 5190 7abd 13a9 7a3c 1d50 3abe 48c8 7bbc
00000060: 0e55 7dbe 82d1 fcbd 6397 a83b 74af bebd
00000070: 4d79 86bd 57ca 92ba e380 9dbc e624 a1bd
00000080: 7b01 3dbc 3665 e93d 775d 8e3d 04df a8bd
00000090: 195e fbbd bc20 ad3d 87ae e7bc 1451 513d
000000a0: 0951 033e ccc8 1d3c 2b18 1dbd 6b47 06bd
000000b0: cd66 a83c 75ec e8bc 3b4f 4a3d 86ab 48bd
000000c0: 7c3d 57bd e01d 80bd adc1 913d b7db 8bbd
000000d0: 76fc 253e 5a10 2cbe 6526 c2bd 5859 3dbd
000000e0: ba08 d2bc 7c76 d5bc db00 a63d 7301 1b3d
000000f0: 0add 20be 6eea efbc aaca f5bd d74f 8c3b
00000100: 53a3 d63c 9492 dbbd a5b6 f03d 11a1 e33d
00000110: 0942 123c 0289 01bc bade e5bd 7e38 17be
00000120: 3127 533d ef9a 103e d4f1 42bd 7a59 133d
00000130: cade 58be 3257 553e ef7b d73d 8d0f 0f3e
00000140: 3711 803d 8b17 1e3d 04cd e13c c4c1 d0bd
00000150: d594 5abc dc6e 933c a9f1 aabc aac1 29be
00000160: 39fc 503d 4037 193d 3ed3 b1bc 82fe cd3d
00000170: 4707 bb3a 45c9 fc3c 8446 083d 651d bdbd
00000180: 802e 393c efee 323d 175a 82bd 0fc0 68bd
00000190: 83fb 2dbc d865 0a3d 3b52 ae3d 33fd 763d
000001a0: 657c a3bd 9118 43be 8478 c9bc 6a20 e73c
000001b0: 3176 34bd 9f19 07bd 637f e2bb bda2 87bb
000001c0: 510c cebd ff73 94bd 4c2f 85bc a148 af3c
000001d0: 6e9b 713d d28c 043d 1cff b93b 5c38 cabd
000001e0: 3034 023b 64c3 05be c6f8 b53c 4bc1 013d
000001f0: 3aa5 55bc 8141 fd3d 8569 6b3d 6f44 923c
00000200: 83cc f73d 16e0 c0bd 53ab b93d 0ca6 83bd
00000210: 64aa bcbd 91f3 bdbd cc11 583d 5c55 8b3d
00000220: 3270 e23d 4888 c93c 7e2d 173d 42c5 1e3e
00000230: e736 a4bd 6baa 833d d13c 493c 13fa a2bc
00000240: d2e0 2f3d fed7 80bd 87cc 05be 495d 1abd
00000250: e4ee 3b3d dbe2 54bd 86b3 a7bc f37e 483e
00000260: ca6b a93d 1ebb 183d e385 1ebd f985 ffbd
00000270: 2c6a 563d fea5 efbc 0389 0cbe 49af 8c3b
00000280: 030f 65bd 418e a1bd 9670 0ebe 8773 3f3d
00000290: 9e31 f6bd 705a 64bd 7ca7 89bd c1d2 05be
000002a0: 9df9 653d 32c4 b8bd 565f 8fbc dc2f 243c
000002b0: 49e6 fd3c a9bf 903d bea6 4f3e 6de6 94bd
000002c0: e588 583d 4c05 9f3c dfa9 323d d784 393d
000002d0: 9182 0dbd 126d 16bc 1a09 2e3e ae80 c13d
000002e0: 9f47 2dbd cc71 e2bd d2c8 4abd 73b9 0d3e
000002f0: 5add ac3d 5b5c 1c3e 8680 f2bd c8f4 343e
00000300: 4fca 32bd c684 46bd 0f95 d3bd 9ebc 133e
00000310: 68dd 263d 3a67 e5bd 6098 17be 2195 933d
00000320: d74b 3fbd d030 883d 4266 90bc 009f c2ba
00000330: c8c2 1b3e 9f1c 663d 9aa3 733d 7621 403d
00000340: 5cb8 ccbd 9b93 2e3c 76d6 7a3a cc51 503d
00000350: 8b23 8c3d fb8e 8d3d b327 32bd c04f c3ba
00000360: c8f5 893c 246c 09be 92a5 e8bd 746f b7bc
00000370: 857d 9e3b c34a 8e3d 49f7 c6bc 270e 77bb
00000380: df07 343c 6b7f 1b3e 2c28 23bc 6768 84bd
00000390: 24ae 0cbe 5d08 eabd 4bbe 6f3d 3be4 f43d
000003a0: 7adf 29bd 1e5c 383e 3414 5dbd 019d c23d
000003b0: fcec be3c cd75 463c 6cd5 33be e797 9cbc
000003c0: de0e bbbd c148 3c3d 60b8 c1bc 82ab 50be
000003d0: 7602 ee3b cced cbbd 1771 133e 9a73 ce3c
000003e0: b416 a13d 00ab ef3d b0bd c3bc 58ed 84bc
000003f0: b58a a8bd 788b b7bd e12e 7b3d 389d babc
