save/best_new_opt12_0.813.pt (torch, 957832 bytes, 24 tensors)

gconv1.0.A f4 [140, 140]
00000000: 7aaa 153d 0555 ecbd 0c5c 063e 5ffa 023e
00000010: c046 45bd 2cd6 ad3c 78fc 2c3c bfb7 d9bc
00000020: 5dd6 873d 0b9f 663c 4651 053d dc30 c13d
00000030: f840 a93d 64d9 783d 11e2 d33c ed66 dc3d
00000040: 5df9 bdbd d7e2 cbbc 90cf f7bb d379 8c3d
00000050: 0acb 3c3d d527 90bd b476 c4bc f971 bd3d
00000060: afab e6bd 41e2 5c3d ed24 a7bc 4a3d 7dbd
00000070: ed97 823d 06df 083e c28c aa3d 7752 ccbd
00000080: c21b 1dbe 09d6 9fbd 42ec 09be 4966 053e
00000090: 4126 56bd 2b4a b4bd 556d a23d 6039 7c3d
000000a0: a53a c8bc 428e abbd e160 263d b00d fdbd
000000b0: fb78 c63c 9947 8ebd 4a88 913c daeb d33c
000000c0: 908b a6bd e866 323c 24df e9bd 027a 17be
000000d0: 7394 a7bc dac8 253a 99ef c7bc 77c4 243e
000000e0: e9e5 3f3d 56fa 443d 8f41 f7bc 5c1d 18bc
000000f0: bbce df3d 6dd7 04be bc10 5f3e 386f 6b3d
00000100: 2217 9ebd 8650 773a 722a 0abd 286d c43b
00000110: 7580 93bd adcd ba3d e507 1abe 688a 3e3d
00000120: 424b 3b3d db97 2a3d e3f9 55bd d582 063c
00000130: 012e 6abd b65c b83c c574 59bc 08f9 833d
00000140: 20c7 59bd 3a7a f73d e9a3 f8bc 7a1e 8dbd
00000150: ba28 4bbc 5866 a5bd 1feb 9fbc d685 143e
00000160: f790 123e 6fa8 63bd 8f8b 123e da33 b4bd
00000170: dad2 a4bd 2b86 85bd a70c 143e 534a e23d
00000180: 432e ae3d f868 6f3d 5f45 d6bb ec09 ba3d
00000190: a6d8 96bd 48bd b33c 6b10 20be 33dd 42ba
000001a0: ba5b 90bc cc6f 853c bb6e b7bc 2ec8 48ba
000001b0: d23f 37be 0b1f 9c3d 7bf0 0e3d da61 edbd
000001c0: c8d8 ccbd 20a1 0d3d 64f9 923c 77b6 ccbd
000001d0: cfed 9fbd ba6e 80bd e59c 72bd 91c5 d0bc
000001e0: 11f8 5fbd d5ab 533d d214 df3d 6897 24be
000001f0: 57ea bc3d c8d5 8bbd 31fa 8b3d 2f96 6bbd
00000200: ed1e 07be 97a7 08bd 8bcb 31bd ec3e 9dbd
00000210: 8f8d dabd 3442 14bd 1130 70bd c12b 21bd
00000220: 96de b9bb 9509 063e 5d53 ff3d 4d5f b13d
00000230: 2c94 1abd 1bd9 b63d 111d 27be 0ce7 303d
00000240: 27bb 003e 3871 d73d 0906 5a3d 2d96 953d
00000250: cd4a 93bd 1086 a63b 0510 083e 7d34 a9bc
00000260: 7a03 35bd 1e27 7c3d 2a38 2b3b 6312 a0bc
00000270: 88ca e43d f0fe b7bd cfeb 88bd c273 41bd
00000280: 81c9 673d eb82 de3c 2cfa 063e 98ac 0c3d
00000290: 26df 573b fd5b acbc 5b1b f1bd e2c7 e63c
000002a0: 9ffe 10bd bfa8 eb3d fe0a 09bc e560 bdbc
000002b0: 5bed 27bd 7275 c3bd cba4 99bd cae9 a6ba
000002c0: 3642 cbbd 4782 84bd c905 1c3e a7d4 60bd
000002d0: 2acf c3bd fb44 083e 133a 863d 2713 073d
000002e0: 2671 89bc 48ee 553d 7ff2 49bd 9a85 aebd
000002f0: fc2c 563d fe01 85bd ca47 b5bd 6b13 eabd
00000300: 07e8 c13b 3f0d 11bd 2f47 733d 72b0 2e3d
00000310: 356d 29be f57a 693e 69ee e4bc e2a7 4fbb
00000320: 501b 94bc 62b3 57bb fa0f 113e 7460 373e
00000330: feeb b4bc ce8f 7e3d 243d 31bd 795c 0c3d
00000340: 60b8 b93d 3047 0c3e 855c 13be a022 b9bc
00000350: d348 c1bc bc78 8a3d 3224 233d 77c6 f2bc
00000360: 7d4e 4dbe 4b56 3e3d fd72 3a3d c98d 2dbd
00000370: 200b cfbd 250a edbc aa79 52bd 4c4c b13d
00000380: da5e 9abd abe5 febd 4a2f 81bd ba6e e13c
00000390: 4447 52bd e60c 463b ba38 c9bc 5293 5cbc
000003a0: 10e4 11bc 3626 443c c16f 973d 5c22 0c3d
000003b0: 2ed1 dabd 3a93 74bd ba29 35be 8620 afbc
000003c0: c75a 10bd 701c 7abd 14d0 17be ec12 52bd
000003d0: b5ab 0dbe 8f62 a7bd fd98 b3bd 0440 a83c
000003e0: 5b63 8e3b 6d91 95bc e895 28be 6ce7 603d
000003f0: 0442 e33b 8f93 e23c a1b3 213e 0eda 203d
0.036539532 -0.11539654 0.1312105 0.12790821 -0.048163176 0.02122029 0.01055824 -0.026576875
0.066326834 0.014076005 0.03254821 0.09433147 0.08264345 0.060754195 0.025864633 0.10761819
-0.09276078 -0.02488844 -0.007562585 0.068591736 0.04609207 -0.07038847 -0.023982383 0.09250254
-0.11263215 0.05392671 -0.02040335 -0.061826028 0.06376634 0.13366327 0.08327629 -0.099766664
-0.1534262 -0.07804496 -0.13469031 0.130273 -0.052282576 -0.08803209 0.0793101 0.061578155
-0.024442026 -0.08376743 0.040619735 -0.12356126 0.02422761 -0.0694725 0.017765183 0.025869299
-0.08132088 0.010888793 -0.11419514 -0.14792636 -0.020456528 0.00063241797 -0.024406241 0.1609057
0.04685012 0.0480903 -0.030182628 -0.009284344 0.109281026 -0.12972803 0.21783727 0.057479113
-0.07719256 0.0009434301 -0.033731885 0.0059944578 -0.072022356 0.09121261 -0.15042074 0.046518713
0.04572607 0.041648727 -0.052240264 0.008209904 -0.05717278 0.022505146 -0.013272469 0.06443983
-0.053168416 0.1208386 -0.030351596 -0.068905786 -0.012399847 -0.08076161 -0.019521294 0.1450418
0.14313112 -0.055580553 0.1431105 -0.087989524 -0.08048029 -0.06519731 0.14457951 0.110493325
0.085049175 0.058449715 -0.0065390314 0.09083924 -0.07365541 0.021940842 -0.15631263 -0.0007433474
-0.017621864 0.01628866 -0.022391668 -0.00076592236 -0.1789544 0.076231085 0.03489731 -0.11590929
-0.10002285 0.03457749 0.017941184 -0.0999574 -0.0780903 -0.062711194 -0.059231658 -0.025484832
-0.054679934 0.051677544 0.10892643 -0.16073382 0.09224384 -0.06827885 0.068348296 -0.057516273
-0.13195391 -0.03336295 -0.043407004 -0.07678017 -0.106715314 -0.03619595 -0.05863959 -0.039348368
-0.0056722863 0.13089593 0.12467072 0.08660755 -0.037738964 0.08928128 -0.16319682 0.043189093
0.12571393 0.10519642 0.05322841 0.073040344 -0.071920015 0.0050818995 0.13287361 -0.020654911
-0.04419277 0.061560743 0.0026126006 -0.019540017 0.11171442 -0.08984172 -0.06685602 -0.047229536
0.056588653 0.027162036 0.1318137 0.034344286 0.0032939403 -0.021039957 -0.11772796 0.028171483
-0.035399076 0.11506795 -0.008364437 -0.023117492 -0.040997844 -0.09543885 -0.07502135 -0.001273447
-0.09924738 -0.06470161 0.15236582 -0.0548903 -0.09560998 0.13307564 0.065540455 0.03297725
-0.016777586 0.052229196 -0.049303528 -0.08521576 0.052288994 -0.064945206 -0.08851583 -0.11429485
0.0059175524 -0.035413023 0.059394058 0.04264874 -0.16545565 0.2280081 -0.027945714 -0.003168576
-0.01807943 -0.0032913317 0.14166251 0.17907888 -0.022085186 0.06214886 -0.0432712 0.034267876
0.0906837 0.13699031 -0.14390762 -0.022599518 -0.023594296 0.067613095 0.03982944 -0.029635651
-0.20049472 0.046469014 0.045519818 -0.042371545 -0.10109544 -0.028935501 -0.05138556 0.086571306
-0.07537623 -0.124461494 -0.06307848 0.027518619 -0.051337495 0.003022009 -0.024563182 -0.013462858
-0.008904472 0.011972001 0.07394362 0.034212455 -0.10684429 -0.05971072 -0.17691699 -0.021377813
-0.035242822 -0.061062276 -0.1482547 -0.051287577 -0.13835032 -0.081730954 -0.087694146 0.020538338
0.00434534 -0.018257821 -0.16463435 0.0549082 0.00693536 0.027658252 0.15791179 0.039270453

gconv1.0.W.weight f4 [140, 140]
00000000: 063a 4ebd 9431 07be c9e7 643d d25b bb3c
00000010: 72de f13a d982 1b3e 7168 0bbe 622f 963d
00000020: 9f05 923d 3d5c 9dbc de7f 61bb 0cd1 e6bd
00000030: 4a49 b13d 2fe7 1d3d 3cc1 943d 5aaa 123d
00000040: c965 b9bd ba28 533d 3096 9d3c e63a a63d
00000050: ace6 a5bd 2960 a53d b8b8 68be a69c d6bd
00000060: 14d7 453c 33aa 82bc 00ff 133d b029 3b3d
00000070: 40c5 f53d 52a1 2d3d f2d1 113e ebb6 483d
00000080: c0a6 a93d db50 283c 43bb 0cbd ee25 663d
00000090: dfc6 dabc bdf8 3d3e 00bd 4f3e 565d f83c
000000a0: 69b6 43bd 9330 5f3c 864a a73d 5a07 253c
000000b0: 6ed6 04bd 90d9 95bd 05e2 933d 9339 44bd
000000c0: 78eb ff3c b16b 14bd b37c 0dbe 0534 163d
000000d0: dad6 1cbc c5ee f2bc 3965 adbd 3d2e 4cbd
000000e0: 8953 823c f44d c2ba 43d2 2e3e c651 353d
000000f0: 0861 613d 35b5 a93d 7c04 603c fc78 6c3d
00000100: 268f 893d 5722 c8bb 6a30 d9bc 96ea 433d
00000110: a133 a5bd cf8e b83d 96b0 2abe 805c d0bd
00000120: 6ddc 163e a2a9 823d e2ff c8bd 1225 e3bc
00000130: a89c abbd 4115 e7bb b3fd ce3d d46e 36bd
00000140: 83bc 1c3d 1bd3 1abd 150a f3bc 595b c23c
00000150: a342 253d 8e00 46be 7f88 183e e99a c8bd
00000160: c389 babc 3911 b6bc a2c8 433e 9e52 473d
00000170: c39e 713e a009 32bd 8871 bd3d 8719 413c
00000180: e801 a4bd bc1e 51bd 91c8 1ebe 14a8 5ebd
00000190: 2685 a23d fced 00be 556a fc3b 40e5 15be
000001a0: c718 453d 92da fbbd 0e46 c93d cbbf 973c
000001b0: 41b8 afbd ce1c d7bc 64aa 713d b3b4 9a3c
000001c0: a8b1 02bc 2976 483d d090 6c3d 4601 183e
000001d0: 18ac ad3d 26d6 6b3c 8a2e 07be 6f73 b93d
000001e0: 6788 91bd 2ddc b53d 4e22 093e f2e3 cd3d
000001f0: 2cbc b83d 887d cfbc 21aa c23d 0767 7dbd
00000200: 02ac 893c b95f d03c 47d3 aabd 90d2 913d
00000210: 5ca2 773d 0c9e 153d f39c 5ebe b500 1d3e
00000220: 8bc0 a53b f98b b4bd b056 8c3d 3fc7 073c
00000230: 8982 5dbd 26d9 55bd bf0f 563d 8986 a93d
00000240: 1519 533e 7ecd c23c 15ea 353e 17e9 313d
00000250: 511b 0cbd ca43 a03d dc62 3abd ee32 07bd
00000260: c12d 763d 2f1f 7abd 9a66 13bd a67b e33d
00000270: 7b5f f2bd 9d6e 1abd 3f1d 85bd bf85 a4bd
00000280: 90d2 40bd d094 c33b d5bd 35bd a387 f5bd
00000290: 986e bdbd faff 343a 84af 873d 5467 02bd
000002a0: bb00 c6bd b926 37bd 9315 3a3d b946 15bd
000002b0: f216 79bd 1ae9 e53c 0d9a 68bd 77a0 f43d
000002c0: 5e07 c03c 919a 09bd 9870 d7bc b18c f33a
000002d0: 2393 11be 52b7 4e3d cea5 1a3e 68d9 383d
000002e0: 67fd 203e f668 d0bb 68b6 1dbd c52e a43d
000002f0: 6f08 e73d 30f0 2cbd be26 f8bc 98c8 7e3c
00000300: b18d 74bd 2f65 f1bc e105 093b 9814 a93b
00000310: 6a9f b4bd 4454 e9bc f16d 8f3d 223c f93d
00000320: b6e0 0bbe 5d59 b2bd c985 96bd 6006 f73d
00000330: a49b e33d b677 a5bd 2f35 283d 49d7 613d
00000340: d909 efbd a3fe 34be 9041 a4bd 0694 8e3d
00000350: 6919 063e ddcd 0bbe d199 c93d 3d7d 2b3e
00000360: 6ee2 063e 7f37 423d c5c4 133d f88c abbd
00000370: 897b 70bc a6c7 5cbc 8e3a 3e3e dc3f bf3c
00000380: 2815 aabd 88af a73c 86cb aa3c 492c d63d
00000390: 66b8 c8bd e210 f23c bf7e 3fbb b8c2 4dbd
000003a0: f182 b4bd 6da8 ea39 b897 813d 725b 87bc
000003b0: 5e98 4cbd ca37 eebd 34aa a1bd 82ea 453c
000003c0: 10aa d33d 667c 523c 6108 ac3c f273 c3bd
000003d0: 7574 303e e8e9 66bd c53a 71bc a40d ebbd
000003e0: 79be 0e3e cf9c c33d 383e 3b3c 8b07 4f3e
000003f0: 4714 2a3d c50f be3c 3af2 4a3d 1bb9 04bd
-0.050348304 -0.13202506 0.05588511 0.022870932 0.0018453135 0.15186633 -0.1361406 0.07333256
0.071299784 -0.019209022 -0.003440849 -0.11270341 0.08656557 0.038550552 0.07263419 0.03580699
-0.09052617 0.05155251 0.019236654 0.08116703 -0.08100638 0.08074982 -0.22726715 -0.10479097
0.012075204 -0.015950298 0.03613186 0.045694053 0.12000513 0.042390175 0.14240244 0.04900257
0.08283758 0.010273184 -0.034358274 0.056188516 -0.026706157 0.18551917 0.20286942 0.030317944
-0.04778138 0.013622421 0.08168511 0.0100725535 -0.03243106 -0.073168874 0.07220844 -0.04790647
0.03124021 -0.036235515 -0.138171 0.036670703 -0.009572709 -0.02965487 -0.08466572 -0.049848784
0.015908973 -0.0014824257 0.17072396 0.04426744 0.055024177 0.082865156 0.013672944 0.057732567
0.067167565 -0.0061076093 -0.026512343 0.04783114 -0.08066488 0.090116136 -0.16668925 -0.10173893
0.14732523 0.06380011 -0.09814431 -0.027727637 -0.08379489 -0.007052094 0.10106983 -0.044539288
0.038265716 -0.037798982 -0.029667893 0.023725199 0.040346753 -0.19336149 0.14895819 -0.09795172
-0.022770768 -0.02222501 0.19119504 0.048662774 0.23595719 -0.04346621 0.0925017 0.011785871
-0.08008176 -0.0510547 -0.15506198 -0.05435951 0.07935552 -0.12590784 0.0077031055 -0.14638233
0.048119333 -0.12297548 0.09827815 0.018524071 -0.085800655 -0.026258852 0.059000388 0.018884992
-0.007976927 0.04894081 0.05775529 0.14844236 0.0848009 0.014394319 -0.13201347 0.0905522
-0.07106095 0.08879886 0.13391992 0.10053243 0.09020266 -0.025328413 0.09505106 -0.061865833
0.016805653 0.02543627 -0.08341079 0.0712024 0.060457572 0.03652768 -0.21739559 0.15332301
0.0050583533 -0.0881576 0.06852472 0.00828725 -0.054079566 -0.052209042 0.05226111 0.08277614
0.20615037 0.023779627 0.17765076 0.043435182 -0.03420574 0.0782543 -0.045504436 -0.033007555
0.060102228 -0.061064895 -0.03598652 0.111075684 -0.11834618 -0.037703145 -0.06499719 -0.080333225
-0.047075808 0.0059686676 -0.04437049 -0.11988761 -0.0924961 0.00069045986 0.06625274 -0.031836823
-0.09668108 -0.044714663 0.04543073 -0.0364444 -0.060812898 0.028065253 -0.05678754 0.11944669
0.023441013 -0.03359467 -0.026298806 0.0018581358 -0.14216284 0.050467797 0.15102312 0.04512921
0.15721665 -0.0063601686 -0.038504034 0.08016733 0.112809055 -0.04222125 -0.030291911 0.015550755
-0.05970544 -0.029467193 0.0020908045 0.0051599257 -0.08819468 -0.028482564 0.070033915 0.121696725
-0.13659939 -0.08708451 -0.07349736 0.12061763 0.111136705 -0.08079474 0.041066345 0.055136953
-0.116718 -0.17675261 -0.080203176 0.06961827 0.1309563 -0.1365275 0.09843791 0.16746993
0.13172314 0.047416206 0.036076326 -0.08376497 -0.014677891 -0.013475334 0.18577024 0.02334588
-0.083048165 0.020469442 0.020849 0.104576655 -0.09800796 0.029549066 -0.0029219834 -0.050234526
-0.088140376 0.00044757445 0.06327766 -0.016523097 -0.049949996 -0.11631735 -0.07893792 0.012079837
0.10335171 0.012847042 0.02100009 -0.09543599 0.17231925 -0.056375414 -0.014723484 -0.11477211
0.13939847 0.09551393 0.011428408 0.20217721 0.041523244 0.023200879 0.04954741 -0.032403093

gconv1.0.W.bias f4 [140]
00000000: e6d8 c03d 6bd6 0abc cf4b 1e3d 1db3 2bbd
00000010: 9ba3 cd3c 8c76 693b f961 74bd 8628 973d
00000020: 8104 42bb ddb0 b8bd 8f0b c23c ba91 343b
00000030: 20e9 4e3d 79bd 7fbd d7bf 043d 2037 49bd
00000040: e045 4f3d 6ead 613d 4b5d 5dba 156e 05bd
00000050: 3643 973d 0dad 92bc 3eb7 313d 9bda 023d
00000060: 9617 a3bd ff6a 6e3c d8ef 17bc 419e 8abd
00000070: 713e 693d 2768 75bd d512 3b3d 125f febc
00000080: 5c50 0c3c 445d b13b 4178 613c 2cfe 973d
00000090: 083f 49bd 54f0 b63c f24f 7ebd 515b 00bc
000000a0: 2d93 bd3d 6c20 7bbd 5959 16bd 6891 be3d
000000b0: 1e22 92bb b7bb 5b3d 7bc5 a7bc f394 bb3d
000000c0: a435 553d dcd1 413d 4e2f cb3d dd13 683d
000000d0: e59c 45bd 8086 ea3b d4be b53a bf4c be3d
000000e0: 2a81 e2bc af44 843d 2775 4f3d 447a d63d
000000f0: 92a4 a93d 571d 9c3d 6f34 7cbd 22eb b43d
00000100: c647 95bd 1ed5 6bbc 0277 86bd 094a b5bd
00000110: fc2e 09bd 17ad 823c 2abf 39bb a42f 0c3d
00000120: 4700 34bd eda6 af3d d000 0fbd 718f 74bb
00000130: e562 873d 4c23 14bd 76fc 57bd 4166 633d
00000140: 715b 58bd f38b 8f3c e47a 0cbd 9698 53bd
00000150: 1933 43bd 3a09 80bd ec4d 7d3d 5ea1 b3bc
00000160: 176f afbd aefe 90bd d090 3cbd d01d abbc
00000170: 8d98 af3c 1be5 69bd 163f d33d 8bc3 b63c
00000180: a8f6 57bd 8991 bf3d bdfe aabc 0c53 dc3a
00000190: aefc 62bb 246d 40bd bd4e e7bc d8b3 8d3d
000001a0: 6b24 74bd 28b1 8f3d 1d67 ad3d 72d1 863d
000001b0: 12f9 8a3d 6993 16bd 2041 573d cb38 853d
000001c0: 7f8e 9bbd ce11 3c3d 11ac 553d 6b76 59bb
000001d0: 650c 9e3d 294c d43c dcf9 703d 31b5 823d
000001e0: 7de0 d73c c0b4 ac3d 7721 b73d 4ca4 aebd
000001f0: b1bd 6e3d 13aa d23c a404 b1bc b346 393d
00000200: eeb1 88bb 49ed 263d 3315 403d d2ea e73c
00000210: b8ec 8bbd 989d 9a3c 38b0 51bc 1db2 9fbd
00000220: bb96 f139 f1ff 9fbd 66d2 933c b706 a6bd
0.0941637 -0.008473973 0.038646515 -0.041918863 0.025102427 0.0035623638 -0.059663747 0.07380776
-0.0029604735 -0.09018109 0.023687152 0.002755268 0.050515294 -0.062436555 0.032409515 -0.049124837
0.050603747 0.055097036 -0.00084443827 -0.032575686 0.07385866 -0.017904783 0.043387644 0.03194676
-0.07963483 0.014551877 -0.009273492 -0.06768466 0.056944314 -0.05991378 0.045672256 -0.031051192
0.008564081 0.0054127295 0.013761581 0.07421526 -0.049132377 0.022331394 -0.06208796 -0.0078342715
0.09256587 -0.061310217 -0.036706302 0.09305078 -0.0044596335 0.053645816 -0.020479908 0.09159269
0.05205311 0.047319278 0.09921132 0.056659568 -0.04824533 0.007157147 0.0013866075 0.09291982
-0.02764948 0.06458413 0.050648835 0.10472539 0.082833424 0.07622784 -0.061573442 0.088339105
-0.0728908 -0.014394073 -0.06565668 -0.08852012 -0.033492073 0.015951676 -0.0028342702 0.03422512
-0.043945577 0.085767604 -0.034912884 -0.0037316943 0.066106595 -0.036166474 -0.052731 0.05551744
-0.05282158 0.017522788 -0.034296885 -0.05165919 -0.047656152 -0.0625176 0.06184189 -0.021927532
-0.085661106 -0.07079826 -0.04603654 -0.02088824 0.021435047 -0.057103258 0.10314767 0.022310039
-0.052725464 0.093539305 -0.020873422 0.0016809418 -0.0034635472 -0.046979085 -0.028235788 0.06919068
-0.059605043 0.07016212 0.08466933 0.06582917 0.06785788 -0.036761675 0.052552342 0.06504973
-0.07595538 0.045915417 0.05216605 -0.0033182155 0.07717208 0.025915222 0.058832034 0.06382216
0.026352162 0.08432913 0.0894193 -0.08527431 0.058286373 0.025715863 -0.021608658 0.04523344
-0.0041716015 0.040753637 0.046895217 0.028310213 -0.0683226 0.018873975 -0.0127983615 -0.07797644
0.00046079405 -0.07812489 0.018044662 -0.081067495

gconv1.0.gate.weight f4 [1, 280]
00000000: 6048 893c 1e8d 2f3c bc0b 09bd ef6f 873d
00000010: a224 36bc 6173 8b3d be26 cebd c40a 9c3c
00000020: 6eb4 4bbc 1b8e 2ebd 7033 c43d 28c6 50bc
00000030: d983 b4bd 7d10 d1bd f5be 03be 8212 e2bb
00000040: 7535 72bc a105 833d d325 94bd 36f8 bcbd
00000050: be94 fa3c 21b5 313d 4408 9ebc 9c4a f7bd
00000060: 6e6b 5ebd fed9 94bc 05d6 60bd e6c0 86b9
00000070: 4870 12be e093 aabd ce62 e9bc 11c7 b93a
00000080: 2b25 21be c5cb 7ebb 4614 c63d db7e 3f3d
00000090: a96c 833c cc31 1dbe ebbf 2cbe 6202 bd3c
000000a0: e1ab a23e 1045 9abd 4de1 34be ad4a 993d
000000b0: b4b4 d6bd 6509 cdbc 3862 dfbd b67e 9c3d
000000c0: 8020 6f3c 3b9b 86bd f6b6 1b3e 6cb4 a8bd
000000d0: 3747 273d ae80 e0bc 71b3 ddbc a251 b1bd
000000e0: 3b76 013d 0796 e33d f05f 9c3c ac7d 183e
000000f0: b294 d0bd c530 6c3d 4a5e 923d 9d3f 033e
00000100: 4402 0b3c 9d26 913d 19a9 393c a78e 453d
00000110: 20b9 6ebd 15ac a3bc 6792 493e 9d84 9ebd
00000120: 5bb9 a03d 49a8 c1bd fbd3 a33d d7a7 2e3c
00000130: e401 4f3c ec18 853c ec43 0fbd 16ed 74bd
00000140: 42d1 eebc 4743 e63d 4e3f 40bc 07a5 b2bd
00000150: e003 62bd 58f0 30be d36e cb3d ff59 873d
00000160: 31b0 3dbd 66fa 2abb cede 15be 480b 8dbd
00000170: 8adf 83ba 5536 a33d 205f e4bb a5b0 ffbc
00000180: 9c5e 65bd 7f01 fbbc aec5 c1bd 9254 4c3d
00000190: 6c66 ddbc 3e48 21bd bbec 2c3e 9b44 c73c
000001a0: a6ee 583d ae4e 103e ae5c 19be 5a4a 1639
000001b0: 6763 7f3d bfe2 cf3d 41f6 7ebd 40b9 12be
000001c0: 0148 52bb 8833 853d ea39 36bd 379f bbbc
000001d0: 15c6 efbd 81f3 61bb 5e0e 84bc b550 09bd
000001e0: 5642 dfbd 655f 18bd 7ac4 9abd 3146 9bbc
000001f0: f777 bbbd 49f3 2abe cb34 8cbd 320a e7bd
00000200: 1d25 ba3d 47b8 bdbd 3774 80bc b25b 163d
00000210: df05 833d 6289 9bbd fd7c a93d 4e13 133d
00000220: 3f68 233c 8d31 b63c 7d34 8a3b 7c6b 163e
00000230: 8448 9c3d 1bb2 5c3d 7823 3abc ba11 ad3d
00000240: f92c 1dbc 02cb 7abd c0ac 2b3d d8df 32bd
00000250: 36ff 1f3e a274 42be e780 fa3b af52 2d3d
00000260: 840d 203d 54c9 2fbe 762d 613e 0ac1 273d
00000270: 61f6 873d 80b6 acbd 6afe 50bd 6e0e f63c
00000280: efa0 c23c f147 f6bb 98f5 e4bd 9870 473e
00000290: d56a a9bd 4ed2 d43c 3e75 b23d 9489 c03d
000002a0: bc73 2a3e 4d72 a13c 3115 423e cb52 8e3d
000002b0: c40e fe3d e84f 0cbd e28f f7bb 39c4 253d
000002c0: 634a 8d3d c694 17bd 4007 303d d698 febc
000002d0: 007c 0ebd d28d ecbc 9995 19bd df9e 023e
000002e0: f1e7 5abc d638 c73d c50f c03c 9b05 273e
000002f0: 407b 0dbd 06e0 033e 5fc6 773d fcde 7b3c
00000300: eee7 ec3c cbf2 10be bbf2 ff3c abf1 0bbd
00000310: b6d7 643d 2f71 4fbd 5027 90bc cca4 2e3e
00000320: 5300 8abd c424 0cbd 41e2 70bd 6575 093e
00000330: 34b5 c53c 883a 983d d09f 333e 06f7 603c
00000340: bf03 0d3d 88a5 493e c9b4 813d 317a 833e
00000350: 6a80 c13d 5c3a 25bc f942 3abc ea11 063e
00000360: 0e6e 583e 01d1 1cbe c527 1dbe 4ca9 c03d
00000370: 206e f73d ac88 bc3c f6f5 263e f2af df3b
00000380: e90a ddbd b129 edbd a1b5 0c3e 3442 8abd
00000390: 3aca c0bc 816d 46bd d23d 3b3b ac0d d03d
000003a0: 9cac 053e 98c8 1a3e 0bf0 b23d 1971 1ebe
000003b0: 6830 e2bd 9709 933d 325b 47bb 67f1 3cbd
000003c0: e0de a43b 1ca2 cdbc 531e 5ebd 8e53 153e
000003d0: 72ce 283e a052 f83d 884e 973d abfd a2bc
000003e0: b2fd 943d e803 713d f03a 0a3e fe92 84bd
000003f0: a6f4 84bd dd21 423e 11bd f9bc 46f1 a13d
0.016758144 0.010714797 -0.033458456 0.066131465 -0.011117132 0.06809116 -0.10065983 0.019048102
-0.0124331545 -0.04261599 0.095801234 -0.012742557 -0.088142104 -0.10208223 -0.12865813 -0.006899179
-0.014783253 0.06397558 -0.07233777 -0.0922703 0.030588504 0.04338563 -0.01929105 -0.120747775
-0.05430167 -0.018170353 -0.054891605 -0.00025702192 -0.14300644 -0.08328986 -0.028489497 0.0014173706
-0.15736835 -0.003887878 0.096718356 0.04675184 0.016043024 -0.15351027 -0.16870086 0.023072425
0.31771758 -0.07532704 -0.1766407 0.074849464 -0.10483685 -0.025028894 -0.109074056 0.07641356
0.014595151 -0.065725766 0.15206513 -0.08237538 0.0408394 -0.02740511 -0.027063103 -0.08658148
0.031606894 0.111126 0.019088715 0.1489169 -0.101846114 0.057663698 0.071468905 0.12817235
0.008484427 0.07087443 0.01133182 0.048231747 -0.058282018 -0.019979516 0.19684754 -0.07740138
0.07847854 -0.09455926 0.079994164 0.010660133 0.012634728 0.016247235 -0.034976885 -0.059796415
-0.029152516 0.11243301 -0.011733843 -0.08722883 -0.055179477 -0.17279184 0.099332474 0.06608962
-0.046310607 -0.002608919 -0.14635774 -0.06886917 -0.0010061127 0.079693474 -0.0069693476 -0.03121216
-0.05599843 -0.030640362 -0.094615325 0.04988534 -0.027026378 -0.039375536 0.1688718 0.024324706
0.052961968 0.14092514 -0.1497676 0.00014332813 0.062350657 0.1015067 -0.062246565 -0.1432848
-0.0032086375 0.065039694 -0.044488825 -0.022903068 -0.11707703 -0.0034477415 -0.016120132 -0.033524234
-0.109013245 -0.03720035 -0.07557006 -0.018954368 -0.09153741 -0.16694368 -0.06846007 -0.112812415
0.0908911 -0.09263664 -0.015680416 0.03670854 0.06397604 -0.07594563 0.08275793 0.035907082
0.009973585 0.022240425 0.004217683 0.1468944 0.07631019 0.053880792 -0.0113609955 0.08450647
-0.009593242 -0.06122876 0.041912794 -0.043670505 0.15624699 -0.18989804 0.007644761 0.04231518
0.03907539 -0.17166644 0.21989998 0.04095558 0.0663879 -0.084332466 -0.05102388 0.030036177
0.02375838 -0.0075159003 -0.11179656 0.19476545 -0.0827233 0.025979187 0.087137684 0.09401241
0.16645712 0.019707823 0.18953396 0.06949385 0.1240516 -0.034255892 -0.007554994 0.040470336
0.06898954 -0.037007116 0.042975664 -0.031078737 -0.034786224 -0.028876219 -0.037496183 0.12755917
-0.013360963 0.097276375 0.02344502 0.16310732 -0.03454137 0.12878427 0.060491916 0.015372988
0.028919186 -0.14155118 0.031243673 -0.03416602 0.05586978 -0.05064505 -0.01759687 0.17055053
-0.06738343 -0.03421475 -0.058809523 0.13423689 0.024134256 0.07433039 0.17541432 0.01373077
0.0344274 0.19692051 0.0633331 0.25679162 0.09448321 -0.010084715 -0.011368507 0.13092771
0.21135733 -0.15314104 -0.15347202 0.09407291 0.120815516 0.023014389 0.16304764 0.0068263942
-0.107930966 -0.11580218 0.13741161 -0.067509085 -0.02353393 -0.048444275 0.0028570783 0.10158858
0.13054127 0.15115583 0.08737191 -0.15472831 -0.11044389 0.071795635 -0.0030419347 -0.046128657
0.0050314516 -0.025101714 -0.05422814 0.14582655 0.16485003 0.121251345 0.073880255 -0.019896349
0.07274951 0.058841616 0.13499045 -0.06473349 -0.064919755 0.1895823 -0.030485662 0.079073474

gconv1.1.A f4 [140, 140]
00000000: 145e 51be 03d8 b0bd f2f7 5c3e 20b5 afbc
00000010: 2382 25be ec19 d9bd a5d8 94bb d924 033e
00000020: bfee 82bc bbac c43c 02d2 7abd e9e0 9d3d
00000030: 8ddb 23bd 0bfa 423d 4e7f 2c3d 1cae 063d
00000040: 3a1a 55be 4d0c 3e3d cd6f d93c 3e54 c73d
00000050: bf46 ecbd 5353 373d a561 06be a707 05be
00000060: 0520 d0bd 9d29 4fbd a585 a43d d573 f03d
00000070: 9d29 55bd 0ed6 2fbd 3567 0a3c 0fa7 153e
00000080: dae5 23be 618a 873b 29c6 0dbe a82d 8ebb
00000090: 267f 9d3d 2bbb e13d d3d4 01be 49d4 4ebe
000000a0: 4a79 df3c ecd6 b0bd dfa3 953d 16b4 1fbe
000000b0: 131f 9a3d f4a9 e43c 3253 2cbe 14d8 9f3c
000000c0: b674 aabc 27e2 ddbb 5722 c63d 10a3 363e
000000d0: e1cb aabd 5c1f 313e 6519 d43d 2a67 b13d
000000e0: 6fa5 1ebe 961e d4bd 60f6 083d 815f 0d3d
000000f0: 8b0d 30bd f9ca 123d 7490 0dbe 6ea5 e7bd
00000100: 3f82 db3d 9408 6e3d 9f9e 683d 97cb 50bd
00000110: 0f2d 933d b7e7 0cbe 4e46 ef3a 1ecf 04be
00000120: 5b66 483d 0447 2ebe c2e6 81bd af1b f13d
00000130: 8875 c73c e0b2 043e de1a fd3c dfa1 0cbd
00000140: f8f4 84bd d9a5 4ebe 9555 17be 6226 5b3e
00000150: 7bdd bb3d 74d9 fbbc c3c3 203b 4618 5cbd
00000160: ce06 4dbd 733c ec3c 627c 333d b748 573d
00000170: 5e72 bc3c fc49 cbbd 87c4 56bb 657c fbbc
00000180: bb82 37bd 5177 553b 96e3 dc3d 0008 a13d
00000190: 14df 97bd bc0a ed3d 35c7 8b3d dbe8 e7bc
000001a0: daec c33d 15ef ab3d a970 df3b c4bd a4bd
000001b0: 93b4 acbd 2cee b13d f69e c83b 485a 343c
000001c0: 4c72 793c 8af1 7e3d 2827 72bd dbbc a73c
000001d0: b4c6 21be 49d5 153e 16d4 883d 4bc1 bc3d
000001e0: 3f09 44bd f00e eabb 7a96 e2bd 0164 3cbe
000001f0: c797 b2bd 5a8f 3cbe 8c62 483c 7a9f 933b
00000200: 5ce7 4f3e 8dbc b03d 14ee 1abc bf0f 4dbd
00000210: 401f 493d 9f25 ad3d 48f5 8fbd ea00 f3bc
00000220: 7e1d 803d 0d80 10be 0649 8cbd 473b 52bb
00000230: 039d c93d c5f9 343e 588a a2bd fcee 3c3d
00000240: dcc7 083d aae9 2c3e 9f2a 043e 1697 62bd
00000250: 712a 273d 45cd efbb a90e 793d 048f a0bd
00000260: 3f39 b03d 1ba6 d1bd ec7a 95bd 86ee a83b
00000270: 9b35 a3bd dfc9 29be 78d9 f1bd d2d6 f9bd
00000280: 5046 b3bc fab9 683d 5c4e 553d b360 3d3d
00000290: a5b7 23be bb7c 843d 7886 3cbd 7b01 04be
000002a0: 9359 d83d 6811 2dbd c79e 163d f03e d43d
000002b0: 49b6 12bc 04fd 2a3d 3f76 2e3d 0b31 a53d
000002c0: 3711 45bc c08b bc3d 36a5 0b3e 640a 2a3d
000002d0: d04e 803d 8026 2a3d 583f f6bc 768c 7b3d
000002e0: 6ff1 713d 98b6 863d ee7b ea3c e62e 87bd
000002f0: 95cb 24bc e9e7 afbd 887f d1bd ea47 0dbd
00000300: 69f0 ab3c 6f1a c5bd 6b7a f63d 24e4 133e
00000310: 352a ac3d b088 04be d04e 323e 9cda 363c
00000320: ef02 28bb ed32 323d 774f 4fbd 0937 063e
00000330: 82b2 463d 35e0 75ba ff8e db3d 811e edbd
00000340: 5309 01be 5a4c d03c b486 d33d 465a 9a3c
00000350: 9a97 51bd 025f 263e 4df5 d23d ac72 93bc
00000360: c8ed 843d 22ed 1fbb dfc3 2b3e b205 2cbd
00000370: dba3 853d 96d8 63bd 3abc c23d f95d 88bd
00000380: ed43 b6bd 3910 2c3d a6ef c13d 0878 7e3e
00000390: 0475 023e 83f0 1abe 233a ca3c 8e0d 8ebc
000003a0: 8afe e33d 3946 553c c285 eb3d 7058 e03b
000003b0: 9224 aa3c 3dfd 833d 2b75 993d c971 3bbd
000003c0: 73d1 c8bd 202f 013b 9c32 b03d 8fb5 1fbe
000003d0: ee79 da3b 8a0e c8bc 96af 04be 5c73 503d
000003e0: 8abd 583e 18f4 d23c c2dc 3abd 2cbc 943d
000003f0: 2042 fb3b 185a 9bbb d5a4 263d 6cb8 d6bd
-0.20446044 -0.08634951 0.21578959 -0.021448672 -0.16162924 -0.10600647 -0.0045424276 0.12807025
-0.015982984 0.024008146 -0.061235435 0.07708914 -0.0400043 0.04760174 0.042113595 0.032880887
-0.20810786 0.04639845 0.026542569 0.09732865 -0.11536931 0.0447572 -0.13123186 -0.129912
-0.10162357 -0.050576795 0.08033303 0.11740843 -0.05204164 -0.042928748 0.008447458 0.14614509
-0.1600565 0.004136369 -0.13845123 -0.0043389387 0.07690267 0.110220276 -0.12678842 -0.20198168
0.027279515 -0.08634743 0.073066466 -0.15596041 0.07525458 0.027913071 -0.16828611 0.019512214
-0.020807605 -0.006771344 0.096745186 0.17835641 -0.08339668 0.17297119 0.10356406 0.08662255
-0.15492795 -0.10357396 0.033438087 0.034514908 -0.042981666 0.0358381 -0.13824636 -0.1131085
0.10718202 0.05811365 0.056791898 -0.05097541 0.071863286 -0.13760267 0.0018255205 -0.12969634
0.04892574 -0.17019278 -0.06342842 0.11772858 0.024348035 0.1295886 0.0308966 -0.03433406
-0.064920366 -0.20180453 -0.1477874 0.2140136 0.091731034 -0.030743338 0.0024530746 -0.053734086
-0.050055318 0.028837418 0.043819793 0.05255958 0.023003753 -0.09926221 -0.0032770948 -0.030698964
-0.04480241 0.0032572339 0.10785596 0.07862854 -0.07415596 0.11574313 0.06825105 -0.028309276
0.0956666 0.08395211 0.00681885 -0.080440074 -0.08432879 0.08688006 0.0061224652 0.011007853
0.015225004 0.06224207 -0.059119374 0.020475795 -0.15798455 0.14632143 0.06681077 0.09216555
-0.04786038 -0.007142894 -0.110638574 -0.18397523 -0.087203555 -0.1841406 0.012230527 0.004505095
0.203031 0.08629713 -0.009456176 -0.050063845 0.049102068 0.08454441 -0.070292056 -0.029663522
0.06255625 -0.14111347 -0.068498656 -0.003207879 0.09844401 0.17673405 -0.07936543 0.04612635
0.033393726 0.16886011 0.12906884 -0.055319868 0.04081196 -0.007318171 0.060804997 -0.07839778
0.08604669 -0.1023676 -0.07298836 0.0051553873 -0.07969209 -0.16580914 -0.11809057 -0.12199177
-0.021884114 0.056817986 0.052076682 0.046234798 -0.15988024 0.06469103 -0.046026677 -0.1289119
0.1056396 -0.042252928 0.036772516 0.10363567 -0.008954593 0.0417452 0.042593237 0.08065995
-0.01202803 0.09206343 0.13637242 0.041513816 0.06265032 0.041540623 -0.030059502 0.06141325
0.05906814 0.06577796 0.028623547 -0.06600742 -0.010058303 -0.08589155 -0.10229403 -0.03449241
0.02098866 -0.096241824 0.12035068 0.14442497 0.08406488 -0.12942767 0.17412877 0.011160519
-0.0025636514 0.043505598 -0.050612893 0.13106932 0.048510082 -0.0009379418 0.10720634 -0.11578084
-0.12601213 0.025427032 0.10328427 0.018841874 -0.05116997 0.1624718 0.10300694 -0.017999016
0.06490666 -0.0024402817 0.16773938 -0.04199762 0.065253936 -0.055626474 0.095085576 -0.06658549
-0.088996746 0.04200766 0.094695374 0.24850476 0.1273995 -0.1513081 0.024685925 -0.017340448
0.11132534 0.013017231 0.11500122 0.00684648 0.020769391 0.06444786 0.07493051 -0.04576281
-0.09805574 0.0019711927 0.08603403 -0.15596603 0.006667367 -0.024420995 -0.12957606 0.050891265
0.21166053 0.025751159 -0.045620687 0.072624534 0.007667795 -0.0047409646 0.04068454 -0.104843944

gconv1.1.W.weight f4 [140, 140]
00000000: a324 d63d 97aa 59bc 3739 a6bd be33 443d
00000010: ec85 553d 7bc4 bbbc 03b0 2cba 7fe1 e2ba
00000020: b621 eb3a bcfe 263e ec65 ae3d 32bd c03d
00000030: 52c7 6d3d 8343 72ba 8dde bebc 1737 563e
00000040: 8a6d bfbd 8972 763b 39a5 08bd 8842 c9bc
00000050: 4b9a b53d 31de 76bd 2cfa a0bc 7ddb b6bc
00000060: 2a7b 8c3d 24c4 c43c f6ac 88bd 68c2 0abd
00000070: 53c7 bcbd 117f 113d 8f1e 6e3d 9b1f 5fbd
00000080: 0d5e ddbd 9490 15bc cfa1 bcbc be06 a93d
00000090: e9f5 2cbd d37a b23d 8c9a 213d 2258 9ebc
000000a0: 83fd 6e3d a066 aabd 3847 f83d cbe1 273d
000000b0: c0e8 9dbc 731a bf3b 28d4 6bbd 671b 233e
000000c0: bd39 acbc 353d a0bd a3c6 17bc cfba ccbc
000000d0: 7e77 163d f421 83be e104 87bd 48d2 d73d
000000e0: d410 2b3d fc65 10bd 6aee cabb d387 073e
000000f0: 59ac 373d 6f3a 54b9 4845 2d3e 1dab 9b3d
00000100: 52af 973d ff28 b2bd 9b01 02bd 36e8 26bd
00000110: 742e b73d 085f 343e 70ac 363d a003 47bc
00000120: 318a 70bd 507f f83d 83f2 8abc aa54 e9b9
00000130: 8893 493e 43cc d93d 0f90 e4bd 4068 fcbc
00000140: 8617 a33d 2155 673d 9722 a93d d6f4 cf3d
00000150: 78f8 0dbe c7f5 593d b3eb d73d 826a e4bd
00000160: 04ae 393d 2262 a03d e822 babd 147f 913d
00000170: 8b84 aa3c 8f86 4e3d 3e07 203d 2a1f 273e
00000180: 2a4d 38bb 914f 9bbd c01c 423d 3875 12bc
00000190: b196 b53c 67fc 22bd ea2b dabc ebfa 1e3d
000001a0: 209b 693d 5e51 7b3d 5662 1a3d acbf 58bd
000001b0: 65eb 7f3d 6a09 fe3d 2f6d 46be 9c2e 233d
000001c0: c670 983d 6a78 1b3e 66e3 90bd 59c5 82bb
000001d0: 387b 123e f700 1f3e 7254 233b 7ec5 ab3c
000001e0: 6ae3 1abd cf72 54bd e552 fa3d c8a0 83bd
000001f0: 1e13 893c 2564 83bb 9c3c a63d ccb9 cdbc
00000200: a113 833d 89b6 2fbd dbe5 4eb8 ceb7 043d
00000210: 8f7e 7c3d 26ed 513e ac3c bdbb a72b 7abd
00000220: 15c7 103d fa55 ce3d 716a 17bd fdd1 a23d
00000230: 45ca 22be ffb8 163c fee3 eabd f891 873c
00000240: 3cb9 b03d 3410 1e3d 4be5 ff3c d46a 0a3e
00000250: 9c13 953d a881 3cbe e297 2d3d 643a 90bc
00000260: 5471 c7bd df46 c43d bdd7 b23d fee4 1dbe
00000270: f029 d83c b9e6 95bd 41ff 933d 856a acbd
00000280: b0d2 b5bc 2315 1f3e e95c b0bd da3a a03d
00000290: 1d81 3bbd 53f3 e73d a020 073c 1a65 e1bd
000002a0: be09 373c 0733 763b 9471 c53d 5c91 0dbe
000002b0: fcc5 1dbd 37cc 44bd d031 36bc b623 c1bc
000002c0: ab71 653d 60b0 0fbe 936c 053d b1c1 03bd
000002d0: f17e 14be 56ee 223d c208 b4bd 3ed4 63bd
000002e0: 8282 42bd 806c 993d b6cd 01be 10f3 10be
000002f0: 8458 d5bb cee7 623d 716c 8cba e7bf 9e3d
00000300: 6e9d 273d 98e1 7c3e 3b4a dc3d cf89 79bd
00000310: 50f2 993d 2aec 1dbe f620 f63b a224 b93b
00000320: b5b1 67bd bc98 cd3d 4281 543d fbd1 a43c
00000330: bf3f a93d de65 5dbd cd12 1f3e 790e 983c
00000340: 2732 2d3d 724f 3dbd 2d00 5f3d 3fcb 0c3e
00000350: 1225 5c3c 0a0e 38bd fd1e 183d 36d6 ce3d
00000360: 8b8e 8a3d 03f6 403e f5da 77bd beee fbbd
00000370: 470c a13b 3a8e a0bd b800 883d 2c20 1ebe
00000380: 4ee1 7dbd 2bb8 5bbd 952f 1c3e 6ed6 a63d
00000390: 8db2 2e3e 2324 a83b 32e1 103e 8f0e c0bd
000003a0: 1fa9 633d e41d f8bc d9ff ba3b 13d2 bbbd
000003b0: c4ad 223e 4aa4 df3d 9cae fe3d 9a32 07be
000003c0: 8661 b3bd 9414 e8bc be60 83bd 7bf4 48bd
000003d0: 06e1 623c 9d2d 4abc 1bf1 99bd c655 993d
000003e0: d163 9ebc 4625 b8bd 1eef a83d 7586 e43d
000003f0: 0b37 9f3d cdc3 08bd 7609 29be f50b 5ebb
0.10456207 -0.013285301 -0.081163816 0.047900908 0.05212967 -0.022920838 -0.0006587507 -0.0017309635
0.0017939124 0.16308111 0.08515534 0.09411086 0.058051415 -0.00092416274 -0.02329948 0.20919453
-0.09347065 0.003760489 -0.033360694 -0.024567857 0.0886732 -0.060270492 -0.019650541 -0.022321457
0.06859429 0.024019308 -0.06673615 -0.033876806 -0.092177056 0.03552157 0.05813461 -0.0544735
-0.108089544 -0.009128708 -0.023026375 0.08253239 -0.042226706 0.08714833 0.039454028 -0.019329134
0.058347236 -0.083203554 0.12122959 0.040986817 -0.019276023 0.0058320104 -0.057575375 0.15928422
-0.021023626 -0.07824174 -0.009263667 -0.024991421 0.03673505 -0.25611842 -0.065927275 0.10538155
0.041764095 -0.03525351 -0.006192972 0.13235407 0.044842098 -0.00020239664 0.1692096 0.07600997
0.074064866 -0.08699226 -0.031739812 -0.040748797 0.08944407 0.17614377 0.044598043 -0.01214686
-0.05872554 0.12133658 -0.016961342 -0.00044504303 0.19685185 0.10634663 -0.111602895 -0.030811429
0.07963471 0.05647767 0.082585506 0.101541206 -0.13864315 0.053212907 0.10543003 -0.11153127
0.04533197 0.07831217 -0.09088689 0.07104316 0.020815155 0.050421294 0.039069407 0.16320482
-0.0028122165 -0.075835355 0.0473907 -0.00893908 0.022166582 -0.03979149 -0.026632268 0.038813513
0.057032704 0.061356895 0.037691437 -0.052917168 0.06248035 0.12404139 -0.19377588 0.039839372
0.07443385 0.15182653 -0.07074623 -0.003990811 0.14304817 0.15527712 0.002492216 0.020968195
-0.037814535 -0.051867303 0.12222842 -0.06427151 0.016732749 -0.004009741 0.08117029 -0.025113009
0.06400228 -0.04289869 -4.9328297e-05 0.032401852 0.061644133 0.20500621 -0.005775055 -0.061076786
0.03534611 0.100749925 -0.036966745 0.07950208 -0.15897472 0.00919938 -0.11469267 0.016549096
0.08629081 0.03858967 0.031237265 0.13517314 0.07279131 -0.18408835 0.042381175 -0.017605968
-0.097384125 0.0958383 0.08732555 -0.15419385 0.026387185 -0.073193975 0.0722642 -0.084187545
-0.02219519 0.15535407 -0.08611471 0.07823725 -0.04577743 0.11325707 0.0082475245 -0.11005612
0.011171756 0.0037567036 0.09640804 -0.13824981 -0.03851889 -0.048046317 -0.011120275 -0.023576599
0.056016605 -0.14032125 0.032574248 -0.03216714 -0.1450155 0.039778076 -0.08790733 -0.05562233
-0.047487743 0.07491398 -0.12676129 -0.14155221 -0.006510796 0.055396847 -0.001071347 0.07751446
0.04092162 0.24695432 0.10756346 -0.06092244 0.075169206 -0.1542212 0.0075112535 0.005650119
-0.05656596 0.100388974 0.051881082 0.020119658 0.08264112 -0.054052226 0.15534516 0.018561589
0.042284157 -0.046218343 0.054443527 0.13749407 0.013436573 -0.044935264 0.037138928 0.10099451
0.06765469 0.18843846 -0.060511548 -0.12301396 0.0049147937 -0.078396276 0.06640762 -0.1544196
-0.061982445 -0.053642433 0.15252526 0.08146368 0.17060299 0.005131261 0.14148405 -0.09377777
0.05558121 -0.03028769 0.005706769 -0.09170928 0.15886599 0.109200075 0.12435648 -0.13202897
-0.087588355 -0.028330125 -0.064149365 -0.04906128 0.013847595 -0.012339977 -0.0751669 0.07487063
-0.019334706 -0.08991484 0.08248733 0.11158458 0.077741705 -0.033389855 -0.16507515 -0.0033881639

gconv1.1.W.bias f4 [140]
00000000: 7050 683d 7630 82bd 08f4 c03d c783 b33c
00000010: 9153 003d b8c7 9fbd a276 d4bd d0e4 bc3d
00000020: c4a5 0abe b222 adbd 325c bebd 7e9a 8d3c
00000030: 5cb2 0dbe ddd9 983d e083 233d d49d 483d
00000040: ebf4 e5bd 3623 6bbd 1ae1 adbd 6e1b e43c
00000050: a294 00be a109 ddbd 293c 8ebd 36eb 03be
00000060: 6444 ea3d eef4 753d d991 4abd 790c 143e
00000070: badb 55bd f12e ce3d 98a3 c83d 0b0b b9bd
00000080: df1b 03be ada5 2abd 3c38 3b3d ef89 c03d
00000090: b140 a73d b6ff ed3c 05f5 17bd 9c0e 513c
000000a0: 355b d13c 25fb 903b 5aa7 d1bd 0270 b6bd
000000b0: 99cf 8f3c 0f11 a73c f798 f6bd 56e3 633d
000000c0: cc19 98bd d0e8 ea3c a0c8 ed3d 07bb 303c
000000d0: ecdf 663d c214 f63d 9d0f be3b 0917 0cbd
000000e0: e48f 5fbd cbc4 593d b53b a3bd f06a 95bd
000000f0: 1d20 f53d b9d7 9b3d 6ae2 a13d 54e5 e5bc
00000100: b747 febd ccde 893d d327 6f3b 3009 e93d
00000110: b786 983c 3399 703c f1d3 a33d b227 703c
00000120: 11ab ac3d e3aa d5bd c86a 12be 00b9 eb3c
00000130: 90ca cfbd c706 44bd cad7 f4bd 3a30 90bd
00000140: 23d2 343d c60a cc3d 8675 9fbd e340 4abd
00000150: 8ae7 db3c 5423 f9bd 05d1 b4bd 6569 fdbc
00000160: 9888 113d 8849 8f3d 82eb ec3c 1fa5 473d
00000170: c960 5ebd 8f60 9cbb c822 0e3e 7b21 baba
00000180: e8b5 0a3d 57f8 4abd baa6 48bd b8b3 5d3d
00000190: bde5 5dbb b8e2 b23c 9539 92bd f88d cb3d
000001a0: 9383 8d3d 217a 84bd 5923 c13d 10d8 babd
000001b0: 4e3c 83bc 9e9d b9bd 4a9c dd3b 0b57 c2bd
000001c0: 3246 923d 1202 04be 3c60 f6bd 8447 8f3d
000001d0: 0b1e 9bbd 3eee 3e3d 9569 333d 7465 983d
000001e0: d6db e5bd e223 0fbe b9c9 71bd d9d3 97bd
000001f0: 3a89 913d e136 ce3d 9ec2 73bd 9730 e7bd
00000200: 1dc0 57b9 f59b 9ebd 55c4 b73a 3a67 a8bd
00000210: ca0f 2bbc aa6b 9e3d f7e1 a13d a9eb 3f3d
00000220: 4f00 893d b28c e13d 2660 9ebd ec7f ed3c
0.056717336 -0.063568994 0.09421545 0.021913422 0.031329695 -0.07801765 -0.1037419 0.0922333
-0.13539797 -0.08453883 -0.092949286 0.017285582 -0.1383757 0.07463429 0.039920688 0.04897864
-0.11228355 -0.057406627 -0.084902 0.02784511 -0.12556699 -0.10792852 -0.069450684 -0.12882695
0.11438826 0.060048036 -0.049455497 0.14457883 -0.0522115 0.10067547 0.09796828 -0.090353094
-0.128036 -0.041661907 0.045707926 0.09401309 0.08166636 0.029052597 -0.037098903 0.012759831
0.025556186 0.00442447 -0.10236998 -0.089080825 0.017555045 0.020393876 -0.120408945 0.055636726
-0.07426795 0.028675467 0.11610532 0.010786778 0.056365892 0.12015678 0.005800201 -0.034201656
-0.054580584 0.053166192 -0.079703726 -0.07295787 0.11969016 0.07609505 0.07904513 -0.028063454
-0.12416022 0.06731948 0.0036492243 0.113787055 0.018618925 0.014684963 0.07999409 0.014657902
0.08431066 -0.10432985 -0.14298546 0.028774738 -0.101460576 -0.047858026 -0.11955221 -0.070404485
0.044145714 0.09962992 -0.07786088 -0.049378287 0.026843805 -0.121649414 -0.0882893 -0.030934045
0.035530657 0.06996447 0.028920893 0.048741456 -0.05429152 -0.004772253 0.13880455 -0.0014200652
0.033864886 -0.04955324 -0.048987128 0.05412647 -0.0033858859 0.021836624 -0.07139889 0.09939188
0.069098614 -0.06468607 0.0943057 -0.09123242 -0.016019966 -0.09063266 0.006763016 -0.094892584
0.07142295 -0.12891415 -0.12030074 0.069960624 -0.075740896 0.046613924 0.043801863 0.07441226
-0.11223571 -0.13978532 -0.05903027 -0.074134536 0.07106252 0.10069061 -0.059511773 -0.11288565
-0.00020575566 -0.0774459 0.0014020303 -0.08222814 -0.010440776 0.07735379 0.079044275 0.046855602
0.06689512 0.110131636 -0.077331826 0.028991662

gconv1.1.gate.weight f4 [1, 280]
00000000: 1868 9cbd d00c 9f3d 48ef ddbc 55d0 653d
00000010: 588e a03d 7366 e8bd d42c d439 b0df e3bc
00000020: 2884 d63d 55dc eb3d 791a 87bd be0a b03d
00000030: bb53 3d3d 3b8f 9e3d 3c86 aa3b 7620 e93c
00000040: 5590 d03d 73e6 efbd d1ce 3dbd a64f b63d
00000050: d205 81bd f5c4 f33d 614d 1b3d fd4d d43d
00000060: 6cc1 b2bd f42e 253d f601 923c c0ae 543d
00000070: c097 b1bd 866a 09bd 7c38 e03d 4fae c7bc
00000080: 7a50 c43d 28b8 b63c 441e a0bd ba84 1cbe
00000090: 6b80 a9bd 18e2 c7bd 3f7b 373d 7461 fbbc
000000a0: 1b71 88bd c1ca 3bbd 49e6 063a 11f2 9ebd
000000b0: acf1 17bc 8af1 b0bc f1e6 f53d 33f9 d83b
000000c0: 59c1 cd3c f065 28be 45fd 42be 69d4 353d
000000d0: ad63 863d fc2b dbbd c904 fabd 6c69 f9bd
000000e0: ed50 eebd e98c 0dbd 8b87 853c 075e 9b3c
000000f0: cc17 d9bd bdfe 4ebd b2a9 563d 08cc 0c3d
00000100: 0f54 41bd a876 533d 2e82 3f3c ea81 603d
00000110: 3711 d53d f63c 9f3d 09bb a9bd a8c2 3ebd
00000120: 8e1c c2bc 7222 f3bb 3a9b 7a3c 0a26 f03c
00000130: f173 0c3e 8a77 923d 2b15 34bd e34f b8bd
00000140: 0112 64bd e65c 17bd 4cc0 693d 5a04 40be
00000150: 9146 05bd 4fac a53c e93d 5dbb f236 8abd
00000160: e68f abbb db6a 693d 26d0 053d 7750 b43c
00000170: b74b c7ba 0840 653d 76e4 01be bfb0 ebbd
00000180: 409e 5c3d c52a 99bd 0c53 0a3e 2824 c03d
00000190: f97f c3bd c184 be3d cfb1 023e 4e97 37bd
000001a0: c0a5 05bd c9b8 a83d c98c 1ebd a2f2 a73d
000001b0: cc76 7abb f623 a8bd 2ad5 813d ed73 07bd
000001c0: b6e9 863d c140 1dbe 61d3 e83c 1fce e3bc
000001d0: e344 54bd aca8 e83d a3ed 76be a170 cc3c
000001e0: 251f e43b 6936 153e 4054 b4bb d8d6 6bbd
000001f0: ed3e 3bbe 183f f0bc a864 afbd ca70 abbc
00000200: 2b3e b33d 502d b0bb 0d20 213e 5795 f53b
00000210: 5769 99bd 1040 7a3d 5705 1c3e 2194 1cbd
00000220: 4f51 3fbd c0e3 dc3d 5896 8b3c f9db 3c3d
00000230: 0148 733d 6d9a aa3c b6b8 49bd 6a14 523c
00000240: dc27 62bd 3bb7 57bc 4929 a83d a501 063e
00000250: d86d 89bb 9fbb 37bd 138c ef3c e4de 37be
00000260: 9e0e fcbd 3133 d93d e104 013e 1cf3 363d
00000270: 457c a43c 9098 2b3b efe5 123e da1d 443c
00000280: 5517 153e f389 bfbd dcc5 bf3d d54a c1bd
00000290: 350c 8abb a13a cc3d 1612 fb3c 0ddf 2d3d
000002a0: bcb0 983b f8ca 073d 7b00 f73d 3a2f bcbc
000002b0: f219 503d a5d9 9a3d e661 bb3c 83b5 e13d
000002c0: 8dc9 f2bb 02f9 633d 6fda e33d e351 00be
000002d0: fd77 3b3d 811e 58bd e28d d9bd 97d6 4fbd
000002e0: 21e3 a4bc ccde a83d a84f 3dbe 8ea2 893d
000002f0: 4fe7 bc3d f4b9 99bd f39f 043e 881f e0bd
00000300: 5ca4 57bd 015e c23d b37d 76bd 5e83 53bd
00000310: cc7c 1e3d ad56 c53d 8ff2 8ebd de85 98bc
00000320: f6d5 e73d 31b5 16be c273 ed3d c7d5 bebd
00000330: 6053 543d 4296 7c3d e70f 8cbd f3cd a53c
00000340: 11b0 a93d c8f4 0d3e 7c80 bb3d bdf6 03be
00000350: b359 063e c8d2 73bd 1dfa dfba fa3d 113d
00000360: 7288 a9bd 1eeb 81be 32e4 fd3d 7ad3 7cbc
00000370: c24a 0b3d 9624 93bd 900b aa3c 4612 1fbe
00000380: 3b87 b4bd e648 b6bd 8f12 88bc e275 f93c
00000390: 6931 a13d a6f4 d13c c354 52bd 5f0d bb3d
000003a0: 81aa ecbd 4ba0 aa39 77ce 203e f7ce 93bd
000003b0: 9fd7 873d 774d 07bd d00b 723d b3f4 223e
000003c0: 733c 68bc 12fe cdbd 5f16 c33d 914f 36bd
000003d0: a4b4 20bd cc97 51bd 02fa da3c 767c 0bbe
000003e0: 1056 02be 261d 903d 090d 18bd db90 08bc
000003f0: f8f8 a33d 040a 01be a081 d13d 1ad3 fa3d
-0.07637042 0.07766116 -0.027091637 0.056106884 0.0783965 -0.11347666 0.0004046919 -0.027816623
0.104744256 0.115166344 -0.06596846 0.08595799 0.04622243 0.07742163 0.0052039903 0.028457861
0.10183779 -0.117138766 -0.046339814 0.089019105 -0.06299938 0.11902801 0.03791559 0.103664376
-0.087282985 0.04032798 0.0178232 0.051924467 -0.08671522 -0.033548854 0.109482735 -0.024375109
0.09585662 0.02230461 -0.07818273 -0.15285006 -0.08276447 -0.09759921 0.04479527 -0.030686118
-0.06662198 -0.045847658 0.00051460095 -0.07761014 -0.009273928 -0.02159955 0.12006939 0.0066215037
0.02511661 -0.16445136 -0.19041927 0.044392023 0.065619804 -0.10701749 -0.12207944 -0.12178311
-0.11636529 -0.03455821 0.016299983 0.018965734 -0.10600242 -0.050535906 0.052407928 0.034374267
-0.047199305 0.05162683 0.011688752 0.054811396 0.10403674 0.07775299 -0.08287627 -0.046572357
-0.023695257 -0.0074198777 0.015295798 0.029315013 0.13716103 0.071517065 -0.0439655 -0.08999612
-0.055681232 -0.03695383 0.057068154 -0.1875166 -0.032538 0.020223765 -0.0033758825 -0.06748761
-0.00523566 0.05698667 0.03266921 0.022011025 -0.001520506 0.055969268 -0.12684807 -0.11508321
0.053861856 -0.07478861 0.13508242 0.09381896 -0.09545893 0.093026645 0.12763141 -0.04482203
-0.032628775 0.0823837 -0.038708482 0.082005754 -0.003821778 -0.08209984 0.06339486 -0.03306954
0.065875456 -0.15356733 0.028421106 -0.027808247 -0.051823508 0.113602966 -0.24114089 0.02495605
0.0069617205 0.14571537 -0.0055032074 -0.057577938 -0.18285723 -0.02932696 -0.085641205 -0.020927805
0.08752092 -0.0053764954 0.15734883 0.0074946093 -0.07490795 0.06109625 0.15236412 -0.038227204
-0.0467084 0.10785627 0.017039463 0.04610822 0.05939484 0.02082559 -0.04924842 0.01282225
-0.055213794 -0.013166244 0.082109995 0.13086565 -0.0041940026 -0.044856664 0.029241597 -0.1795612
-0.123074755 0.10605467 0.12599517 0.04466544 0.020078788 0.0026183464 0.14345525 0.011970008
0.14559682 -0.093524836 0.093639106 -0.09438101 -0.004212881 0.0997212 0.030648272 0.042449046
0.0046597403 0.03315255 0.120606385 -0.022971738 0.050805993 0.07561044 0.02287383 0.11020949
-0.0074092806 0.055657394 0.11125647 -0.12531237 0.045768727 -0.052763466 -0.10622765 -0.05074176
-0.020127835 0.0824562 -0.18487418 0.06720458 0.09223806 -0.07506171 0.12951641 -0.10943514
-0.05264698 0.09490586 -0.06017847 -0.051638953 0.038693234 0.09635673 -0.06979858 -0.01861852
0.11320107 -0.14717557 0.11594345 -0.093181185 0.051837325 0.061666735 -0.06838971 0.020239806
0.08285535 0.13862908 0.09155366 -0.12887092 0.13120155 -0.05952719 -0.0017088089 0.035459496
-0.08277978 -0.25374693 0.123970404 -0.015431279 0.03400684 -0.071847126 0.020757467 -0.15534315
-0.08814856 -0.08900623 -0.016610412 0.030451719 0.07870752 0.025629353 -0.051350366 0.0913341
-0.115559585 0.00032544354 0.1570376 -0.0721721 0.06632923 -0.03303286 0.059093297 0.15913658
-0.0141745685 -0.10058226 0.09525751 -0.044509474 -0.039234772 -0.051170155 0.026730541 -0.13621697
-0.12728143 0.070368096 -0.037121806 -0.0083353175 0.080064714 -0.12601477 0.10229802 0.12247296
