save/best_origin_opt3_0.877.pt (torch, 901072 bytes, 44 tensors)

gconv1.0.A f4 [140, 140]
0.009887855 0.026723202 0.0658908 0.030827846 -0.013559573 0.029466575 0.1346102 -0.055136178
-0.11883237 0.023760172 0.09315507 -0.04680742 -0.012721126 -0.1321859 0.10030705 0.014118604
0.07466242 -0.09158411 -0.016814817 -0.043985505 0.020869091 -0.06385401 -0.24873926 -0.062922284
-0.22821023 -0.0013261192 0.047595974 0.028149238 0.06618938 -0.05872194 -0.063897274 0.010882168
-0.021786047 0.107723966 0.0745849 -0.05264579 -0.03578477 -0.058141124 0.020988863 0.0047872863
0.024661524 0.028439717 -0.13780034 -0.054679945 0.014827409 -0.035452783 0.048289105 0.015126814
-0.044827014 -0.22725323 0.009166269 -0.19291265 -0.108065724 0.08901532 -0.00025321599 -0.07271675
0.015389286 -0.068769 -0.013863918 0.051442854 -0.028129028 -0.07843896 -0.1384397 0.069936775
-0.08437261 -0.045610197 -0.08240333 -0.036966242 -0.14184839 0.0061785905 0.06738981 -0.13532491
0.061677836 -0.08532164 0.04114412 -0.07806099 -0.047461774 -0.004969846 -0.10891719 0.002201636
0.12834476 0.13619395 -0.02485285 -0.0038896957 -0.11706641 0.046664037 0.00763565 -0.0489439
-0.016369646 0.12403068 0.10560476 -0.039158028 0.10496193 -0.006423271 0.05513896 -0.023345303
-0.058928702 -0.025152247 -0.058309946 0.07685092 -0.0006026941 0.015782434 0.06896874 -0.11717951
0.08937962 -0.05112622 -0.046106078 -0.051741853 -0.09329054 -0.019983826 0.02090926 -0.069429584
0.12499038 0.13882948 0.01784371 0.0006692841 0.01869208 0.01912251 -0.12892623 0.043347426
-0.020136531 0.24212688 0.00018663445 -0.0071618645 0.26752365 -0.09795601 0.2140957 0.090724014
0.013346026 -0.014884599 -0.0031280068 -0.10912457 -0.055733927 0.05412748 0.06255592 -0.07192913
-0.0013317375 0.15941538 0.0053149965 0.13070889 0.07547785 -0.027086722 -0.0009993011 -0.009545444
-0.02884229 -0.015912753 -0.0039564916 0.06875564 0.072980255 -0.11522632 0.073740005 0.045810692
0.12668906 0.10585576 -0.13085157 -0.0037945942 0.06438769 0.083581954 -0.0070144194 0.034303527
0.20877095 -0.07610477 0.13990693 -0.033160623 0.04370486 -0.015698941 -0.05422792 0.006935463
-0.038093958 -0.1082795 0.06535869 -0.11769993 0.11603368 0.08407333 -0.040169638 -0.08659155
0.053754255 -0.081754185 -0.26219255 0.021551609 0.060127184 -0.025849583 -0.055969834 0.08759169
0.10271462 0.039843265 -0.11647493 0.14262207 -0.03552447 -0.018922495 0.0012383045 0.051246703
0.060475487 -0.03175696 0.029255308 0.0064287493 -0.007899288 0.060116824 -0.084304705 0.022857549
0.03333368 0.10705834 0.07279026 0.031562954 0.02846038 -0.07355085 0.03786302 -0.13222271
-0.021065287 0.008623099 0.11712827 0.04519472 0.09471189 -0.003454377 -0.024052184 0.10246986
0.0060635763 0.008871638 -0.2085634 0.15258873 0.0064770672 0.036477715 -0.08446606 0.19360447
0.04006768 0.08903009 -0.07748531 -0.004681444 0.005075005 0.042849567 0.014499034 -0.025262844
0.041910842 -0.10623746 -0.0163181 0.08933434 0.0038558715 -0.068038896 -0.07420402 -0.080224566
-0.15205537 0.07760831 -0.015154869 -0.019721916 -0.013029643 0.11763055 -0.031968743 -0.13118821
-0.029473834 -0.08204618 -0.09139726 -0.12516913 -0.067051396 0.033381928 0.0029526113 0.07290094
00000000: ab00 223c 9eea da3c c1f1 863d ae8a fc3c
00000010: f928 5ebc e363 f13c 42d7 093e 79d6 61bd
00000020: 635e f3bd b1a4 c23c 16c8 be3d 23b9 3fbd
00000030: 456c 50bc be5b 07be c86d cd3d b851 673c
00000040: 9ce8 983d 7390 bbbd 3abf 89bc 252a 34bd
00000050: a8f5 aa3c e4c5 82bd 81b5 7ebe 66dd 80bd
00000060: f1af 69be 2dd1 adba fff3 423d 3b99 e63c
00000070: 4c8e 873d 6b86 70bd 93dc 82bd 1f4b 323c
00000080: a778 b2bc 629e dc3d f8bf 983d 1da3 57bd
00000090: 0d93 12bd 6325 6ebd d6f0 ab3c abde 9c3b
000000a0: f706 ca3c 69fa e83c 881b 0dbe 14f8 5fbd
000000b0: a9ee 723c f036 11bd ccca 453d 75d6 773c
000000c0: 889c 37bd 12b5 68be 1e2e 163c e58a 45be
000000d0: 9051 ddbd aa4d b63d 13c2 84b9 85ec 94bd
000000e0: 5823 7c3c c3d6 8cbd 7d25 63bc beb5 523d
000000f0: d96e e6bc 9ba4 a0bd 23c3 0dbe 033b 8f3d
00000100: 8ccb acbd c2d1 3abd 14c3 a8bd ea69 17bd
00000110: b440 11be c675 ca3b ab03 8a3d 9d92 0abe
00000120: e6a1 7c3d 1dbd aebd bd86 283d 71de 9fbd
00000130: 4767 42bd 17da a2bb fa0f dfbd 5349 103b
00000140: cf6c 033e 6d76 0b3e 3498 cbbc 44ea 7ebb
00000150: 84c0 efbd ca22 3f3d 7a34 fa3b 6679 48bd
00000160: a319 86bc cc03 fe3d 4f47 d83d 2b64 20bd
00000170: 48f6 d63d 4d7a d2bb 64d9 613d a63e bfbc
00000180: 395f 71bd 160c cebc 69d6 6ebd 0464 9d3d
00000190: 1efe 1dba 2a4a 813c 7c3f 8d3d d0fb efbd
000001a0: aa0c b73d ba69 51bd bad9 3cbd 44ef 53bd
000001b0: 1c0f bfbd 1fb5 a3bc e549 ab3c 1931 8ebd
000001c0: f5fa ff3d 5129 0e3e f92c 923c e572 2f3a
000001d0: 2220 993c cfa6 9c3c 3d05 04be 128d 313d
000001e0: 5ef5 a4bc 1cf0 773e 4eb3 4339 13ae eabb
000001f0: dcf8 883e 299d c8bd e73b 5b3e 83cd b93d
00000200: 4aa9 5a3c 88de 73bc 3fff 4cbb b47c dfbd
00000210: 4249 64bd c7b4 5d3d 511d 803d 944f 93bd
00000220: b28d aeba c93d 233e 6c29 ae3b 8dd8 053e
00000230: 2294 9a3d f9e4 ddbc fbfa 82ba 7e64 1cbc
00000240: ab46 ecbc 765b 82bc 75a5 81bb c2cf 8c3d
00000250: ac76 953d c7fb ebbd 0005 973d fea3 3b3d
00000260: c7ba 013e e8ca d83d f4fd 05be baae 78bb
00000270: b1dd 833d 042d ab3d 37d9 e5bb db81 0c3d
00000280: 0dc8 553e d1dc 9bbd c343 0f3e 6fd3 07bd
00000290: de03 333d 119b 80bc 181e 5ebd e142 e33b
000002a0: 6908 1cbd a4c1 ddbd c7da 853d a90c f1bd
000002b0: 11a3 ed3d a32e ac3d eb88 24bd e956 b1bd
000002c0: 6c2d 5c3d bd6e a7bd 1a3e 86be 008d b03c
000002d0: ec47 763d 81c2 d3bc a040 65bd 4663 b33d
000002e0: 0b5c d23d b132 233d 688a eebd 850b 123e
000002f0: 1b82 11bd 5903 9bbc 9b4e a23a 10e8 513d
00000300: 25b5 773d 9613 02bd d4a8 ef3c 42a8 d23b
00000310: 046c 01bc 0f3d 763d f2a7 acbd c13f bb3c
00000320: e688 083d 6741 db3d 0f13 953d 2848 013d
00000330: be25 e93c d4a1 96bd 4116 1b3d 6465 07be
00000340: 1c91 acbc e647 0d3c f2e0 ef3d 191e 393d
00000350: 4ff8 c13d d462 62bb 1609 c5bc b8db d13d
00000360: f7b0 c63b 595a 113c a591 55be 3840 1c3e
00000370: 943d d43b a869 153d 8bfc acbd 4040 463e
00000380: 021e 243d 6855 b63d 9eb0 9ebd cc66 99bb
00000390: 3a4c a63b 0783 2f3d 5b8d 6d3c 06f4 cebc
000003a0: b4aa 2b3d 0793 d9bd 89ad 85bc ecf4 b63d
000003b0: cab2 7c3b fa57 8bbd 47f8 97bd c74c a4bd
000003c0: 67b4 1bbe 1bf1 9e3d 214c 78bc db8f a1bc
000003d0: 497a 55bc 49e8 f03d a8f1 02bd 3456 06be
000003e0: 1c73 f1bc d407 a8bd 7d2e bbbd 562c 00be
000003f0: 3e52 89bd 7dbb 083d 9980 413b 174d 953d

gconv1.0.W.weight f4 [140, 140]
-0.05648083 -0.033202592 -0.08020006 0.025954897 -0.1028509 -0.078009464 0.06503885 0.015200121
-0.107779406 0.070662804 0.05813505 0.0135019915 0.0886461 0.026218012 0.10865015 0.056238487
-0.014448426 0.012396253 0.030629138 -0.017434733 -0.05511875 -0.08304178 -0.047639824 0.11475671
-0.03461928 0.050631657 0.009360909 0.046457466 -0.042481277 0.009168232 0.03613046 -0.21938545
-0.060526673 0.07247478 0.08184553 0.0022865313 -0.102577955 0.15404241 -0.09093818 0.07912494
0.022842033 -0.16374868 0.019758496 -0.082248725 -0.15807804 0.11343853 -0.024327124 -0.06765563
-0.16800739 0.08622978 -0.12275649 0.15969916 -0.023061065 -0.053637397 0.020619428 0.010119862
0.06323572 0.04520635 -0.02354931 0.08005597 -0.06905161 0.049835056 -0.037817538 0.18320517
0.18279658 0.1439947 0.09820428 0.15525949 -0.050969377 0.06387969 0.074350305 0.034871563
-0.034630306 -0.09039022 -0.1628431 -0.05951852 0.05761345 -0.06972256 0.0014264192 0.032602813
0.016777104 0.0065329005 0.018139359 0.039638083 -0.22122109 -0.12215902 -0.038610294 0.06741135
-0.0061664083 0.09448735 0.030691823 -0.04713889 0.053149372 -0.032748472 0.07757091 -0.054044437
0.07030116 0.002033055 -0.0837101 0.13097304 0.05170788 0.01631463 -0.018013453 0.0053976527
0.037102282 0.11728112 0.0089045605 -0.036362506 -0.08010868 -0.015215723 -0.07702419 0.124980725
-0.022698382 0.036240865 -0.018781818 -0.006381465 -0.07182612 0.0779501 -0.10045211 -0.116786905
0.003549764 0.15267193 0.05810983 0.08479865 -0.06402564 0.07680045 -0.08384521 0.044524036
-0.023401342 0.1385974 -0.06351052 -0.04809115 0.103000075 0.06875322 -0.2249228 0.022273488
-0.06509213 0.04043259 -0.15204939 -0.11888247 0.049872536 -0.04407151 0.09322803 0.061867435
0.093353614 0.0013038849 0.014311955 -0.08315089 -0.044618115 -0.05253943 0.02146761 0.13482328
0.06787879 0.017239457 -0.09276791 -0.002013448 0.008777113 0.04108799 -0.0044076648 0.054150734
0.18362579 0.031984296 0.004851678 -0.10055843 -0.09442915 0.030764606 -0.12096508 -0.040549908
-0.086035915 -0.02990409 0.12182789 0.09032312 -0.04514275 0.05493113 0.0146190105 0.024521431
-0.013844412 -0.021192342 -0.11593079 -0.0019802598 0.1273833 0.0033658645 0.10696849 0.024134142
-0.010427354 -0.078500755 0.008650021 0.04076847 -0.016610922 -0.0033268672 -0.08766133 -0.111198045
-0.08258895 -0.21530929 -0.0636585 0.03192445 -0.04403267 -0.012002751 0.009032754 -0.010433808
-0.1595554 0.0017973664 0.075045906 -0.04823719 -0.008003149 0.024793254 0.118009195 -0.061356723
-0.17749307 -0.07233602 0.014597985 0.029601756 -0.14179341 0.07544717 -0.10588573 0.07497481
-0.05877023 -0.03795218 0.0146029405 -0.13239051 0.15524612 0.02007332 -0.13440754 0.13640493
0.008302517 0.12512112 -0.13310853 0.06470222 -0.0020756756 -0.108319215 0.042035844 -0.12895228
0.052797254 -0.020772422 0.19519797 -0.113522485 0.056606803 0.0045967964 -0.03690796 0.109873965
-0.029668827 0.05726157 -0.107203804 -0.061344918 -0.026399763 -0.021087246 0.061530888 -0.0083769215
-0.22455077 0.07581929 0.027319578 0.060895123 0.05912779 -0.088771135 -0.02698364 0.118323885
00000000: 7158 67bd 71ff 07bd ee3f a4bd 5d9f d43c
00000010: 7ea3 d2bd 6dc3 9fbd 1733 853d ee09 793c
00000020: 73bb dcbd a9b7 903d 051f 6e3d 7537 5d3c
00000030: 168c b53d 28c7 d63c f883 de3d 545a 663d
00000040: 17b9 6cbc a719 4b3c f5e9 fa3c 49d3 8ebc
00000050: 33c4 61bd cf11 aabd fa21 43bd 9105 eb3d
00000060: f2cc 0dbd 2463 4f3d 805e 193c 2f4a 3e3d
00000070: d900 2ebd 5a36 163c 89fd 133d 94a6 60be
00000080: d1ea 77bd a86d 943d a19e a73d a1d9 153b
00000090: 6414 d2bd 4bbd 1d3e cc3d babd 420c a23d
000000a0: 371f bb3c bcad 27be 92dc a13c 0572 a8bd
000000b0: 36df 21be 7652 e83d ad49 c7bc 098f 8abd
000000c0: 210a 2cbe 3d99 b03d c167 fbbd 2d88 233e
000000d0: 8fea bcbc e3b2 5bbd 13ea a83c c7cd 253c
000000e0: bb81 813d 4b2a 393d 7cea c0bc 62f4 a33d
000000f0: ee6a 8dbd d81f 4c3d 90e6 1abd 239a 3b3e
00000100: 072f 3b3e 5973 133e 531f c93d 58fc 1e3e
00000110: 44c5 50bd 5bd3 823d f944 983d 7cd5 0e3d
00000120: 82d8 0dbd 821e b9bd 57c0 26be b1c9 73bd
00000130: 15fc 6b3d b4ca 8ebd b0f6 ba3a 878a 053d
00000140: 2370 893c f111 d63b fe98 943c 8b5b 223d
00000150: c887 62be 822e fabd d425 1ebd f60e 8a3d
00000160: 950f cabb 9582 c13d 6b6d fb3c b514 41bd
00000170: 28b3 593d 4323 06bd 7fdd 9e3d b35d 5dbd
00000180: 0efa 8f3d 013d 053b 3370 abbd cc1d 063e
00000190: a4cb 533d 42a6 853c f390 93bc cbde b03b
000001a0: 90f8 173d 1531 f03d 6fe4 113c daf0 14bd
000001b0: 0510 a4bd 5e4b 79bc dcbe 9dbd e5f5 ff3d
000001c0: f5f1 b9bc 4d71 143d 54dc 99bc 9c1b d1bb
000001d0: 9319 93bd 4da4 9f3d d6b9 cdbd f92d efbd
000001e0: 28a3 683b 0856 1c3e 9304 6e3d eaaa ad3d
000001f0: e01f 83bd 8e49 9d3d 0ab7 abbd d65e 363d
00000200: 2cb4 bfbc 7aec 0d3e ce11 82bd 3afb 44bd
00000210: b4f1 d23d 7dce 8c3d 2a52 66be e476 b63c
00000220: 064f 85bd a59c 253d d6b2 1bbe a778 f3bd
00000230: 2547 4c3d 5484 34bd 56ee be3d b568 7d3d
00000240: 2e30 bf3d 1ee7 aa3a b17c 6a3c 044b aabd
00000250: 7cc1 36bd 9633 57bd d7dc af3c 1d0f 0a3e
00000260: 0904 8b3d c339 8d3c 1afd bdbd 0df4 03bb
00000270: e1cd 0f3c e14b 283d 2c6e 90bb 29cd 5d3d
00000280: 6608 3c3e f701 033d d3fa 9e3b 94f1 cdbd
00000290: 1264 c1bd 0e06 fc3c 8abc f7bd a917 26bd
000002a0: 9933 b0bd 6cf9 f4bc e780 f93d 54fb b83d
000002b0: 9be7 38bd 77ff 603d 9384 6f3c 2be1 c83c
000002c0: acd3 62bc 909b adbc 1f6d edbd 3fc7 01bb
000002d0: c570 023e d695 5c3b 4c12 db3d f7b4 c53c
000002e0: 7ed7 2abc 01c5 a0bd d1b8 0d3c d7fc 263d
000002f0: a113 88bc 9207 5abb c987 b3bd cdbb e3bd
00000300: 6524 a9bd 0a7a 5cbe 635f 82bd 36c3 023d
00000310: 9a5b 34bd 30a7 44bc 1efe 133c 90f2 2abc
00000320: 7e62 23be 9c95 eb3a abb1 993d 5c94 45bd
00000330: a41f 03bc 391b cb3c ceae f13d 3051 7bbd
00000340: bec0 35be e824 94bd 632c 6f3c 627f f23c
00000350: 4b32 11be 0c84 9a3d 9eda d8bd 658c 993d
00000360: 0db9 70bd bf73 1bbd 2c41 6f3c 6191 07be
00000370: d7f8 1e3e ce70 a43c 21a2 09be bcad 0b3e
00000380: 4807 083c c01f 003e 9a4d 08be 9982 843d
00000390: 0f08 08bb 77d6 ddbd c72d 2c3d 110c 04be
000003a0: ef41 583d ed2a aabc fae1 473e 7a7e e8bd
000003b0: 89dc 673d b9a0 963b cd2c 17bd 9a05 e13d
000003c0: 0a0c f3bc 1c8b 6a3d ab8d dbbd cf44 7bbd
000003d0: 5144 d8bc 29bf acbc d007 7c3d 5b3f 09bc
000003e0: a3f0 65be 2547 9b3d 4fcd df3c 2a6d 793d
000003f0: fb2f 723d a4cd b5bd cb0c ddbc cb53 f23d

gconv1.0.W.bias f4 [140]
0.06043816 0.03247117 -0.006291599 0.09028947 -0.09618688 0.026908487 0.012769875 -0.007813655
0.02765434 0.055954773 0.036884405 0.099646166 -0.032938153 0.07473828 -0.059517052 -0.033872504
0.089429736 -0.060983833 0.051355835 -0.08149086 -0.030584961 -0.09171106 -0.057882182 -0.06628657
-0.008725971 0.027044494 0.044521052 0.058686376 0.07653303 -0.08868342 -0.03756151 -0.010012908
-0.091097265 0.07826457 -0.017071014 -0.044717588 -0.054244313 -0.058849055 -0.109197855 0.05677942
-0.021006819 -0.0045310846 0.0030502907 -0.1095744 0.0703488 0.00041387355 -0.05050685 0.032229617
0.042428475 -0.045907144 0.042638082 -0.10152968 -0.01607048 -0.020681608 0.017058125 -0.054480255
0.0012932667 0.026872303 -0.06802166 -0.0010391143 0.017524 -0.043136325 0.013599433 -0.039250556
-0.028561791 0.016141227 0.088959254 0.0525808 0.026909277 -0.040304147 -0.04623945 -0.059428588
-0.06560835 -0.039122645 -0.014920625 0.04570098 0.012095638 0.03489975 -0.07502723 -0.090144746
0.024475193 -0.014328064 -0.07746371 -0.08216121 0.07112874 -0.06653837 0.07732319 0.07434971
-0.037971165 0.06382685 -0.06018045 0.06395282 -0.08643326 0.03177145 -0.054553095 -0.052706327
-0.06396947 0.06771307 0.046955034 -0.0015113958 0.08113082 -0.04833259 0.06861227 0.009977349
0.019575823 0.021166759 0.07294884 -0.04847048 0.10715423 -0.008853235 -0.05302753 -0.069522806
0.00014012634 -0.07848371 -0.08481781 0.009332559 -0.002846588 -0.044517424 0.0064424532 -0.029587252
-0.073043145 0.007788016 0.02583321 -0.02086622 0.084079534 -0.03882793 0.09662258 -0.03307177
-0.026470412 0.06918232 0.06378531 0.04691015 0.025575247 0.0028248187 -0.096722744 0.07192133
0.04146056 0.029421836 0.03657677 0.06853284
00000000: 018e 773d 7d00 053d c229 cebb b0e9 b83d
00000010: a0fd c4bd 306f dc3c bd38 513c d804 00bc
00000020: 5b8b e23c d530 653d 1a14 173d 4a13 cc3d
00000030: 28ea 06bd 6210 993d 27c8 73bd e5bd 0abd
00000040: f026 b73d 2fca 79bd 7f5a 523d aee4 a6bd
00000050: 508d fabc 02d3 bbbd de15 6dbd 41c1 87bd
00000060: 60f7 0ebc 6a8c dd3c b55b 363d 2061 703d
00000070: 59bd 9c3d a79f b5bd 19da 19bd 2e0d 24bc
00000080: 3491 babd 2d49 a03d 83d8 8bbc ca29 37bd
00000090: 492f 5ebd b50b 71bd 20a3 dfbd 8991 683d
000000a0: 7e16 acbc 7e79 94bb 63e7 473b 8b68 e0bd
000000b0: 0813 903d 2bfd d839 45e0 4ebd 3403 043d
000000c0: 7bc9 2d3d 2109 3cbd 45a5 2e3d cbee cfbd
000000d0: 3da6 83bc 7a6c a9bc 7bbd 8b3c b026 5fbd
000000e0: d482 a93a 4e23 dc3c f14e 8bbd e432 88ba
000000f0: 7e8e 8f3c b7af 30bd 28d0 5e3c 31c5 20bd
00000100: 6bfa e9bc 9b3a 843c 4530 b63d f75e 573d
00000110: d870 dc3c f615 25bd 9465 3dbd 646b 73bd
00000120: ac5d 86bd 113f 20bd a375 74bc f330 3b3d
00000130: c82c 463c 0af3 0e3d e0a7 99bd cf9d b8bd
00000140: 3380 c83c 42c0 6abc 4ba5 9ebd 2344 a8bd
00000150: f2ab 913d 4545 88bd 9f5b 9e3d a944 983d
00000160: a787 1bbd a7b7 823d c77f 76bd b2f9 823d
00000170: ec03 b1bd c822 023d 1173 5fbd 97e2 57bd
00000180: 6d02 83bd 26ad 8a3d ec53 403d 071a c6ba
00000190: ea27 a63d 65f8 45bd 9784 8c3d 0978 233c
000001a0: 7a5d a03c e965 ad3c 3466 953d fb88 46bd
000001b0: ad73 db3d 290d 11bc 6533 59bd f961 8ebd
000001c0: e1ee 1239 11bc a0bd f6b4 adbd 97e7 183c
000001d0: d28d 3abb e757 36bd 371b d33b f760 f2bc
000001e0: a597 95bd 9d32 ff3b 2ba0 d33c a3ef aabc
000001f0: e431 ac3d 090a 1fbd 0fe2 c53d 4476 07bd
00000200: 7ad8 d8bc 76af 8d3d dfa1 823d dc24 403d
00000210: 2e83 d13c 9820 393b 9316 c6bd 7e4b 933d
00000220: 8cd2 293d 1006 f13c 86d1 153d f25a 8c3d

gconv1.0.input_gate_u.weight f4 [1, 140]
-0.12478919 0.084305726 -0.2596533 -0.01495085 -0.01604201 0.1453421 -0.09770648 -0.12039437
0.14403093 -0.11816949 -0.0749103 0.18110466 -0.293464 0.10674935 -0.0328549 0.008194348
-0.060581945 -0.008682888 -0.033844717 0.09272813 -0.09256997 0.11514586 0.14388645 0.12269016
-0.06478753 -0.14248678 -0.08462686 -0.13223507 -0.1102132 -0.07713021 0.23496631 0.035435468
0.16703208 0.0076976996 0.057511963 -0.11405141 -0.015191695 0.06738285 0.16085036 0.0007115644
-0.05100658 -0.053936962 -0.11761773 -0.096859284 -0.11894958 0.07503678 0.048857555 -0.02645919
-0.04694599 0.14962207 0.05257561 0.04366894 -0.09375735 -0.051807515 -0.07135817 0.06784626
0.19945535 -0.049562942 0.14232774 0.05805282 -9.922847e-05 0.017849818 -0.09691457 0.12125601
0.060623765 -0.03972511 -0.08356286 -0.02226129 0.037919138 -0.08641904 0.15216534 0.1316533
0.05044994 -0.03259905 0.21620317 0.24203156 -0.10610912 -0.27528343 -0.11826549 0.008749872
-0.31285545 -0.1515959 -0.053756945 0.17847157 0.048101597 0.15987337 -0.29077142 -0.021997262
-0.1868324 -0.00233997 0.0412997 -0.024725812 0.107853785 0.0060435133 0.014414881 0.09737561
0.10981815 0.04345337 -0.12982842 0.22266726 0.11411621 0.0023963673 -0.05418464 -0.15930496
0.0052718464 -0.00012410074 0.05856483 0.023318416 0.13693914 0.10196497 -0.05810791 -0.08242556
-0.008477057 -0.10797852 -0.022504106 0.16996402 -0.17228293 -0.16344008 0.07095797 -0.15394948
-0.057241067 0.120842725 0.18021762 0.017934877 0.11721177 0.068632334 -0.012929627 -0.33595255
0.02129622 0.041780382 -0.14346269 -0.06666085 0.03821709 0.13195708 -0.2326366 0.11670581
-0.008280418 0.05347897 0.040600862 -0.07824431
00000000: 7a91 ffbd 7ba8 ac3d 47f1 84be 69f4 74bc
00000010: 896a 83bc 8fd4 143e 561a c8bd 5391 f6bd
00000020: d87c 133e d802 f2bd 926a 99bd 8073 393e
00000030: ea40 96be 679f da3d dc92 06bd 9641 063c
00000040: c624 78bd ac42 0ebc c2a0 0abd 3fe8 bd3d
00000050: 5395 bdbd 98d1 eb3d f856 133e fb44 fb3d
00000060: 53af 84bd 0ee8 11be d950 adbd a168 07be
00000070: 75b7 e1bd 72f6 9dbd 029b 703e c824 113d
00000080: 750a 2b3e fc3c fc3b aa91 6b3d c993 e9bd
00000090: 96e6 78bc 0500 8a3d f5b5 243e 4788 3a3a
000000a0: 47ec 50bd 01ed 5cbd 90e1 f0bd 295e c6bd
000000b0: d69b f3bd e2ac 993d dc1e 483d f1c0 d8bc
000000c0: 704a 40bd 8736 193e 8659 573d 34de 323d
000000d0: db03 c0bd 1e34 54bd 3b24 92bd fbf2 8a3d
000000e0: 063e 4c3e 8302 4bbd 5dbe 113e cbc8 6d3d
000000f0: e118 d0b8 c839 923c 257b c6bd 1255 f83d
00000100: a050 783d ccb6 22bd 0123 abbd 4f5d b6bc
00000110: 1951 1b3d 77fc b0bd 3bd1 1b3e 1fd0 063e
00000120: 99a4 4e3d 9586 05bd 5d64 5d3e 1fd7 773e
00000130: bd4f d9bd f3f1 8cbe 2d35 f2bd a05b 0f3c
00000140: 972e a0be f53b 1bbe 3e30 5cbd 40c1 363e
00000150: 2e06 453d d8b5 233e fedf 94be 9a33 b4bc
00000160: fe50 3fbe 2f5a 19bb e029 293d c98d cabc
00000170: 72e2 dc3d aa08 c63b 652c 6c3c dd6c c73d
00000180: 57e8 e03d 29fc 313d bef1 04be e302 643e
00000190: c2b5 e93d 5f0c 1d3b b7f0 5dbd d720 23be
000001a0: 74bf ac3b 0a21 02b9 ade1 6f3d 4306 bf3c
000001b0: c639 0c3e 03d3 d03d 8f02 6ebd bbce a8bd
000001c0: 5be3 0abc d823 ddbd 885a b8bc 0c0b 2e3e
000001d0: f06a 30be d65c 27be 6a52 913d efa4 1dbe
000001e0: 9c75 6abd 647c f73d f88a 383e 2aec 923c
000001f0: b90c f03d 1c8f 8c3d c9d6 53bc f901 acbe
00000200: 6975 ae3c e821 2b3d e2e7 12be 7c85 88bd
00000210: 8689 1c3d c21f 073e 4a38 6ebe 7503 ef3d
00000220: 97aa 07bc c40c 5b3d 174d 263d 8e3e a0bd

gconv1.0.input_gate_w.weight f4 [1, 140]
0.093097076 -0.0066831266 0.168277 -0.15789768 0.041175827 0.020047864 0.09085266 -0.025298031
-0.058483187 0.09291465 -0.11295041 -0.032137156 -0.028848544 -0.14008965 0.12366557 -0.027695404
-0.092988476 -0.08728342 0.048477486 -0.014210515 -0.14870112 0.05544656 -0.05218831 0.048001047
0.10281659 0.10977742 0.118799 0.1410421 0.19082537 -0.03472984 -0.028484594 0.059982803
-0.061464228 0.033671014 -0.025370486 0.009819185 0.098415755 0.0040086005 -0.14378135 -0.042133503
-0.068201296 0.20805143 -0.20291884 -0.077884555 -0.027262991 0.044272486 -0.035415497 -0.11775046
0.010254336 -0.018384913 -0.21788114 0.1968046 0.005144909 -0.21373728 0.073503315 -0.008720862
0.10295109 0.11497448 -0.30154642 0.20629188 -0.007921836 0.17751428 -0.177178 0.13432084
-0.115957245 0.08539286 0.02073333 -0.0632442 -0.06699206 0.15983959 -0.13636361 0.06496602
0.15966564 0.14547354 0.12318847 0.07246805 -0.04113318 0.20543793 -0.37188643 -0.027659912
-0.08269652 0.12435154 -0.17696948 -0.006076509 -0.15979782 -0.14452684 0.014370475 -0.004959926
-0.029813554 -0.17081183 0.17853948 -0.07105944 -0.028190538 -0.0296259 0.08698619 -0.057955176
-0.10605366 -0.039738607 0.054659825 -0.079530045 0.027414825 -0.2716166 -0.09893263 0.18692057
0.06807903 0.013880637 -0.0314768 0.14906141 -0.03779963 -0.119233824 0.10613766 0.004379235
-0.11358855 0.037166715 0.078088015 0.092114404 -0.18189907 -0.010215007 -0.05192505 0.3609429
0.08409816 0.21503153 0.17288186 -0.017812522 0.11999201 -0.3519033 -0.010240351 -0.10778444
-0.003026706 -0.0099745495 -0.002780668 -0.13683265 0.08830096 0.037857473 -0.16003226 -0.13399783
0.017157024 -0.068529986 -0.10876477 -0.26243246
00000000: aea9 be3d 21fe dabb ce50 2c3e eeaf 21be
00000010: fca7 283d 6b3b a43c f610 ba3d d13d cfbc
00000020: 118c 6fbd 094a be3d 8b52 e7bd 40a2 03bd
00000030: c853 ecbc a973 0fbe 6044 fd3d 79e1 e2bc
00000040: be70 bebd a6c1 b2bd 5490 463d 38d3 68bc
00000050: 1b45 18be ef1b 633d 69c3 55bd bf9c 443d
00000060: 8191 d23d fcd2 e03d e44c f33d 576d 103e
00000070: ba67 433e e040 0ebd 8658 e9bc 87b0 753d
00000080: eac1 7bbd 9eea 093d c4d5 cfbc a6e0 203c
00000090: 338e c93d 945a 833b 6b3b 13be 2e94 2cbd
000000a0: 1fad 8bbd 6f0b 553e f5c9 4fbe f081 9fbd
000000b0: a356 dfbc 1157 353d d70f 11bd 2727 f1bd
000000c0: cd01 283c f59b 96bc 3c1c 5fbe 2587 493e
000000d0: a096 a83b f2dd 5abe e888 963d f2e1 0ebc
000000e0: 05d8 d23d bd77 eb3d 4b64 9abe 2e3e 533e
000000f0: 97ca 01bc 4ec6 353e 266e 35be 678b 093e
00000100: fe7a edbd 74e2 ae3d f2d8 a93c 2d86 81bd
00000110: 2233 89bd fdac 233e e7a2 0bbe e80c 853d
00000120: 647f 233e 04f7 143e 3d4a fc3d 216a 943d
00000130: 447b 28bd 525e 523e e667 bebe 0a97 e2bc
00000140: cb5c a9bd 05ac fe3d 7d37 35be 741d c7bb
00000150: 0aa2 23be d8fe 13be 2472 6b3c e086 a2bb
00000160: 8e3b f4bc 4ce9 2ebe 0ed3 363e 9d87 91bd
00000170: d8ef e6bc 04b2 f2bc d125 b23d 6862 6dbd
00000180: a932 d9bd f3c4 22bd fbe2 5f3d a6e0 a2bd
00000190: 0e95 e03c 5511 8bbe 319d cabd 1b68 3f3e
000001a0: 056d 8b3d 9c6b 633c d1ed 00bd 8ea3 183e
000001b0: c9d3 1abd dd30 f4bd b45e d93d b07f 8f3b
000001c0: 1da1 e8bd 203c 183d 9cec 9f3d 7aa6 bc3d
000001d0: c043 3abe d85c 27bc 5caf 54bd 82cd b83e
000001e0: a83b ac3d 3a31 5c3e f107 313e 91eb 91bc
000001f0: 5fbe f53d ab2c b4be 25c7 27bc 17be dcbd
00000200: b35b 46bb 4b6c 23bc de3b 36bb dc1d 0cbe
00000210: 22d7 b43d 7010 1b3d 7fdf 23be ba36 09be
00000220: e38c 8c3c 7359 8cbd 10c0 debd 8c5d 86be

gconv1.0.forget_gate_u.weight f4 [1, 140]
-0.062525876 -0.042515818 -0.04727184 -0.102517165 -0.07049033 -0.06628518 -0.021579938 -0.20094073
0.0016849695 -0.15614972 -0.0075188302 -0.035591803 -0.04478333 0.20023346 -0.14772509 0.05436763
-0.07843317 -0.18737534 0.06687505 -0.091678 0.06800086 0.040639378 0.21113387 0.18117496
-0.27149916 0.05359219 -0.07975625 0.07147012 -0.11148564 0.0056905253 -0.0267474 0.0025863654
-0.137492 0.08725936 -0.2744411 0.0068771625 0.069412015 0.08154842 -0.11012664 0.08950168
0.21235852 -0.0026319942 0.0662019 0.069238745 -0.014340147 -0.087778114 0.055914715 -0.29731187
-0.31496817 -0.07862473 -0.08398003 -0.26238763 -0.0681691 0.084840536 -0.12371298 0.11574168
-0.33443284 -0.037310958 0.10222594 0.30610073 -0.015401482 0.2247433 -0.15348358 -0.0061778994
-0.13633938 -0.061801817 0.043338537 0.22502452 0.09175676 -0.2143866 -0.0708945 -0.09277544
0.0034767597 -0.07723404 0.00056977314 0.020925742 -0.013953439 -0.05446426 -0.04544534 0.016288122
-0.09537263 -0.088639 0.07036982 0.032228507 -0.24947228 0.008345425 -0.03044097 -0.06787304
0.07551333 -0.04678737 -0.26614824 -0.13844395 -0.18652946 0.054351903 -0.012333981 -0.17953686
0.077151135 -0.024202809 0.08166136 0.10392785 -0.016749194 -0.021976281 0.26475653 0.16328438
0.056401122 -0.15337989 0.023354186 -0.06520424 -0.16129908 -0.13243042 0.025466803 -0.043493286
-0.069264084 -0.20195928 -0.07939722 -0.05564041 -0.03658342 -0.1352359 0.1438207 0.087529615
0.21254629 0.049392663 -0.07737868 0.20103456 0.13159952 0.056755673 0.0352048 0.08167816
-0.047628645 0.17616639 -0.0021259992 -0.18395399 0.060831062 -0.050830647 -0.06895032 -0.29854143
-0.22224365 -0.09445273 -0.08638728 -0.081055224
00000000: 910d 80bd 1125 2ebd 1ea0 41bd 85f4 d1bd
00000010: 3c5d 90bd 86c0 87bd 69c8 b0bc 68c3 4dbe
00000020: 32da dc3a b6e5 1fbe 8560 f6bb b6c8 11bd
00000030: ba6e 37bd 000a 4d3e 3f45 17be 98b0 5e3d
00000040: 92a1 a0bd 52df 3fbe c9f5 883d adc1 bbbd
00000050: 0944 8b3d 7a75 263d 7a33 583e ee85 393e
00000060: f001 8bbe 7c83 5b3d 3f57 a3bd ed5e 923d
00000070: 9552 e4bd 9677 ba3b 5d1d dbbc 0380 293b
00000080: b4ca 0cbe 09b5 b23d 8b83 8cbe d259 e13b
00000090: e327 8e3d dc02 a73d 138a e1bd a84c b73d
000000a0: 8374 593e 897d 2cbb dd94 873d 0bcd 8d3d
000000b0: f0f2 6abc 03c5 b3bd d406 653d 4339 98be
000000c0: 8243 a1be 0106 a1bd b9fd abbd ac57 86be
000000d0: 3e9c 8bbd e0c0 ad3d 3b5d fdbd f909 ed3d
000000e0: c83a abbe 60d3 18bd d55b d13d 3cb9 9c3e
000000f0: 7f56 7cbc 1c23 663e cd2a 1dbe fa6f cabb
00000100: 8d9c 0bbe e723 7dbd c083 313d d46c 663e
00000110: f8ea bb3d 2988 5bbe 2331 91bd 0d01 bebd
00000120: 59da 633b e12c 9ebd d45c 153a 766c ab3c
00000130: f79c 64bc ea15 5fbd e524 3abd ab6e 853c
00000140: ba52 c3bd 5d88 b5bd 0d1e 903d 0a02 043d
00000150: a975 7fbe 40bb 083c 575f f9bc 0501 8bbd
00000160: bca6 9a3d 1da4 3fbd 9544 88be 40c4 0dbe
00000170: 9401 3fbe 1aa0 5e3d 7714 4abc 83d8 37be
00000180: 6a01 9e3d f844 c6bc 123e a73d 20d8 d43d
00000190: 9b35 89bc 9a07 b4bc 2b8e 873e 0534 273e
000001a0: dd04 673d 9e0f 1dbe 4751 bf3c cd89 85bd
000001b0: 962b 25be d79b 07be c29f d03c 0426 32bd
000001c0: 54da 8dbd 6ace 4ebe 029b a2bd 33e7 63bd
000001d0: 7fd8 15bd 487b 0abe bc45 133e ba42 b33d
000001e0: bca5 593e f64f 4a3d b778 9ebd 01dc 4d3e
000001f0: 06c2 063e a378 683d e932 103d e146 a73d
00000200: 4116 43bd f664 343e 5954 0bbb 6f5e 3cbe
00000210: fe29 793d cc33 50bd d335 8dbd 6cda 98be
00000220: d793 63be 6f70 c1bd d0eb b0bd 4800 a6bd

gconv1.0.forget_gate_w.weight f4 [1, 140]
0.089459345 -0.060451295 0.07697848 0.0095809875 -0.06816583 -0.13090868 0.027144082 0.08026844
-0.09301636 -0.115570575 -0.017128713 -0.07439413 -0.10146061 -0.058066204 0.012555831 -0.21760778
-0.0455986 0.0537227 0.03211435 0.062088892 -0.044917442 -0.13370568 0.12047429 0.07969822
0.049619194 0.06230509 0.31483367 -0.23058486 -0.21998166 -0.042568546 0.12819646 0.21714038
-0.22210515 0.033357896 -0.3916696 -0.11603186 -0.16812299 0.08812274 0.18439125 -0.15892775
-0.23754105 0.02148997 -0.2938389 -0.08793043 0.043631267 -0.2582986 -0.006430049 -0.02380578
0.028421642 -0.028483603 0.010250865 0.019249534 0.036593072 0.18236546 -0.18319264 0.063022785
0.0097839935 -0.047078926 -0.23037146 0.15220559 -0.13499369 -0.07194243 -0.11426635 -0.08902016
-0.095031306 -0.065118335 0.015959606 0.035293687 -0.07698831 -0.0740872 0.08096 0.0948305
0.13945077 -0.10170149 0.1340215 -0.19042933 -0.16307749 -0.08856205 -0.03966562 0.055930104
0.13799238 0.15664518 -0.0295849 0.2021411 0.042438287 -0.090099104 0.16706453 0.002969675
0.12951456 0.24728395 -0.055331558 -0.17239332 -0.01460666 -0.12421325 -0.08698471 -0.049231287
0.018809969 -0.09062189 0.12877907 -0.12732832 0.061589714 -0.13730459 -0.15822428 -0.114650495
0.15651587 -0.11369791 -0.08516301 -0.027113274 -0.26368785 0.040077545 -0.05339788 -0.0125034
-0.017788002 -0.042422663 -0.02263371 -0.13680713 -0.065568954 -0.061470203 -0.20575325 -0.2038938
0.10104894 -0.041144375 -0.0047811414 0.016582899 -0.0374439 0.040923536 0.030968057 0.0664265
0.057698276 0.038751714 0.048592538 0.0875543 -0.16296385 0.02857212 -0.07513765 0.10294833
-0.09326029 0.16404152 0.07646915 0.03188898
00000000: 7636 b73d c79b 77bd e5a6 9d3d 93f9 1c3c
00000010: 879a 8bbd ed0c 06be 445d de3c c863 a43d
00000020: 5d7f bebd 44b0 ecbd 8451 8cbc f35b 98bd
00000030: 95ca cfbd d4d6 6dbd f9b6 4d3c 93d4 5ebe
00000040: 99c5 3abd 550c 5c3d 568a 033d ec50 7e3d
00000050: 5afb 37bd 24ea 08be 39bb f63d d238 a33d
00000060: 7f3d 4b3d 9f33 7f3d e131 a13e 701e 6cbe
00000070: df42 61be 5b5c 2ebd ef45 033e 0c5a 5e3e
00000080: 886f 63be 4aa2 083d eb88 c8be 1da2 edbd
00000090: 6f28 2cbe b279 b43d 0fd1 3c3e f5bd 22be
000000a0: f63d 73be bc0b b03c 0d72 96be df14 b4bd
000000b0: b3b6 323d b73f 84be 29b3 d2bb 5704 c3bc
000000c0: 81d4 e83c 7256 e9bc 3ef3 273c 33b1 9d3c
000000d0: 9ee2 153d 03be 3a3e da96 3bbe 1712 813d
000000e0: 0b4d 203c d5d5 40bd 7fe6 6bbe c8db 1b3e
000000f0: c93b 0abe 8e56 93bd 7a04 eabd 3450 b6bd
00000100: c69f c2bd c35c 85bd b8bd 823c 1d90 103d
00000110: 0cac 9dbd 08bb 97bd 5bce a53d 7e36 c23d
00000120: 2fcc 0e3e df48 d0bd ef3c 093e e8ff 42be
00000130: c9fd 26be 0560 b5bd 6b78 22bd f716 653d
00000140: e04d 0d3e 9867 203e 085c f2bc 14fe 4e3e
00000150: c5d3 2d3d e185 b8bd f712 2b3e e19e 423b
00000160: 779f 043e 0138 7d3e 58a3 62bd e087 30be
00000170: c650 6fbc 8463 febd 0a25 b2bd bfa6 49bd
00000180: 5d17 9a3c f897 b9bd a9de 033e 5b62 02be
00000190: 7f45 7c3d 9399 0cbe 8c05 22be e1cd eabd
000001a0: b245 203e 73da e8bd f269 aebd a81c debc
000001b0: 1802 87be 5a28 243d bcb7 5abd 10db 4cbc
000001c0: 25b8 91bc 63c3 2dbd 556a b9bc 2b17 0cbe
000001d0: 0449 86bd 2ec8 7bbd fbb0 52be 89c9 50be
000001e0: bff2 ce3d 0187 28bd 1fab 9cbb dcd8 873c
000001f0: c65e 19bd 709f 273d b9b0 fd3c 9e0a 883d
00000200: 0755 6c3d 1eba 1e3d f808 473d ab4f b33d
00000210: ffdf 26be 1410 ea3c c5e1 99bd 93d6 d23d
00000220: 40ff bebd 80fa 273e dc9b 9c3d 059e 023d

gconv1.0.output_gate_u.weight f4 [1, 140]
0.02819957 -0.12281132 -0.025746211 -0.08101269 0.21781404 -0.18162648 -0.13294248 -0.10164872
-0.14934815 -0.21582247 0.119169585 -0.04631303 0.102962494 0.14709246 0.10226492 0.21600302
0.024267724 -0.07819147 -0.1365228 -0.101809345 -0.021193914 -0.097226866 0.026281133 -0.04483188
0.019038267 -0.024853878 0.19631466 0.17742778 -0.18465514 0.0964695 -0.14568672 -0.02609955
0.14462088 -0.0029856982 0.011179818 0.22224496 -0.27247205 0.15215199 0.3619987 0.0633103
0.038375296 0.17208792 -0.21195485 0.052042007 -0.06081033 0.15266035 -0.17564829 -0.061968423
-0.056868635 0.1357804 -0.022615647 0.1171995 -0.09429844 0.052996814 0.07002961 -0.12534593
-0.02522139 0.095976256 0.08550655 -0.021420969 0.09169884 -0.02086897 0.02234517 -0.091940366
-0.02041171 0.049226202 0.035791285 0.26069966 0.06640852 -0.07040063 -0.13119282 0.056419767
-0.12590128 -0.017926866 -0.16228728 0.36271217 0.13073647 -0.13152409 -0.052683692 0.15629561
0.12722225 0.06387158 0.07071616 0.15303887 -0.05097869 0.19313079 -0.059447326 -0.0045378865
-0.07164078 -0.3317283 -0.06265096 -0.1201466 0.016417513 -0.093871355 -0.08865253 -0.06098831
-0.05917679 -0.16927417 -0.02472891 -0.24257545 0.019084074 -0.15415724 0.16735923 0.1515183
0.051333617 -0.07205734 0.16164598 -0.16015117 -0.1408893 -0.026312063 0.077035874 -0.257965
0.022219226 -0.2680691 0.19340374 0.021120334 0.07545037 -0.217489 0.07684925 -0.076859854
-0.07177252 -0.11619748 -0.032658778 -0.06386838 -0.08140291 -0.07321652 0.18501216 0.113108605
-0.10212981 -0.15331486 -0.21511105 -0.18383043 0.05623019 0.07852662 0.19829898 -0.111651726
0.093760535 -0.29337415 0.16799904 0.011589226
00000000: c902 e73c 8084 fbbd b8e9 d2bc fbe9 a5bd
00000010: a50a 5f3e 4bfc 39be 1322 08be 342d d0bd
00000020: b9ee 18be 9100 5dbe 2f0f f43d bbb2 3dbd
00000030: 00de d23d 689f 163e 4570 d13d e52f 5d3e
00000040: 1bcd c63c d922 a0bd a2cc 0bbe 6b81 d0bd
00000050: dc9e adbc e11e c7bd 884b d73c a2a1 37bd
00000060: 24f6 9b3c 5c9a cbbc b606 493e a1af 353e
00000070: 3d16 3dbe cd91 c53d e62e 15be b9ce d5bc
00000080: 7f17 143e b4ab 43bb 8e2b 373c 2f94 633e
00000090: 7581 8bbe bbcd 1b3e e557 b93e d5a8 813d
000000a0: 6a2f 1d3d d137 303e b10a 59be 002a 553d
000000b0: 4114 79bd ff52 1c3e 25dd 33be 9ad2 7dbd
000000c0: 16ef 68bd 040a 0b3e 7344 b9bc 4b06 f03d
000000d0: 8a1f c1bd 3013 593d af6b 8f3d af5a 00be
000000e0: 179d cebc 338f c43d 0f1e af3d 077b afbc
000000f0: 9acc bb3d 67f5 aabc 380d b73c 3b4b bcbd
00000100: 7536 a7bc 6aa1 493d e299 123d 6d7a 853e
00000110: 3101 883d 352e 90bd 6957 06be 6a18 673d
00000120: 44ec 00be 5ddb 92bc a32e 26be 69b5 b93e
00000130: c8df 053e 40ae 06be dbca 57bd f50b 203e
00000140: 8d46 023e 1acf 823d a2d3 903d 39b6 1c3e
00000150: 08cf 50bd 14c4 453e 0a7f 73bd 8db2 94bb
00000160: 67b8 92bd 4bd8 a9be 264f 80bd 6c0f f6bd
00000170: 057e 863c a03f c0bd 758f b5bd e1ce 79bd
00000180: 5d63 72bd 3556 2dbe 4894 cabc b365 78be
00000190: 3456 9c3c 65db 1dbe 3860 2b3e 9d27 1b3e
000001a0: 3343 523d cc92 93bd 8686 253e abfe 23be
000001b0: 4945 10be 658c d7bc fcc4 9d3d fd13 84be
000001c0: 1805 b63c 5a40 89be a10b 463e 8d04 ad3c
000001d0: b985 9a3d 70b5 5ebe 2463 9d3d b368 9dbd
000001e0: 79fd 92bd f2f8 edbd 36c5 05bd 6dcd 82bd
000001f0: 92b6 a6bd 8bf2 95bd d473 3d3e 7ca5 e73d
00000200: 6f29 d1bd 92fe 1cbe 1246 5cbe 0b3e 3cbe
00000210: a151 663d 91d2 a03d e30e 4b3e a9a9 e4bd
00000220: 8605 c03d 2335 96be f107 2c3e bde0 3d3c

gconv1.0.output_gate_w.weight f4 [1, 140]
-0.29401976 -0.20063613 -0.11004067 0.18520768 0.08522154 0.09551545 0.08348202 0.11346072
0.07455403 0.11563783 -0.12425385 0.09213532 -0.08152346 -0.1084412 0.17044759 -0.30246332
-0.09250745 -0.05806941 -0.027528886 0.08459255 -0.013020615 0.08279936 -0.025639312 -0.22935502
-0.06308467 -0.11287749 0.0624441 -0.021109289 -0.031097805 -0.034839384 -0.11976786 0.045043934
-0.20318799 -0.1784977 0.041531753 -0.11791772 0.026079098 0.010153384 -0.06916542 -0.08191655
-0.034899153 -0.056646924 0.10605254 0.08295228 0.20033121 -0.045274675 -0.062715724 -0.11352575
-0.05871975 0.021309258 -0.0005561114 0.04355577 -0.13166851 -0.13813503 -0.10636733 0.049022358
-0.02256221 -0.07392971 -0.17538647 0.15940195 -0.22445363 -0.09703037 -0.10360727 0.15348648
-0.0069474624 0.035705477 0.15413567 0.0549681 0.07570787 0.07367468 0.16138558 0.18673718
-0.08695127 0.115511015 -0.23287381 0.028822383 0.021090657 0.21206966 -0.16039158 0.038486637
0.088587224 0.14207113 0.043453846 0.036394745 -0.05211447 -0.12656733 -0.13391882 -0.021391578
0.038841538 0.09980171 -0.04158564 0.26814395 -0.016906433 0.14578056 -0.14434189 0.15392002
-0.043028813 0.05370111 0.1050726 -0.010936403 0.0924834 -0.09523928 0.063495524 -0.06511466
-0.0055729933 -0.15052082 -0.10831137 0.12594889 -0.045160003 0.16181338 0.113038525 -0.09385587
0.028353922 0.21220766 0.22049972 -0.3367492 -0.010763469 -0.12727469 -0.121898025 -0.25347733
-0.2733359 -0.004727892 0.16547336 0.1615362 0.047370102 0.053730227 -0.12361503 0.00047329528
-0.16927415 0.24987122 0.16056046 0.075788856 0.055902954 -0.16862498 0.10769063 0.19153014
0.05375323 0.18068777 -0.03501609 0.074779525
00000000: c289 96be 8f73 4dbe 015d e1bd 15a7 3d3e
00000010: a188 ae3d 9b9d c33d 9ff8 aa3d 185e e83d
00000020: c9af 983d 87d3 ec3d cd78 febd 71b1 bc3d
00000030: c6f5 a6bd 6b16 debd d089 2e3e 79dc 9abe
00000040: 8c74 bdbd 31da 6dbd 4284 e1bc dc3e ad3d
00000050: 6b54 55bc b692 a93d 8909 d2bc 0bdc 6abe
00000060: 8932 81bd 502c e7bd 62c5 7f3d 63ed acbc
00000070: d3c0 febc beb3 0ebd da48 f5bd fd7f 383d
00000080: 8310 50be 1ac8 36be 331d 2a3d d87e f1bd
00000090: d5a3 d53c 615a 263c 9aa6 8dbd ddc3 a7bd
000000a0: 6af2 0ebd 9b06 68bd 1332 d93d e3e2 a93d
000000b0: a023 4d3e f071 39bd 1a71 80bd 3080 e8bd
000000c0: 1f84 70bd c190 ae3c 01c8 11ba 8967 323d
000000d0: 1cd4 06be 4573 0dbe 1dd7 d9bd abcb 483d
000000e0: 62d4 b8bc 7668 97bd 8398 33be 443a 233e
000000f0: 2cd7 65be dcb7 c6bd 0c30 d4bd 8f2b 1d3e
00000100: 8aa7 e3bb e83f 123d bed5 1d3e 3b26 613d
00000110: ba0c 9b3d c0e2 963d 4342 253e 0838 3f3e
00000120: 8213 b2bd 0a91 ec3d 7976 6ebe eb1c ec3c
00000130: 50c6 ac3c ca28 593e b13d 24be 2aa4 1d3d
00000140: 386d b53d 187b 113e a9fc 313d a812 153d
00000150: fc75 55bd de9a 01be 0422 09be 643d afbc
00000160: 4e18 1f3d d764 cc3d b455 2abd 2a4a 893e
00000170: 5c7f 8abc 8047 153e 5cce 13be 369d 1d3e
00000180: fb3e 30bd b2f5 5b3d 4e30 d73d 992e 33bc
00000190: f067 bd3d d00c c3bd f109 823d d65a 85bd
000001a0: a89d b6bb 2122 1abe 5ad2 ddbd bff8 003e
000001b0: b2f9 38bd 68b2 253e be80 e73d 8237 c0bd
000001c0: 7c46 e83c f74c 593e aeca 613e 646a acbe
000001d0: 4359 30bc 4c54 02be aca5 f9bd c8c7 81be
000001e0: aff2 8bbe 6fec 9abb d971 293e bf69 253e
000001f0: 2707 423d 3a14 5c3d e029 fdbd 9e24 f839
00000200: 3456 2dbe 3ede 7f3e f669 243e 3037 9b3d
00000210: 7ffa 643d 07ac 2cbe e88c dc3d 7a20 443e
00000220: 592c 5c3d 3706 393e 086d 0fbd 0226 993d

gconv1.1.A f4 [140, 140]
0.0043566697 -0.09524769 0.20208672 -0.17210847 0.045205656 0.08601142 -0.027424332 -0.087509334
-0.03623815 0.004581866 0.13940711 0.09049891 0.054326512 -0.20441921 0.0214394 0.10337751
0.028185327 0.06724777 -0.06411398 -0.016897455 -0.1755574 -0.0066028703 0.025632065 -0.09105074
-0.081592925 -0.025648616 0.07503712 -0.018698948 -0.00580626 -0.0950055 -0.014965766 -0.018422015
0.04999815 -0.05148208 0.027303956 -0.08228449 -0.0424001 -0.075086705 -0.053218108 0.069063954
-0.007904514 0.060216792 -0.15524451 0.0042071054 -0.051218383 0.002794578 0.031016426 0.017989198
0.010457685 -0.006757366 0.1796649 -0.06587429 -0.03487194 -0.007711578 -0.21838556 -0.031990238
0.044266406 -0.10429368 -0.030540433 0.04473321 -0.20171651 0.1322209 0.029116666 0.11440408
-0.094014905 -0.015778719 0.08133027 0.1361229 0.1637788 0.03654081 -0.045769002 0.06499297
-0.1241613 -0.16218856 -0.06358576 -0.032545887 0.020449033 -0.09905267 0.005537333 0.016966397
-0.10666154 0.0037226842 -0.06775786 -0.0145508135 0.0030238982 -0.07739274 0.040716995 0.010773291
-0.037974432 0.10024637 0.050875675 0.07155791 -0.054640364 0.06500315 0.1265442 -0.09455143
0.10530506 0.12844613 0.059371132 -0.03115258 0.08594648 0.03247013 0.11651384 -0.09947142
-0.040311873 -0.06752402 0.2976033 -0.029242821 -0.030097185 -0.019250877 -0.037704032 -0.16566756
0.09871065 -0.12972651 -0.04383339 -0.11903085 -0.032236576 -0.0540795 0.056754883 -0.013608195
-0.18962595 0.040084574 -0.013731851 -0.02067395 0.023424977 -0.10818915 -0.028012512 0.031141238
0.10908731 0.12955828 -0.21589623 -0.07537241 -0.040603794 -0.022058701 -0.116254814 -0.04450788
0.0316157 0.008614011 0.049495015 -0.029743308 -0.02176362 -0.06154658 -0.03981396 0.038141552
0.12222506 -0.14315116 0.0388932 0.1998135 -0.01555622 -0.004090224 0.023149123 -0.19535275
-0.007991073 0.059621233 0.0078733405 0.16851705 -0.010882721 -0.08094577 0.065256216 -0.09274728
0.043851484 -0.16513269 0.013768744 -0.0174001 -0.093827635 -0.06984134 -0.0020706847 -0.07964697
-0.1492172 -0.25602496 0.11544641 -0.08017826 -0.18555172 -0.020229023 0.05901888 -0.0049956962
0.08498692 0.04168221 0.040538035 -0.025480332 0.1202783 0.009382515 -0.049284626 -0.055768266
0.044306953 0.02839598 -0.12687957 -0.123925105 0.0030508547 -0.048306286 0.11807748 -0.09386304
-0.04177358 -0.13096312 -0.08981751 0.025794538 0.067627616 -0.02036304 -0.10102363 -0.06707747
0.06192404 -0.09979215 0.12115286 -0.062355243 0.15228759 -0.08473152 -0.069640495 -0.09347051
0.11789246 0.02095727 0.028260712 -0.005762644 0.030392896 0.05296744 0.024784436 -0.17480312
-0.09100727 -0.047819488 0.13983807 0.08469546 0.03607882 0.017683936 -0.0021262947 -0.037042033
0.11106277 -0.03692667 0.002590671 -0.09297169 0.012024018 -0.035225473 0.01098073 -0.04863271
-0.068608746 -0.11606767 -0.011103085 0.1482247 -0.039132927 -0.10499712 0.09992698 -0.12619475
0.06086137 -0.061344236 0.020165108 -0.015449521 -0.14593224 0.02977602 -0.09172194 -0.08756175
-0.008331179 0.116222546 -0.14252198 -0.16320267 0.004758488 0.01910325 -0.14226073 0.25813636
00000000: 65c2 8e3b 3911 c3bd d2ef 4e3e 343d 30be
00000010: 9129 393d c126 b03d fea8 e0bc 1838 b3bd
00000020: 746e 14bd 7a23 963b bdc0 0e3e 7e57 b93d
00000030: 7a85 5e3d 4553 51be aea1 af3c 97b7 d33d
00000040: eae4 e63c 33b9 893d 314e 83bd 886c 8abc
00000050: 52c5 33be e45c d8bb 56fa d13c cf78 babd
00000060: 311a a7bd 0c1d d2bc 10ad 993d 892e 99bc
00000070: 7042 bebb 3e92 c2bd f932 75bc c4e9 96bc
00000080: dcca 4c3d e0de 52bd 8cac df3c c584 a8bd
00000090: baab 2dbd 0fc7 99bd 3bfb 59bd 6771 8d3d
000000a0: ef81 01bc e2a5 763d 6bf8 1ebe c2db 893b
000000b0: 5eca 51bd 3d25 373b 2916 fe3c 155e 933c
000000c0: b656 2b3c e56c ddbb 13fa 373e 1ae9 86bd
000000d0: e1d5 0ebd 68b1 fcbb 77a0 5fbe 3208 03bd
000000e0: b150 353d ed97 d5bd ee2f fabc 2c3a 373d
000000f0: c68e 4ebe ea64 073e 1386 ee3c b04c ea3d
00000100: e38a c0bd 5f42 81bc 7c90 a63d cd63 0b3e
00000110: a1b5 273e d1ab 153d 4778 3bbd 091b 853d
00000120: 4848 febd c214 26be 4039 82bd d64e 05bd
00000130: bb84 a73c 20dc cabd 8472 b53b 1dfd 8a3c
00000140: 5e71 dabd 47f8 733b a2c4 8abd 8966 6ebc
00000150: 982c 463b 1680 9ebd ddc6 263d 7582 303c
00000160: 148b 1bbd f84d cd3d 0363 503d f48c 923d
00000170: 93ce 5fbd 5f20 853d ce94 013e 2ea4 c1bd
00000180: 2eaa d73d 6287 033e 252f 733d b233 ffbc
00000190: b504 b03d 66ff 043d cf9e ee3d acb7 cbbd
000001a0: 101e 25bd 094a 8abd 765f 983e a48e efbc
000001b0: 5f8e f6bc 04b4 9dbc 8b6f 1abd c2a4 29be
000001c0: cf28 ca3d 07d7 04be a48a 33bd 72c6 f3bd
000001d0: 800a 04bd 7782 5dbd cf77 683d e8f4 5ebc
000001e0: 4e2d 42be b92f 243d 8ffb 60bc 6a5c a9bc
000001f0: bde5 bf3c 4692 ddbd 7f7a e5bc e91b ff3c
00000200: 2b69 df3d edaa 043e e713 5dbe da5c 9abd
00000210: 2a50 26bd 73b4 b4bc 0117 eebd e54d 36bd
00000220: 777f 013d c821 0d3c 49bb 4a3d 3da8 f3bc
00000230: 9f49 b2bc 4418 7cbd f713 23bd 513a 1c3d
00000240: 2251 fa3d 3896 12be 7a4e 1f3d e99b 4c3e
00000250: 84df 7ebc 4907 86bb 3ba3 bd3c 8d0a 48be
00000260: fdec 02bc 6535 743d 2fff 003c bc8f 2c3e
00000270: 714d 32bc e5c6 a5bd 0da5 853d 49f2 bdbd
00000280: 9d9d 333d 8b18 29be 4c96 613c a88a 8ebc
00000290: b428 c0bd fa08 8fbd 53b4 07bb f31d a3bd
000002a0: 65cc 18be b415 83be 2b6f ec3d 8034 a4bd
000002b0: 4501 3ebe 56b7 a5bc c8bd 713d f0b2 a3bb
000002c0: 9f0d ae3d f7ba 2a3d 360b 263d 21bc d0bc
000002d0: 7854 f63d 1fb9 193c adde 49bd 446d 64bd
000002e0: 357b 353d b09e e83c b8ec 01be 72cc fdbd
000002f0: d9f0 473b d0dc 45bd 9bd2 f13d 443b c0bd
00000300: c61a 2bbd 321b 06be 3ef2 b7bd 114f d33c
00000310: 5980 8a3d 64d0 a6bc 7ae5 cebd ea5f 89bd
00000320: 10a4 7d3d d45f ccbd fe1e f83d 3668 7fbd
00000330: 47f1 1b3e b887 adbd ad9f 8ebd 776d bfbd
00000340: 9a71 f13d 95ae ab3c 0283 e73c 90d4 bcbb
00000350: 86fa f83c 63f4 583d bb08 cb3c 97ff 32be
00000360: 0562 babd 5ede 43bd b631 0f3e d074 ad3d
00000370: 62c7 133d e7dd 903c 4e59 0bbb 63b9 17bd
00000380: e174 e33d 6c40 17bd 3fc8 293b f167 bebd
00000390: 6300 453c 9648 10bd 85e8 333c 1833 47bd
000003a0: be82 8cbd e3b4 edbd b7e9 35bc 37c8 173e
000003b0: d949 20bd bb08 d7bd 84a6 cc3d 3239 01be
000003c0: c649 793d 1844 7bbd 4c31 a53c fd1f 7dbc
000003d0: 436f 15be d7ec f33c b6d8 bbbd 9353 b3bd
000003e0: 7f7f 08bc 1606 ee3d 48f1 11be 9a1e 27be
000003f0: 17ed 9b3b 6b7e 9c3c ccac 11be 732a 843e

gconv1.1.W.weight f4 [140, 140]
0.11247634 -0.049820278 0.056350745 -0.01076547 -0.0030135459 0.085531615 -0.09140481 0.19368932
-0.026362736 0.122301094 0.21847579 0.18954508 0.19617888 0.017496767 0.026890146 -0.07613969
-0.031738248 -0.040276684 -0.10396585 -0.09976728 -0.06027364 -0.026362179 0.03095415 0.009972616
-0.08981471 0.15427287 0.012905241 0.05601686 -0.06236399 0.035252094 0.09599041 0.12390712
-0.12227306 -0.09530678 0.094602846 0.11858748 0.007864404 0.00048419338 -0.18066677 -0.03728947
0.0073850215 0.027454494 -0.02485741 -0.18616292 0.062341005 0.08542258 0.014054083 0.057250567
0.055041593 0.015317862 0.031751473 -0.05486263 0.09229316 -0.06130993 0.042899836 0.0768641
0.032880653 0.119723044 0.18843064 -0.056364093 -0.075103976 -0.077301264 -0.025459656 -0.17847897
-0.021973694 -0.113846354 -0.09041746 0.006273194 -0.048498783 -0.016081372 -0.022863189 0.013495076
-0.1442653 0.02880002 0.08150665 0.122344024 0.08880347 -0.06446837 0.1407169 0.04289957
-0.0022214695 0.112305135 0.005800622 0.02309265 0.13481265 -0.018109843 0.13473919 -0.041067
0.022669598 -0.23685141 -0.004594421 -0.056569282 -0.09340459 0.044516888 0.03941463 -0.009166774
0.050596755 -0.02334113 -0.06219237 0.13285285 -0.006538072 0.013366966 -0.026984276 0.047268767
0.016376544 0.027300658 -0.09618825 0.025202205 -0.0064980187 -0.006422225 0.08223435 0.04791762
0.023604402 0.06508288 -0.058182035 0.0522453 0.09519074 0.053654093 -0.022984516 -0.042959727
-0.010734751 -0.045747325 -0.07362231 0.105029404 0.08121804 0.06367 0.08493792 0.009074464
0.026526552 -0.05554165 -0.012877375 -0.07073302 0.064533964 -0.024075458 -0.047902167 0.026471185
0.035846435 -0.042976703 0.0058790757 -0.11644801 0.0051386035 -0.094438806 0.074354894 -0.093363576
-0.09210553 -0.11497866 0.16966827 0.0030011286 0.049834806 0.07095108 -0.013219699 -0.11328854
-0.19961233 0.00066922104 -0.034852646 0.040919617 0.07211163 0.11155527 0.037539944 0.10507012
0.014227622 0.025902435 -0.006828384 -0.00036567872 -0.1960354 -0.118857145 -0.021997843 -0.081657164
0.06512446 -0.17752054 0.0007637057 -0.008557611 0.10076263 -0.061611887 0.14180109 -0.09483573
0.08078836 -0.113274746 -0.11127245 0.025330728 0.12502457 -0.2145296 0.0417251 -0.08735903
-0.009543027 -0.0897689 0.11660077 -0.1543861 0.11166274 -0.06845079 0.042290427 -0.026837105
0.049836393 0.007760695 -0.10972757 -0.03619369 -0.060478285 -0.11785535 0.011984779 -0.03727904
0.061518304 -0.0578527 0.009923267 -0.010054193 -0.019782726 -0.031817663 0.035810128 -0.0031326092
-0.008656956 0.008440406 0.059081987 -0.033337917 -0.036975395 0.08350275 0.02002768 0.031301863
-0.09216077 0.09602726 -0.08495351 0.09753732 -0.038700867 0.13462672 -0.17052078 -0.07243055
0.035350624 0.0056262803 0.042842824 -0.07082046 -0.03810583 -0.060170576 -0.11651521 0.03926338
-0.050406575 0.059535637 -0.13969772 0.078861855 -0.03578321 0.072412655 -0.11816069 -0.17053981
-0.053063557 -0.029294705 0.034438282 0.01789863 0.059427906 -0.13028511 -0.01738228 -0.019103749
0.08288305 0.008477307 0.0877021 0.058617577 0.06635327 0.025295064 0.07232776 -0.0061975946
00000000: ff59 e63d 5910 4cbd 0ad0 663d a761 30bc
00000010: e97e 45bb 332b af3d 7232 bbbd 7e56 463e
00000020: aaf6 d7bc ff78 fa3d 1eb8 5f3e 1b18 423e
00000030: 1ee3 483e 6155 8f3c b948 dc3c 20ef 9bbd
00000040: f7ff 01bd 2af9 24bd 0cec d4bd ca52 ccbd
00000050: 7ee1 76bd 7ff5 d7bc 8f93 fd3c 2f64 233c
00000060: c6f0 b7bd b5f9 1d3e 8170 533c ef71 653d
00000070: 6271 7fbd 8064 103d 9f96 c43d 04c3 fd3d
00000080: 4c6a fabd 3330 c3bd 23bf c13d fedd f23d
00000090: b3d9 003c 56db fd39 b600 39be d8bc 18bd
000000a0: 0dfe f13b 3fe8 e03c c4a1 cbbc 7ea1 3ebe
000000b0: 4859 7f3d 09f2 ae3d 1943 663c 927f 6a3d
000000c0: 4b73 613d c5f7 7a3c d50d 023d a3b7 60bd
000000d0: 3204 bd3d 1f20 7bbd bdb7 2f3d ed6a 9d3d
000000e0: ddad 063d 5b31 f53d f6f3 403e 09de 66bd
000000f0: 1dd0 99bd 2050 9ebd c590 d0bc 31c3 36be
00000100: 2d02 b4bc 4728 e9bd ca2c b9bd 5e8f cd3b
00000110: a9a6 46bd 15bd 83bc 954b bbbc 741a 5d3c
00000120: 48ba 13be 05ee eb3c f5ec a63d 818f fa3d
00000130: 98de b53d fe07 84bd 1718 103e 76b7 2f3d
00000140: 1396 11bb 3c00 e63d 2513 be3b cc2c bd3c
00000150: 540c 0a3e 185b 94bc 12f9 093e df35 28bd
00000160: 98b5 b93c 2d89 72be cc8c 96bb 31b5 67bd
00000170: e84a bfbd 5757 363d 3c71 213d 3d30 16bc
00000180: 8b3e 4f3d e635 bfbc 6dbd 7ebd 940a 083e
00000190: 533d d6bb 1e01 5b3c 210e ddbc e59c 413d
000001a0: 1a28 863c a1a5 df3c 58fe c4bd db74 ce3c
000001b0: 55ed d4bb 8771 d2bb 7c6a a83d 4445 443d
000001c0: 055e c13c 2c4a 853d 4950 6ebd 2bff 553d
000001d0: 5df3 c23d 65c4 5b3d 064a bcbc 8af6 2fbd
000001e0: cfe0 2fbc 8c61 3bbd 4bc7 96bd a819 d73d
000001f0: a555 a63d 6b65 823d eff3 ad3d 10ad 143c
00000200: 364e d93c a47f 63bd a0fb 52bc 79dc 90bd
00000210: 622a 843d e539 c5bc 1035 44bd 19da d83c
00000220: b6d3 123d 5708 30bd 43a5 c03b 4b7c eebd
00000230: bb61 a83b 2269 c1bd 6147 983d 6735 bfbd
00000240: d3a1 bcbd ef79 ebbd 85bd 2d3e 95ae 443b
00000250: 951f 4c3d cd4e 913d 7097 58bc d203 e8bd
00000260: 2d67 4cbe aa6e 2f3a a6c1 0ebd 549b 273d
00000270: 43af 933d 1777 e43d 7cc3 193d 012f d73d
00000280: f91a 693c 5831 d43c a3c0 dfbb 91b8 bfb9
00000290: 81bd 48be 606b f3bd d234 b4bc df3b a7bd
000002a0: f95f 853d f2c7 35be 6c33 483a 3935 0cbc
000002b0: a35c ce3d bf5c 7cbd 4e34 113e 3c39 c2bd
000002c0: 5e74 a53d 97fc e7bd cfe2 e3bd 6382 cf3c
000002d0: 7106 003e a6ad 5bbe f0e7 2a3d 4be9 b2bd
000002e0: 5b5a 1cbc c2d8 b7bd 62cc ee3d 6417 1ebe
000002f0: 6faf e43d ee2f 8cbd ba38 2d3d 7dd9 dbbc
00000300: 3f21 4c3d 6e4d fe3b d9b8 e0bd d63f 14bd
00000310: 14b8 77bd 255e f1bd ce5b 443c e8b1 18bd
00000320: 9efa 7b3d f4f6 6cbd 3395 223c 58ba 24bc
00000330: 620f a2bc 3d53 02bd a4ad 123d 764c 4dbb
00000340: e8d5 0dbc a149 0a3c f4ff 713d 578d 08bd
00000350: 8373 17bd 7d03 ab3d 1711 a43c 6236 003d
00000360: c9be bcbd f1a9 c43d 1bfc adbd a5c1 c73d
00000370: cd84 1ebd 96db 093e 009d 2ebe 7856 94bd
00000380: d1cb 103d a95c b83b f57b 2f3d 510a 91bd
00000390: dc14 1cbd 6c75 76bd 879f eebd a3d2 203d
000003a0: 2077 4ebd a4db 733d eb0c 0fbe 5382 a13d
000003b0: 6a91 12bd 164d 943d 3bfe f1bd fda1 2ebe
000003c0: 2c59 59bd 73fb efbc 280f 0d3d 26a0 923c
000003d0: ad6a 733d 7669 05be 4965 8ebc 777f 9cbc
000003e0: 97be a93d 67e4 0a3c 299d b33d fc18 703d
000003f0: 39e4 873d 9837 cf3c 9420 943d 3115 cbbb
