save/best_new_opt1_0.787.pt (torch, 886152 bytes, 24 tensors)

gconv1.0.A f4 [140, 140]
0.0029756739 0.025982538 0.042213697 0.07257737 0.094587915 -0.0059108417 0.029923616 0.020937828
0.001293255 0.07979152 -0.19981088 -0.0010585557 -0.048482597 -0.037668657 -0.092994794 -0.15702198
-0.073953755 0.080490306 -0.025478194 -0.119660355 0.026798787 0.025435142 0.043502234 0.04478417
0.039985184 0.13765828 -0.062891796 -0.064458534 -0.15980288 0.0502626 -0.1937895 0.010640481
-0.06699492 0.019177418 -0.051251102 0.06221403 0.11285218 0.04130844 0.09780262 0.033975024
-0.06534352 0.029520826 0.056822915 -0.0046785865 0.05017414 -0.017486718 -0.08867695 -0.08964737
-0.1200995 0.10023765 -0.053817105 -0.0022686685 -0.1983146 0.02702111 -0.0041545834 0.14961688
-0.00095871394 -0.27223852 0.17501433 -0.109500766 0.0010219382 0.07335996 -0.037621494 -0.16056445
0.07191506 -0.091850735 0.0009287703 0.13186504 0.034487423 -0.027004939 0.048718963 -0.019803576
0.051892422 -0.028744144 0.2012987 -0.08793894 -0.04409097 0.11928721 -0.18776026 -0.054251377
-0.008160712 -0.051754404 -0.07571332 0.036224373 0.05165311 0.23052722 0.068967454 -0.032423906
0.0009520227 -0.21351969 0.06728486 0.011894623 0.025688402 0.010075683 -0.058559366 0.10100631
-0.00058789767 -0.0066062966 -0.088096425 0.07011266 0.027923495 0.04405611 -0.035014823 0.018707082
-0.037686896 -0.036275636 -0.024822023 -0.05159985 -0.0033470117 -0.03033036 0.045072537 0.036617193
-0.16692396 -0.032967053 -0.079533845 0.033277534 -0.14259578 0.04640068 0.06687405 0.02159311
-0.025014857 -0.039766844 -0.06205492 -0.025052626 0.033124596 -0.19018263 -0.0545102 -0.010507877
0.09305183 0.29853055 0.09862549 0.014960528 -0.01588266 0.0151079325 0.033741377 0.024190202
0.081367746 0.08467862 -0.06512227 -0.00079338555 0.040109318 0.0075868755 -0.08416553 -0.1895996
-0.073978364 0.099728 -0.03155955 -0.10300241 -0.010328137 -0.117827676 -0.059727356 -0.07242763
-0.022892235 0.023532646 0.16999169 -0.04164729 0.114572585 -0.058760006 0.14576498 0.20568547
-0.091748565 -0.10463806 -0.18261135 0.12358191 0.015121918 -0.10782852 -0.06510355 0.079675406
-0.050783236 0.08318765 0.15919001 -0.032733537 -0.039942928 -0.05217243 0.20375296 -0.10826035
-0.13157599 0.127158 -0.09932733 -0.022566466 0.12100978 0.0121304095 0.12427261 0.02273875
0.04604382 0.013262642 -0.0843144 0.09435626 -0.04677575 0.16277213 -0.11473614 -0.12922257
-0.07030194 0.06412088 0.15660468 -0.07522449 -0.0019687403 -0.013762921 -0.044984415 0.10091226
-0.065231755 0.051297646 0.00853116 0.038957443 0.11680306 -0.07788332 0.1588647 -0.12013009
0.120045036 -0.055386968 -0.02828995 0.11497147 0.0027446616 0.10898461 -0.104768544 0.018817907
0.06255392 0.066672884 0.05124075 0.11537754 0.016732603 -0.018530613 -0.034606814 -0.024875993
-0.06598496 0.017274592 -0.055776164 -0.06674732 0.09206111 -0.08635782 0.23707187 -0.023806134
0.10150268 -0.064424396 0.041541338 -0.059111115 -0.043201447 0.112252094 0.10210037 0.098194644
-0.006161101 0.11619372 -0.004018863 0.088362984 0.08580992 0.08742914 0.020234602 -0.07182091
-0.012165906 0.03973701 0.108176626 -0.05300383 -0.13435392 0.045014467 -0.075796016 -0.0048952983
00000000: 8603 433b 55d9 d43c 45e8 2c3d 72a3 943d
00000010: 4fb7 c13d bcaf c1bb 5f22 f53c cf85 ab3c
00000020: 7082 a93a bd69 a33d 399b 4cbe 3cbf 8aba
00000030: b095 46bd 734a 1abd 0e74 bebd 5fca 20be
00000040: 1175 97bd 1ad8 a43d a5b7 d0bc 7d10 f5bd
00000050: 2189 db3c 5c5d d03c 662f 323d 9b6f 373d
00000060: 81c7 233d 4bf6 0c3e 6acd 80bd d602 84bd
00000070: 5ea3 23be 28e0 4d3d c170 46be 6955 2e3c
00000080: a234 89bd f619 9d3c adec 51bd 24d4 7e3d
00000090: 0b1f e73d 0a33 293d bd4c c83d 6529 0b3d
000000a0: d3d2 85bd a9d5 f13c 25bf 683d d44e 99bb
000000b0: 6683 4d3d 4e40 8fbc 439c b5bd 0a99 b7bd
000000c0: baf6 f5bd 6649 cd3d 536f 5cbd f1ad 14bb
000000d0: fc12 4bbe 605b dd3c 2c23 88bb 2b35 193e
000000e0: 3452 7bba d962 8bbe f536 333e f041 e0bd
000000f0: 8ef2 853a bf3d 963d ff18 1abd 026b 24be
00000100: 3448 933d 3d1c bcbd b878 733a a107 073e
00000110: af42 0d3d 7639 ddbc 898d 473d 1c3b a2bc
00000120: 268d 543d d778 ebbc 3f21 4e3e 5519 b4bd
00000130: bc98 34bd da4c f43d 3a44 40be b136 5ebd
00000140: 82b4 05bc 6dfc 53bd 960f 9bbd 0260 143d
00000150: 3692 533d 540f 6c3e cf3e 8d3d eece 04bd
00000160: 2991 793a e8a4 5abe a5cc 893d aae1 423c
00000170: 7c70 d23c 7a14 253c f2db 6fbd 65dc ce3d
00000180: 251d 1aba a279 d8bb e66b b4bd 3a97 8f3d
00000190: d0bf e43c 2e74 343d b46b 0fbd 983f 993c
000001a0: 935d 1abd c395 14bd 8e57 cbbc 5d5a 53bd
000001b0: 8a59 5bbb 6077 f8bc fb9d 383d e9fb 153d
000001c0: 1dee 2abe 7608 07bd a4e2 a2bd 064e 083d
000001d0: a104 12be a40e 3e3d 43f5 883d 09e4 b03c
000001e0: f5eb ccbc 8fe2 22bd 4d2d 7ebd 2a3b cdbc
000001f0: a8ad 073d 3cbf 42be 1646 5fbd 3b29 2cbc
00000200: f591 be3d ffd8 983e 29fc c93d 011d 753c
00000210: 5a1c 82bc 4387 773c 6634 0a3d 882a c63c
00000220: 22a4 a63d fc6b ad3d d35e 85bd 34fb 4fba
00000230: ab49 243d 539b f83b fa5e acbd 6626 42be
00000240: f881 97bd 323e cc3d 9644 01bd edf2 d2bd
00000250: 5937 29bc a34f f1bd aca4 74bd f054 94bd
00000260: 7f88 bbbc 89c7 c03c 4d12 2e3e 5996 2abd
00000270: 08a5 ea3d 55ae 70bd 6a43 153e 369f 523e
00000280: ace6 bbbd 7b4c d6bd 78fe 3abe 8318 fd3d
00000290: ecc1 773c 33d5 dcbd 0355 85bd dc2c a33d
000002a0: 1502 50bd 495e aa3d b502 233e 9a13 06bd
000002b0: 329b 23bd c2b2 55bd 9ea4 503e 9ab7 ddbd
000002c0: dbbb 06be b535 023e 216c cbbd 4fdd b8bc
000002d0: fad3 f73d a0be 463c a382 fe3d 9d46 ba3c
000002e0: 7298 3c3d 8d4b 593c 07ad acbd db3d c13d
000002f0: ee97 3fbd bdad 263e c8fa eabd ec52 04be
00000300: 77fa 8fbd cf51 833d fa5c 203e 4c0f 9abd
00000310: fb05 01bb e07d 61bc 9441 38bd 16ab ce3d
00000320: 3a98 85bd 7b1d 523d 47c6 0b3c d791 1f3d
00000330: 7136 ef3d 4a81 9fbd 6ead 223e c406 f6bd
00000340: 2cda f53d 72dd 62bd 53c0 e7bc 2976 eb3d
00000350: c8df 333b 5333 df3d e490 d6bd 0328 9a3c
00000360: 451c 803d cb8b 883d d2e1 513d 0f4b ec3d
00000370: d012 893c 83cd 97bc e0bf 0dbd bdc8 cbbc
00000380: 1f23 87bd 7283 8d3c 8c75 64bd d2b2 88bd
00000390: 898a bc3d 5edc b0bd f8c2 723e 1505 c3bc
000003a0: a3e0 cf3d f0f0 83bd 4027 2a3d 7f1e 72bd
000003b0: 00f4 30bd 6de4 e53d 001a d13d 461a c93d
000003c0: 10e3 c9bb f9f6 ed3d abb0 83bb a7f7 b43d
000003d0: 1dbd af3d 0d0e b33d 09c3 a53c d716 93bd
000003e0: 8253 47bc 46c3 223d b58b dd3d 8b1a 59bd
000003f0: 1394 09be 1761 383d f13a 9bbd bd68 a0bb

gconv1.0.W.weight f4 [140, 140]
0.0029210057 0.09263422 -0.043557867 -0.115035616 -0.09767297 -0.005703729 -0.11317682 0.03476957
-0.15388273 -0.039294872 0.0058323145 0.014654255 -0.08596235 -0.07257294 0.05550883 -0.04364371
0.09509371 0.0642056 -0.043586265 0.15007514 -0.09192146 -0.015924016 0.104599044 -0.015521635
0.14026596 -0.026495248 0.10820287 0.003542703 0.057993535 0.102099314 0.1261751 -0.059463453
0.15167496 -0.03631398 -0.027825983 -0.10203545 -0.13885081 -0.007839792 -0.081391394 -0.016807033
-0.014620239 0.039148465 -0.15186884 0.012706474 0.013423034 0.11234679 -0.03308315 0.0358439
-0.1263015 -0.116739966 0.088473484 0.06186175 -0.046668638 -0.06284357 -0.06428333 0.1464064
-0.14293018 -0.082334936 0.0029074347 -0.11751049 0.053973194 0.0010508555 -0.036600366 0.028262993
-0.04947232 0.019511586 -0.016956646 0.06067542 0.025119154 -0.06166185 0.0055304575 -0.009087463
0.018778514 -0.07282931 0.0421227 -0.10953977 -0.006524129 0.0010419172 0.006697336 0.03704034
-0.055974923 -0.013350415 -0.036125407 -0.05690742 -0.09586355 -0.008831728 0.10208253 0.10317583
0.1530128 -0.06617439 0.039864883 -0.09678927 -0.20362933 -0.046799265 -0.019043708 0.09566831
-0.012352523 -0.097912006 0.113647915 0.04542854 0.12994081 -0.075417936 0.10612427 0.17820053
-0.1661089 0.028261174 -0.014126862 -0.013320133 0.17931962 0.013299301 0.09322146 0.0650729
-0.07730795 0.078081965 0.012039782 -0.109883346 0.13294977 0.0020498047 0.1835477 0.053706963
-0.09077472 0.08002666 0.05396143 0.12549648 0.11451624 -0.009364944 0.01791861 0.14247185
0.054719258 0.0916852 0.037103884 0.007877485 -0.15142862 0.022366032 0.08075745 0.05044825
0.040725503 -0.052431114 -0.108520046 0.0071698767 0.15950431 -0.062824994 -0.08066372 0.10811464
-0.06546294 0.137546 -0.08800294 0.027739882 0.04267726 0.06829625 0.08734182 0.12140138
-0.13645926 0.04612477 0.044380624 0.014352875 -0.066790305 0.0650665 0.12495492 0.031079225
0.18323503 -0.07537487 -0.05099324 0.07625561 -0.001737499 -0.03400323 0.04818856 -0.045537427
-0.023515902 -0.0769502 -0.019522646 -0.026582666 -0.031076914 0.11470414 0.002907302 -0.00619472
0.18891355 -0.021301094 -0.17981839 -0.11895836 0.05709138 -0.12115143 0.070718236 -0.060278952
0.00083334005 0.110348515 0.1327263 -0.065287285 -0.05813328 0.12891778 -0.0503062 0.07652981
0.05271982 -0.0843176 0.07526279 0.0013801582 -0.04169506 -0.0174169 0.12756991 -0.08101555
0.06636122 -0.06171735 0.047820568 -0.1040124 -0.013022464 -0.12589693 -0.073901795 -0.15855663
-0.12477905 -0.042009484 -0.10104817 0.015904188 -0.006237086 0.034889985 -0.08315037 -0.14107971
-0.020247314 0.092293225 -0.10975404 0.0030699223 -0.102785185 -0.047022693 -0.13284583 -0.008356718
-0.053097654 0.062170345 -0.15355314 0.11740437 -0.071059756 0.13141163 -0.18467635 0.2115819
-0.17364746 -0.16542359 0.10055851 0.03895119 0.1153866 -0.10592396 -0.02301438 0.070317656
0.05037021 -0.04183229 0.21376255 -0.0074868617 0.030403906 -0.04511573 0.0073431875 0.024657102
0.0326797 -0.06989769 0.042196896 -0.08870543 -0.024133557 -0.04997723 0.052046012 -0.07943802
00000000: 586e 3f3b 03b7 bd3d bc69 32bd cb97 ebbd
00000010: c408 c8bd 59e6 babb 40c9 e7bd 896a 0e3d
00000020: 6f93 1dbe a9f3 20bd 001d bf3b 6618 703c
00000030: 070d b0bd 1fa1 94bd 3a5d 633d bfc3 32bd
00000040: 7ec0 c23d 3a7e 833d 8387 32bd 4cad 193e
00000050: 5241 bcbd 1573 82bc 0638 d63d 754e 7ebc
00000060: e1a1 0f3e 900c d9bc 7799 dd3d b22c 683b
00000070: a18a 6d3d 7219 d13d 0c34 013e f38f 73bd
00000080: ae50 1b3e f8bd 14bd 51f3 e3bc f6f7 d0bd
00000090: e82e 0ebe 7972 00bc 88b0 a6bd e7ae 89bc
000000a0: ba89 6fbc 245a 203d 8183 1bbe d12e 503c
000000b0: 49ec 5b3c 1316 e63d 3282 07bd 0ed1 123d
000000c0: 2e55 01be 5d15 efbd 9631 b53d bf62 7d3d
000000d0: 9d27 3fbd 21b4 80bd fba6 83bd 8feb 153e
000000e0: 4a5c 12be 389f a8bd a98a 3e3b 57a9 f0bd
000000f0: ff12 5d3d dcbc 893a 44ea 15bd cb87 e73c
00000100: 7da3 4abd c3d6 9f3c aae8 8abc ca86 783d
00000110: afc6 cd3c 2391 7cbd d738 b53b 95e3 14bc
00000120: 66d5 993c 8927 95bd da88 2c3d 6356 e0bd
00000130: 5cc8 d5bb f190 883a 5475 db3b 9db7 173d
00000140: f645 65bd b3bb 5abc 3cf8 13bd c117 69bd
00000150: 1c54 c4bd f4b2 10bc a510 d13d d94d d33d
00000160: 63af 1c3e 7086 87bd 5c49 233d 7439 c6bd
00000170: 3584 50be 96b0 3fbd 8d01 9cbc bfed c33d
00000180: 3d62 4abc 1786 c8bd 3dc0 e83d 4713 3a3d
00000190: 340f 053e b874 9abd ae57 d93d 337a 363e
000001a0: 7418 2abe fa83 e73c 5b74 67bc b03c 5abc
000001b0: 909f 373e 50e5 593c e5ea be3d f144 853d
000001c0: a153 9ebd 70e9 9f3d 8142 453c 850a e1bd
000001d0: fc23 083e 0456 063b eef3 3b3e d5fb 5b3d
000001e0: 19e8 b9bd 04e5 a33d a906 5d3d 2682 003e
000001f0: 7e87 ea3d 6c6f 19bc 0cca 923c 24e4 113e
00000200: 4d21 603d 73c5 bb3d 3efa 173d 9110 013c
00000210: 1b10 1bbe f838 b73c 2964 a53d d3a2 4e3d
00000220: c9cf 263d 02c2 56bd c23f debd 49f1 ea3b
00000230: 1955 233e 64aa 80bd 0533 a5bd 356b dd3d
00000240: 6f11 86bd dcd8 0c3e e33a b4bd c03e e33c
00000250: 5ace 2e3d e8de 8b3d 45e0 b23d 49a1 f83d
00000260: fabb 0bbe 54ed 3c3d 75c8 353d 5228 6b3c
00000270: 5bc9 88bd 9641 853d 5de8 ff3d dc99 fe3c
00000280: f7a1 3b3e 245e 9abd 4ade 50bd e72b 9c3d
00000290: cbbc e3ba f946 0bbd 5e61 453d 7485 3abd
000002a0: 6ca4 c0bc 1198 9dbd f5ed 9fbc e4c3 d9bc
000002b0: 0395 febc 01ea ea3d 6f88 3e3b 14fd cabb
000002c0: 8e72 413e a27f aebc 5022 38be 71a0 f3bd
000002d0: a7d8 693d 3e1e f8bd b9d4 903d 10e7 76bd
000002e0: 8174 5a3a 67fe e13d 67e9 073e 57b5 85bd
000002f0: 2a1d 6ebd 0603 043e e00d 4ebd a9bb 9c3d
00000300: bdf0 573d b5ae acbd 6123 9a3d 6de6 b43a
00000310: 70c8 2abd e3ad 8ebc b0a1 023e 7beb a5bd
00000320: 64e8 873d 55cb 7cbd 80df 433d 7404 d5bd
00000330: 2c5c 55bc 20eb 00be d359 97bd ab5c 22be
00000340: 298c ffbd 2312 2cbd 58f2 cebd 8049 823c
00000350: 7860 ccbb cde8 0e3d be4a aabd 3377 10be
00000360: b2dd a5bc 3b04 bd3d bac6 e0bd c030 493b
00000370: 0a81 d2bd de9a 40bd bd08 08be 9eea 08bc
00000380: ed7c 59bd 55a6 7e3d 093d 1dbe b471 f03d
00000390: c787 91bd c590 063e cc1b 3dbe eda8 583e
000003a0: a4d0 31be cd64 29be 9ff1 cd3d 488b 1f3d
000003b0: cf4f ec3d a9ee d8bd a788 bcbc b402 903d
000003c0: fe50 4e3d 5658 2bbd 92e4 5a3e 5954 f5bb
000003d0: 9d11 f93c 46cb 38bd 1f9f f03b b1fd c93c
000003e0: 26db 053d 8526 8fbd a7d6 2c3d 31ab b5bd
000003f0: bdb3 c5bc edb4 4cbd 332e 553d 67b0 a2bd

gconv1.0.W.bias f4 [140]
0.101577975 -0.044116355 -0.064337134 0.06342259 0.05578321 -0.033020757 0.047313023 0.037450947
0.060071673 -0.08244531 -0.08078714 -0.05097672 0.020244226 0.049758766 -0.071006134 -0.034578413
-0.050515816 0.018258363 0.09663472 0.011205814 0.003171988 0.065224335 -0.04534848 0.08520553
0.064476594 -0.02558454 -8.392707e-06 -0.012654698 0.005468252 -0.045161694 0.03985777 -0.052446272
-0.040239237 -0.029955102 -0.08043875 0.072485715 0.056147628 -0.012159597 -0.0053915014 0.042519458
-0.030830799 -0.011385268 -0.03961971 0.009553925 -0.021524236 -0.03777912 0.009035973 0.034137525
0.0152448965 0.12162359 -0.022005122 -0.013898787 -0.0715495 0.07436918 0.0653097 0.01606753
0.0075123054 -0.07353429 -0.07950387 0.036537297 -0.053781908 -0.06786902 -0.00025714032 -0.022738319
-0.0031868557 -0.091530256 -0.0565074 -0.08962349 -0.060418148 0.036449637 -0.020526517 0.0086019
-0.046681132 -0.043167446 -0.10566601 -0.10277026 -0.06192862 0.061744757 -0.034653928 0.07988288
0.026198065 0.021890627 -0.036975957 -0.027476637 0.09651604 0.011996343 0.0317489 0.02573533
-0.033340856 0.06453469 0.06701063 0.06029562 0.058245637 0.0029142573 0.074318774 -0.06817737
-0.022222793 0.04672941 -0.00874064 -0.05073203 -0.07190682 -0.049635883 -0.04325867 -0.06381462
-0.015735956 0.030891733 -0.041286603 -0.05432388 -0.07777775 0.05028415 -0.0814322 0.0070977677
-0.002343527 0.07052083 -0.088865995 -0.019956132 -0.0020421625 -0.07881309 -0.016878642 0.037823733
-0.014511984 0.023173153 0.02592156 0.021999553 -0.008676581 -0.018705862 -0.05659251 0.0038641782
-0.098433204 -0.060008854 0.0050783823 0.08702515 0.08396164 -0.01247206 0.025660146 -0.0037891853
-0.005310914 0.061003562 -0.018750096 -0.01101435
00000000: 1d08 d03d 5ab3 34bd 30c3 83bd b4e3 813d
00000010: ef7c 643d c640 07bd 4dcb 413d 2a66 193d
00000020: b70d 763d 16d9 a8bd ba73 a5bd f7cc 50bd
00000030: 38d7 a53c d9cf 4b3d aa6b 91bd 18a2 0dbd
00000040: ace9 4ebd 9092 953c 6de8 c53d 9798 373c
00000050: 21e1 4f3b 5694 853d 54bf 39bd 3d80 ae3d
00000060: 4e0c 843d ab96 d1bc 67ce 0cb7 a755 4fbc
00000070: 062f b33b 78fb 38bd e741 233d e7d1 56bd
00000080: e6d1 24bd 6764 f5bc 12bd a4bd 6473 943d
00000090: 0efb 653d 0c39 47bc 31ab b0bb e228 2e3d
000000a0: df90 fcbc 4689 3abc 4748 22bd 1188 1c3c
000000b0: 9853 b0bc 47be 1abd 9e0b 143c cad3 0b3d
000000c0: bbc5 793c ca15 f93d 1644 b4bc bdb7 63bc
000000d0: 8b88 92bd de4e 983d 18c1 853d 0da0 833c
000000e0: c929 f63b 2599 96bd edd2 a2bd 22a8 153d
000000f0: 6b4a 5cbd eafe 8abd cad0 86b9 b645 babc
00000100: 91da 50bb 3774 bbbd 4e74 67bd 858c b7bd
00000110: 0579 77bd 374c 153d 3a27 a8bc fcee 0c3c
00000120: b734 3fbd 59d0 30bd 6c67 d8bd 3779 d2bd
00000130: dda8 7dbd 12e8 7c3d 47f1 0dbd a399 a33d
00000140: 539d d63c f953 b33c 1a74 17bd af16 e1bc
00000150: 34aa c53d 4f8c 443c 220b 023d e6d2 d23c
00000160: 6c90 08bd c32a 843d df3c 893d 8af8 763d
00000170: fa92 6e3d 20fd 3e3b 7134 983d 94a0 8bbd
00000180: 930c b6bc 5667 3f3d e734 0fbc 64cc 4fbd
00000190: e243 93bd ff4e 4bbd 0130 31bd 3db1 82bd
000001a0: b1e8 80bc a910 fd3c 241c 29bd b782 5ebd
000001b0: f149 9fbd c1f6 4d3d edc5 a6bd 6494 e83b
000001c0: dc95 19bb 3a6d 903d 60ff b5bd 0b7b a3bc
000001d0: cdd5 05bb c268 a1bd 1445 8abc 0fed 1a3d
000001e0: acc3 6dbc a0d5 bd3c 7459 d43c 6838 b43c
000001f0: 3828 0ebc 093d 99bc 8ccd 67bd 273e 7d3b
00000200: 5997 c9bd d8cb 75bd 8f68 a63b 3e3a b23d
00000210: 15f4 ab3d 9c57 4cbc 3a35 d23c fb53 78bb
00000220: 2d07 aebb dfde 793d cd99 99bc 8875 34bc

gconv1.0.gate.weight f4 [1, 280]
0.008826746 0.075090036 -0.19548185 0.0009123203 -0.14820586 0.07944898 0.0566025 0.071950145
-0.07353025 0.06396174 0.1743934 0.07155251 0.19627526 0.14882721 -0.21790384 0.17078082
-0.06935389 0.05312364 -0.06916851 -0.09138728 0.00088319986 -0.02366095 0.056471217 -0.017343575
0.11095553 0.023765 0.060213525 0.030487495 0.006746693 0.024428727 -0.053213343 -0.057019394
0.0094856 0.0022418166 -0.0037978035 -0.13367611 -0.052559726 0.042245254 -0.0044956184 0.09281754
0.08430892 -0.06310124 -0.22921932 -0.0054335427 -0.010555658 -0.0801745 0.09459242 0.012262604
0.012564669 -0.04256198 0.02951036 0.14585586 0.13117172 -0.14944749 0.110903464 0.04542158
-0.04570073 -0.023160959 0.146653 0.045884237 -0.017385013 -0.046986487 0.09011852 -0.06417842
0.14418986 0.06572536 -0.11797613 -0.022906533 -0.024259495 0.055460006 -0.09914784 0.088714264
-0.05422973 -0.05930049 -0.0030916345 0.10439583 0.051316015 -0.20446163 0.071017265 0.010624914
0.17743225 -0.015163148 -0.1635981 -0.0006749583 0.006502238 -0.05930596 0.053243108 0.022925558
-0.17437284 -0.020218015 -0.09290343 0.15792944 0.009998136 0.027996086 -0.1584431 0.060864106
-0.08896069 0.12347485 -0.04594953 0.005290635 0.07419798 0.010361097 0.06540505 0.036826275
0.008648452 0.11619537 0.059918065 -0.055443846 0.07737721 0.09671616 -0.046680596 0.052166715
0.055773742 -0.015083922 0.0052698986 -0.020594465 -0.022410063 -0.020120654 -0.14309955 -0.048263725
-0.075976945 -0.080214016 0.055344447 0.028081799 0.09386018 0.0038774544 0.10940715 -0.02205633
-0.07037353 -0.004276856 0.044930696 0.08667402 -0.017920459 0.035642855 0.08806907 -0.122716
0.09064447 0.0815917 0.10669492 -0.14121038 -0.016164033 -0.05576153 0.1415791 -0.0371102
0.05588792 0.0354586 -0.017386142 -0.022567624 0.020830717 -0.07826247 0.13615964 -0.09982653
-0.10399785 0.08256105 0.086043894 -0.0004906638 0.04718255 0.002095175 0.02717474 0.04789996
-0.06266446 -0.03561984 -0.118831486 -0.037463088 -0.011257826 0.111104764 0.18219015 0.031242074
0.06579091 0.118027784 -0.0026458986 -0.012799215 -0.08633429 -0.15665095 0.050941188 -0.015126005
-0.037033945 0.007736367 -0.17107555 -0.016938364 0.04665276 -0.008814388 0.1310551 0.03262997
0.10854397 -0.0012337528 -0.06837439 0.015253556 -0.014599373 -0.093295135 -0.017063964 0.05881853
-0.038069997 -0.009405765 -0.03705843 0.069707505 -0.013529443 0.01877358 -0.04947914 0.08042076
0.07007779 -0.036112815 0.017146457 -0.029981596 0.017136956 -0.06271888 0.1341881 -0.13203974
0.026863344 0.060921915 -0.13378806 0.13421577 0.027287621 0.054174762 -0.026926467 0.022443231
0.0417292 -0.07976128 -0.040594887 -0.004673694 -0.09782052 -0.13446087 -0.09202331 0.015368899
-0.14362688 0.0032495614 0.02584416 -0.07498198 0.06500857 -0.088628545 -0.09471977 0.028516237
-0.0009804008 -0.05301654 0.12618102 0.06746158 -0.1072552 -0.06751013 0.12350767 -0.09292444
-0.07557139 0.05704975 0.057988428 -0.1532344 0.034159534 0.0013830562 0.03251029 -0.002175159
-0.10635762 -0.053477407 -0.061398286 0.00537964 -0.04520874 -0.017628102 -0.0004073539 0.115165696
00000000: 0e9e 103c cec8 993d 652c 48be c728 6f3a
00000010: 47c3 17be 26b6 a23d 06d8 673d 995a 933d
00000020: 0797 96bd 5ffe 823d 2f94 323e 1f8a 923d
00000030: 62fc 483e 2966 183e 2f22 5fbe 2be1 2e3e
00000040: 6a09 8ebd 2d98 593d 38a8 8dbd 4129 bbbd
00000050: 8a86 673a 9cd4 c1bc 5d4e 673d 1d14 8ebc
00000060: a73c e33d d1ae c23c 75a2 763d e9c0 f93c
00000070: 5d13 dd3b c11e c83c 3cf6 59bd 2b8d 69bd
00000080: 7d69 1b3c 71eb 123b 92e4 78bb 64e2 08be
00000090: de48 57bd 5c09 2d3d fb4f 93bb 1f17 be3d
000000a0: 28aa ac3d 393b 81bd 78b8 6abe dc0b b2bb
000000b0: a3f1 2cbc 8732 a4bd acb9 c13d 17e9 483c
000000c0: 0bdc 4d3c 7955 2ebd b6bf f13c 3d5b 153e
000000d0: e151 063e c308 19be 5b21 e33d fb0b 3a3d
000000e0: b030 3bbd 0dbc bdbc 342c 163e 1cf1 3b3d
000000f0: 046b 8ebc e774 40bd 0f90 b83d fa6f 83bd
00000100: 82a6 133e 049b 863d 789d f1bd 7ba6 bbbc
00000110: d9bb c6bc 082a 633d 060e cbbd d3af b53d
00000120: fe1f 5ebd 12e5 72bd 059d 4abb 7bcd d53d
00000130: be30 523d 645e 51be 8071 913d 1f14 2e3c
00000140: cdb0 353e da6e 78bc 4386 27be afef 30ba
00000150: ba10 d53b ceea 72bd 7215 5a3d 61ce bb3c
00000160: cb8e 32be 40a0 a5bc 2744 bebd 41b8 213e
00000170: 39cf 233c 0c58 e53c e83e 22be a44c 793d
00000180: 0631 b6bd 62e0 fc3d 9335 3cbd 105d ad3b
00000190: 1cf5 973d 97c1 293c 15f3 853d 26d7 163d
000001a0: 3db2 0d3c d7f7 ed3d a56c 753d 1619 63bd
000001b0: f177 9e3d 1f13 c63d 2734 3fbd c4ac 553d
000001c0: 0273 643d 8e22 77bc 1daf ac3b b9b5 a8bc
000001d0: 4f95 b7bc 12d4 a4bc b088 12be 2fb0 45bd
000001e0: cd99 9bbd 3f47 a4bd dcb0 623d cd0b e63c
000001f0: c439 c03d e41c 7e3b db10 e03d 7aaf b4bc
00000200: ff1f 90bd de24 8cbb 4009 383d 2682 b13d
00000210: edcd 92bc 3efe 113d 8e5d b43d 8752 fbbd
00000220: cfa3 b93d 8d19 a73d de82 da3d 7499 10be
00000230: 6f6a 84bc 3466 64bd 1dfa 103e dd00 18bd
00000240: bbea 643d 093d 113d 626d 8ebc bddf b8bc
00000250: 2ea5 aa3c 1348 a0bd 6f6d 0b3e da71 ccbd
00000260: d3fc d4bd c515 a93d c837 b03d e49f 00ba
00000270: 7d42 413d 344f 093b 8f9d de3c c032 443d
00000280: 3956 80bd 1ce6 11bd ec5d f3bd e572 19bd
00000290: bf72 38bc e58a e33d 0e90 3a3e 61ef ff3c
000002a0: 62bd 863d 8db8 f13d d066 2dbb ccb3 51bc
000002b0: 08d0 b0bd 1b69 20be b5a7 503d 10d3 77bc
000002c0: e8b0 17bd 5a81 fd3b 6e2e 2fbe 53c2 8abc
000002d0: f716 3f3d 396a 10bc 4f33 063e 01a7 053d
000002e0: 4d4c de3d e0b5 a1ba df07 8cbd 0dea 793c
000002f0: 3532 6fbc 8511 bfbd bac9 8bbc b3eb 703d
00000300: 49ef 1bbd a31a 1abc 95ca 17bd cfc2 8e3d
00000310: 99aa 5dbc 0dcb 993c a4aa 4abd a4b3 a43d
00000320: f284 8f3d 08eb 13bd ba76 8c3c f79b f5bc
00000330: cd62 8c3c c272 80bd 9b68 093e 6d35 07be
00000340: 8410 dc3c 4289 793d bdff 08be dc6f 093e
00000350: 4a8a df3c 5be6 5d3d e594 dcbc deda b73c
00000360: 3dec 2a3d e259 a3bd d346 26bd c925 99bb
00000370: 2056 c8bd 1cb0 09be b876 bcbd d6cd 7b3c
00000380: ed12 13be 98f6 543b 22b7 d33c 2790 99bd
00000390: 3723 853d e282 b5bd 70fc c1bd e29a e93c
000003a0: cb80 80ba df27 59bd 9935 013e 4c29 8a3d
000003b0: 9da8 dbbd c042 8abd 97f1 fc3d 2b4f bebd
000003c0: 2cc5 9abd 00ad 693d 4685 6d3d 7be9 1cbe
000003d0: deea 0b3d aa47 b53a 8329 053d 1d8d 0ebb
000003e0: 06d2 d9bd 200b 5bbd c57c 7bbd b147 b03b
000003f0: cd2c 39bd cf68 90bc 1d92 d5b9 fedb eb3d

gconv1.1.A f4 [140, 140]
-0.12799895 -0.01214104 0.103554085 0.038596984 0.14785826 -0.022605801 0.07998568 0.06396692
0.10420668 0.00845406 0.07355173 0.008142836 -0.042823616 0.018261956 0.09772089 0.15640469
-0.014121427 -0.08955158 -0.029494597 0.016644703 -0.07623386 -0.054087337 -0.016859258 -0.022484167
-0.049128864 0.008488673 0.059177272 -0.036293358 0.06355364 -0.030972112 0.21585995 -0.07658771
0.1528837 -0.01630417 0.06381871 -0.13720311 -0.008252844 0.06643639 0.017284898 0.054014172
-0.023443462 -0.09772101 0.06674126 0.011069905 0.025537524 0.101532415 0.097427435 0.16454716
0.022695955 0.22783591 0.11157222 0.015437118 0.052523285 -0.020368315 -0.021380605 -0.020812327
0.010654285 -0.04475261 -0.04821059 -0.01318438 0.03275382 -0.1696122 0.03970956 -0.045887575
0.11162936 0.015907284 0.054324873 0.04117196 -0.078616515 -0.10284705 -0.22807917 -0.027570253
0.19967179 -0.10944528 -0.02221622 -0.05835087 -0.13293695 -0.031152874 -0.18478565 0.016573677
0.026850957 -0.03988006 -0.04625402 0.020553602 0.094196565 -0.08409277 0.08143374 0.12406737
-0.0485589 0.114245 0.094725624 -0.04945345 -0.0059312396 -0.07397361 -0.039465364 0.015354634
-0.063888036 -0.062063046 0.17433612 -0.00012519896 0.112755194 0.0018065468 -0.057701558 -0.040634755
-0.005294785 -0.030273369 0.008077862 0.031896934 0.047699116 -0.0016098697 0.06352619 0.1804732
0.041694555 0.029745728 -0.012013901 -0.18697703 -0.11037645 0.09415522 0.0147929285 -0.024044368
0.08068749 0.040108714 -0.037271556 0.13448073 0.017633751 0.007114617 -0.014258172 0.054781754
-0.15275857 -0.032188393 0.13721721 0.016361302 0.1387439 0.08797831 0.05594836 0.0029074543
0.012576234 -0.035066642 -0.019437077 0.13136466 0.121994086 0.013385474 -0.06930731 0.0553142
0.03188183 0.09062383 0.01130467 0.1468129 0.019935474 -0.016075943 0.0070849396 -0.03207616
-0.07914701 0.11468371 6.617845e-05 0.056816477 -0.065416306 0.027211307 0.013591612 0.08471617
0.30297562 -0.16681793 -0.041821487 0.06340359 -0.017615307 0.015662016 0.034628145 0.02566472
-0.08863942 0.08312922 -0.21541497 0.0062985937 0.0017594576 -0.11337763 -0.043289028 0.035676625
0.08036638 -0.1632758 0.008156658 0.051378258 0.021283934 0.110323235 0.05545888 0.03614515
0.071849614 0.020001352 0.13464203 0.053628974 0.003765958 -0.020693196 -0.119193874 0.15034673
-0.17009844 0.082425006 0.08664645 -0.12115105 -0.04622127 0.12773207 -0.04167148 -0.057694633
-0.019098686 0.029619385 0.05485848 -0.06209582 0.16838028 -0.03985384 -0.06974392 0.03022787
0.050890513 -0.08155505 -0.07576499 0.03251629 0.0878229 -0.041328624 0.18055628 -0.09582878
-0.21923824 0.018768553 0.037751768 -0.06568074 0.008791003 0.1016481 -0.00097285095 -0.046892483
0.06493064 -0.023580011 -0.05464128 -0.1513736 0.16229188 -0.12911095 -0.01910699 0.08923068
-0.1065118 -0.07234071 0.0935602 0.0274729 0.16806969 -0.010388172 0.060477775 -0.031281553
-0.039036676 0.023912957 0.06510559 0.13273758 0.043996193 -0.059373867 -0.06512785 -0.0045185243
0.068389855 -0.114783086 0.083882466 -0.017245749 0.05706301 0.023675041 -0.048585355 0.13747352
00000000: 2812 03be 36eb 46bc 2a14 d43d df17 1e3d
00000010: 2868 173e cd2f b9bc 88cf a33d 1701 833d
00000020: 506a d53d e682 0a3c 4aa2 963d 8869 053c
00000030: d167 2fbd 199a 953c e421 c83d 8d28 203e
00000040: 8f5d 67bc d266 b7bd a79e f1bc 795a 883c
00000050: 7f20 9cbd af8a 5dbd 6d1c 8abc b730 b8bc
00000060: 593b 49bd 1314 0b3c de63 723d 58a8 14bd
00000070: 6928 823d 3ab9 fdbc 640a 5d3e 04da 9cbd
00000080: 8b8d 1c3e 5390 85bc 62b3 823d f97e 0cbe
00000090: f036 07bc cd0f 883d 0f99 8d3c f73d 5d3d
000000a0: 810c c0bc f421 c8bd a4af 883d 8c5e 353c
000000b0: 1234 d13c 3af0 cf3d 0988 c73d 0d7f 283e
000000c0: deec b93c d14d 693e fa7f e43d f7eb 7c3c
000000d0: a822 573d 74db a6bc 6126 afbc 9d7e aabc
000000e0: 4f8f 2e3c 834e 37bd 7878 45bd 4c03 58bc
000000f0: df28 063d d2ae 2dbe 7ea6 223d 9cf4 3bbd
00000100: ef9d e43d fe4f 823c c283 5e3d eea3 283d
00000110: b201 a1bd 79a1 d2bd 968d 69be 03db e1bc
00000120: c376 4c3e d924 e0bd cafe b5bc 5201 6fbd
00000130: a020 08be 5034 ffbc 7338 3dbe 85c5 873c
00000140: 8af6 db3c 4659 23bd db74 3dbd 0760 a83c
00000150: 21ea c03d d538 acbd bcc6 a63d 0917 fe3d
00000160: b2e5 46bd 48f9 e93d 82ff c13d b38f 4abd
00000170: d85a c2bb 7a7f 97bd 6fa6 21bd 0192 7b3c
00000180: bbd7 82bd d235 7ebd 2b85 323e d747 03b9
00000190: 32ec e63d a7c9 ec3a 7858 6cbd a170 26bd
000001a0: e07f adbb dbff f7bc 0259 043c 5ca6 023d
000001b0: 2660 433d 4302 d3ba 051a 823d f7cd 383e
000001c0: e9c7 2a3d 50ad f33c f4d5 44bc e876 3fbe
000001d0: 0c0d e2bd 74d4 c03d 0a5e 723c b2f8 c4bc
000001e0: 7c3f a53d 0949 243d 0faa 18bd 51b5 093e
000001f0: a874 903c bc21 e93b 1c9b 69bc d562 603d
00000200: be6c 1cbe fad7 03bd ab82 0c3e 2308 863c
00000210: e212 0e3e f92d b43d 1c2a 653d fd8a 3e3b
00000220: 8c0c 4e3c 0aa2 0fbd 813a 9fbc 7584 063e
00000230: 09d8 f93d bf4e 5b3c fef0 8dbd 2591 623d
00000240: 8696 023d fd98 b93d 3937 393c 1f56 163e
00000250: b84f a33c b2b1 83bc c828 e83b 4b62 03bd
00000260: d417 a2bd 4bdf ea3d 49c9 8a38 65b8 683d
00000270: fcf8 85bd 3fea de3c 5aaf 5e3c ac7f ad3d
00000280: 9f1f 9b3e 52d2 2abe 024d 2bbd bed9 813d
00000290: fa4d 90bc a14d 803c 3ed6 0d3d d23e d23c
000002a0: 9688 b5bd a73f aa3d be95 5cbe 6f64 ce3b
000002b0: 9a9d e63a 8832 e8bd d64f 31bd a721 123d
000002c0: 2197 a43d c531 27be 81a3 053c 0272 523d
000002d0: a55b ae3c 26f1 e13d da28 633d f00c 143d
000002e0: e425 933d e0d9 a33c 9adf 093e 0eaa 5b3d
000002f0: 4ace 763b c784 a9bc eb1b f4bd 7ef4 193e
00000300: 492e 2ebe 71ce a83d b273 b13d 0b1e f8bd
00000310: 8452 3dbd 32cc 023e b7af 2abd 3551 6cbd
00000320: d974 9cbc 5aa4 f23c 49b3 603d 3058 7ebd
00000330: e16b 2c3e c83d 23bd e6d5 8ebd 70a0 f73c
00000340: 9272 503d 5606 a7bd ad2a 9bbd cd2f 053d
00000350: 7edc b33d 3448 29bd bfe3 383e e141 c4bd
00000360: fd7f 60be 82c0 993c 99a1 1a3d a083 86bd
00000370: 2408 103c e12c d03d ec06 7fba 5512 40bd
00000380: 5bfa 843d de2a c1bc 89cf 5fbd ae01 1bbe
00000390: d82f 263e a935 04be 4386 9cbc 93be b63d
000003a0: dc22 dabd 5e27 94bd 7d9c bf3d d90e e13c
000003b0: 761a 2c3e 2733 2abc 8bb7 773d 1621 00bd
000003c0: ece4 1fbd 1be5 c33c 1456 853d 5cec 073e
000003d0: 5a35 343d 0332 73bd c061 85bd 2110 94bb
000003e0: fb0f 8c3d 6513 ebbd 92ca ab3d f546 8dbc
000003f0: e7ba 693d 29f2 c13c 7001 47bd dcc5 0c3e

gconv1.1.W.weight f4 [140, 140]
-0.024506623 -0.023952054 -0.1420086 0.019968051 0.020043956 0.076679476 0.06978002 0.0704648
0.013196979 -0.028081149 -0.06360853 -0.08611261 -0.16116185 -0.06757731 0.020570908 0.008711874
0.03932371 0.09011955 -0.06842891 0.14407411 -0.12644798 0.0010280097 0.06473934 -0.007396356
0.11848745 -0.060555857 -0.08714007 0.14849496 -0.02986828 -0.016111549 -0.06015497 -0.060947847
-0.13836403 -1.0634966e-05 -0.006364331 -0.09673143 -0.033628844 0.020191692 -0.123744965 -0.026657198
-0.13678701 -0.07797887 0.06519047 -0.12563093 0.0947585 -0.030722601 -0.15656066 -0.10462891
0.016828515 -0.099684104 -0.14682584 -0.062196106 0.024702584 -0.0076769954 0.11909266 0.14587042
0.043149263 -0.23879609 -0.041231208 -0.0032571773 0.01243033 0.05127753 -0.15900947 -0.07406508
-0.00067356165 -0.13997684 -0.043226752 0.06665575 -0.028583288 -0.030180832 0.12129466 0.025489887
0.07273222 0.12620397 0.22503813 -0.123946376 -0.005257343 0.074179865 0.0584551 0.051292486
0.029403752 0.014338536 -0.004745916 -0.13877615 0.1053503 0.07622821 0.038960114 0.03083056
-0.06964416 0.11150093 0.07201962 0.02194256 -0.043038137 0.018699722 0.16907337 -0.017403599
-0.08523039 0.03188525 0.0011539758 -0.09092941 -0.08093527 0.044173602 0.09935743 0.011284204
0.01847283 0.07900595 0.10890872 0.048486132 -0.022988118 0.04738843 -0.08376191 0.114488445
0.12115369 -0.015588519 -0.10437561 0.08888617 0.008472783 0.10035522 -0.030420192 -0.0030965125
0.1656965 0.14759225 0.0054516452 -0.027608339 0.08593346 0.0261848 0.019340675 0.0460169
-0.061632007 -0.07949983 -0.06625114 0.017130276 0.08144344 -0.085904576 0.14292164 -0.031132242
0.037070446 -0.03825207 -0.0011014726 -0.08350824 0.14911129 0.01743991 0.03382796 0.07335069
0.030504096 0.13941571 0.028386807 0.067622654 -0.093902804 0.11556441 -0.03632285 0.048852112
-0.068759754 -0.005904513 0.0006430291 -0.05362727 -0.035166778 -0.022730252 0.06968952 0.03329795
0.06372478 -0.0065765693 0.031221317 -0.09454222 0.12965748 0.070426434 -0.026421072 0.07580644
-0.017514631 -0.046160694 0.01046024 0.078152604 0.022986667 -0.023332868 0.0071951 -0.06733272
-0.091406114 0.11584785 0.067179486 0.01551787 0.073047005 0.16604389 0.049811587 0.12470822
-0.032684498 0.2687964 -0.05031586 -0.052340016 0.11581013 0.07638165 0.100457154 -0.16723804
0.11327643 -0.015848512 -0.10591924 0.08121087 -0.06528018 -0.029238336 0.05313049 -0.16952379
-0.19936155 0.012750503 -0.10261611 -0.016688265 0.029521972 0.011009845 -0.050185442 -0.008406579
-0.005475658 -0.016183816 0.12474251 -0.12638955 0.054037828 -0.089367956 -0.011999614 -0.09842191
-0.061742507 0.101059824 -0.00013410467 0.057377152 -0.11532247 0.04038789 -0.024792425 0.014651327
-0.0022175706 -0.06628699 0.12109283 0.13329646 0.013514688 0.1620277 -0.03031158 0.03799425
0.22779548 0.051988646 0.13663833 -0.12199025 0.12735325 0.15944314 -0.04341841 0.092009336
0.02051455 0.13236037 -0.02808697 -0.099532574 0.07152 0.21334879 0.13261491 0.13603653
0.036673557 0.008284165 -0.09995994 -0.0013689409 0.009106232 0.04927454 0.014405627 -0.012791443
00000000: 1dc2 c8bc 1937 c4bc b46a 11be 0a94 a33c
00000010: 3933 a43c 210a 9d3d d4e8 8e3d d94f 903d
00000020: 2438 583c 700a e6bc 3045 82bd cf5b b0bd
00000030: 9d07 25be f965 8abd 5284 a83c 3fbc 0e3c
00000040: e611 213d 9990 b83d 7524 8cbd 2a88 133e
00000050: 947b 01be 48be 863a 0f96 843d 225d f2bb
00000060: 8ca9 f23d 6b09 78bd 7e76 b2bd 100f 183e
00000070: 53ae f4bc 5efc 83bc 0f65 76bd 73a4 79bd
00000080: 4daf 0dbe d56c 32b7 e18b d0bb 211b c6bd
00000090: 66be 09bd 0c69 a53c 006e fdbd 3260 dabc
000000a0: e511 0cbe 63b3 9fbd 9582 853d 65a5 00be
000000b0: bf10 c23d f7ad fbbc 7051 20be af47 d6bd
000000c0: f4db 893c 2e27 ccbd 8359 16be 58c1 7ebd
000000d0: 135d ca3c 4e8f fbbb dae6 f33d 0e5f 153e
000000e0: 48bd 303d f686 74be 0ee2 28bd 5e76 55bb
000000f0: 95a8 4b3c 6308 523d 61d3 22be 6faf 97bd
00000100: f591 30ba 1756 0fbe 890e 31bd cf82 883d
00000110: 8027 eabc cb3d f7bc 5669 f83d 2bd0 d03c
00000120: a1f4 943d 9d3b 013e 6570 663e 99d7 fdbd
00000130: ca45 acbb 9deb 973d 9d6e 6f3d 1218 523d
00000140: 23e0 f03c 2eec 6a3c a183 9bbb 561b 0ebe
00000150: e6c1 d73d 891d 9c3d a494 1f3d 5f90 fc3c
00000160: 99a1 8ebd 995a e43d 067f 933d e2c0 b33c
00000170: c248 30bd 2930 993c 9221 2d3e fe91 8ebc
00000180: 458d aebd 1c9a 023d 0141 973a 3339 babd
00000190: 64c1 a5bd 61ef 343d e97b cb3d 62e1 383c
000001a0: 5554 973c dfcd a13d 890b df3d 6599 463d
000001b0: 9451 bcbc 5f1a 423d 5d8b abbd eb78 ea3d
000001c0: 6d1f f83d fd66 7fbc e1c2 d5bd f409 b63d
000001d0: 6dd1 0a3c 0a87 cd3d c433 f9bc dcee 4abb
000001e0: 58ac 293e 6c22 173e b7a3 b23b e22a e2bc
000001f0: e2fd af3d 8181 d63c 5670 9e3c 387c 3c3d
00000200: d871 7cbd cfd0 a2bd adae 87bd cb54 8c3c
00000210: d1cb a63d bdee afbd 0d5a 123e 0b09 ffbc
00000220: 2ed7 173d 34ae 1cbd 4a5f 90ba 5e06 abbd
00000230: a1b0 183e 24de 8e3c 308f 0a3d e338 963d
00000240: bae3 f93c fec2 0e3e 738b e83c bf7d 8a3d
00000250: 1d50 c0bd 09ad ec3d 45c7 14bd 2719 483d
00000260: ead1 8cbd a57a c1bb f490 283a 45a8 5bbd
00000270: 0a0b 10bd cb34 babc 61b9 8e3d 6e63 083d
00000280: 2382 823d 4380 d7bb d9c3 ff3c 5a9f c1bd
00000290: eec4 043e bc3b 903d 0171 d8bc 6840 9b3d
000002a0: d87a 8fbc ff12 3dbd 6d61 2b3c 790e a03d
000002b0: 894e bc3c 9224 bfbc e0c4 eb3b bde5 89bd
000002c0: 2133 bbbd a341 ed3d 6695 893d aa3e 7e3c
000002d0: ab99 953d 6907 2a3e 3c07 4c3d 0667 ff3d
000002e0: 2ee0 05bd af9f 893e 0118 4ebd 7c62 56bd
000002f0: dd2d ed3d fc6d 9c3d 7bbc cd3d 7340 2bbe
00000300: 79fd e73d bdd4 81bc 30ec d8bd e251 a63d
00000310: 9db1 85bd 3c85 efbc 5b9f 593d a597 2dbe
00000320: 6f25 4cbe 7ce7 503c 6528 d2bd d4b5 88bc
00000330: 10d8 f13c a362 343c 408f 4dbd bfbb 09bc
00000340: 266d b3bb ec93 84bc 0079 ff3d 436c 01be
00000350: c556 5d3d 8c06 b7bd 079a 44bc 6d91 c9bd
00000360: b6e5 7cbd 74f8 ce3d 739e 0cb9 4e04 6b3d
00000370: 302e ecbd c66d 253d 7c19 cbbc 1f0c 703c
00000380: a954 11bb 79c1 87bd 85ff f73d de7e 083e
00000390: b66c 5d3c 97ea 253e fe4f f8bc dc9f 1b3d
000003a0: 3843 693e 0cf2 543d ebea 0b3e 06d6 f9bd
000003b0: e468 023e 1045 233e 81d7 31bd 646f bc3d
000003c0: 210e a83c 7a89 073e a516 e6bc bcd7 cbbd
000003d0: 1479 923d 1b78 5a3e 34cc 073e 294d 0b3e
000003e0: 0337 163d 4eba 073c ccb7 ccbd 096e b3ba
000003f0: 4e32 153c 1ad4 493d 9405 6c3c 3393 51bc

gconv1.1.W.bias f4 [140]
-0.059538316 -0.019929439 -0.04167488 -0.0061734878 0.023481589 -0.09750725 -0.07884629 -0.017360076
0.0793509 0.05707277 0.0066762688 -0.033634398 -0.11230417 -0.089686304 0.01902651 -0.09023515
-0.030957872 0.010883849 0.021118656 0.06849739 -0.024966333 -0.0716367 0.12577923 -0.061851848
-0.058614057 -0.07711927 -0.052835908 0.10743908 -0.0031981089 0.06593965 0.09773804 0.06979405
-0.050614875 0.012825605 -0.015087131 0.11185898 0.082949996 -0.08603177 0.014400203 0.028806979
-0.018274486 -0.043130495 -0.04371075 -0.0266635 -0.07105899 0.049580947 0.10317273 0.009077849
-0.07926965 -0.008468495 -0.038657144 -0.06994004 0.019772014 -0.03616348 0.016033951 0.008421346
0.06872444 -0.06522359 -0.00039260008 -0.028537225 0.026718307 0.111074165 -0.05109099 0.06997564
-0.0060994364 -0.01921698 0.009358543 0.06440994 0.07165144 -0.015621878 -0.048107736 -0.045482326
0.06907088 0.06387225 -0.027148359 0.0015598541 -0.019678291 -0.052290663 -0.08851177 0.04722146
0.026546547 0.06554378 -0.0944924 -0.09488339 0.07748844 0.08865888 -0.036698475 -0.001983899
-0.028337164 0.08314411 -0.08508311 0.07592498 -0.026948804 0.10283631 -0.038964298 -0.07493011
0.08009946 -0.07595546 -0.054693058 -0.020687787 -0.050344717 0.071979225 0.069253005 -0.102739275
0.03046396 -0.121566184 0.017800737 -0.07623535 0.0202693 0.08466879 -0.055177703 0.012325072
0.010740838 -0.048998427 -0.07722181 -0.04680685 -0.07738147 0.12692586 0.07867988 -0.07533213
0.10327384 0.07040967 -0.07467388 0.048874583 -0.07471607 0.0005689892 -0.020827286 -0.028271645
-0.046536718 -0.006203913 -0.022180371 0.047859035 0.046983432 -0.03108054 -0.056391727 -0.047109887
0.047381267 0.10243562 0.07904051 -0.06797615
00000000: 73de 73bd 1043 a3bc 47b3 2abd f84a cabb
00000010: 765c c03c e2b1 c7bd 2a7a a1bd b836 8ebc
00000020: ba82 a23d 23c5 693d 9ac4 da3b 39c4 09bd
00000030: bbff e5bd 74ad b7bd 7cdd 9b3c 35cd b8bd
00000040: 5d9b fdbc 2c52 323c 0801 ad3c 5c48 8c3d
00000050: 3286 ccbc 43b6 92bd 45cc 003e 5d58 7dbd
00000060: 4b15 70bd b5f0 9dbd 776a 58bd 0509 dc3d
00000070: 5d97 51bb 5e0b 873d e22a c83d 2ff0 8e3d
00000080: 8b51 4fbd 7d22 523c 0430 77bc 5216 e53d
00000090: b0e1 a93d 6d31 b0bd d4ee 6b3c 9dfc eb3c
000000a0: 60b4 95bc 9aa9 30bd 0b0a 33bd 6a6d dabc
000000b0: 6087 91bd 6415 4b3d 394c d33d 42bb 143c
000000c0: 2058 a2bd 71bf 0abc f456 1ebd b93c 8fbd
000000d0: ebf8 a13c 2820 14bd a259 833c aff9 093c
000000e0: 66bf 8c3d f293 85bd e4d5 cdb9 e6c6 e9bc
000000f0: 5ae0 da3c da7a e33d c944 51bd 634f 8f3d
00000100: c8dd c7bb ee6c 9dbc 9354 193c 5ce9 833d
00000110: fdbd 923d e8f2 7fbc 9e0c 45bd ad4b 3abd
00000120: 0975 8d3d 74cf 823d 3c66 debc 0574 cc3a
00000130: 5e34 a1bc bc2e 56bd a945 b5bd 4a6b 413d
00000140: 2578 d93c d13b 863d 3b85 c1bd 3952 c2bd
00000150: 42b2 9e3d c992 b53d 2451 16bd 4d04 02bb
00000160: 5723 e8bc 7647 aa3d 0e40 aebd 8e7e 9b3d
00000170: bdc3 dcbc d89b d23d 0799 1fbd f574 99bd
00000180: 300b a43d 898e 9bbd d405 60bd 6f79 a9bc
00000190: 4336 4ebd d869 933d 85d4 8d3d f868 d2bd
000001a0: 8e8f f93c b1f7 f8bd dad2 913c 4721 9cbd
000001b0: ce0b a63c d566 ad3d 0402 62bd 19ef 493c
000001c0: 57fa 2f3c 93b2 48bd 7826 9ebd 8ab8 3fbd
000001d0: 2d7a 9ebd daf8 013e eb22 a13d bb47 9abd
000001e0: 3c81 d33d f232 903d 9fee 98bd b730 483d
000001f0: bd04 99bd 3828 153a fc9d aabc f099 e7bc
00000200: 499d 3ebd 324a cbbb 9cb3 b5bc d607 443d
00000210: b371 403d 9e9c febc 03fb 66bd 4cf6 40bd
00000220: dc12 423d c4c9 d13d fedf a13d 1437 8bbd

gconv1.1.gate.weight f4 [1, 280]
-0.062987246 0.07511122 0.130331 0.21654253 0.053514715 -0.0858742 0.065341406 -0.122269005
-0.11343097 -0.1300885 0.0054428647 -0.044883866 -0.07007821 -0.10079811 0.072069146 0.011541403
-0.012651191 0.031318996 0.105040856 0.045859873 -0.011099172 -0.0896163 0.16465697 -0.053449336
-0.1412113 -0.132724 -0.019231338 -0.06516022 -0.008076642 -0.031245325 0.0034802156 0.0059835874
-0.09258067 0.07338413 0.2033376 -0.049592797 -0.008332312 0.030687196 -0.17814876 -0.14532152
-0.022986693 -0.1525982 0.03410992 0.0593679 0.06705197 -0.04198895 -0.012616031 0.03331947
0.11880215 -0.0152823515 0.03854736 -0.021097576 -0.028910654 0.10037932 -0.0033936452 -0.02450536
-0.07936539 -0.07105769 -0.085005336 0.07141363 0.10862624 0.16258872 -0.04129831 -0.2769043
0.117724106 -0.01157054 -0.029756343 -0.045337252 0.20351394 0.023505673 -0.16523063 -0.1382595
0.03143398 0.13522632 0.020609606 -0.051885553 -0.08482165 -0.027854642 -0.034371734 -0.13016261
-0.009777501 0.08866933 0.010993508 -0.014479384 0.16565043 -0.12257973 -0.052182313 0.2652224
0.036390986 0.034361187 -0.064434506 0.17461812 -0.17321205 0.050959866 0.101417206 -0.06916264
-0.08966819 -0.06696445 0.025260855 0.02822757 0.113694645 -0.082063414 0.07854377 0.14048454
0.016984435 0.13821629 0.12678982 -0.15954362 0.017988008 -0.10727843 -0.007460113 -0.020980047
-0.14239694 0.05726397 -0.055596016 0.053528856 -0.042848606 -0.13499682 0.14867032 -0.03319762
0.035921995 -0.01072076 0.122992605 0.093673766 -0.052546266 0.10325154 -0.11108988 -0.13644408
-0.05753452 0.01590279 -0.014100564 -0.01739111 -0.25836402 0.16297202 0.13478744 -0.099979274
0.07637367 0.11994148 -0.20668307 -0.06199156 0.08117072 0.013606535 -0.02316613 0.069862716
-0.006648116 -0.10104111 -0.057469018 -0.051215712 0.027563132 0.106346354 -0.063263625 -0.06524578
0.054106247 -0.041109495 0.008853913 0.05496643 0.01944192 0.081076786 -0.14109792 0.06538305
0.16115467 -0.005190912 0.106252626 0.016048359 -0.030625682 0.014587822 -0.0077955388 0.080450416
0.021527054 0.15619552 0.09799565 0.06364905 0.03351084 0.22912292 0.04812722 0.09543859
-0.11046026 -0.023379268 -0.012176813 -0.09673397 0.13091555 -0.09400908 0.06024127 0.061786402
-0.12525287 0.10824455 0.16775681 0.08083641 -0.04850455 -0.051222343 -0.1333468 0.07428066
0.06247032 0.13618891 0.12294278 0.10003338 0.2090532 -0.061130755 0.096078426 -0.0890359
0.011066932 0.15890297 -0.14591847 -0.10560033 -0.008745018 0.10478169 0.04971652 0.0101501085
-0.097234435 0.13728377 -0.062872775 -0.036949072 0.2254006 0.10902769 0.061440486 -0.017718062
0.12808573 0.13505271 -0.119723074 0.07487158 -0.0803457 -0.005641043 -0.0037384275 -0.2498847
0.025789337 0.096524134 0.1883123 -0.008735362 0.09015155 -0.13441674 -0.050056696 0.16925226
0.05315301 0.013213143 -0.027983604 -0.1816121 0.1157693 -0.14562547 -0.13903962 -0.10360934
0.003986812 0.14809373 0.09492358 -0.07916546 0.031334 -0.19030404 -0.046561155 -0.07628141
0.13388431 -0.06461607 -0.03288585 -0.066341765 0.07456471 0.0838399 -0.009225825 -0.008909957
00000000: 75ff 80bd e9d3 993d 7d75 053e 53bd 5d3e
00000010: 3f32 5b3d d0de afbd b7d1 853d 2c68 fabd
00000020: 7f4e e8bd eb35 05be 0f5a b23b 25d8 37bd
00000030: 2a85 8fbd 3d6f cebd fd98 933d 2718 3d3c
00000040: f146 4fbc 5948 003d a91f d73d 90d7 3b3d
00000050: 4dd9 35bc c088 b7bd d69b 283e b1ed 5abd
00000060: b299 10be cde8 07be 0a8b 9dbc b972 85bd
00000070: e453 04bc 32f6 ffbc 5414 643b f811 c43b
00000080: ef9a bdbd 6b4a 963d bb37 503e d121 4bbd
00000090: 4084 08bc b763 fb3c a16c 36be 2acf 14be
000000a0: 974e bcbc b442 1cbe d8b6 0b3d c12b 733d
000000b0: 8b52 893d 9bfc 2bbd 78b3 4ebc ff79 083d
000000c0: 8b4e f33d d462 7abc d6e3 1d3d d3d4 acbc
000000d0: 09d6 ecbc ac93 cd3d eb67 5ebb 77bf c8bc
000000e0: 528a a2bd b286 91bd 4717 aebd 4f41 923d
000000f0: 6f77 de3d a87d 263e 6b28 29bd 67c6 8dbe
00000100: 5619 f13d 5d92 3dbc 93c3 f3bc 8eb3 39bd
00000110: f565 503e f88e c03c 3832 29be e693 0dbe
00000120: ebc0 003d c578 0a3e 7ad5 a83c f285 54bd
00000130: f9b6 adbd 6b2f e4bc 60c9 0cbd 5949 05be
00000140: d031 20bc 4498 b53d 1d1e 343c f03a 6dbc
00000150: 44a0 293e 150b fbbd 1fbd 55bd 3bcb 873e
00000160: b70e 153d 51be 0c3d 3df6 83bd 18cf 323e
00000170: 805e 31be 4bbb 503d d3b3 cf3d 24a5 8dbd
00000180: f5a3 b7bd a824 89bd daef ce3c 813d e73c
00000190: bdd8 e83d dd10 a8bd 8edb a03d 2edb 0f3e
000001a0: f122 8b3c 9288 0d3e 31d5 013e 675f 23be
000001b0: 965b 933c cbb4 dbbd f773 f4bb 59de abbc
000001c0: 81d0 11be a08d 6a3d a6b8 63bd 1341 5b3d
000001d0: 0582 2fbd 9b3c 0abe 083d 183e 3afa 07bd
000001e0: f122 133d 20a6 2fbc 8ce3 fb3d 08d8 bf3d
000001f0: c13a 57bd 8b75 d33d 1783 e3bd ffb7 0bbe
00000200: 51a9 6bbd 9146 823c 0d06 67bc cd77 8ebc
00000210: 4a48 84be 23e2 263e b805 0a3e efc1 ccbd
00000220: cc69 9c3d e1a3 f53d baa4 53be ddea 7dbd
00000230: d63c a63d f2ed 5e3c e5c6 bdbc 2f14 8f3d
00000240: 70d8 d9bb a4ee cebd a264 6bbd 91c7 51bd
00000250: 14cc e13c 1ecc d93d 5c90 81bd 949f 85bd
00000260: 839e 5d3d 6e62 28bd 0110 113c 7b24 613d
00000270: a944 9f3c 960b a63d f97b 10be 8ce7 853d
00000280: bb05 253e 8718 aabb fa9a d93d d977 833c
00000290: b6e2 fabc c301 6f3c b871 ffbb 30c3 a43d
000002a0: 8159 b03c b8f1 1f3e f1b1 c83d 6f5a 823d
000002b0: aa42 093d 339f 6a3e 0c21 453d 4f75 c33d
000002c0: fd38 e2bd e185 bfbc 4181 47bc 761c c6bd
000002d0: ba0e 063e d587 c0bd 8dbf 763d bd13 7d3d
000002e0: 4a42 00be 52af dd3d 71c8 2b3e 8f8d a53d
000002f0: b5ac 46bd 85ce 51bd 108c 08be 7520 983d
00000300: e1e0 7f3d 1b75 0b3e 6dc9 fb3d 4dde cc3d
00000310: 0b12 563e 3e64 7abd c4c4 c43d 7458 b6bd
00000320: 1452 353c 76b7 223e a76b 15be fc44 d8bd
00000330: 4447 0fbc c897 d63d 8da3 4b3d a44c 263c
00000340: d922 c7bd 1e94 0c3e 71c3 80bd e957 17bd
00000350: 6acf 663e e949 df3d 05a9 7b3d 7825 91bc
00000360: e828 033e 424b 0a3e 5f31 f5bd 4556 993d
00000370: 498c a4bd 80d8 b8bb 6800 75bb c6e1 7fbe
00000380: 2944 d33c 72ae c53d f1d4 403e c41e 0fbc
00000390: 60a1 b83d 8ba4 09be 4008 4dbd 7750 2d3e
000003a0: f8b6 593d f07b 583c df3d e5bc 86f8 39be
000003b0: 7418 ed3d d81e 15be 6760 0ebe 2231 d4bd
000003c0: cea3 823b e2a5 173e 4b67 c23d 8021 a2bd
000003d0: 1558 003d 10df 42be e9b6 3ebd 6e39 9cbd
000003e0: f818 093e 6e55 84bd 50b3 06bd 31de 87bd
000003f0: 62b5 983d 41b4 ab3d ea27 17bc 11fb 11bc
