save/best_origin_opt123_0.879.pt (torch, 971864 bytes, 44 tensors)

gconv1.0.A f4 [140, 140]
0.008713926 -0.086083464 -0.13355738 -0.008117979 0.058269233 0.035604298 0.07851175 -0.16845636
0.02931339 0.14409389 0.16258572 -0.10857329 -0.1006731 0.046597034 -0.013381007 0.06602415
-0.14621776 0.1687534 0.053149007 0.04142255 0.05643738 0.073530175 0.015337004 0.06954312
-0.0078017446 0.0048906333 0.1199482 0.10390853 -0.041292336 -0.012230897 0.07563741 -0.023813087
-0.015847899 -0.04555704 0.09691468 0.016508747 0.049572278 0.0637033 0.10211367 -0.064715855
-0.026428955 -0.039395824 0.0076657305 0.052465536 -0.016474368 -0.01922638 -0.08342969 -0.014145289
0.11733518 -0.025074571 0.059805766 0.13270235 -0.010895721 0.005344329 0.007590695 0.04147131
0.054716796 0.19735548 -0.22291318 -0.07406285 -0.089019746 -0.06646355 0.051458105 0.1333974
0.016196094 -0.1587858 -0.01361938 -0.00839842 -0.018591534 0.0013553923 0.0077991677 0.028326347
0.065283105 -0.0056832028 -0.06516839 -0.04665565 -0.074379206 0.13114467 -0.10159292 0.010876218
-0.031347066 -0.1546375 0.12438813 0.045101497 0.077241294 0.016509434 0.001347026 -0.007463233
-0.07980372 0.010370227 -0.10002429 -0.056625385 -0.0042180936 -0.12463099 0.05608035 0.14734258
0.046591505 -0.026411586 0.1012873 0.054879867 -0.043105874 -0.0029019204 -0.06324016 -0.025478384
0.018617703 0.09802398 -0.029458184 0.08150098 0.09866695 -0.016256595 -0.09381452 0.07747727
-0.0037100606 -0.058401033 -0.0003648055 0.13932425 0.12272507 -0.15143731 0.124081284 0.08267561
0.05262774 -0.06446796 -0.027879858 -0.03250346 0.057157103 -0.09024776 0.054129463 0.0052401493
0.19606134 0.0738701 -0.12237209 -0.041598257 -0.10631753 -0.0045932936 0.03903272 -0.079383224
-0.043953497 0.1107852 0.05686717 0.016143661 -0.11773021 0.20277424 -0.06528312 -0.12162233
0.073239714 0.11433625 -0.038068533 0.06485302 0.011638088 0.043597154 -0.007712307 0.014512392
0.03346183 -0.060738817 -0.04118578 0.08908012 0.046072748 -0.057173017 -0.020234497 0.15323447
0.035237283 -0.09724201 -0.080813244 0.0260098 -0.02416807 0.028005183 -0.14093909 0.036867227
0.11526588 0.09611804 -0.053455498 0.072386675 0.012810882 -0.060199823 -0.03453762 0.10070731
-0.015873166 -0.041433305 0.087638915 0.05039395 -0.00081904454 -0.06884189 0.012225685 0.070922144
0.048752315 0.009394025 0.057107966 -0.110266104 0.11922952 0.023074202 -0.023423098 0.009925934
0.019654669 -0.051657964 -0.10591683 -0.0029756287 0.08112528 -0.17211033 -0.011727097 0.06715964
0.07608744 -0.008273142 -0.024415992 0.18757217 -0.06406339 -0.0035245551 0.036657043 -0.042936027
-0.0034418248 0.20622371 -0.21894535 0.04740661 -0.01821968 -0.098371476 0.09477264 0.0073267315
-0.11180523 -0.06743913 -0.07926285 0.096558094 0.12239929 -0.108779766 -0.042024884 -0.09441944
-0.06129281 0.04635033 -0.08660308 0.0090178745 -0.09250086 0.13196899 -0.15013087 -0.1540365
0.031486087 -0.05620743 -0.05197622 0.0646979 0.12576894 -0.04591672 -0.13837804 -0.0034553427
-0.0098789325 -0.0073545435 0.098051645 0.005833619 -0.09617241 0.045408465 0.024956906 -0.08713579
-0.020686239 0.07484991 0.05089038 0.20389208 -0.063368775 -0.049554706 -0.0142350765 0.05720034
00000000: dbc4 0e3c 874c b0bd 44c3 08be 4601 05bc
00000010: b8ab 6e3d d0d5 113d c5ca a03d d37f 2cbe
00000020: a222 f03c 598d 133e df7c 263e ac5b debd
00000030: b32d cebd 88dc 3e3d 033c 5bbc ab37 873d
00000040: 1cba 15be b1cd 2c3e c6b2 593d b1aa 293d
00000050: e22a 673d fd96 963d 0f48 7b3c a06c 8e3d
00000060: c7a5 ffbb 9b41 a03b 67a7 f53d ffcd d43d
00000070: 2722 29bd 1a64 48bc c9e7 9a3d aa13 c3bc
00000080: 74d3 81bc 059a 3abd 347b c63d 5a3d 873c
00000090: 4d0c 4b3d e076 823d f920 d13d bf89 84bd
000000a0: 8981 d8bc 845d 21bd cf30 fb3b 1ae6 563d
000000b0: 41f5 86bc a480 9dbc 2fdd aabd a4c1 67bc
000000c0: 6d4d f03d 3069 cdbc e4f6 743d 20e3 073e
000000d0: f783 32bc 7b1f af3b 5dbb f83b d2dd 293d
000000e0: b81e 603d 8e17 4a3e 5a43 64be 43ae 97bd
000000f0: fc4f b6bd 0b1e 88bd bcc5 523d 5499 083e
00000100: acad 843c bf98 22be d223 5fbc 8799 09bc
00000110: 464d 98bc 6ba7 b13a 2990 ff3b a80c e83c
00000120: 26b3 853d 293a babb 0177 85bd ff19 3fbd
00000130: 2054 98bd ca4a 063e f30f d0bd 2a32 323c
00000140: c865 00bd 4b59 1ebe 34bf fe3d 59bc 383d
00000150: af30 9e3d cb3e 873c b18e b03a 238e f4bb
00000160: 2270 a3bd e2e7 293c 89d9 ccbd 05f0 67bd
00000170: ef37 8abb 883e ffbd 82b4 653d f9e0 163e
00000180: bcd6 3e3d 1c5d d8bc b76f cf3d b6c9 603d
00000190: c98f 30bd 252e 3ebb 0f84 81bd 0bb8 d0bc
000001a0: 2784 983c ccc0 c83d 4a52 f1bc fce9 a63d
000001b0: e611 ca3d 8d2c 85bc d421 c0bd 67ac 9e3d
000001c0: 7d24 73bb ec35 6fbd 5e43 bfb9 04ab 0e3e
000001d0: 4857 fb3d 6212 1bbe 541e fe3d d551 a93d
000001e0: 2f90 573d c707 84bd 4d64 e4bc 5922 05bd
000001f0: 911d 6a3d d1d3 b8bd dbb6 5d3d 8fb5 ab3b
00000200: 4ec4 483e 3549 973d 389e fabd ef62 2abd
00000210: 01bd d9bd 5783 96bb c6e0 1f3d ac93 a2bd
00000220: 9508 34bd 5ae3 e23d 8ded 683d b63f 843c
00000230: 891c f1bd 0da4 4f3e 28b3 85bd 2115 f9bd
00000240: b4fe 953d 2029 ea3d c0ed 1bbd a9d1 843d
00000250: aead 3e3c ee92 323d 85b7 fcbb 62c5 6d3c
00000260: 460f 093d 44c9 78bd 6cb2 28bd a36f b63d
00000270: c7b6 3c3d 412e 6abd d1c2 a5bc 7fe9 1c3e
00000280: f854 103d d226 c7bd 6a81 a5bd 8112 d53c
00000290: 1efc c5bc 206b e53c 5652 10be 1702 173d
000002a0: 8510 ec3d 89d9 c43d 27f4 5abd 773f 943d
000002b0: bce4 513c 1794 76bd 5277 0dbd a23f ce3d
000002c0: 7108 82bc f8b5 29bd 087c b33d e369 4e3d
000002d0: 26b5 56ba fafc 8cbd 3d4e 483c a13f 913d
000002e0: 82b0 473d 66e9 193c 0bea 693d 32d3 e1bd
000002f0: 9b2e f43d 1c06 bd3c cce1 bfbc 62a0 223c
00000300: d402 a13c 4d97 53bd ecea d8bd c402 43bb
00000310: 0325 a63d b13d 30be 0323 40bc fe8a 893d
00000320: bbd3 9b3d 138c 07bc 0c04 c8bc eb12 403e
00000330: ab33 83bd 39fc 66bb b225 163d b0dd 2fbd
00000340: 3d90 61bb 4f2c 533e 3633 60be 6f2d 423d
00000350: 7041 95bc fc76 c9bd 2818 c23d 1415 f03b
00000360: 24fa e4bd 871d 8abd 9054 a2bd 40c0 c53d
00000370: 7bac fa3d edc7 debd 4922 2cbd fb5e c1bd
00000380: 2b0e 7bbd d8d9 3d3d f55c b1bd b5bf 133c
00000390: 1771 bdbd e122 073e e8bb 19be bfbb 1dbe
000003a0: 8ef7 003d c339 66bd 04e5 54bd 5580 843d
000003b0: 93c9 003e 2c13 3cbd f9b2 0dbe 0873 62bb
000003c0: 3fdb 21bc 62fe f0bb 4dcf c83d f127 bf3b
000003d0: 0af6 c4bd 3afe 393d 6d72 cc3c 4074 b2bd
000003e0: 3076 a9bc e94a 993d 6e72 503d 16c9 503e
000003f0: 7dc7 81bd e0f9 4abd 3d3a 69bc e74a 6a3d

gconv1.0.W.weight f4 [140, 140]
0.08091645 0.12905228 -0.1208983 -0.057290204 0.02705774 -0.021929473 -0.03282301 -0.003321565
0.065565445 0.060779653 -0.0066980487 0.06408763 0.018549345 0.0574944 0.04894686 0.05476226
-0.0474353 -0.06959103 0.19419743 -0.182603 -0.04409318 -0.016593173 0.12118065 0.051014826
0.024405723 0.05356365 0.06886101 -0.046431515 -0.022207305 -0.058735263 0.078990996 0.10463022
0.0011828964 -0.04357426 0.11244155 -0.10382327 0.13617551 0.021857005 -0.065280184 0.114289604
0.020584164 0.11106555 -0.01567872 0.10045341 0.08093835 -0.010399183 0.12161819 -0.017959068
-0.07978393 0.15320897 0.06416336 0.08102103 0.0033451319 -0.04221997 -0.0008657873 -0.0020454975
0.042023923 0.10853964 0.035167042 -0.18155026 0.07008225 0.012893984 -0.016619427 -0.16742894
-0.045509703 0.1306301 -0.033565648 0.018322518 0.13345921 0.09381857 -0.16854878 -0.04401616
-0.029911844 -0.14874972 0.12221714 -0.11145096 0.0991833 0.084017254 -0.16755986 0.062483545
-0.03166396 -0.030040082 0.061262336 0.052894976 0.07520814 -0.035168987 -0.055956762 -0.03481526
0.10243171 0.09953594 0.10483096 -0.07548388 0.026216159 -0.13058597 -0.117890336 -0.059010725
0.02671126 -0.07536471 0.061540753 0.0040407553 -0.0330586 -0.13442457 -0.00536252 0.027502246
-0.11723553 -0.059945047 -0.025651466 0.08828052 -0.00783845 0.0923483 0.021061864 0.11267366
-0.08527602 0.12688531 -0.028477916 -0.04941842 -0.09381335 -0.013599007 0.042105477 0.105993025
0.02609501 0.036290508 -0.09867095 -0.029344361 -0.035026703 0.050422505 -0.02165723 -0.07260497
-0.048179936 0.012232303 0.08883279 0.14172475 0.07107204 0.010376886 -0.1127935 -0.15005276
-0.15415825 0.046381623 -0.066105574 0.022629883 -0.042687062 -0.116850704 -0.06913651 -0.065232106
-0.038293317 -0.147185 -0.11862387 -0.04507249 -0.004808424 0.0795817 -0.07564263 -0.013762506
0.14140931 0.07566716 -0.20287976 -0.18744695 0.008278807 -0.016678125 -0.055953685 -0.015904997
-0.028096387 0.13491318 -0.092465214 0.09311415 0.008406551 0.113387525 -0.12888396 -0.06215891
0.011290049 -0.041024532 0.030309979 -0.22001351 0.021458454 -0.042243242 0.049555175 -0.036678508
0.05501636 -0.06344213 0.028456742 0.052179698 -0.113013126 -0.12392481 0.0321393 0.047223143
0.14620747 0.06563983 0.08710648 0.049373418 0.08201714 0.12030281 0.11140287 0.11061711
0.13942282 -0.08022704 -0.017697899 -0.024235936 0.09641841 0.053480722 0.05239559 0.076121636
-0.04049139 0.013510534 0.123003736 -0.11996516 -0.038420297 0.11914281 -0.24828309 -0.027852286
-0.08486394 -0.21897627 0.042202465 0.06741678 -0.05201018 0.06586521 -0.03343694 0.103817634
0.113352284 -0.0076432386 -0.10426364 -0.03243899 -0.07827028 -0.11633068 0.027275715 0.03089512
0.04372815 0.16945969 0.023739137 0.06319639 -0.030653443 0.15924984 -0.031029157 -0.0725695
0.10163421 0.06732241 0.17454137 -0.056714367 0.008731904 0.0054875305 -0.2128407 0.021045895
0.06034996 -0.12563817 -0.069306985 0.013719619 0.061639134 -0.13862173 -0.061896246 0.080152325
-0.09173507 0.0137336515 -0.004848063 -0.08991469 0.05837134 0.033760928 0.10330254 0.022761354
00000000: 86b7 a53d 4826 043e 8799 f7bd 22a9 6abd
00000010: 32a8 dd3c 70a5 b3bc 6c71 06bd 9dae 59bb
00000020: 2d47 863d 16f4 783d 4e7b dbbb 6040 833d
00000030: ccf4 973c 3f7f 6b3d 817c 483d 644e 603d
00000040: 844b 42bd be85 8ebd b1db 463e 48fc 3abe
00000050: 0d9b 34bd 68ee 87bc 902d f83d ecf4 503d
00000060: 83ee c73c 8f65 5b3d 0007 8d3d f92e 3ebd
00000070: 18ec b5bc 6394 70bd 08c6 a13d 5e48 d63d
00000080: 6b0b 9b3a ec7a 32bd c147 e63d 4ba1 d4bd
00000090: 9871 0b3e 760d b33c 9eb1 85bd ab10 ea3d
000000a0: 1fa0 a83c 5676 e33d a970 80bc 84ba cd3d
000000b0: 01c3 a53d 5661 2abc f512 f93d e51e 93bc
000000c0: c265 a3bd d0e2 1c3e 1468 833d 5bee a53d
000000d0: 003a 5b3b d9ee 2cbd 01f6 62ba c10d 06bb
000000e0: 4721 2c3d 084a de3d 510b 103d 50e8 39be
000000f0: 4887 8f3d 4a41 533c 7725 88bc 7e72 2bbe
00000100: 6268 3abd e6c3 053e 227c 09bd 1b19 963c
00000110: 88a9 083e f323 c03d 0d98 2cbe 4a4a 34bd
00000120: af09 f5bc d951 18be fb4c fa3d 6740 e4bd
00000130: 9d20 cb3d 3d11 ac3d d094 2bbe bfee 7f3d
00000140: 12b2 01bd 9e16 f6bc 37ee 7a3d 67a8 583d
00000150: ba06 9a3d 5b0d 10bd eb32 65bd 729a 0ebd
00000160: b7c7 d13d 80d9 cb3d 9db1 d63d 4b97 9abd
00000170: 45c3 d63c 54b8 05be 7d70 f1bd 3bb5 71bd
00000180: 93d1 da3c d058 9abd 2812 7c3d 5068 843b
00000190: 7468 07bd 98a6 09be 14b8 afbb 644c e13c
000001a0: 2e19 f0bd f088 75bd 0623 d2bc 6bcc b43d
000001b0: d86c 00bc 1b21 bd3d ee89 ac3c 73c1 e63d
000001c0: 32a5 aebd 39ee 013e 854a e9bc f86a 4abd
000001d0: 3721 c0bd 5fce 5ebc cb76 2c3d df12 d93d
000001e0: 34c5 d53c 5ba5 143d ff13 cabd 9663 f0bc
000001f0: 2978 0fbd d487 4e3d 816a b1bc eab1 94bd
00000200: 5358 45bd ff69 483c f7ed b53d 4b20 113e
00000210: 388e 913d d103 2a3c 4700 e7bd 6ea7 19be
00000220: a9db 1dbe a8fa 3d3d 5c62 87bd 4e62 b93c
00000230: a1d8 2ebd 6c4f efbd 7197 8dbd 6998 85bd
00000240: 74d9 1cbd aab7 16be 12f1 f2bd ee9d 38bd
00000250: fc8f 9dbb bbfb a23d 86ea 9abd 227c 61bc
00000260: 9acd 103e 62f7 9a3d b6bf 4fbe 18f2 3fbe
00000270: d5a3 073c 90a0 88bc b12f 65bd 324b 82bc
00000280: 652a e6bc ae26 0a3e 675e bdbd a2b2 be3d
00000290: a1bb 093c b837 e83d 28fa 03be 579a 7ebd
000002a0: e6f9 383c 5709 28bd a24c f83c 394b 61be
000002b0: a4c9 af3c 4007 2dbd 5efa 4a3d 343c 16bd
000002c0: d658 613d f3ed 81bd 1d1e e93c 61ba 553d
000002d0: 6d73 e7bd 4acc fdbd 80a4 033d 0e6d 413d
000002e0: 69b7 153e 2d6e 863d e264 b23d c83b 4a3d
000002f0: 9af8 a73d 5261 f63d 3027 e43d 398b e23d
00000300: dbc4 0e3e 134e a4bd 2ffb 90bc 718a c6bc
00000310: 0477 c53d 9a0e 5b3d c29c 563d a9e5 9b3d
00000320: 4dda 25bd 495b 5d3c 62e9 fb3d 4bb0 f5bd
00000330: 9a5e 1dbd 2501 f43d ec3d 7ebe 7a2a e4bc
00000340: 25cd adbd 513b 60be 7edc 2c3d cf11 8a3d
00000350: a008 55bd 57e4 863d 2cf5 08bd 579e d43d
00000360: 3e25 e83d 2274 fabb 2d88 d5bd bfde 04bd
00000370: 2b4c a0bd c83e eebd 5271 df3c c317 fd3c
00000380: 4a1c 333d d786 2d3e 9478 c23c 1c6d 813d
00000390: ee1c fbbc 6412 233e dc30 febc 519f 94bd
000003a0: 9925 d03d 55e0 893d f9ba 323e 534d 68bd
000003b0: 4310 0f3c bed0 b33b eaf2 59be 7168 ac3c
000003c0: 8531 773d 4ba7 00be d2f0 8dbd 41c8 603c
000003d0: 5179 7c3d dbf2 0dbe eb86 7dbd e726 a43d
000003e0: 99df bbbd 1c03 613c 80dc 9ebb 3125 b8bd
000003f0: c916 6f3d e648 0a3d 4890 d33d 0576 ba3c

gconv1.0.W.bias f4 [140]
0.05245851 0.018388363 0.039335195 -0.014564986 0.008048692 0.025341917 -0.05344545 0.075327314
-0.041898657 -0.070607886 0.00520509 -0.029958727 0.07335825 -0.0759327 0.057645693 -0.03525013
-0.04752695 0.06328161 -0.10752035 0.06955834 -0.051026568 -0.066975884 -0.058606483 -0.046355914
0.105657436 0.0075636315 -0.03127774 -0.08302295 -0.083980724 -0.08696663 0.031187212 -0.031314977
0.019573187 -0.031796202 -0.10198892 0.041965675 -0.023146907 -0.060353603 -0.07880828 -0.053624578
-0.062303293 0.012731668 0.025770962 0.06047171 -0.04731283 -0.03591432 -0.009352319 -0.0897985
-0.026806572 -0.059123628 -0.03362528 -0.023120042 -0.026302734 -0.03876439 -0.07981473 0.077442355
-0.03786289 0.06327389 -0.061846323 0.04431506 0.0373702 -0.06816035 0.07341192 -0.020650852
-0.037222356 0.04862066 -0.040374696 0.0434516 0.035440836 0.072839 0.030268753 -0.026399298
0.044767704 0.04246003 0.017504888 0.019840294 0.057642788 0.03236035 0.06847158 -0.06458742
-0.03763904 -0.051725004 -0.09823996 -0.07150336 -0.030977773 0.06581883 0.0070307916 0.0720889
0.081349835 -0.083454184 0.0073538576 0.055798635 -0.077556804 -0.0873962 -0.065093644 0.08193728
0.060768846 0.07486062 -0.03599192 0.0074324887 -0.04229712 0.00096661184 -0.10294795 0.021906907
0.044353005 -0.08107324 0.05978484 -0.059589542 -0.030879369 0.10877752 0.037765525 -0.069225475
0.0033287522 0.062081564 -0.013216351 -0.091701165 0.049451627 0.044332895 -0.052055802 0.060339466
0.050116196 -0.018636886 -0.04236535 0.06986895 -0.0042875726 -0.008787973 0.055490497 0.04711336
-0.07349733 -0.06357966 0.0023803907 0.035873123 -0.003274403 -0.012370645 0.04963142 -0.005070408
-0.009251636 0.0066469777 0.026108963 0.032138485
00000000: bcde 563d 31a3 963c f11d 213d fba1 6ebc
00000010: a9de 033c da99 cf3c 9ee9 5abd 3545 9a3d
00000020: ed9d 2bbd de9a 90bd 768f aa3b 016c f5bc
00000030: da3c 963d 9a82 9bbd e41d 6c3d 7162 10bd
00000040: 9eab 42bd ca99 813d a133 dcbd 9a74 8e3d
00000050: 3c01 51bd a72a 89bd 5a0d 70bd b3df 3dbd
00000060: ed62 d83d 57d8 f73b 161d 00bd f007 aabd
00000070: 16fe abbd 8f1b b2bd 537c ff3c 2244 00bd
00000080: f357 a03c bc3c 02bd 91df d0bd 33e4 2b3d
00000090: 959e bdbc 5735 77bd 3c66 a1bd 72a5 5bbd
000000a0: bd31 7fbd 7c98 503c a01d d33c 2fb1 773d
000000b0: 19cb 41bd e51a 13bd 783a 19bc 47e8 b7bd
000000c0: 7599 dbbc 9e2b 72bd a9ba 09bd 3e66 bdbc
000000d0: d578 d7bc 69c7 1ebd e875 a3bd 199a 9e3d
000000e0: 1e16 1bbd be95 813d 9252 7dbd b583 353d
000000f0: 7f11 193d a797 8bbd fd58 963d fa2b a9bc
00000100: 7876 18bd 7526 473d f05f 25bd 4efa 313d
00000110: 692a 113d 9d2c 953d 2df6 f73c 5743 d8bc
00000120: 575e 373d 92ea 2d3d 6966 8f3c 1d88 a23c
00000130: d81a 6c3d 498c 043d d43a 8c3d 6946 84bd
00000140: 652b 1abd 99dd 53bd 0832 c9bd 5b70 92bd
00000150: 19c5 fdbc 06cc 863d 8e62 e63b 58a3 933d
00000160: be9a a63d 07ea aabd a1f8 f03b 1c8d 643d
00000170: 1ad6 9ebd c7fc b2bd d14f 85bd bcce a73d
00000180: c1e8 783d 8650 993d 436c 13bd 3c8c f33b
00000190: bf3f 2dbd 3964 7d3a 60d6 d2bd 1d76 b33c
000001a0: 7fab 353d ba09 a6bd f3e0 743d 2a14 74bd
000001b0: bbf6 fcbc c0c6 de3d 06b0 1a3d 16c6 8dbd
000001c0: 3227 5a3b 3d49 7e3d 6589 58bc d2cd bbbd
000001d0: ca8d 4a3d 6996 353d 7738 55bd 8426 773d
000001e0: a446 4d3d 62ac 98bc 4a87 2dbd 7417 8f3d
000001f0: c47e 8cbb 6efb 0fbc 014a 633d f0f9 403d
00000200: c585 96bd 0e36 82bd 5400 1c3b b2ef 123d
00000210: 5e97 56bb 3fae 4abc 514a 4b3d aa25 a6bb
00000220: 2d94 17bc e4ce d93b 77e2 d53c a5a3 033d

gconv1.0.input_gate_u.weight f4 [1, 140]
0.02997438 0.029638983 0.07820619 0.14902577 0.054729037 0.014291305 0.08406918 -0.0694559
0.1290246 -0.029376397 0.13007814 -0.14542454 0.1891928 0.35440776 -0.09391473 -0.043011203
0.18719508 0.0057290117 0.031490114 -0.068145685 -0.06826593 -0.065685146 0.10396962 0.07858642
-0.15422787 0.059119504 0.06457185 0.22819608 -0.10216938 -0.016715853 -0.066042 0.16023186
-0.012147367 -0.11875097 -0.16677712 -0.063024 -0.16538791 -0.053726565 -0.031639967 0.096634336
0.124327295 0.10318824 0.15969867 0.07857522 -0.024854813 -0.06307629 0.109531224 -0.16727218
-0.07872543 -0.018653007 0.021014819 0.058980327 -0.106179714 -0.07054272 0.13663277 0.044772252
-0.019732507 0.15776202 -0.052888706 0.12633967 -0.058212165 0.11035315 0.21661249 0.14781895
0.2756702 0.066576004 -0.16217019 -0.0089751 -0.050488323 -0.06803895 0.024284089 0.19568907
0.19187395 0.17158534 -0.0684479 -0.091084674 -0.05104945 -0.07560037 -0.011497885 -0.03962875
-0.05405533 -0.07125713 -0.20028187 0.25200048 0.09081259 -0.03713721 -0.13679938 -0.002683159
0.053319 -0.06933614 -0.11783385 -0.028888956 0.27096748 -0.0019915372 0.16174115 -0.033769738
-0.009590862 -0.005908792 -0.052161373 0.091752015 -0.28438303 -0.15787461 0.2306512 -0.0042330567
-0.11376125 0.17688617 -0.0005812473 -0.10646335 -0.008642372 -0.04208851 -0.025955629 0.10385532
-0.06351162 0.060569197 -0.11008582 -0.20732687 0.08153388 0.17636284 0.03385412 -0.03374016
-0.009222061 0.008409568 0.18533315 -0.01719886 0.015631523 0.1780878 0.06502676 -0.025975589
0.041271016 0.09055624 -0.015756343 0.05577161 0.0013008472 -0.1318814 0.12049339 0.18712136
-0.18821488 -0.0698624 0.04785683 -0.37099594
00000000: d58c f53c 74cd f23c 912a a03d 369a 183e
00000010: 8e2b 603d 1426 6a3c 762c ac3d e53e 8ebd
00000020: 061f 043e c5a6 f0bc 3433 053e 2cea 14be
00000030: c2bb 413e ef74 b53e 5e56 c0bd 842c 30bd
00000040: 11b0 3f3e 6fba bb3b c7fb 003d f78f 8bbd
00000050: 02cf 8bbd ef85 86bd 06ee d43d ebf1 a03d
00000060: e9ed 1dbe 4b27 723d 3f3e 843d 3cac 693e
00000070: 2e3e d1bd afef 88bc 0741 87bd d213 243e
00000080: c005 47bc b533 f3bd 9fc7 2abe ba12 81bd
00000090: 735b 29be 6310 5cbd e998 01bd 39e8 c53d
000000a0: 4f9f fe3d 5b54 d33d 0c88 233e 0cec a03d
000000b0: 529c cbbc 242e 81bd e851 e03d 6649 2bbe
000000c0: cc3a a1bd 31ce 98bc 4527 ac3c 5b95 713d
000000d0: c074 d9bd b478 90bd 76e9 0b3e 1c63 373d
000000e0: 11a6 a1bc 5e8c 213e d4a1 58bd 305f 013e
000000f0: e16f 6ebd d500 e23d aacf 5d3e da5d 173e
00000100: a524 8d3e 0059 883d f10f 26be 4c0c 13bc
00000110: d8cc 4ebd 0158 8bbd 6def c63c b762 483e
00000120: 9b7a 443e 11b4 2f3e 6a2e 8cbd 9a8a babd
00000130: 3a19 51bd 5ed4 9abd a061 3cbc c251 22bd
00000140: 1f69 5dbd 42ef 91bd b116 4dbe 3506 813e
00000150: f4fb b93d 301d 18bd 2315 0cbe f0d7 2fbb
00000160: 0665 5a3d 1b00 8ebd e052 f1bd 88a8 ecbc
00000170: 40bc 8a3e 7384 02bb 799f 253e 2352 0abd
00000180: fe22 1dbc 8a9e c1bb 2aa7 55bd 7be8 bb3d
00000190: a79a 91be e2a9 21be d42f 6c3e 74b5 8abb
000001a0: a9fb e8bd a621 353e d95e 18ba 7509 dabd
000001b0: bc98 0dbc 0065 2cbd e6a0 d4bc 19b2 d43d
000001c0: 6112 82bd 6817 783d ad74 e1bd 7f4d 54be
000001d0: 3cfb a63d 7698 343e 9eaa 0a3d 1f33 0abd
000001e0: 2118 17bc 49c8 093c f9c7 3d3e a0e4 8cbc
000001f0: ae0d 803c a65c 363e c02c 853d c2ca d4bc
00000200: cc0b 293d 8d75 b93d 7213 81bc c670 643d
00000210: 3081 aa3a eb0b 07be 3dc5 f63d be9c 3f3e
00000220: 67bb 40be 0514 8fbd 8605 443d 2ef3 bdbe

gconv1.0.input_gate_w.weight f4 [1, 140]
-0.09769573 0.12041641 0.033427205 0.054946996 0.08272719 -0.05222902 0.14865714 0.034130175
-0.03853522 -0.03532835 -0.053395957 -0.013689017 0.019752415 0.1835137 0.018074729 -0.11443964
-0.053679645 -0.08341209 0.0035203646 -0.07522154 0.10011353 0.053641476 0.18221156 -0.27842325
-0.06739146 0.12916328 0.0012335865 -0.0013711002 -0.020808721 -0.21926779 0.16564512 -0.0048278687
0.03014494 -0.12017649 -0.10992341 0.14670256 0.08178878 -0.09946864 -0.03924009 0.022504704
0.14076236 0.100623325 0.04446593 0.10366823 0.040624518 0.057147156 -0.121377654 -0.08483228
0.06029603 -0.11080787 -0.13542368 -0.04508611 0.053522386 0.11092437 0.084024094 -0.08378224
0.08386811 -0.26919514 -0.22574052 0.016394593 0.12322089 -0.026850406 0.03466997 0.13373476
-0.09907844 0.027318716 -0.10320499 -0.18826713 0.01149943 -0.37024772 0.041443862 0.03704522
-0.067907654 0.348687 -0.053777013 -0.12981312 0.09524328 0.025854373 0.045128193 0.013911776
-0.101403736 0.013636956 0.14636937 0.03254394 0.008835509 0.21947443 0.11854925 -0.14129348
-0.030470883 0.026611835 -0.053574145 -0.009176092 -0.009985329 -0.10888699 -0.0060921917 -0.0817285
-0.101711676 0.21456786 -0.06045439 0.11646712 0.24700643 -0.029201312 -0.012046115 -0.26107618
-0.05722722 0.11771602 -0.1798755 -0.1273738 0.22583179 0.04014941 0.21075507 0.16870609
-0.2944884 -0.11418243 -0.12513012 -0.075418115 0.04054045 0.013356947 -0.091343105 -0.20407078
-0.11287927 0.10943323 0.092846096 0.042123742 -0.0073940093 -0.036382537 0.11143533 -0.08179531
-0.19851278 -0.008551266 -0.1576459 0.19604756 -0.029813603 -0.08480438 0.014025539 -0.08953557
-0.2307907 -0.014985532 0.15419559 -0.096199684
00000000: b314 c8bd e19c f63d f7ea 083d 1a10 613d
00000010: df6c a93d 19ee 55bd 9439 183e 15cc 0b3d
00000020: 1bd7 1dbd 76b4 10bd b8b5 5abd e647 60bc
00000030: d1cf a13c 04eb 3b3e 7411 943c 545f eabd
00000040: 30df 5bbd f5d3 aabd ebb5 663b c00d 9abd
00000050: 5308 cd3d 2ab7 5b3d ab95 3a3e 7e8d 8ebe
00000060: 8904 8abd 6143 043e 4bb0 a13a 7db6 b3ba
00000070: 0d77 aabc bc87 60be e09e 293e 1933 9ebb
00000080: 85f2 f63c 171f f6bd 861f e1bd 3239 163e
00000090: e080 a73d 37b6 cbbd 37ba 20bd c95b b83c
000000a0: 0224 103e 9a13 ce3d e821 363d 0250 d43d
000000b0: e565 263d 2313 6a3d d994 f8bd 8cbc adbd
000000c0: f8f8 763d 3def e2bd 81ac 0abe 36ac 38bd
000000d0: 4a3a 5b3d 512c e33d d314 ac3d 0696 abbd
000000e0: 0bc3 ab3d f2d3 89be 8628 67be f44d 863c
000000f0: 3c5b fc3d 62f5 dbbc 1902 0e3d c4f1 083e
00000100: a3e9 cabd 80cb df3c 235d d3bd 19c9 40be
00000110: 1b68 3c3c 1c91 bdbe 0ac1 293d bbbc 173d
00000120: 2b13 8bbd 1a87 b23e 4945 5cbd bbed 04be
00000130: e90e c33d 8dcc d33c 57d8 383d 38ee 633c
00000140: c3ac cfbd 8a6d 5f3c dae1 153e cb4c 053d
00000150: d0c2 103c e8bd 603e f3c9 f23d 3daf 10be
00000160: 139e f9bc 1001 da3c 9070 5bbd 5257 16bc
00000170: 8199 23bc 2400 dfbd 02a1 c7bb 4661 a7bd
00000180: 364e d0bd adb7 5b3e 069f 77bd 5086 ee3d
00000190: 41ef 7c3e 9737 efbc 115d 45bc c7ab 85be
000001a0: 1767 6abd 1915 f13d 4831 38be 476e 02be
000001b0: 7340 673e b573 243d 2dd0 573e 4ac1 2c3e
000001c0: 2fc7 96be 7ad8 e9bd 1c22 00be d074 9abd
000001d0: be0d 263d 19d7 5a3c 1812 bbbd eef7 50be
000001e0: 3f2d e7bd 871e e03d 1826 be3d f289 2c3d
000001f0: 7249 f2bb db05 15bd 3538 e43d 4d84 a7bd
00000200: ef46 4bbe 9c1a 0cbc ed6d 21be b1c0 483e
00000210: a83b f4bc ebad adbd 60cb 653c 6d5e b7bd
00000220: 6654 6cbe e085 75bc 73e5 1d3e 5704 c5bd

gconv1.0.forget_gate_u.weight f4 [1, 140]
-0.08027059 0.104163125 -0.119445205 -0.0495556 0.11845888 0.056581996 0.2176458 0.18406358
0.08818327 0.08151124 0.07606522 -0.13660632 0.16772941 -0.14131114 -0.059202872 0.011537061
0.2944915 -0.05308262 0.05318355 -0.14449711 0.10976853 -0.05804573 0.12146853 0.3026817
0.09963043 -0.0049301693 -0.101716876 0.102259904 0.060897745 0.18409467 -0.076217204 -0.014043682
0.03000859 0.13454162 -0.084067926 0.06875259 -0.07089169 0.019293426 0.08578356 0.23391117
0.098728046 0.036648594 0.034372337 0.18606965 0.12369004 -0.091069154 -0.026472187 -0.077050634
0.0254776 0.036060285 0.11417155 -0.008715637 -0.15664347 -0.25368577 0.13796936 0.028097749
-0.11048758 0.25817883 0.06580402 0.0013048447 -0.13685054 0.02842508 0.013876445 0.10449559
-0.07196584 -0.068960294 0.0720684 -0.06943122 -0.06788818 -0.06861905 -0.023043029 -0.00811128
-0.10685032 -0.028984422 0.021008939 -0.058277473 0.118951134 -0.044726904 0.20452645 0.045131687
-0.02236278 -0.07215158 0.048386153 0.11776425 -0.09600976 -0.07267392 0.08167757 -0.18455227
-0.015051269 -0.0022335632 -0.05221217 -0.0149914 0.07558412 -0.2027494 -0.22709858 0.14679474
0.26485074 -0.17838553 -0.036238045 -0.0732583 -0.17676774 0.12176685 0.040517308 0.13891357
0.19867265 0.2669272 -0.008742766 -0.009548969 0.054061 -0.008627542 0.0644624 0.11579703
-0.026520146 0.25800508 0.010090983 0.010362193 -0.06928816 -0.040127248 0.18082595 0.24580453
0.003276266 -0.056128852 -0.17769526 0.04836232 0.021482533 -0.11571424 -0.18972534 -0.009313788
-0.14717937 -0.040259473 0.07300263 0.020876009 0.107634835 0.14446169 0.2641081 -0.08701353
-0.1437295 -0.013101303 -0.03857695 -0.080463745
00000000: e864 a4bd 7a53 d53d b09f f4bd d0fa 4abd
00000010: 929a f23d 86c2 673d 8ade 5e3e 2a7b 3c3e
00000020: 6e99 b43d 5def a63d 15c8 9b3d 87e2 0bbe
00000030: 42c1 2b3e deb3 10be b67e 72bd f105 3d3c
00000040: 97c7 963e 296d 59bd fed6 593d 0df7 13be
00000050: 53ce e03d 5cc1 6dbd 7ec4 f83d 19f9 9a3e
00000060: 0a0b cc3d 428d a1bb f050 d0bd a46d d13d
00000070: ea6f 793d 5083 3c3e c417 9cbd 7917 66bc
00000080: 93d4 f53c 47c5 093e ce2b acbd 28ce 8c3d
00000090: aa2f 91bd 3f0d 9e3c 4baf af3d 6986 6f3e
000000a0: ee31 ca3d d61c 163d 02ca 0c3d 0b89 3e3e
000000b0: 3451 fd3d 7782 babd 33dc d8bc b9cc 9dbd
000000c0: 66b6 d03c f3b3 133d c6d2 e93d 08cc 0ebc
000000d0: 2567 20be 1ae3 81be d747 0d3e 402d e63c
000000e0: 5047 e2bd 0430 843e 42c4 863d 5307 ab3a
000000f0: 8c22 0cbe b7db e83c 075a 633c c901 d63d
00000100: d462 93bd 0e3b 8dbd 9998 933d f531 8ebd
00000110: f508 8bbd 2588 8cbd bcc4 bcbc 2de5 04bc
00000120: 57d4 dabd bd70 edbc f01a ac3c 5cb4 6ebd
00000130: a79c f33d 8f33 37bd 626f 513e 01dc 383d
00000140: 2632 b7bc 35c4 93bd 8f30 463d 622e f13d
00000150: c4a0 c4bd 10d6 94bd 9246 a73d 45fb 3cbe
00000160: 9999 76bc f960 12bb 6edc 55bd 7d9e 75bc
00000170: d9cb 9a3d 8a9d 4fbe 888c 68be 5c51 163e
00000180: 849a 873e b2aa 36be 586e 14bd 7308 96bd
00000190: 9a02 35be e660 f93d 7af5 253d 5c3f 0e3e
000001a0: d870 4b3e afaa 883e d23d 0fbc 4773 1cbc
000001b0: 116f 5d3d 895a 0dbc dd04 843d fe26 ed3d
000001c0: c740 d9bc 3e19 843e a654 253c 30c6 293c
000001d0: f3e6 8dbd 785c 24bd 702a 393e 2fb4 7b3e
000001e0: 9fb6 563b 5ee7 65bd bff5 35be 9117 463d
000001f0: 23fc af3c 96fb ecbd 5c47 42be dc98 18bc
00000200: 30b6 16be 1ee7 24bd 6782 953d 2a04 ab3c
00000210: a76f dc3d c4ed 133e 2d39 873e 2634 b2bd
00000220: d32d 13be d9a6 56bc dd02 1ebd 2dca a4bd

gconv1.0.forget_gate_w.weight f4 [1, 140]
-0.061729502 0.03745518 -0.025233274 -0.030263117 0.082248196 0.10033801 0.28689727 0.021680735
0.27869755 0.06586836 -0.19985974 0.28060964 -0.0013572042 -0.05347415 0.029328426 -0.041485604
0.22808622 0.10708612 -0.0056562247 -0.02010797 0.04982918 0.104926094 -0.20902885 -0.09614329
0.23149815 0.16844395 0.05607468 0.27566376 -0.058490142 0.0797077 -0.18381515 0.28198168
0.19100615 -0.06307228 0.022930093 0.22099096 0.19524398 -0.27611563 0.15568791 -0.07400187
0.02328718 0.022581866 0.05735878 -0.028329223 -0.030648775 -0.08454879 -0.0026992874 -0.033657108
0.072352014 0.087933734 0.15642701 0.14526263 -0.07176491 0.022434175 0.053685788 0.091478944
-0.041830618 0.0058395285 -0.077936605 0.1935859 0.17496581 -0.16863209 0.08974191 -0.1902174
-0.17792729 -0.16752157 0.24094437 -0.24175233 0.030201253 0.109292135 0.030260915 -0.061243586
-0.0494995 -0.07679451 0.09546953 -0.19745322 -0.023448855 0.27543432 -0.11001553 0.16584575
-0.15451123 0.08508038 -0.09728439 -0.041702226 0.028879875 -0.019349772 0.04528745 0.059681468
0.20896438 -0.065136835 0.05849543 -1.4803231e-05 -0.03419696 -0.0663726 -0.12742423 -0.07220375
-0.11081252 -0.056598533 0.097922646 -0.0057782196 0.052669328 0.023430098 -0.011759872 0.06526548
-0.11039183 -0.074445456 -0.0075137466 -0.08944546 0.1283887 0.048646882 -0.26818755 -0.06825436
-0.17560689 -0.048324775 0.024698913 -0.013653408 0.31774145 -0.105144 -0.09454451 -0.06884936
-0.15881477 -0.111439385 0.1433463 -0.017141737 -0.07213673 -0.04255619 -0.22635071 0.07226237
0.06771245 -0.015252448 0.006058977 0.08504457 0.18818042 0.09339498 0.022938875 -0.008592477
0.026932131 0.05098984 -0.04898259 0.05852116
00000000: 13d8 7cbd 9a6a 193d 03b6 cebc 5bea f7bc
00000010: be71 a83d 047e cd3d 33e4 923e cc9b b13c
00000020: 72b1 8e3e fee5 863d 08a8 4cbe 11ac 8f3e
00000030: 37e4 b1ba b607 5bbd 2b42 f03c cfec 29bd
00000040: 6f8f 693e f84f db3d da57 b9bb 78b9 a4bc
00000050: af19 4c3d 7ee3 d63d a90b 56be c6e6 c4bd
00000060: da0d 6d3e 927c 2c3e 90ae 653d cd23 8d3e
00000070: 5c93 6fbd ca3d a33d 0a3a 3cbe e75f 903e
00000080: 1e97 433e 0a2c 81bd e4d7 bb3c 744b 623e
00000090: 0aee 473e 075f 8dbe a76c 1f3e 4b8e 97bd
000000a0: c2c4 be3c 9bfd b83c 0af1 6a3d b012 e8bc
000000b0: 2413 fbbc ea27 adbd 87e6 30bb 09dc 09bd
000000c0: 4b2d 943d 9a16 b43d 672e 203e babf 143e
000000d0: 7bf9 92bd e0c7 b73c a1e5 5b3d 5059 bb3d
000000e0: 9556 2bbd 8459 bf3b 3a9d 9fbd 623b 463e
000000f0: 3d2a 333e e4ad 2cbe 9bca b73d 5ac8 42be
00000100: 9232 36be c68a 2bbe 1fba 763e ec8d 77be
00000110: 9e68 f73c 8ed4 df3d bde5 f73c 8eda 7abd
00000120: fdbf 4abd 7146 9dbd 8785 c33d 2d31 4abe
00000130: d017 c0bc ba05 8d3e d24f e1bd 78d3 293e
00000140: 3138 1ebe 9f3e ae3d 0a3d c7bd f4cf 2abd
00000150: 7d95 ec3c 6a83 9ebc 557f 393d 8e74 743d
00000160: c2fa 553e 7666 85bd e798 6f3d 655b 78b7
00000170: 1d12 0cbd 5cee 87bd 7f7b 02be 8fdf 93bd
00000180: adf1 e2bd ddd3 67bd ab8b c83d 3857 bdbb
00000190: cbbb 573d 7af0 bf3c 7aac 40bc e8a9 853d
000001a0: 1d15 e2bd dc76 98bd e035 f6bb 2e2f b7bd
000001b0: 5478 033e f441 473d e14f 89be f1c8 8bbd
000001c0: 4bd2 33be 33f0 45bd 6055 ca3c 8bb2 5fbc
000001d0: 02af a23e bd55 d7bd 8da0 c1bd e500 8dbd
000001e0: 57a0 22be 553a e4bd 5fc9 123e d46c 8cbc
000001f0: 6cbc 93bd 664f 2ebd 7bc8 67be 4bfe 933d
00000200: d3ac 8a3d 67e5 79bc 628a c63b d92b ae3d
00000210: 5eb2 403e de45 bf3d 4fea bb3c 76c7 0cbc
00000220: c6a0 dc3c b9da 503d f8a1 48bd e2b3 6f3d

gconv1.0.output_gate_u.weight f4 [1, 140]
0.31546932 -0.056115534 0.06382128 0.24570279 0.21684603 -0.04157556 0.07678821 0.19918212
0.0135057615 0.1773294 -0.04382375 -0.025403962 0.04708696 0.062962964 0.060646515 0.19799228
0.16156584 -0.025684554 -0.04165851 0.029541774 0.24899505 -0.20292503 0.03973197 0.08796609
-0.07258424 -0.09264917 0.08571789 0.09317732 -0.06822977 0.12388246 -0.024555244 0.121839724
0.011485304 0.05095041 0.004281918 0.05448461 -0.15750246 -0.16898829 0.06261697 -0.018158434
-0.030162921 0.08070574 0.09470355 0.04680063 0.2145194 -0.08249504 0.24479474 -0.16142818
-0.13047217 -0.036424812 0.29243132 0.0059763915 0.08324863 -0.10696266 -0.06636787 0.19421244
0.29023555 -0.057024345 0.06605714 -0.003679786 -0.057975944 -0.01907347 0.09882421 -0.02047332
0.22653131 -0.007958225 0.18428944 -0.051482685 0.048097227 0.042683642 0.18285193 0.024318961
0.040223632 0.09290713 -0.030607842 -0.07179807 0.11732916 -0.24732071 0.013523736 -0.04228572
-0.27275437 0.17221832 -0.009041198 -0.104010396 0.12108066 0.15527429 -0.027662724 -0.12906148
-0.03138035 0.24213207 0.2233154 0.35232803 -0.09285398 -0.14856443 0.32194573 0.03228179
0.13550544 -0.15107118 -0.087464936 -0.029785797 0.059649434 -0.054451708 0.09590569 0.22169161
-0.05709353 0.08935921 -0.1681335 0.12299522 0.072167546 0.081829265 0.06140857 -0.00063600973
-0.07143475 0.05226445 0.1432046 0.032473452 -0.088897645 -0.068154365 0.2777412 0.14293891
0.12056979 0.01570596 -0.015982784 0.04096631 -0.011175127 -0.30265108 0.15739593 0.07854769
0.23484458 -0.025706239 0.15017545 0.10109977 -0.054548748 -0.36972013 -0.008116822 0.01316168
0.0024854124 0.04113281 -0.027631735 -0.07253572
00000000: 3285 a13e 67d9 65bd bbb4 823d 8399 7b3e
00000010: e30c 5e3e 224b 2abd 2343 9d3d 66f6 4b3e
00000020: 4547 5d3c d795 353e 8880 33bd f81b d0bc
00000030: 42de 403d baf2 803d 7b68 783d 7dbe 4a3e
00000040: 8471 253e 6a68 d2bc 1da2 2abd 9701 f23c
00000050: 8ff8 7e3e 94cb 4fbe fdbd 223d 9127 b43d
00000060: 0ca7 94bd d9be bdbd dc8c af3d c0d3 be3d
00000070: 0dbc 8bbd 16b6 fd3d 1428 c9bc 1b87 f93d
00000080: db2c 3c3c 61b1 503d 554f 8c3b 412b 5f3d
00000090: 5348 21be 440b 2dbe 533d 803d ffc0 94bc
000000a0: 3b18 f7bc 0d49 a53d eff3 c13d 04b2 3f3d
000000b0: f9aa 5b3e 29f3 a8bd 79ab 7a3e 6e4d 25be
000000c0: 7f9a 05be 2f32 15bd 8fb9 953e 9bd5 c33b
000000d0: 427e aa3d 3d0f dbbd e1eb 87bd a0df 463e
000000e0: c199 943e 5c92 69bd f748 873d 9128 71bb
000000f0: 2f78 6dbd f73f 9cbc 5964 ca3d aab7 a7bc
00000100: d3f7 673e 3763 02bc 5fb6 3c3e 82df 52bd
00000110: 9901 453d 0bd5 2e3d 893d 3b3e 8f38 c73c
00000120: 89c1 243d 1846 be3d 4cbd fabc de0a 93bd
00000130: 454a f03d a441 7dbe a992 5d3c cb33 2dbd
00000140: 76a6 8bbe 005a 303e 8821 14bc 6703 d5bd
00000150: 23f9 f73d 3900 1f3e f09c e2bc b128 04be
00000160: af88 00bd 78f1 773e cbac 643e 5764 b43e
00000170: 3a2a bebd 4621 18be 12d6 a43e e939 043d
00000180: f0c1 0a3e 67b2 1abe d120 b3bd 5801 f4bc
00000190: f752 743d c108 5fbd 346a c43d 2003 633e
000001a0: e8da 69bd f601 b73d 302b 2cbe ebe4 fb3d
000001b0: 94cc 933d 1a96 a73d 8d87 7b3d e4b9 26ba
000001c0: 624c 92bd 3f13 563d 3aa4 123e e202 053d
000001d0: f80f b6bd 8494 8bbd 1834 8e3e 945e 123e
000001e0: 4bed f63d c9a9 803c 54ee 82bc 4acc 273d
000001f0: e117 37bc 15f5 9abe 662c 213e 9cdd a03d
00000200: 197b 703e e495 d2bc 98c7 193e 650d cf3d
00000210: 826e 5fbd f54b bdbe 6bfc 04bc 16a4 573c
00000220: 4de2 223b e17a 283d f35b e2bc 9c8d 94bd

gconv1.0.output_gate_w.weight f4 [1, 140]
0.22515133 -0.07820244 0.21852815 -0.013040505 0.15905818 -0.18475457 0.13286462 -0.053595003
-0.080935836 -0.20494755 -0.06332824 0.14801231 -0.06917426 -0.020876491 -0.033148658 -0.15722464
0.1276121 0.04126466 0.035536334 -0.12314024 -0.01494269 0.12572882 -0.06829473 0.1871806
0.0855618 0.0135956025 -0.09091164 0.0048818113 -0.10447243 -0.040720362 -0.2628404 -0.15503702
0.18934958 -0.08479727 0.2316098 0.078618854 0.053262603 0.21136068 0.019954527 -0.046993155
0.12880664 0.06297225 0.28345525 0.1342462 -0.04375011 -0.017983703 -0.013156992 -0.19684319
0.3480761 0.10122396 -0.2876087 -0.035110056 -0.20897314 0.039673608 -0.06112738 0.061560657
0.08465921 -0.04003364 0.006894543 0.2063209 0.070167296 -0.1651245 0.050598383 -0.033593126
0.015419132 0.0043352665 0.06905561 0.12601896 -0.007536806 0.13844146 0.066453606 -0.093418516
-0.08956875 0.060078334 0.012174953 0.37978724 0.06286103 0.07530362 -0.09761328 0.19634373
-0.059772972 -0.07730922 -0.08890514 -0.30017382 0.18051715 0.08983255 0.23674501 0.014002189
0.09187858 -0.0021618002 0.0777314 -0.086578764 0.08775406 -0.18811536 0.017549891 0.14305636
-0.16558363 0.1178089 -0.20306277 -0.0821601 -0.21203494 -0.022448739 0.07001431 0.04671271
-0.06293329 0.002565001 -0.1776449 -0.2681223 0.12554878 0.08075522 -0.0060247798 -0.038421106
-0.1323042 -0.29139042 0.005027064 -0.015244623 0.07292079 -0.17887527 -0.06315537 -0.17582047
-0.21522495 -0.18393588 0.025968414 0.056538228 -0.02618921 0.15531608 -0.005887859 0.110536754
-0.16903812 0.073397435 -0.034637496 -0.19014698 0.08664499 0.1321289 -0.025848353 0.0022785391
-0.16567111 0.06206655 -0.12100802 0.22325085
00000000: 128e 663e 9a28 a0bd d8c5 5f3e d8a7 55bc
00000010: 26e0 223e 4d30 3dbe aa0d 083e 6f86 5bbd
00000020: b0c1 a5bd c5dd 51be 3cb2 81bd 8a90 173e
00000030: 3cab 8dbd 2d05 abbc e3c6 07bd 7fff 20be
00000040: bfac 023e 2205 293d 8c8e 113d f330 fcbd
00000050: 2fd2 74bc 0ebf 003e 1bde 8bbd 45ac 3f3e
00000060: 063b af3d 17c0 5e3c e22f babd 9af7 9f3b
00000070: a4f5 d5bd 65ca 26bd 0493 86be 06c2 1ebe
00000080: dbe4 413e 31aa adbd 1f2b 6d3e ec02 a13d
00000090: e329 5a3d ef6e 583e ad77 a33c e57b 40bd
000000a0: e3e5 033e 98f7 803d 0c21 913e d677 093e
000000b0: 5133 33bd 8f52 93bc 6d90 57bc 4391 49be
000000c0: 0837 b23e 824e cf3d 7341 93be 90cf 0fbd
000000d0: 0efd 55be cb80 223d b460 7abd 0727 7c3d
000000e0: cf61 ad3d 50fa 23bd 9eeb e13b c945 533e
000000f0: dfb3 8f3d 6616 29be 4040 4f3d f298 09bd
00000100: 87a0 7c3c da0e 8e3b 076d 8d3d 1d0b 013e
00000110: 50f7 f6bb 99c3 0d3e d418 883d 3552 bfbd
00000120: d26f b7bd b314 763d 7479 473c 7973 c23e
00000130: 49bd 803d c938 9a3d 79e9 c7bd 550e 493e
00000140: 81d4 74bd 4c54 9ebd e613 b6bd 62b0 99be
00000150: 7dd9 383e 21fa b73d 496d 723e 7069 653c
00000160: d62a bc3d fdac 0dbb a431 9f3d 3550 b1bd
00000170: 67b8 b33d 50a1 40be cac4 8f3c 5e7d 123e
00000180: c18e 29be cb45 f13d b0ef 4fbe 8e43 a8bd
00000190: b01f 59be 6be6 b7bc aa63 8f3d d455 3f3d
000001a0: 2be3 80bd 9319 283b 8be8 35be 5347 89be
000001b0: dc8f 003e fe62 a53d 846b c5bb 735f 1dbd
000001c0: c17a 07be 2031 95be 12ba a43b 95c4 79bc
000001d0: 7f57 953d 142b 37be 9a57 81bd 480a 34be
000001e0: ee63 5cbe b059 3cbe b6bb d43c a194 673d
000001f0: c18a d6bc 2e0b 1f3e f1ee c0bb 1861 e23d
00000200: 5418 2dbe 6551 963d 0ce0 0dbd e4b5 42be
00000210: ee72 b13d cc4c 073e edbf d3bc 8b53 153b
00000220: b0a5 29be 7f39 7e3d 0ed3 f7bd df9b 643e

gconv1.1.A f4 [140, 140]
0.09528664 -0.07997916 0.16437264 -0.19495562 0.04645529 -0.032018397 -0.10802564 0.11446579
-0.03901608 0.0967198 -0.14322375 0.007672132 0.067306474 0.05438539 -0.081004255 0.08936474
-0.11542807 -0.11982124 -0.023661405 0.09157715 0.07191967 -0.07751318 -0.024171751 0.06590893
0.1563305 -0.09951968 -0.116754755 0.046146568 -0.089847244 0.027628826 0.07868886 0.1457292
0.002922564 0.074766725 0.07086054 0.010796038 -0.054407395 -0.03220077 -0.12140882 0.010378728
0.06877297 0.03881621 0.07088184 -0.044175662 -0.09776377 -0.11590444 0.19866031 0.17124864
-0.016193205 -0.017963886 -0.05518425 -0.07919177 -0.044713713 -0.023386814 0.1582981 -0.024444291
-0.05733115 0.011680146 0.04382122 0.0041274126 0.056380637 -0.02813034 -0.013579412 0.06446095
0.07792513 0.056122836 0.049948137 0.040711276 -0.12817201 0.008522767 -0.0018565295 -0.06126753
0.047302708 -0.0034666639 0.1261791 0.15602262 0.14568081 0.008079123 -0.0969937 0.1640459
0.0063385163 -0.07844857 0.022591416 0.12175378 -0.0054567484 0.07824324 0.073347256 -4.048973e-05
-0.03939898 -0.06382236 0.10869082 -0.21189474 0.10174894 -0.03855722 0.07116797 -0.0952486
0.006151447 0.09887893 -0.016966956 -0.069070585 0.023628667 -0.15940171 0.018023895 0.21106616
0.12719005 -0.08225966 -0.12279911 -0.09189044 0.13420536 -0.054059304 -0.027534442 -0.02532838
0.08472772 0.1662334 -0.051314384 -0.06013596 0.016751707 -0.09299443 -0.07004261 -0.033941913
0.015662815 0.13897982 0.040380295 -0.050564356 0.030204356 0.0628319 0.08600009 0.11861595
0.11512514 -0.009936821 0.08456068 0.03933278 -0.010005833 0.007974866 0.004697573 -0.20844933
0.038523037 0.09488515 0.011503725 -0.027384216 0.006984971 -0.023824008 -0.050660696 0.062292524
0.06623672 -0.037223566 0.010538964 -0.05030705 -0.07368012 -0.03820799 0.0986162 0.04925567
0.09704022 -0.14351746 -0.01373951 -0.04536294 0.07006458 0.025060238 0.06967431 -0.09475268
0.15687537 -0.087272435 -0.06514681 -0.121592626 -0.03927413 0.022443851 0.024965012 0.026753083
0.020714683 -0.08450373 -0.02032791 0.07561952 0.17746837 0.12729597 0.072780244 -0.12486334
-0.07906616 -0.002135474 0.025436254 -0.058799222 -0.108561225 0.0661951 0.092150845 -0.04355278
-0.026393183 0.005108164 0.058965188 -0.04493979 -0.10515117 -0.024184605 0.057782292 -0.025695527
-0.028131105 0.109222695 0.07781213 -0.27454352 -0.0009585563 0.024915906 -0.02297995 -0.03223765
0.10485206 0.18176487 -0.04124074 -0.058713254 0.039918955 -0.05246675 0.05072595 -0.004566313
0.019865317 0.06865 -0.00737478 0.15142767 -0.032770686 0.046078037 0.1440605 -0.09729298
-0.03006533 -0.07219043 0.097912736 0.100837745 -0.11054692 0.02003405 0.083671354 -0.09673451
0.02060359 0.025402017 0.05542418 0.065011494 -0.11145107 0.060314104 0.120268434 0.14586946
-0.04937307 0.012259873 0.05409414 0.13867679 0.025385994 0.024375755 0.16707371 -0.06975354
-0.0049193264 -0.063622944 -0.10902983 0.065143995 0.09883003 0.046538603 -0.019229924 -0.10224957
-0.0153894685 -0.06815001 -0.008659442 0.27546495 0.04454252 0.06910507 -0.12239367 -0.04371275
00000000: a425 c33d 1dcc a3bd 4d51 283e 72a2 47be
00000010: e747 3e3d b925 03bd 8c3c ddbd 0a6d ea3d
00000020: 53cf 1fbd 0815 c63d 3fa9 12be 8266 fb3b
00000030: fad7 893d 37c3 5e3d 8fe5 a5bd dc04 b73d
00000040: 8d65 ecbd d764 f5bd 90d5 c1bc cd8c bb3d
00000050: 9f4a 933d 3bbf 9ebd d603 c6bc 43fb 863d
00000060: 1a15 203e f9d0 cbbd 1e1d efbd 2f04 3d3d
00000070: d501 b8bd d955 e23c a027 a13d 093a 153e
00000080: 7d88 3f3b 4c1f 993d 551f 913d dee1 303c
00000090: 4ada 5ebd f4e4 03bd 30a5 f8bd 8a0b 2a3c
000000a0: d8d8 8c3d bffd 1e3d 802a 913d 8af1 34bd
000000b0: 5f38 c8bd 4f5f edbd 9c6d 4b3e ce5b 2f3e
000000c0: 9da7 84bc 0029 93bc e108 62bd 4b2f a2bd
000000d0: ba25 37bd b495 bfbc e618 223e 653f c8bc
000000e0: 11d4 6abd 155e 3f3c e17d 333d 3f3f 873b
000000f0: 62ef 663d 9971 e6bc 2f7c 5ebc 1a04 843d
00000100: 3697 9f3d 0fe1 653d 6b96 4c3d dec0 263d
00000110: 863f 03be 13a3 0b3c cb56 f3ba a9f3 7abd
00000120: 7cc0 413d f830 63bb 1835 013e 65c4 1f3e
00000130: 5a2d 153e 4c5e 043c a2a4 c6bd a6fb 273e
00000140: 54b3 cf3b a5a9 a0bd a211 b93c 0c5a f93d
00000150: 86ce b2bb fe3d a03d 1637 963d 84d3 29b8
00000160: d360 21bd 4cb5 82bd 4b99 de3d effa 58be
00000170: c061 d03d 2dee 1dbd 83c0 913d b311 c3bd
00000180: 1492 c93b 0981 ca3d 49fe 8abc e174 8dbd
00000190: e890 c13c 343a 23be d9a6 933c ba21 583e
000001a0: 1c3e 023e c177 a8bd 1a7e fbbd 0e31 bcbd
000001b0: 216d 093e 4a6d 5dbd e98f e1bc 767d cfbc
000001c0: ba85 ad3d 1739 2a3e 082f 52bd 2051 76bd
000001d0: e03a 893c dd73 bebd 8072 8fbd ad06 0bbd
000001e0: 4e4f 803c ba50 0e3e cf65 253d 921c 4fbd
000001f0: 206f f73c 03ae 803d d120 b03d ebec f23d
00000200: bbc6 eb3d 0cce 22bc 262e ad3d 691b 213d
00000210: 81ef 23bc 03a9 023c 19ee 993b be73 55be
00000220: 55ca 1d3d 2553 c23d 1f7a 3c3c dd54 e0bc
00000230: 2fe2 e43b 912a c3bc 9781 4fbd 7226 7f3d
00000240: 1ea7 873d bd77 18bd 9eab 2c3c c40e 4ebd
00000250: 9ae5 96bd fb7f 1cbd 4af7 c93d 50c0 493d
00000260: 06bd c63d 3ef6 12be af1b 61bc 7dce 39bd
00000270: 057e 8f3d 214b cd3c 68b1 8e3d b10d c2bd
00000280: f0a3 203e e4bb b2bd b16b 85bd 8e05 f9bd
00000290: e9dd 20bd 2bdc b73c 6d83 cc3c 4829 db3c
000002a0: d7b1 a93c 4b10 adbd b886 a6bc 68de 9a3d
000002b0: 45ba 353e e059 023e cf0d 953d 5ab8 ffbd
000002c0: 70ed a1bd 4ff3 0bbb b15f d03c 74d7 70bd
000002d0: 5955 debd 4c91 873d 95b9 bc3d 6664 32bd
000002e0: 8436 d8bc 6362 a73b 7b85 713d c912 38bd
000002f0: 7f59 d7bd cb1e c6bc 20ad 6c3d 6d7f d2bc
00000300: 3473 e6bc 26b0 df3d f75b 9f3d f890 8cbe
00000310: a047 7bba 711c cc3c 7340 bcbc a00b 04bd
00000320: adbc d63d 9220 3a3e 0dec 28bd 4f7d 70bd
00000330: 0f82 233d 60e7 56bd 04c6 4f3d 02a1 95bb
00000340: 97bc a23c 5f98 8c3d 23a8 f1bb db0f 1b3e
00000350: 8e3a 06bd 53bc 3c3d 9984 133e 8b41 c7bd
00000360: 914b f6bc 93d8 93bd 7986 c83d 0584 ce3d
00000370: 6c66 e2bd 731e a43c e35b ab3d be1c c6bd
00000380: dcc8 a83c e417 d03c 7704 633d bf24 853d
00000390: 7540 e4bd ec0b 773d 4c4f f63d ce5e 153e
000003a0: 6b3b 4abd a2dd 483c d191 5d3d 4a01 0e3e
000003b0: 4af6 cf3c aaaf c73c 5f15 2b3e f2da 8ebd
000003c0: 4d32 a1bb bf4c 82bd 084b dfbd 376a 853d
000003d0: 6667 ca3d 439f 3e3d 1388 9dbc 3968 d1bd
000003e0: 1c24 7cbc 3c92 8bbd 55e0 0dbc be09 8d3e
000003f0: 3872 363d f586 8d3d 88a9 fabd 240c 33bd

gconv1.1.W.weight f4 [140, 140]
-0.009028442 0.04237766 0.07749888 -0.054616343 -0.07140243 0.026360622 -0.04508282 0.13180633
0.0077869403 0.060505718 -0.041091457 -0.01618679 0.031734828 0.009328714 -0.0390224 0.039779224
-0.10910216 0.058190208 -0.27188224 -0.03395284 -0.1247729 -0.033193495 -0.10384541 0.12958023
0.13529299 0.017569715 -0.06659184 -0.197391 0.061312627 -0.11597105 0.014344205 -0.09680906
-0.08839786 -0.016902557 0.25984234 0.22473755 0.11614366 0.012644608 -0.014100201 -0.09636701
-0.08694775 -0.046402257 0.037629385 0.047502577 -0.0108985035 -0.06904077 0.039112967 0.0893609
-0.12964246 -0.012393769 -0.041841593 -0.10741675 0.0051221442 -0.13765809 -0.08870072 -0.009273496
0.030125024 0.076188676 0.10564766 0.13040455 -0.014583609 -0.08284792 -0.0075615724 0.024136763
0.024994738 0.061149474 0.2823606 -0.060739994 0.0403639 -0.048258465 0.06476765 -0.1049626
0.08762414 0.068559475 -0.03221471 -0.03489488 0.11522538 -0.024610357 -0.22227971 0.063461475
-0.093882196 -0.11551067 0.030200915 0.016349329 -0.13676697 0.17984083 -0.0052431733 -0.06675444
0.07565835 0.06645698 -0.113170266 -0.026562933 -0.08770664 -0.008029829 -0.062055323 0.13711964
0.0043104645 0.025000667 -0.098191775 -0.06752211 -0.11970365 -0.075202234 -0.18348078 -0.08044396
-0.021071644 -0.0005371215 -0.039300427 0.015369457 -0.03524481 0.006793834 0.0623615 -0.01816396
-0.10710143 0.041160505 -0.07779965 -0.06340401 0.037710406 0.092520416 0.07750707 0.035169344
0.055917177 0.04135534 0.12522408 -0.032321073 0.094277896 -0.029771397 -0.01151686 0.14451915
0.025918089 -0.05666127 0.10092594 0.068693876 -0.05471169 0.04368523 -0.057706613 0.074869126
-0.07303214 -0.03935673 -0.14139245 0.119565085 -0.016202588 0.038719486 0.044821784 -0.0067133466
-0.1423953 -0.043050937 0.11531924 0.008263258 0.044035103 0.09745673 -0.009739965 -0.13949907
-0.011613743 -0.038130663 0.09336996 0.13427581 0.17860557 0.03091599 -0.08003394 -0.103840254
-0.12243197 0.11831098 0.019021502 0.007433005 -0.07892607 -0.0060609784 -0.012719861 -0.040385168
-0.060342018 -0.034559157 -0.07846408 0.050076827 -0.04961466 0.12233403 0.020794457 -0.0013595881
0.12470403 -0.0086270375 0.0068813465 0.014783619 0.04396636 0.030215805 -0.044598274 0.008183476
0.020534981 0.056849327 0.106729954 -0.054723296 -0.054246783 0.044796277 -0.04373192 -0.017377589
0.1280634 0.09647669 0.13201705 0.018192243 -0.06595436 0.040569495 -0.16673417 0.01723437
0.17704788 0.03810793 -0.17803067 0.11845088 0.05948976 0.011786308 0.075628296 -0.09546208
0.1789567 0.08056599 -0.011229731 -0.129724 -0.12242908 -0.013954589 -0.013062531 -0.1081052
-0.017881196 0.076383404 0.07422248 -0.0044733486 -0.059668146 0.09369301 0.16660589 -0.027717305
-0.009691333 0.14320008 0.0847794 0.0757048 -0.03506391 0.06948441 0.031748135 0.005782209
0.051980615 0.047616586 -0.017153053 0.014098812 -0.004218696 -0.02720271 0.021238424 0.071348906
0.09020018 0.015600998 -0.229495 0.16914378 0.03598269 0.016097687 0.036815103 -0.052884884
-0.02673197 0.021898013 0.02270508 -0.1035833 0.09142836 0.041843984 -0.044139806 -0.001998326
00000000: 08ec 13bc 3294 2d3d bcb7 9e3d 63b5 5fbd
00000010: 703b 92bd 3bf2 d73c c3a8 38bd 3df8 063e
00000020: 9729 ff3b d8d4 773d 844f 28bd 299a 84bc
00000030: 61fc 013d 76d7 183c f4d5 1fbd 8aef 223d
00000040: f470 dfbd db58 6e3d 2634 8bbe 2212 0bbd
00000050: ef88 ffbd e7f5 07bd e7ac d4bd aeb0 043e
00000060: 3f8a 0a3e 5dee 8f3c 4d61 88bd de20 4abe
00000070: f322 7b3d 3b82 edbd f503 6b3c d443 c6bd
00000080: f009 b5bd 3b77 8abc 0e0a 853e 9a21 663e
00000090: badc ed3d 542b 4f3c 8804 67bc 115c c5bd
000000a0: a911 b2bd 4b10 3ebd 4521 1a3d 1092 423d
000000b0: a38f 32bc 3f65 8dbd eb34 203d d902 b73d
000000c0: fec0 04be 3c0f 4bbc 1762 2bbd 50fd dbbd
000000d0: a9d7 a73b 3ef6 0cbe b9a8 b5bd ddef 17bc
000000e0: c1c8 f63c cf08 9c3d cd5d d83d c588 053e
000000f0: 17f0 6ebc 2cac a9bd 11c7 f7bb 76ba c53c
00000100: c4c1 cc3c df77 7a3d 9291 903e 80ca 78bd
00000110: 9e54 253d abaa 45bd e7a4 843d a2f6 d6bd
00000120: 4974 b33d e968 8c3d 92f3 03bd efed 0ebd
00000130: 49fb eb3d a99b c9bc 4b9d 63be 17f8 813d
00000140: 4f45 c0bd dc90 ecbd e967 f73c 07ef 853c
00000150: a40c 0cbe 3228 383e edce abbb 8db6 88bd
00000160: c4f2 9a3d 991a 883d d0c5 e7bd 829a d9bc
00000170: 8a9f b3bd 8b8f 03bc b92d 7ebd 1769 0c3e
00000180: cc3e 8d3b 33ce cc3c c518 c9bd 0849 8abd
00000190: 3027 f5bd a103 9abd 63e2 3bbe cebf a4bd
000001a0: 719e acbc 9dcd 0cba 7cf9 20bd 2dd0 7b3c
000001b0: dd5c 10bd cf9e de3b c66e 7f3d 96cc 94bc
000001c0: ff57 dbbd eb97 283d 6c55 9fbd f6d9 81bd
000001d0: 3a76 1a3d 587b bd3d 07bc 9e3d bb0d 103d
000001e0: 6909 653d 3864 293d be3a 003e 1a63 04bd
000001f0: c514 c13d 25e3 f3bc 36b1 3cbc d4fc 133e
00000200: 2c52 d43c a615 68bd 42b2 ce3d 60af 8c3d
00000210: 5d19 60bd 49ef 323d c55d 6cbd fc54 993d
00000220: e091 95bd 8634 21bd 2fc9 10be 8ade f43d
00000230: 4abb 84bc 5398 1e3d 0c97 373d a2fb dbbb
00000240: 13d0 11be 2e56 30bd 7e2c ec3d 9e62 073c
00000250: 275e 343d 6597 c73d 6094 1fbc d8d8 0ebe
00000260: 9247 3ebc e62e 1cbd c038 bf3d 997f 093e
00000270: 61e4 363e 8843 fd3c d6e8 a3bd 33aa d4bd
00000280: 9dbd fabd 074d f23d fbd2 9b3c 9190 f33b
00000290: fea3 a1bd 2c9b c6bb f766 50bc eb6a 25bd
000002a0: 3129 77bd e78d 0dbd c7b1 a0bd 5c1d 4d3d
000002b0: be38 4bbd 448a fa3d 2359 aa3c 3534 b2ba
000002c0: d464 ff3d 6b58 0dbc eb7c e13b fe36 723c
000002d0: 1216 343d 2387 f73c aeac 36bd fc13 063c
000002e0: fa38 a83c d7da 683d 3c95 da3d 8925 60bd
000002f0: e031 5ebd 4d7c 373d 3e20 33bd 725b 8ebc
00000300: 0d23 033e 9295 c53d 7a2f 073e e607 953c
00000310: 1413 87bd 332c 263d 5dbc 2abe 182f 8d3c
00000320: 0a4c 353e 1017 1c3d ac4d 36be 6096 f23d
00000330: 89ab 733d 5c1b 413c 02e3 9a3d 9f81 c3bd
00000340: 6d40 373e c8ff a43d e8fc 37bc 5ed6 04be
00000350: 19bc fabd caa1 64bc 3a04 56bc 4266 ddbd
00000360: 967b 92bc e76e 9c3d f501 983d 2b95 92bb
00000370: 9666 74bd 1fe2 bf3d bc9a 2a3e 670f e3bc
00000380: 66c8 1ebc 0ba3 123e d2a0 ad3d 1e0b 9b3d
00000390: 2d9f 0fbd d84d 8e3d 550a 023d af78 bd3b
000003a0: a0e9 543d 9c09 433d 8f84 8cbc b4fe 663c
000003b0: fd3c 8abb 38d8 debc 34fc ad3c 601f 923d
000003c0: dfba b83d 549b 7f3c bd00 6bbe 0734 2d3e
000003d0: 9662 133d 4cdf 833c 6fcb 163d d29d 58bd
000003e0: 01fd dabc 7663 b33c 0100 ba3c 7b23 d4bd
000003f0: cb3e bb3d 9964 2b3d f1cb 34bd 59f6 02bb
