save/best_origin_opt12_0.878.pt (torch, 957832 bytes, 24 tensors)

gconv1.0.A f4 [140, 140]
-0.040707514 0.24755168 -0.080558546 0.11518625 -0.10623908 -0.039505485 0.0106412135 -0.08628326
-0.05587449 -0.00044550688 -0.026661249 0.043546416 0.0646079 -0.024301065 -0.031079032 -0.02390498
-0.043238264 0.085272945 0.105133675 -0.034198683 -0.032178666 0.041657526 0.05168091 0.19811735
0.034642104 -0.07263481 0.027963335 0.11257154 0.051961277 -0.22012664 -0.03529645 0.12747784
-0.101552665 0.10638424 0.025822025 0.022372637 0.041143317 -0.050436296 0.1174989 0.018359557
0.01476645 -0.024633555 0.06989583 -0.058930896 0.04181934 -0.011427766 -0.113229096 -0.09555452
0.04209813 -0.038720615 -0.17183153 -0.039379314 0.09955395 -0.07179844 0.026205624 -0.023501989
0.06925327 -0.13895284 -0.19421649 -0.06462975 -0.09132196 0.17221223 0.007199232 0.035168853
-0.009454833 -0.04616976 0.1159817 0.043227907 0.08161837 -0.05888778 -0.024181439 -0.060734037
-0.022393914 -0.048232786 0.19368847 -0.101669945 0.06961539 -0.041388057 0.14306128 0.008473017
0.083598465 -0.043972015 -0.023686927 0.027229305 0.105637036 0.06410191 -0.090349056 0.0512114
0.092957295 0.02171654 0.14967999 0.050898347 -0.0888899 -0.12935427 0.057002127 0.080971494
-0.16666827 -0.06333546 -0.018059032 0.044145852 0.100156024 0.22724403 0.04443238 -0.14113428
-0.021616532 -0.03286136 -0.09610147 -0.050426394 -0.06269077 0.17438287 0.081770934 -0.035520677
0.03209169 -0.07051691 0.021661844 -0.06182612 -0.11359666 0.08412615 0.052172683 0.06747408
0.08665692 -0.08367593 -0.04692177 0.10567873 -0.16992976 0.22449628 0.03866889 0.13578276
-0.06338078 -0.057817895 -0.020117968 0.0076776794 0.04462119 -0.04460433 -0.02723653 0.005542394
0.09395202 0.051164683 0.018606111 0.018281128 0.04333548 -0.06763214 0.15422031 -0.039190467
-0.056691762 0.0019259494 -0.11654473 0.067095414 -0.062100086 -0.0036900898 -0.0592317 -0.10663831
0.006769135 0.045696024 -0.0019035673 0.018266816 0.087954625 -0.01727414 -0.1925433 -0.050854594
0.082996845 0.14795838 0.007883974 0.07733893 0.07259053 0.10378968 0.03237467 -0.0030387705
-0.08049281 0.14212689 -0.08103383 -0.032122966 -0.02263558 -0.018758092 -0.009652548 0.077250764
-0.015768101 -0.04740904 -0.00789069 0.023373652 0.12886004 0.037344605 0.011931856 0.004965206
-0.10670272 -0.04323282 0.034212917 -0.027469615 -0.060853567 -0.03698233 0.079544365 0.10901261
0.12381302 -0.068149514 -0.08667373 -0.20575243 0.08380462 -0.041718196 0.06989205 0.0007964762
-0.10019256 0.12042266 0.003932054 -0.12074806 0.15488341 0.016297562 -0.08366762 0.07743509
0.13117091 -0.09779039 0.017283248 0.049407575 -0.03429728 0.049602814 0.1136137 0.038541656
0.062391426 0.0420283 -0.12144426 -0.012918901 -0.1476559 -0.12394157 0.023515658 -0.06883978
0.057580426 0.06784195 0.052729234 0.055813335 -0.13296254 -0.013252458 0.10907893 -0.067864075
-0.05911104 0.07059841 -0.07593835 -0.042040646 -0.06711641 -0.07636555 0.044132076 0.04342812
-0.040008273 0.1287566 -0.016512187 0.02253434 -0.14566344 -0.06398604 0.122844175 -0.07442598
0.14513415 -0.0095791025 0.05514773 -0.04928799 0.091572 -0.09739486 -0.0230675 -0.058434453
00000000: ecbc 26bd 307e 7d3e e1fb a4bd c5e6 eb3d
00000010: e093 d9bd 81d0 21bd 7c58 2e3c 47b5 b0bd
00000020: a6dc 64bd ec92 e9b9 b168 dabc ba5d 323d
00000030: 2651 843d 0713 c7bc 7499 febc 60d4 c3bc
00000040: 9b1a 31bd 95a3 ae3d 5350 d73d eb13 0cbd
00000050: c7cd 03bd 15a1 2a3d 5daf 533d 46df 4a3e
00000060: e1e4 0d3d 8fc1 94bd 5d13 e53c e88b e63d
00000070: 59d5 543d e168 61be 0393 10bd 8d89 023e
00000080: d8fa cfbd fbdf d93d b688 d33c d246 b73c
00000090: e585 283d 4a96 4ebd 43a3 f03d c866 963c
000000a0: fbee 713c 4fcc c9bc 8b25 8f3d 8661 71bd
000000b0: c24a 2b3d 863b 3bbc a8e4 e7bd 17b2 c3bd
000000c0: 176f 2c3d 8299 1ebd 9bf4 2fbe 344c 21bd
000000d0: f1e2 cb3d 0f0b 93bd 2dad d63c 3e87 c0bc
000000e0: a9d4 8d3d a749 0ebe b0e0 46be 9a5c 84bd
000000f0: 0207 bbbd 6758 303e 89e7 eb3b 370d 103d
00000100: 72e8 1abc 811c 3dbd d087 ed3d bf0f 313d
00000110: 8827 a73d 5034 71bd 2718 c6bc 41c4 78bd
00000120: 7173 b7bc be8f 45bd 4556 463e 5538 d0bd
00000130: 8392 8e3d 8686 29bd a87e 123e 69d2 0a3c
00000140: ac35 ab3d 001c 34bd 160b c2bc fe0f df3c
00000150: 3b58 d83d dd47 833d ed08 b9bd 0cc3 513d
00000160: 6560 be3d e3e6 b13c b645 193e c97a 503d
00000170: e80b b6bd 7275 04be 107b 693d 62d4 a53d
00000180: 16ab 2abe 06b6 81bd 89f0 93bc 48d2 343d
00000190: 9a1e cd3d a9b2 683e bafe 353d 8185 10be
000001a0: 2715 b1bc a299 06bd d9d0 c4bd e88b 4ebd
000001b0: 0564 80bd 6c91 323e 8577 a73d 217e 11bd
000001c0: 9372 033d 2b6b 90bd 2e74 b13c 633d 7dbd
000001d0: 5ea5 e8bd 554a ac3d 06b3 553d da2f 8a3d
000001e0: 2f79 b13d 495e abbd 0b31 40bd 176e d83d
000001f0: 1102 2ebe 5ae2 653e 4563 1e3d a30a 0b3e
00000200: c8cd 81bd 75d2 6cbd 70ce a4bc 0b95 fb3b
00000210: b5c4 363d 08b3 36bd 251f dfbc f89c b53b
00000220: eb69 c03d 0f92 513d d86b 983c 4ec2 953c
00000230: 8b80 313d b882 8abd eeeb 1d3e 2f86 20bd
00000240: 9f35 68bd 2370 fc3a 01af eebd 5269 893d
00000250: a95c 7ebd 6fd5 71bb f09c 72bd 3065 dabd
00000260: 9fcf dd3b c12b 3b3d 1f81 f9ba 4aa4 953c
00000270: 8e21 b43d 7f82 8dbc 122a 45be e84c 50bd
00000280: 40fa a93d 6782 173e c92b 013c df63 9e3d
00000290: 58aa 943d af8f d43d 4d9b 043d 1c26 47bb
000002a0: 6ad9 a4bd b689 113e 11f5 a5bd 5f93 03bd
000002b0: 406e b9bc 92aa 99bc b825 1ebc a635 9e3d
000002c0: 1b2c 81bc fb2f 42bd f447 01bc 1a7a bf3c
000002d0: e3f3 033e a8f6 183d d57d 433c 2bb3 a23b
000002e0: f586 dabd e614 31bd d822 0c3d f507 e1bc
000002f0: 9741 79bd c97a 17bd 28e8 a23d 0142 df3d
00000300: ae91 fd3d f991 8bbd ff81 b1bd c4b0 52be
00000310: c2a1 ab3d b3e0 2abd 9023 8f3d 9dca 503a
00000320: c231 cdbd 28a0 f63d 76d8 803b c24a f7bd
00000330: c299 1e3e 7782 853c ee59 abbd 4a96 9e3d
00000340: ab51 063e 5446 c8bd 9995 8d3c 995f 4a3d
00000350: 4e7b 0cbd 522c 4b3d 4dae e83d dbdd 1d3d
00000360: 278e 7f3d de25 2c3d c5b7 f8bd cca9 53bc
00000370: 1c33 17be 14d5 fdbd e9a3 c03c dffb 8cbd
00000380: 74d9 6b3d b8f0 8a3d 9cfa 573d 869c 643d
00000390: 5527 08be d620 59bc c664 df3d 52fc 8abd
000003a0: 6b1e 72bd e695 903d 9185 9bbd d032 2cbd
000003b0: 5474 89bd 8b65 9cbd d6c3 343d afe1 313d
000003c0: b7df 23bd c5d8 033e 9144 87bc f099 b83c
000003d0: cc28 15be 1d0b 83bd ba95 fb3d a66c 98bd
000003e0: 0c9e 143e abf1 1cbc 96e2 613d 34e2 49bd
000003f0: 1a8a bb3d f576 c7bd 0ef8 bcbc f758 6fbd

gconv1.0.W.weight f4 [140, 140]
0.16772304 0.06348353 0.06333006 -0.035012793 0.034692574 -0.03242071 -0.05097327 -0.015671339
-0.13325638 0.0041370313 0.048673935 -0.053429212 -0.0060578547 0.030485857 -0.16731955 -0.055098977
-0.021081738 -0.11213169 -0.010622149 0.19642383 0.060568035 0.079936355 0.0379604 0.112469435
0.10770059 -0.0026201168 0.15996602 -0.10646008 -0.07633188 0.09844018 -0.056479204 -0.082145244
0.028165461 -0.03656808 0.10392724 -0.089081645 0.013078451 0.091522984 -0.1413302 -0.20454867
0.010242996 0.041194018 0.032596905 0.06754975 -0.1442524 -0.001663407 -0.013681502 -0.038885858
0.014428806 -0.01555218 0.13587965 0.057903476 0.040467564 0.06826416 -0.12680338 -0.13820153
0.013592479 0.14794865 -0.07597701 0.04715052 0.006147801 0.04601139 -0.023718601 0.05813834
0.034359843 -0.10148238 0.0795879 0.011214846 -0.025451947 0.037825063 0.13436294 -0.068144664
0.10448038 0.002760467 0.07869366 0.014789624 -0.0031640572 -0.050887704 0.043174688 0.12475591
-0.18259709 0.005889099 -0.040866327 -0.108958356 -0.012725716 -0.0073499624 -0.049438577 0.03903854
0.11504706 -0.18365327 -0.0015654239 0.05010619 0.10867922 -0.02231627 -0.085279495 -0.057264086
0.034519084 -0.019991178 -0.02960416 0.06368616 0.09923712 0.13038725 0.11649415 0.18020892
-0.030947842 0.017507514 0.050278444 0.10964605 0.21660206 -0.06382395 -0.08582189 -0.019509122
0.069387905 0.05146003 -0.03630463 -0.047981378 0.09045153 0.0012016228 -0.072785616 0.012503003
0.13354087 0.0020230028 0.05644193 0.028449683 -0.030896673 -0.01706243 0.0636787 -0.17138767
-0.0030701663 -0.07268884 -0.06620094 0.008574744 0.08574789 -0.030793142 -0.036725815 -0.13205625
-0.08110516 0.08605043 0.041369464 0.041206542 0.07311153 -0.038724303 0.16090947 0.00568359
0.010269868 -0.040614683 0.06803387 0.008593515 -0.15635413 -0.06892887 0.006553551 -0.16288048
-0.103338555 0.025914507 0.104296915 0.09156408 0.069060005 0.15527248 -0.08928048 -0.1689192
0.059680417 0.038122293 0.039546147 0.1439186 -0.045338333 -0.11284471 0.026687996 -0.0098585095
0.030065205 0.121673465 0.03897536 0.098429434 0.046626393 0.053753246 0.107477546 0.007561178
-0.042017963 0.11528038 0.027031148 0.05310017 0.007569096 -0.10006501 -0.0891314 0.0024098407
0.0071515874 0.12147532 0.13653645 -0.08511027 -0.16154838 0.049723677 -0.097163014 -0.093479924
-0.07043996 -0.031650953 0.04808108 -0.09256668 -0.14666735 0.00075634284 -0.015752371 -0.108199775
0.04844626 0.18344548 -0.16927104 0.052923225 0.062377203 0.007874067 0.0034382301 0.08368521
0.041046463 0.052020732 0.0024982695 -0.000878442 0.10590058 -0.054543093 -0.081755735 0.0049709636
-0.099244386 -0.07752217 0.08229286 -0.040462315 -0.053056017 -0.06408257 0.095105246 0.26785564
-0.020919535 -0.08575053 0.07339539 0.015441568 0.03149691 0.016892206 -0.012817013 0.05116926
-0.10553935 -0.023006309 0.020657895 -0.047014724 0.07130571 0.037404694 0.095252395 0.054105937
-0.1157137 0.11682845 0.026736224 -0.020991597 0.0017988047 0.0007609575 0.14937475 -0.13556127
0.01292412 0.055504035 -0.17907247 0.15881528 -0.029999435 -0.14951573 -0.048541076 0.16038011
00000000: 97bf 2b3e a703 823d 31b3 813d 9369 0fbd
00000010: cd19 0e3d 94cb 04bd 59c9 50bd 2e61 80bc
00000020: 5c74 08be ef8f 873b 525e 473d 97d8 5abd
00000030: f880 c6bb 7abd f93c d155 2bbe 77af 61bd
00000040: 9cb3 acbc 4da5 e5bd 8608 2ebc 5423 493e
00000050: 3016 783d acb5 a33d 5d7c 1b3d 6056 e63d
00000060: 2092 dc3d 44b6 2bbb 22ce 233e be07 dabd
00000070: e453 9cbd 019b c93d bd56 67bd c43b a8bd
00000080: 41bb e63c 69c8 15bd ced7 d43d 7070 b6bd
00000090: 0047 563c 6770 bb3d ddb8 10be 3575 51be
000000a0: 3dd2 273c 0fbb 283d 5584 053d 8657 8a3d
000000b0: e7b6 13be ad06 daba 6128 60bc c746 1fbd
000000c0: cc66 6c3c 92ce 7ebc 0924 0b3e 322c 6d3d
000000d0: 51c1 253d 14ce 8b3d bfd8 01be b484 0dbe
000000e0: fdb2 5e3c da7f 173e d699 9bbd e720 413d
000000f0: 7e73 c93b 7076 3c3d 834d c2bc 7822 6e3d
00000100: e8bc 0c3d fed5 cfbd fbfe a23d 79be 373c
00000110: 9a80 d0bc 74ee 1a3d 7096 093e 6e8f 8bbd
00000120: cff9 d53d f3e8 343b 242a a13d 2e50 723c
00000130: 125c 4fbb a06f 50bd f1d7 303d 0780 ff3d
00000140: bbfa 3abe 58f9 c03b 7363 27bd 8f25 dfbd
00000150: 867f 50bc f4d7 f0bb 1b80 4abd e0e6 1f3d
00000160: cb9d eb3d 9a0f 3cbe e92e cdba 263c 4d3d
00000170: 3693 de3d 9cd0 b6bc 04a7 aebd bf8d 6abd
00000180: e263 0d3d 8ac4 a3bc 6c84 f2bc e46d 823d
00000190: d53c cb3d 3c84 053e 7c94 ee3d b088 383e
000001a0: 5486 fdbc eb6b 8f3c c5f0 4d3d 1c8e e03d
000001b0: eecc 5d3e 22b6 82bd 63c3 afbd 98d1 9fbc
000001c0: 3f1b 8e3d c1c7 523d 2ab4 14bd 1f88 44bd
000001d0: a73e b93d c57f 9d3a a010 95bd 65d9 4c3c
000001e0: f0be 083e 5b94 043b a72f 673d 4f0f e93c
000001f0: 051b fdbc 82c6 8bbc fa69 823d 4080 2fbe
00000200: d834 49bb e3dd 94bd 5c94 87bd 157d 0c3c
00000210: 979c af3d e641 fcbc cf6d 16bd c139 07be
00000220: 761a a6bd 353b b03d 0773 293d 31c8 283d
00000230: 7fbb 953d 609d 1ebd 74c5 243e 693d ba3b
00000240: f342 283c 955b 26bd 5755 8b3d d0cb 0c3c
00000250: 4c1b 20be 942a 8dbd 2cbf d63b 24ca 26be
00000260: 2aa3 d3bd a94a d43c 9f99 d53d f385 bb3d
00000270: 556f 8d3d c0ff 1e3e afd8 b6bd 28f9 2cbe
00000280: 7473 743d 1f26 1c3d 24fb 213d 665f 133e
00000290: b0b4 39bd 211b e7bd c9a0 da3c 9685 21bc
000002a0: 4e4b f63c f02f f93d a1a4 1f3d 5f95 c93d
000002b0: 51fb 3e3d 5d2c 5c3d 301d dc3d c2c3 f73b
000002c0: 071b 2cbd 1f18 ec3d 6d70 dd3c 907f 593d
000002d0: 2e06 f83b e2ee ccbd 868a b6bd 6bee 1d3b
000002e0: dd57 ea3b 0dc8 f83d 36d0 0b3e 4b4e aebd
000002f0: f06c 25be 0eab 4b3d 67fd c6bd 6772 bfbd
00000300: d342 90bd 6ea4 01bd abf0 443d 9993 bdbd
00000310: f72f 16be 4f45 463a 1e0b 81bc d897 ddbd
00000320: 966f 463d 22d9 3b3e 6355 2dbe 06c6 583d
00000330: 3d7f 7f3d 3b02 013c ee53 613b 2763 ab3d
00000340: 5620 283d b113 553d 02ba 233b 3f47 66ba
00000350: 67e2 d83d 9468 5fbd 8d6f a7bd 77e3 a23b
00000360: a440 cbbd f2c3 9ebd 2989 a83d d0bb 25bd
00000370: 4451 59bd b93d 83bd 8ac6 c23d 6024 893e
00000380: 725f abbc f99d afbd 5250 963d a1fe 7c3c
00000390: e702 013d 8661 8a3c 73fe 51bc dc96 513d
000003a0: 0425 d8bd ba77 bcbc bf3a a93c 8392 40bd
000003b0: ba08 923d aa35 193d b013 c33d 309e 5d3d
000003c0: 4efb ecbd c143 ef3d ed05 db3c 92f6 abbc
000003d0: dfc5 eb3a fe7a 473a b2f5 183e 93d0 0abe
000003e0: b0bf 533c 3358 633d c65e 37be 79a0 223e
000003f0: 60c1 f5bc a71a 19be 02d3 46bd af3a 243e

gconv1.0.W.bias f4 [140]
0.05036913 0.01232132 0.0058414736 0.07856395 0.022626542 -0.02804609 0.011913026 0.04681521
0.05943554 0.041268542 -0.03594095 0.031229153 -0.05142864 -0.07694457 0.054011974 0.010637029
0.0491611 -0.004711782 0.06908576 -0.01708178 0.02590279 0.028039133 0.016810749 0.08050173
-0.057159897 -0.04939301 -0.095635 -0.0019868035 0.06342623 -0.0020462177 0.010346867 0.043542147
0.083095886 0.06807438 0.057355624 -0.029891549 -0.06507935 -0.0968423 -0.020511474 -0.038978253
-0.02578742 0.09235164 0.020979265 -0.07543388 0.080539934 -0.06953093 -0.027430465 0.0048488886
0.018333448 -0.040341046 -0.045489464 0.08643543 0.07414419 -0.043801222 0.03546997 0.06503935
0.04351811 -0.08054429 0.040823758 0.051459678 -0.012364919 -0.08877764 -0.056667175 -0.055836353
-0.06455144 0.032724407 -0.09895997 0.09985069 0.037089273 -0.00035404915 0.038289238 -0.041511413
-0.054939844 0.062415972 -0.018064383 -0.07881392 0.009212211 -0.07926057 0.057895664 -0.036330976
-0.03522183 0.068411395 0.07336671 0.07640381 -0.01659502 -0.09570668 -0.013293849 0.013506719
-0.029529769 0.041284565 0.04777873 0.021688515 -0.048093498 -0.009227769 0.04558116 0.08660405
0.04101576 0.035721548 0.011326421 0.072164945 0.03573844 0.012237064 0.023694163 -0.064990886
0.0031910008 0.05264871 0.012920809 0.0064525357 0.042246934 -0.00511445 0.010839062 0.015800921
-0.04764162 0.05556646 -0.05389199 0.049025867 0.083256915 0.108370796 0.035934966 -0.0041502877
0.06433388 0.06793101 0.048017487 -0.032774825 0.00083962595 -0.010367343 -0.06399543 -0.09637985
-0.025194546 0.0074390904 0.061080005 -0.051469553 -0.033381097 0.022175595 0.0023172009 -0.033574697
-0.056532755 0.055925015 0.0043326304 -0.020224713
00000000: dc4f 4e3d 5ddf 493c d569 bf3b 23e6 a03d
00000010: 4c5b b93c eac0 e5bc da2e 433c 4ec1 3f3d
00000020: ae72 733d 3409 293d d136 13bd 48d4 ff3c
00000030: d6a6 52bd 1d95 9dbd a93b 5d3d ef46 2e3c
00000040: 265d 493d 4b65 9abb d67c 8d3d 17ef 8bbc
00000050: 1632 d43c 53b2 e53c b2b6 893c 17de a43d
00000060: 7f20 6abd 5350 4abd 48dc c3bd 0835 02bb
00000070: 9ce5 813d d619 06bb e885 293c 4059 323d
00000080: 2d2e aa3d 956a 8b3d bbed 6a3d 1fdf f4bc
00000090: 5248 85bd 4155 c6bd ae07 a8bc a9a7 1fbd
000000a0: 2440 d3bc db22 bd3d b5dc ab3c 147d 9abd
000000b0: 1ff2 a43d 3b66 8ebd dbb5 e0bc 6de3 9e3b
000000c0: 0730 963c a73c 25bd 2953 3abd 0f05 b13d
000000d0: e9d8 973d e968 33bd f648 113d 5a33 853d
000000e0: 0c40 323d 68f4 a4bd d036 273d 62c7 523d
000000f0: 3b96 4abc 0dd1 b5bd d71b 68bd a9b4 64bd
00000100: 8c33 84bd 070a 063d 86ab cabd 857e cc3d
00000110: ecea 173d ac9f b9b9 2dd5 1c3d df07 2abd
00000120: 9a08 61bd e4a7 7f3d c2fb 93bc 3169 a1bd
00000130: d0ee 163c 5e53 a2bd 0124 6d3d cacf 14bd
00000140: c444 10bd 461b 8c3d 4941 963d 9a79 9c3d
00000150: 48f2 87bc dd01 c4bd 72ce 59bc 494b 5d3c
00000160: 6ae8 f1bc 011a 293d a1b3 433d 1dac b13c
00000170: b0fd 44bd 1230 17bc 4fb3 3a3d 775d b13d
00000180: 2400 283d c250 123d 7492 393c 37cb 933d
00000190: 7862 123d f77d 483c 431a c23c f119 85bd
000001a0: 1c20 513b 2ca6 573d cdb1 533c cb6f d33b
000001b0: 1f0b 2d3d 1e97 a7bb 5296 313c ef70 813c
000001c0: dc23 43bd a899 633d d9bd 5cbd 59cf 483d
000001d0: 9a82 aa3d 82f1 dd3d 8b30 133d 23ff 87bb
000001e0: 7bc1 833d 6a1f 8b3d fcad 443d e53e 06bd
000001f0: 581a 5c3a cadb 29bc 0910 83bd cc62 c5bd
00000200: cb64 cebc 9dc3 f33b 072f 7a3d bdd1 52bd
00000210: 9eba 08bd 98a9 b53c 2edc 173b 9f85 09bd
00000220: e48e 67bd a111 653d bdf8 8d3b 4cae a5bc

gconv1.0.gate.weight f4 [1, 280]
-0.062133115 0.022787206 0.07638477 -0.05226991 -0.14818683 -0.011751437 0.14694035 0.05147711
0.06373585 0.088965 -0.03635053 0.098950945 0.10381788 -0.029335156 -0.061952673 -0.14289206
-0.093844526 0.0069932356 -0.1230336 -0.010868588 -0.13157055 -0.04187618 0.054892104 -0.064496696
-0.13169473 -0.07097695 -0.08355689 0.00826879 0.12880346 0.13700528 -0.05422358 0.007757099
0.18251942 -0.010211788 0.11492012 0.096789345 0.011541804 -0.035043485 0.024053492 -0.0043595606
-0.008603115 0.016628828 -0.07114306 -0.061230086 0.020398559 0.050884735 -0.016664345 -0.02953259
0.024925144 0.085780926 0.0755106 -0.020069866 0.0016211176 0.008365824 0.031712275 0.15082712
0.07390852 0.15166672 0.05343208 -0.0071423887 -0.008286703 -0.072997436 0.040042747 -0.13797858
0.09583811 -0.06408471 0.15420926 0.045202635 -0.117582686 -0.17194112 -0.0331098 -0.15389453
0.039448038 -0.030475823 -0.0467264 0.0074149873 0.06274214 0.026472783 -0.053193707 0.16601981
0.004197398 -0.0048876284 0.0572717 0.052938536 -0.04064952 -0.03469032 -0.14452629 -0.0070932577
0.063796826 0.094260894 0.0486322 0.042772032 0.052955378 -0.05842351 -0.1601518 -0.076413944
0.020402538 0.10850614 0.05517519 -0.06495834 0.040952615 0.12691693 -0.023961829 -0.026311154
0.01726481 -0.021966288 0.048014894 -0.025748795 -0.030289177 -0.044727627 -0.123284645 -0.088894166
0.003983648 -0.06723331 -0.17181152 0.024167538 0.046764996 -0.016556006 -0.13137338 0.14559884
-0.0070291962 -0.004914872 0.025588667 0.03151563 0.024607394 0.12470469 0.11353917 0.06904564
-0.06615405 -0.03968224 0.13512684 0.046690222 -0.09372422 0.12013013 -0.10459733 0.034402885
0.03044138 -0.01984127 -0.17123121 0.099421814 -0.17279439 0.17889975 0.09311086 -0.07635058
0.0073464205 -0.091666974 -0.08195938 0.005246354 -0.19962981 -0.11632734 -0.1549603 -0.08615191
-0.09041041 -0.01114285 -0.002455311 -0.050739374 0.12458231 0.13417341 0.025278794 0.027408805
-0.030763788 0.0020733085 -0.034590606 -0.1409589 -0.08076065 0.0053864145 0.034447342 0.0010768414
-0.035106733 0.08375706 0.06348346 -0.10313861 0.08158375 -0.018582905 0.037802186 0.042576604
0.057718508 -0.16039246 0.020449845 -0.13324276 -0.12858883 -0.111190826 0.0959332 -0.08220111
-0.019266443 -0.10217548 -0.16983962 0.020989247 0.044180814 -0.11692936 -0.0687241 0.12601352
0.07567126 -0.00966026 0.046314143 -0.11116513 -0.05773472 -0.15449603 0.032393936 0.14097816
-0.12603125 -0.0873077 -0.05630548 -0.0038496386 -0.07632654 -0.101477936 0.0019456474 0.033269513
0.08111384 -0.10078413 0.0891223 0.09988602 -0.073190086 0.03497343 0.18655425 0.023911206
-0.065544054 0.11575549 0.023577746 0.050050065 -0.10615431 0.051369205 0.07302584 -0.15044568
-0.09446017 -0.17810853 -0.020726861 0.087586455 0.107624024 -0.099742465 0.0066342847 0.052165046
0.14324413 -0.0113281915 0.14902018 -0.028820777 0.04311431 -0.0144954305 0.062448297 -0.13781925
0.012807398 0.11189962 -0.049515095 0.1175708 0.014908628 -0.2136739 -0.07823225 -0.049239006
0.10168137 0.0712471 0.0815216 -0.13567214 0.080753446 -0.067897566 -0.12856929 -0.07092139
00000000: 4b7f 7ebd 3cac ba3c 9e6f 9c3d f918 56bd
00000010: 4abe 17be 1989 40bc 8877 163e a9d9 523d
00000020: f187 823d 4833 b63d 4be4 14bd cba6 ca3d
00000030: 789e d43d 4850 f0bc 16c2 7dbd 4c52 12be
00000040: 8f31 c0bd 8327 e53b 0af9 fbbd 2a12 32bc
00000050: 6eba 06be 5b86 2bbd 8bd6 603d d816 84bd
00000060: fcda 06be 5d5c 91bd e01f abbd d279 073c
00000070: 0ee5 033e 1d4b 0c3e 8b19 5ebd 432f fe3b
00000080: 5fe6 3a3e 584f 27bc 3d5b eb3d 7e39 c63d
00000090: d619 3d3c c289 0fbd d40b c53c a5da 8ebb
000000a0: 14f4 0cbc 2e39 883c 74b3 91bd 66cc 7abd
000000b0: e11a a73c 836c 503d aa83 88bc 55ee f1bc
000000c0: d12f cc3c e9ad af3d 4da5 9a3d 8f69 a4bc
000000d0: ae7b d43a cf10 093c bbe4 013d 6d72 1a3e
000000e0: 5a5d 973d 854e 1b3e 99db 5a3d b30a eabb
000000f0: f4c4 07bc ae7f 95bd dd03 243d 424a 0dbe
00000100: c546 c43d d83e 83bd 08e9 1d3e 6626 393d
00000110: 31cf f0bd 5511 30be 249e 07bd 8796 1dbe
00000120: 4494 213d 6fa8 f9bc 2e64 3fbd 6cf9 f23b
00000130: f37e 803d 73dd d83c a5e1 59bd 1901 2a3e
00000140: 548a 893b 6628 a0bb bb95 6a3d 14d6 583d
00000150: 1c80 26bd 7017 0ebd b3fe 13be 8f6e e8bb
00000160: e9a7 823d db0b c13d 8f32 473d ba31 2f3d
00000170: bde7 583d 7e4d 6fbd d5fe 23be ea7e 9cbd
00000180: 3923 a73c 7838 de3d 61ff 613d e108 85bd
00000190: eebd 273d 83f6 013e 994b c4bc 7d8a d7bc
000001a0: ee6e 8d3c a5f2 b3bc 44ab 443d 23ef d2bc
000001b0: 0221 f8bc 5134 37bd a97c fcbd 250e b6bd
000001c0: 4389 823b 9eb1 89bd 5cef 2fbe 00fb c53c
000001d0: a78c 3f3d 76a0 87bc be86 06be dd17 153e
000001e0: 2c55 e6bb ef0c a1bb 539f d13c 8916 013d
000001f0: 7295 c93c 2c65 ff3d 3987 e83d cd67 8d3d
00000200: c67b 87bd d889 22bd b15e 0a3e 3f3e 3f3d
00000210: 7cf2 bfbd c906 f63d 2037 d6bd 0aea 0c3d
00000220: 3360 f93c 298a a2bc 3c57 2fbe aa9d cb3d
00000230: 03f1 30be 7f31 373e e8b0 be3d b15d 9cbd
00000240: 3eba f03b e5bb bbbd 52da a7bd 9be9 ab3b
00000250: c26b 4cbe 073d eebd eaad 1ebe 6a70 b0bd
00000260: 1829 b9bd 8090 36bc 48e9 20bb 17d4 4fbd
00000270: 0325 ff3d c164 093e 7915 cf3c 6e88 e03c
00000280: 5704 fcbc 58e0 073b e1ae 0dbd 8857 10be
00000290: d765 a5bd 8580 b03b a818 0d3d cd24 8d3a
000002a0: 14cc 0fbd d288 ab3d 9e03 823d 563a d3bd
000002b0: 6215 a73d 2d3b 98bc 77d6 1a3d ce64 2e3d
000002c0: 3e6a 6c3d ec3d 24be 6f86 a73c ca70 08be
000002d0: caac 03be 04b8 e3bd a078 c43d 0e59 a8bd
000002e0: a9d4 9dbc 6141 d1bd 70ea 2dbe a4f1 ab3c
000002f0: f1f6 343d a978 efbd 39bf 8cbd b009 013e
00000300: 89f9 9a3d 1146 1ebc e6b3 3d3d 8baa e3bd
00000310: 3e7b 6cbd 3534 1ebe 81af 043d 945c 103e
00000320: 560e 01be 61ce b2bd 93a0 66bd 384a 7cbb
00000330: 1751 9cbd aad3 cfbd 1805 ff3a 9d45 083d
00000340: 031f a63d e967 cebd c185 b63d 0b91 cc3d
00000350: afe4 95bd 4d40 0f3d 1408 3f3e 6fe1 c33c
00000360: f63b 86bd 3711 ed3d 1e26 c13c 4c01 4d3d
00000370: 6e67 d9bd 8468 523d 928e 953d 6f0e 1abe
00000380: 5574 c1bd 1562 36be 61cb a9bc 8760 b33d
00000390: fc69 dc3d c745 ccbd 6a64 d93b 04ab 553d
000003a0: 97ae 123e e199 39bc bf98 183e 8d19 ecbc
000003b0: a198 303d 3e7e 6dbc c9c9 7f3d 7d20 0dbe
000003c0: 1fd6 513c a12b e53d 57d0 4abd f6c8 f03d
000003d0: 5143 743c 55cd 5abe 3b38 a0bd d7ae 49bd
000003e0: 523e d03d 00ea 913d ccf4 a63d a3ed 0abe
000003f0: 1062 a53d e10d 8bbd aba7 03be 3c3f 91bd

gconv1.1.A f4 [140, 140]
-0.030906778 -0.12424604 0.051003344 0.14058764 -0.06281544 -0.0758978 0.11024831 -0.0001491174
-0.065651 -0.11905015 -0.066309996 0.035486892 -0.11064324 -0.043029543 0.016949793 -0.013487007
0.049538955 0.031720344 -0.0073362505 -0.07350963 -0.04356868 -0.034259066 -0.08582892 -0.07949591
-0.09920796 0.05121098 0.035241958 0.029641965 -0.05506966 0.08558288 -0.038483255 -0.0043524476
0.015727771 -0.06673037 0.039923258 -0.047010966 -0.055400897 -0.079432786 -0.038091626 -0.042080596
-0.05354279 0.032283604 -0.13995251 -0.08622804 -0.037005514 -0.0033563045 0.0021302283 -0.075226426
-0.056839336 -0.107291296 0.01791475 0.070772246 0.011046881 0.03731352 -0.041018017 0.0040812204
-0.005006267 0.011990812 0.07893964 -0.14424178 -0.13655244 -0.06363226 0.117649935 -0.043142617
0.036698382 -0.17479894 0.13134375 0.004105835 0.090306334 0.14889501 -0.04096467 -0.010225043
-0.010867208 0.007925213 0.08679855 -0.050942644 -0.0706319 0.051272787 -0.10880379 0.03499678
0.0053440146 0.08799605 0.053644013 0.03875473 0.07858745 0.0014451168 0.022672167 0.16381162
0.078754194 -0.0634221 0.009948655 -0.034850422 -0.0030472358 -0.049041443 -0.13866742 -0.120352805
0.045760438 0.025392143 -0.0072601037 0.09745385 -0.06832989 0.14716856 -0.07023165 0.064321
-0.005970941 0.03230459 -0.05867078 -0.13373676 0.049575243 0.04142562 -0.056096464 -0.12336967
-0.015847534 -0.06058474 -0.044301134 0.120483704 -0.07283112 0.033473104 0.029831968 -0.1189175
-0.07672009 -0.095540255 0.05260213 0.051305126 -0.13818122 0.102837205 0.048355404 -0.060295697
0.04438696 -0.016384395 -0.06458654 0.08452439 -0.021850072 -0.053221595 0.06763597 0.05866589
0.104435444 0.06435804 -0.04461995 0.10528059 0.032450847 -0.042516824 -0.15078428 0.035737462
-0.060916904 0.106922634 0.2612281 0.13790736 0.10339049 -0.023064032 -0.014057511 -0.033052873
0.036226217 0.0753227 0.02683813 0.03563131 0.10040439 0.12070994 0.023549834 0.05635501
0.07392666 0.028550653 0.016881244 -0.014019326 -0.075216554 -0.058317106 0.19572127 -0.11439878
0.019997897 0.019169724 -0.05602973 0.2108741 0.030379253 0.16644976 0.11882024 -0.109828725
0.06044015 0.020049786 -0.054576047 0.036920775 -0.092350036 0.02384823 0.067126244 -0.018061876
-0.00031041916 -0.03336179 0.010332572 -0.058641817 -0.039293986 -0.026098369 0.07286109 -0.043828953
-0.00071986427 0.20218188 0.023584558 -0.07248783 -0.01981876 -0.0367949 0.058280166 -0.09267792
0.0024891968 -0.09591312 -0.063221276 -0.0034334299 -0.12887672 -0.0858265 -0.13395222 0.046651356
-0.07128292 0.091260105 -0.011175642 0.10250115 0.06633164 -0.018843796 0.10114543 0.056038756
0.16053765 -0.0032930349 0.06268482 0.0357942 0.22674713 -0.08074132 0.03541581 0.023528043
-0.013419749 0.025235564 0.013137008 0.062201146 0.02295822 -0.04974708 0.070816435 -0.022841686
-0.014419523 0.17410037 0.013166508 -0.035879105 -0.022413583 0.079135634 -0.008278213 0.11498906
0.040355615 0.05167893 0.0014737722 -0.072133526 0.059868116 -0.027217379 -0.05409255 0.023743583
-0.045755014 0.08580429 0.062488027 0.044680282 -0.038085908 -0.14081123 -0.090745695 0.14132634
00000000: 3630 fdbc b574 febd e2e8 503d 35f6 0f3e
00000010: 62a5 80bd 4e70 9bbd dec9 e13d 665c 1cb9
00000020: 0874 86bd 91d0 f3bd 89cd 87bd b45a 113d
00000030: ec98 e2bd bf3f 30bd 4bda 8a3c 9bf8 5cbc
00000040: 5ce9 4a3d 31ed 013d ee64 f0bb 388c 96bd
00000050: 1275 32bd 3c53 0cbd 13c7 afbd c0ce a2bd
00000060: 8b2d cbbd 9bc2 513d df59 103d b5d3 f23c
00000070: b990 61bd 1446 af3d 9ea0 1dbd fa9e 8ebb
00000080: 87d7 803c efa9 88bd 9286 233d 928e 40bd
00000090: 0dec 62bd a8ad a2bd f705 1cbd b45c 2cbd
000000a0: af4f 5bbd d03b 043d b64f 0fbe 5498 b0bd
000000b0: 1893 17bd 72f5 5bbb 4d9b 0b3b 5010 9abd
000000c0: 5dd0 68bd 8abb dbbd f4c1 923c 0af1 903d
000000d0: fafd 343c 10d6 183d 8202 28bd c2bb 853b
000000e0: 9d0b a4bb 1c75 443c 1bab a13d 1eb4 13be
000000f0: 67d4 0bbe a151 82bd 73f2 f03d 50b6 30bd
00000100: 0b51 163d 7efe 32be fa7e 063e 3e8a 863b
00000110: 87f2 b83d ef77 183e 92ca 27bd f086 27bc
00000120: 600c 32bc c1d8 013c 70c3 b13d 3ca9 50bd
00000130: 75a7 90bd 6a03 523d 85d4 debd c958 0f3d
00000140: d81c af3b 4637 b43d d3b9 5b3d 48bd 1e3d
00000150: 75f2 a03d 136a bd3a fbba b93c 3cbe 273e
00000160: e149 a13d 72e3 81bd afff 223c 51bf 0ebd
00000170: 22b4 47bb aedf 48bd d5fe 0dbe 887b f6bd
00000180: 4c6f 3b3d 2f03 d03c 2ae6 edbb e295 c73d
00000190: 8bf0 8bbd 5bb3 163e 9cd5 8fbd baba 833d
000001a0: e2a7 c3bb d151 043d c650 70bd 4af2 08be
000001b0: 690f 4b3d e9ad 293d 68c5 65bd 3da9 fcbd
000001c0: b0d2 81bc b427 78bd 1b75 35bd 29c0 f63d
000001d0: 7b28 95bd 181b 093d 2c62 f43c 058b f3bd
000001e0: 6c1f 9dbd 9caa c3bd 5575 573d 5325 523d
000001f0: 617f 0dbe 509c d23d 5110 463d 9ff8 76bd
00000200: 1acf 353d 9138 86bc f345 84bd 201b ad3d
00000210: ecfe b2bc e3fe 59bd ba84 8a3d a54b 703d
00000220: 40e2 d53d 26ce 833d 69c3 36bd 5a9d d73d
00000230: 2eeb 043d 1f26 2ebd 3267 1abe 7261 123d
00000240: 0184 79bd 41fa da3d b1bf 853e 9637 0d3e
00000250: 65be d33d c8f0 bcbc 7a51 66bc 7362 07bd
00000260: f161 143d ca42 9a3d a3db db3c 23f2 113d
00000270: d1a0 cd3d c636 f73d 95eb c03c 83d4 663d
00000280: dc66 973d 0fe3 e93c 894a 8a3c 51b1 65bc
00000290: 230b 9abd ebdd 6ebd 286b 483e e849 eabd
000002a0: a1d2 a33c d309 9d3c 6e7f 65bd 61ef 573e
000002b0: e9dd f83c ce71 2a3e 0758 f33d e2ed e0bd
000002c0: 1790 773d 733f a43c 228b 5fbd 3d3a 173d
000002d0: 0422 bdbd 5d5d c33c 7c79 893d 80f6 93bc
000002e0: c1bf a2b9 5fa6 08bd f349 293c 6732 70bd
000002f0: bbf2 20bd 3fcc d5bc 3238 953d fd85 33bd
00000300: 46b5 3cba c408 4f3e 6734 c13c 8074 94bd
00000310: f45a a2bc 40b6 16bd 2fb7 6e3d eccd bdbd
00000320: cb21 233b 196e c4bd 287a 81bd 6503 61bb
00000330: 42f8 03be cec5 afbd c52a 09be 7e15 3f3d
00000340: c8fc 91bd 94e6 ba3d 0a1a 37bc 1fec d13d
00000350: e2d8 873d 4e5e 9abc 5625 cf3d e588 653d
00000360: fb63 243e f5cf 57bb e660 803d f09c 123d
00000370: 6630 683e b55b a5bd 2b10 113d e2bd c03c
00000380: 82de 5bbc d0ba ce3c 9b3c 573c a1c6 7e3d
00000390: e112 bc3c 98c3 4bbd 3508 913d 7d1e bbbc
000003a0: dd3f 6cbc 5e47 323e 56b8 573c f8f5 12bd
000003b0: b19c b7bc dd11 a23d 58a1 07bc 627f eb3d
000003c0: ee4b 253d 49ad 533d 972b c13a beba 93bd
000003d0: 4538 753d fbf6 debc 2690 5dbd e781 c23c
000003e0: 9c69 3bbd 29ba af3d 72f3 7f3d ac02 373d
000003f0: f8ff 1bbd d230 10be e1d8 b9bd dab7 103e

gconv1.1.W.weight f4 [140, 140]
0.005049741 -0.13247529 0.014753266 -0.023959773 0.07398672 -0.19371414 0.0044968976 0.070060186
-0.14581916 -0.17515577 -0.06411655 -0.12483897 0.119826615 0.10892855 0.09311495 0.029501056
-0.03988695 -0.1187967 0.08554291 0.10439995 0.055046435 -0.08063269 -0.10022502 -0.042079616
-0.12638873 -0.009818899 -0.1255538 -0.04068912 0.11324083 -0.20539129 -0.047305297 -0.007667664
-0.1255244 -0.013085158 -0.07953931 0.07617538 0.010033137 -0.12137207 0.0416396 -0.06890242
-0.11173563 -0.041667987 0.0847708 0.004339475 -0.12290059 0.024239102 0.032516308 -0.0421662
0.073112056 -0.062599435 0.01858743 0.10538958 -0.09163899 -0.046384063 -0.13546686 -0.019321287
0.0030577132 -0.0036738943 0.035762984 -0.106875665 -0.06672041 -0.04462157 -0.12880205 -0.00046049463
-0.038852245 -0.086474255 -0.046406567 0.05207292 -0.044080008 0.035218418 -0.021832062 -0.07634153
0.1438746 0.09252768 0.044252798 0.037943363 0.05254687 0.032487515 0.006781364 -0.09754784
-0.023399666 -0.05402554 0.11267577 -0.09774066 -0.042138863 0.048728783 -0.03475114 -0.1302829
0.08059259 0.036291767 -7.8681136e-05 0.0068237996 0.07451503 0.062451597 0.11787471 0.13000305
0.087190814 0.027936012 0.20802104 -0.16848639 -0.037173558 0.019397758 -0.0066421814 -0.1426206
-0.06518272 -0.07891051 0.023209449 0.056744825 0.12258662 -0.0024118097 0.13928181 0.11340388
0.04877313 0.0872731 0.05831111 -0.059596214 -0.17442493 0.058410805 -0.14272279 0.051541522
0.038094357 -0.0352729 -0.09794387 -0.05253559 0.06295557 -0.04878415 0.03857495 0.07587988
-0.113721766 -0.033748034 -0.066629075 -0.05431441 -0.11310817 -0.11949492 -0.0005838234 -0.008732498
-0.02837711 -0.0120074 -0.10455656 -0.02588298 0.03215576 0.08547555 0.09153102 0.00029191026
-0.28685808 0.05378094 -0.046034034 -0.05785918 -0.1370155 0.09718924 -0.014867384 -0.1492277
-0.20707896 -0.13400759 -0.07611776 0.010126938 -0.019815575 -0.021603763 0.0428951 -0.0035691322
0.14982231 -0.19790433 -0.12945421 -0.025353275 -0.005268824 0.040236153 -0.033507686 -0.044901334
-0.03802359 -0.04751696 0.02312524 0.015603586 -0.07797127 0.043608338 -0.13140161 0.04780377
-0.028449299 -0.053179704 -0.024849543 -0.044405755 -0.15209778 0.068600364 0.05330516 -0.040075712
-0.19451484 0.13553469 -0.08832669 -0.16341048 0.03888921 -0.14531349 0.03350337 -0.03176871
0.00023766246 -0.14804256 0.12141367 0.05940103 0.0038898448 0.027308738 -0.044241104 -0.02122075
0.10559187 0.07575927 0.056195863 -0.097026706 -0.024176668 -0.053675745 -0.009644809 0.0881176
-0.008113707 -0.05664352 -0.031098327 -0.106646776 -0.08427969 -0.19122672 0.026282568 0.04096504
0.055342503 0.08398589 0.013969362 -0.09970567 0.008292404 -0.061587173 -0.085604005 -0.18303566
0.12626247 0.12836187 -0.012210956 -0.018753631 -0.14859022 -0.11550597 0.0896629 0.04294435
-0.05633997 -0.07735707 -0.06462591 -0.012154284 -0.10823133 0.13938943 0.010694018 -0.17888168
-0.10162581 0.0021112515 -0.015534816 -0.009826508 0.014799506 -0.08699428 -0.09027592 -0.13158444
-0.12214601 0.030142115 -0.008770167 -0.10920307 -0.16108674 0.01414371 -0.034352522 0.07470812
00000000: 4c78 a53b 9aa7 07be afb7 713c 4947 c4bc
00000010: 5986 973d 005d 46be b65a 933b b77b 8f3d
00000020: 9e51 15be 095c 33be 8a4f 83bd 93ab ffbd
00000030: a867 f53d ee15 df3d 0db3 be3d 33ac f13c
00000040: 8060 23bd af4b f3bd 1f31 af3d a4cf d53d
00000050: 5f78 613d c022 a5bd c642 cdbd ad5b 2cbd
00000060: 0c6c 01be 73df 20bc 2d91 00be a2a9 26bd
00000070: cfea e73d 1852 52be 33c3 41bd 0741 fbbb
00000080: 7889 00be 2163 56bc 81e5 a2bd d601 9c3d
00000090: 0762 243c eb91 f8bd 498e 2a3d b61c 8dbd
000000a0: a6d5 e4bd 0dac 2abd 509c ad3d 2832 8e3b
000000b0: 4eb3 fbbd 1591 c63c d22f 053d 77b6 2cbd
000000c0: c6bb 953d 2234 80bd aa44 983c 7ed6 d73d
000000d0: 39ad bbbd 37fd 3dbd d3b7 0abe ad47 9ebc
000000e0: ea63 483b b8c5 70bb 357c 123d a1e1 dabd
000000f0: b6a4 88bd 1bc5 36bd afe4 03be 8b6e f1b9
00000100: 8823 1fbd 6a19 b1bd d014 3ebd 6a4a 553d
00000110: 3d8d 34bd 3041 103d 27d9 b2bc f358 9cbd
00000120: dd53 133e 277f bd3d 6c42 353d 806a 1b3d
00000130: 633b 573d a111 053d 3436 de3b 29c7 c7bd
00000140: a8b0 bfbc e249 5dbd 8ec2 e63d 412c c8bd
00000150: cd99 2cbd d597 473d 3657 0ebd e168 05be
00000160: ba0d a53d ada6 143d 9d01 a5b8 2e9a df3b
00000170: 569b 983d 3fcd 7f3d 4c68 f13d 851f 053e
00000180: 1991 b23d 10da e43c 7803 553e b287 2cbe
00000190: 4d43 18bd 0ce8 9e3c a8a6 d9bb 220b 12be
000001a0: 857e 85bd d59b a1bd be21 be3c 436d 683d
000001b0: b20e fb3d 740f 1ebb e49f 0e3e 4b40 e83d
000001c0: 55c6 473d 3dbc b23d a1d7 6e3d 291b 74bd
000001d0: 739c 32be 2b40 6f3d ec25 12be 341d 533d
000001e0: d408 1c3d 517a 10bd cc96 c8bd 8f2f 57bd
000001f0: daee 803d e4d1 47bd c400 1e3d e966 9b3d
00000200: f5e6 e8bd 613b 0abd d374 88bd c978 5ebd
00000210: 42a5 e7bd c1b9 f4bd ba0b 19ba c012 0fbc
00000220: 1d77 e8bc b0ba 44bc c021 d6bd 8b08 d4bc
00000230: c2b5 033d ce0d af3d 9e74 bb3d 880b 9939
00000240: 10df 92be 6749 5c3d 2f8e 3cbd bffd 6cbd
00000250: cb4d 0cbe 270b c73d 5496 73bc 25cf 18be
00000260: 820c 54be 4939 09be a1e3 9bbd 75eb 253c
00000270: 4654 a2bc 60fa b0bc c6b2 2f3d 1ae8 69bb
00000280: 056b 193e 6fa7 4abe a58f 04be acb1 cfbc
00000290: 19a6 acbb aace 243d 5b3f 09bd 76ea 37bd
000002a0: a0be 1bbd 25a1 42bd 2571 bd3c 2fa6 7f3c
000002b0: 67af 9fbd a89e 323d 258e 06be e3cd 433d
000002c0: 810e e9bc f6d2 59bd 4591 cbbc cfe2 35bd
000002d0: 85bf 1bbe 597e 8c3d 8356 5a3d 6e26 24bd
000002e0: e62e 47be 9bc9 0a3e a0e4 b4bd 1455 27be
000002f0: 4b4a 1f3d 0fcd 14be d43a 093d e81f 02bd
00000300: 0835 7939 7898 17be bba7 f83d 7f4e 733d
00000310: c4ec 7e3b 93b6 df3c 2936 35bd 23d7 adbc
00000320: 8d40 d83d ad27 9b3d a22d 663d f0b5 c6bd
00000330: 260e c6bc 19db 5bbd 4305 1ebc 0077 b43d
00000340: 5bef 04bc 0903 68bd ebc1 febc a069 dabd
00000350: d59a acbd f0d0 43be 8a4e d73c f5ca 273d
00000360: d2ae 623d cb00 ac3d c0df 643c 7c32 ccbd
00000370: dddc 073c d542 7cbd 2751 afbd b36d 3bbe
00000380: f34a 013e 4b71 033e 7610 48bc 37a1 99bc
00000390: 0928 18be 658e ecbd 2fa1 b73d 6ae6 2f3d
000003a0: bec4 66bd 626d 9ebd 975a 84bd c322 47bc
000003b0: 63a8 ddbd 1abc 0e3e f635 2f3c c22c 37be
000003c0: 3121 d0bd ec5c 0a3b be85 7ebc 5dff 20bc
000003d0: a179 723c 0f2a b2bd 95e2 b8bd 12be 06be
000003e0: b027 fabd 99ec f63c bfb0 0fbc dca5 dfbd
000003f0: ecf3 24be 05bb 673c 3bb5 0cbd 9200 993d

gconv1.1.W.bias f4 [140]
0.07961004 -0.013386733 -0.050646473 -0.00797437 -0.020293372 -0.09182594 0.01217299 0.06418263
-0.021666132 -0.023565039 0.016081784 0.09667302 0.04925552 0.11323728 -0.045430057 -0.067965865
0.121726885 0.06074129 -0.06114924 -0.08876144 0.03351547 -0.080521956 -0.0029806064 0.03238627
0.007413172 -0.068385564 -0.030435694 -0.07498835 -0.023684142 0.041139834 -0.08548756 0.10508128
0.030324563 0.08603686 -0.009651563 -0.09198094 -0.045892086 0.06316413 -0.10489044 -0.08060692
0.09983733 0.010957218 0.054096192 0.06891181 -0.049665645 0.027062474 -0.069844864 -0.010319926
-0.03147091 -0.037458617 -0.08128328 0.006799128 -0.0573746 0.03339246 -0.029758733 -0.019803394
-0.023340415 -0.061834 0.026337557 0.021685658 -0.10103444 0.07478779 0.056487594 0.06471082
-0.053089224 -0.06965602 -0.06578729 0.09023795 -0.0021897322 0.061242636 -0.02633073 0.010525268
-0.09131335 -0.09696302 0.04790434 -0.025413934 -0.059392508 0.08889707 0.03759259 0.09273456
0.08859928 0.06656848 0.058252238 -0.048363622 -0.0296309 0.059294697 0.09882957 0.109073065
-0.054013588 -0.009850467 0.08181186 0.10711345 0.0161822 -0.063399576 0.053241163 -0.05218181
0.05217218 0.051079188 0.018585134 -0.05528458 0.09882081 -0.042405453 -0.045203257 0.05132608
0.064953096 -0.033514436 -0.106163375 0.04714544 -0.075976014 -0.037856426 0.07120561 0.09031931
-0.07856088 -0.049500644 -0.036978766 0.077499956 0.05047019 -0.08846762 0.0046600243 -0.041841913
0.090497956 -0.006925963 0.09621535 0.08184395 0.04618463 0.06525946 0.0072956984 0.08617941
-0.061872944 -0.0740612 -0.08622672 0.038436633 -0.066031255 -0.050971005 -0.09698785 0.008970426
-0.03835149 0.0650376 -0.060829252 0.07459619
00000000: 970a a33d 0754 5bbc ad72 4fbd efa6 02bc
00000010: 493e a6bc 3d0f bcbd 3871 473c 2f72 833d
00000020: 2c7d b1bc 780b c1bc f2bd 833c 81fc c53d
00000030: 28c0 493d f2e8 e73d de14 3abd b031 8bbd
00000040: f24b f93d dccb 783d a077 7abd 8fc8 b5bd
00000050: 8447 093d b2e8 a4bd 4756 43bb 77a7 043d
00000060: 32ea f23b bb0d 8cbd 4754 f9bc 7e93 99bd
00000070: 3f05 c2bc 3e82 283d 1a14 afbd db34 d73d
00000080: 386b f83c 1834 b03d 9721 1ebc 8160 bcbd
00000090: 57f9 3bbd 325c 813d cdd0 d6bd 3e15 a5bd
000000a0: 8477 cc3d e785 333c f893 5d3d a321 8d3d
000000b0: 346e 4bbd 1fb2 dd3c d30a 8fbd e814 29bc
000000c0: a4e7 00bd 356e 19bd d977 a6bd 38cb de3b
000000d0: a101 6bbd 88c6 083d 96c8 f3bc ba3a a2bc
000000e0: 6634 bfbc a645 7dbd dcc1 d73c 1fa6 b13c
000000f0: 25eb cebd 572a 993d 895f 673d 1b87 843d
00000100: 1674 59bd d1a7 8ebd 7dbb 86bd adce b83d
00000110: 9c81 0fbb 8fd9 7a3d 8bb3 d7bc 2c72 2c3c
00000120: 7e02 bbbd 8c94 c6bd 5737 443d e230 d0bc
00000130: 8f45 73bd ab0f b63d b0fa 193d 9eeb bd3d
00000140: 8a73 b53d 0e55 883d e699 6e3d ef18 46bd
00000150: 80bc f2bc ffde 723d 2867 ca3d b361 df3d
00000160: 5a3d 5dbd da63 21bc fa8c a73d 4c5e db3d
00000170: 8890 843c a3d7 81bd 6813 5a3d 98bc 55bd
00000180: 7fb2 553d 6938 513d da3f 983c 1572 62bd
00000190: 9162 ca3d 57b1 2dbd 0d27 39bd 4c3b 523d
000001a0: 2106 853d 6f46 09bd 2f6c d9bd 941b 413d
000001b0: 5099 9bbd 570f 1bbd 3fd4 913d 55f9 b83d
000001c0: 87e4 a0bd 30c1 4abd 0c77 17bd 4cb8 9e3d
000001d0: d4b9 4e3d 832e b5bd 1eb3 983b 6d62 2bbd
000001e0: fe56 b93d 30f3 e2bb 8e0c c53d cd9d a73d
000001f0: 182c 3d3d c0a6 853d c110 ef3b d57e b03d
00000200: 7c6e 7dbd 66ad 97bd a297 b0bd bb6f 1d3d
00000210: 653b 87bd f9c6 50bd 91a1 c6bd b2f8 123c
00000220: 7416 1dbd 6f32 853d 1828 79bd e3c5 983d

gconv1.1.gate.weight f4 [1, 280]
0.020091198 0.14509541 0.123839155 0.07491668 -0.09264861 0.015888397 0.031532593 0.045978356
0.06426974 0.06446434 -0.071919374 -0.02787642 -0.05291853 0.048058975 0.08313504 -0.005055375
0.11661516 -0.054814268 0.07273527 -0.034304775 0.040470447 0.11712459 0.20926039 -0.052798785
-0.09995458 -0.10112656 -0.10961522 0.064429626 -0.017912433 -0.004630005 -0.030961761 0.016978787
0.03924521 0.03920531 0.09977513 0.003127139 -0.04000093 0.08712726 0.11786461 -0.06284455
-0.017347826 0.018916557 -0.06485505 -0.10592756 0.0076274704 -0.05895035 0.059541497 -0.11051657
-0.057765935 0.089198075 -0.096444726 0.061796598 0.0060544983 0.040576164 0.052576665 -0.16627899
-0.0139459465 -0.09169375 -0.081774436 0.02403491 -0.009953554 0.041299433 0.103876986 -0.0033617048
0.11207341 -0.042496458 -0.15697835 -0.05459525 0.096287236 -0.026233774 -0.21112801 -0.19182351
0.04131877 0.14533378 0.04439918 0.04743712 0.010790387 0.08080716 -0.013623052 0.05087805
0.091922946 -0.00085868983 0.055178612 -0.061975554 0.022598037 0.04341853 -0.0053098435 0.1142905
0.094889574 0.073542155 0.09688864 -0.015286021 -0.043248583 0.02995523 0.0621378 0.027316876
-0.0020761485 0.04056836 -0.14042622 0.16811337 -0.080973566 0.10541331 0.045156077 -0.018385693
-0.043283638 -0.14988616 0.063256316 -0.12293526 -0.04194471 0.0006842347 0.1312704 0.121122055
0.039448164 -0.028252877 0.080740005 0.050062094 0.036465947 -0.01610238 0.12283292 -0.07511277
-0.013016427 0.06652704 0.07675677 -0.09713958 0.047447987 0.11143439 0.099116996 0.052489888
-0.08486894 -0.058234528 -0.07175788 -0.036294293 0.07312592 0.06124217 0.06731193 0.059142638
-0.02488404 0.062142253 -0.06140039 0.22013815 0.06993537 0.019856373 0.057532527 0.07755985
-0.1111743 0.095927805 -0.145242 0.11282316 0.102165364 0.040347796 -0.052303337 0.16599351
0.019663185 -0.011645699 0.008685421 -0.07695138 0.149038 -0.06201943 0.044241045 -0.02132287
-0.01754848 -0.16977811 -0.072794504 0.07688848 -0.017944872 -0.06814966 0.05423958 -0.0053964774
-0.18663847 -0.18315938 -0.13027872 0.059893057 0.054319747 0.016744534 0.0067256587 0.04740239
0.0043235235 0.080365725 -0.18595532 0.08355734 0.0038868953 -0.07410306 -0.014788753 0.074864276
0.020335265 0.035049636 0.0035537207 0.055700302 0.034365747 -0.08668972 -0.20102698 -0.0010328888
0.07571879 0.024857502 0.02227671 -0.16750556 0.13962717 -0.022197964 0.03381195 -0.04978338
0.00045222818 -0.0071746116 -0.012620091 0.08394489 -0.16036756 -0.053212665 -0.1397988 -0.05967518
-0.0061731264 -0.028776951 0.0474553 0.04479914 0.08474959 -0.004834251 -0.036613163 -0.114856035
0.0075110532 -0.08320242 -0.020510312 0.18432616 0.08121149 0.057933252 -0.082886204 -0.001028485
0.07435748 -0.012096192 0.05751209 0.041077014 0.010912745 -0.037567303 0.018828155 -0.06462587
-0.01987209 -0.1405027 0.020423764 0.0057563805 -0.07672153 -0.036114674 0.039925136 -0.01720234
-0.041958764 -0.009951948 -0.0029117498 0.054830704 -0.103507966 0.09516812 0.05128143 0.09902267
-0.0050060153 -0.16011912 0.069257244 -0.034064233 -0.06616087 -0.14421107 0.11667317 -0.09681268
00000000: 4c96 a43c e493 143e 629f fd3d eb6d 993d
00000010: 8ebe bdbd 6228 823c 5228 013d cd53 3c3d
00000020: da9f 833d e105 843d 774a 93bd 175d e4bc
00000030: 1ac1 58bd 7dd9 443d b442 aa3d 8fa7 a5bb
00000040: eed3 ee3d ed84 60bd 3bf6 943d 2a83 0cbd
00000050: 57c4 253d 04df ef3d 5b48 563e 8a43 58bd
00000060: fdb4 ccbd 711b cfbd f27d e0bd aef3 833d
00000070: 18bd 92bc 4cb7 97bb 85a3 fdbc 1917 8b3c
00000080: 96bf 203d bf95 203d e756 cc3d b0f0 4c3b
00000090: 04d8 23bd c76f b23d 0063 f13d a5b4 80bd
000000a0: 071d 8ebc e5f6 9a3c b9d2 84bd 8cf0 d8bd
000000b0: dcef f93b ec75 71bd c9e1 733d 8356 e2bd
000000c0: f99b 6cbd 7bad b63d d084 c5bd 6e1e 7d3d
000000d0: d064 c63b 3133 263d a15a 573d 0a45 2abe
000000e0: 8a7d 64bc efc9 bbbd 5b79 a7bd dce4 c43c
000000f0: 3b14 23bc 9829 293d 75bd d43d 0c50 5cbb
00000100: be86 e53d c410 2ebd efbe 20be 459f 5fbd
00000110: 3e32 c53d 36e8 d6bc f131 58be 626d 44be
00000120: df3d 293d 61d2 143e eadb 353d 6d4d 423d
00000130: 2aca 303c 397e a53d 3933 5fbc 8165 503d
00000140: 1942 bc3d b319 61ba f802 623d 14da 7dbd
00000150: 851f b93c a1d7 313d 32fe adbb 2311 ea3d
00000160: 7755 c23d 459d 963d 8d6d c63d 3872 7abc
00000170: 6d25 31bd ac64 f53c 3584 7e3d a4c7 df3c
00000180: fe0f 08bb 022b 263d e4cb 0fbe e925 2c3e
00000190: 78d5 a5bd efe2 d73d 94f5 383d 989d 96bc
000001a0: 2f4a 31bd c27b 19be 878c 813d 7bc5 fbbd
000001b0: 37ce 2bbd 375e 333a bf6b 063e d70e f83d
000001c0: 6694 213d 9472 e7bc 045b a53d e90d 4d3d
000001d0: 515d 153d 23e9 83bc d38f fb3d b9d4 99bd
000001e0: da42 55bc 543f 883d a732 9d3d 1ef1 c6bd
000001f0: d258 423d b737 e43d dafd ca3d a3ff 563d
00000200: c4cf adbd 5487 6ebd ccf5 92bd 53a9 14bd
00000210: 0bc3 953d 12d9 7a3d d6da 893d 8d3f 723d
00000220: 9dd9 cbbc e088 7e3d fa7e 7bbd e56b 613e
00000230: 463a 8f3d d5a9 a23c 3aa7 6b3d b3d7 9e3d
00000240: 5aaf e3bd cc75 c43d 52ba 14be d40f e73d
00000250: 133c d13d bb43 253d 063c 56bd 34fa 293e
00000260: b014 a13c 9acd 3ebc 4c4d 0e3c af98 9dbd
00000270: 6b9d 183e 1608 7ebd 1936 353d 4dad aebc
00000280: d4c1 8fbc 50da 2dbe 4915 95bd b577 9d3d
00000290: 2001 93bc 0d92 8bbd 522a 5e3d efd4 b0bb
000002a0: 281e 3fbe 228e 3bbe c967 05be 6c52 753d
000002b0: 627e 5e3d d52b 893c ea62 dc3b 0229 423d
000002c0: 58ac 8d3b c996 a43d 126b 3ebe 1c20 ab3d
000002d0: 48bb 7e3b 58c3 97bd 874c 72bc 7152 993d
000002e0: 2496 a63c 3590 0f3d 8ae5 683b 0026 643d
000002f0: 19c3 0c3d 618a b1bd 04da 4dbe ff61 87ba
00000300: 7412 9b3d f6a1 cb3c a67d b63c 9486 2bbe
00000310: 6dfa 0e3e 81d8 b5bc 667e 0a3d a8e9 4bbd
00000320: 0a19 ed39 0119 ebbb 80c4 4ebc 4ceb ab3d
00000330: 6537 24be 86f5 59bd 6b27 0fbe f66d 74bd
00000340: f047 cabb a4bd ebbc 7d60 423d 4e7f 373d
00000350: 3191 ad3d a368 9ebb aff7 15bd a439 ebbd
00000360: 481f f63b 0866 aabd 3e05 a8bc ffbf 3c3e
00000370: 3652 a63d 6b4b 6d3d 3ec0 a9bd 3bce 86ba
00000380: bc48 983d 1b2f 46bc cc91 6b3d 5f40 283d
00000390: 5fcb 323c 2ce0 19bd 813d 9a3c 915a 84bd
000003a0: cbca a2bc f1df 0fbe bd4f a73c 05a0 bc3b
000003b0: 2d20 9dbd fbec 13bd 8a88 233d eceb 8cbc
000003c0: f4dc 2bbd 7f0d 23bc 0ed3 3ebb 2996 603d
000003d0: fcfb d3bd 81e7 c23d 7a0c 523d 66cc ca3d
000003e0: 8009 a4bb 44f6 23be bed6 8d3d f086 0bbd
000003f0: 5a7f 87bd 11ac 13be 58f2 ee3d ba45 c6bd
