save/best_old_opt3_0.810.pt (torch, 901072 bytes, 44 tensors)

gconv1.0.A f4 [140, 140]
-0.043060225 -0.015642036 -0.108914405 -0.22406116 0.07010986 0.12062409 -0.08948826 -0.002936597
-0.17213547 -0.05405712 0.08016185 -0.008362761 -0.0965644 0.11465958 -0.07166878 -0.09557863
-0.13972718 -0.083150186 0.16430233 0.010183346 -0.04076826 -0.12313985 0.08080748 0.03669169
0.083788626 -0.02694136 0.06390102 0.11850011 -0.033365794 0.14133218 0.07740626 -0.08586346
-0.01624071 -0.21987481 0.10195772 -0.067749284 0.021466445 -0.05238952 -0.13679847 0.036511283
-0.093697876 0.23243472 0.07278686 -0.038449332 0.12538224 0.008176942 0.05479927 -0.07381291
0.1374216 -0.0009335352 0.20505056 0.0702146 -0.035849027 -0.06555016 -0.047247734 0.011895374
0.040811975 -0.03530988 -0.13978134 0.0774896 0.058839887 -0.0066853003 -0.068104826 0.16489375
-0.033899646 -0.06653856 -0.018983493 -0.1793049 0.13404669 0.018503143 0.07042178 -0.063263424
0.08789894 0.07256188 0.0174418 -0.067116186 -0.09799564 -0.069722384 -0.11315346 -0.031665236
0.034023345 -0.06092122 -0.05067327 0.05260934 0.0037718639 0.056900673 -0.22021608 0.114858404
-0.09383179 -0.119474426 -0.17365795 -0.13010317 0.01764779 -0.0704234 0.032643814 -0.04061526
-0.054799076 0.012653595 0.05706059 0.058123853 0.0025536697 -0.048367266 -0.032405496 -0.08537547
-0.03263538 -0.1024812 -0.1047449 0.05324038 0.046092518 -0.09487762 0.009787328 0.0793603
0.041428212 -0.06099045 -0.062157646 0.12086014 -0.14533003 -0.11731559 0.07354046 -0.003355657
0.12895001 -0.046390098 -0.03492033 -0.090619735 0.046453707 0.08721173 0.12240908 -0.07377589
-0.107341476 0.19402917 0.017216135 -0.033611983 -0.039791875 -0.17459568 -0.06530112 -0.022276303
0.060237847 -0.0861505 -0.029245416 -0.10953547 -0.023393195 -0.08805011 0.14733954 -0.02256324
-0.16532607 0.02188349 -0.0058194436 0.025837358 -0.017800907 -0.04725368 -0.026340848 0.119207464
-0.008853837 -0.17796484 -0.06559994 0.13387157 0.1057876 0.08952187 -0.002948814 -0.064424805
-0.0036783952 0.057197887 0.106341004 0.13252264 -0.083477296 0.19960053 -0.048657373 0.019384686
0.08485224 -0.05327024 0.02453824 -0.06949675 0.005498357 -0.051917225 -0.13866284 0.06033991
-0.11263186 -0.101006866 -0.12242302 -0.04873924 0.05604383 0.1411339 -0.030930832 0.093696095
-0.18219142 0.07621368 0.039944224 0.006652763 0.01746399 -0.014897575 0.1453807 0.00268876
0.08208934 0.025829032 -0.014980709 0.053534776 0.15902856 0.14400049 0.023561958 -0.0013136561
-0.0062050303 0.083634466 0.07133494 0.05302435 -0.16817704 0.019230882 -0.07874585 0.06437699
0.027590662 0.0215274 0.15451965 -0.1257632 0.074555695 0.008130966 -0.14851883 0.06438381
0.019799687 -0.030027851 -0.09242605 0.020596033 0.03167985 0.09835414 0.0036736578 0.09271065
0.09354171 -0.12707485 0.069272846 -0.060032282 0.035286848 0.06289675 -0.1762891 0.030448496
-0.062997684 0.06572473 -0.015688911 -0.071235746 -0.004173338 -0.010740671 -0.053932272 0.12312901
-0.052784543 -0.0503893 0.009439666 0.21147949 0.10769582 0.096789844 0.022675972 -0.030954225
0.10779269 -0.20119037 0.29294497 0.018553274 -0.056641728 -0.028575297 -0.04597488 0.053017747
00000000: eb5f 30bd ba23 80bc 840e dfbd 4a70 65be
00000010: c295 8f3d c309 f73d 9f45 b7bd ec73 40bb
00000020: 4844 30be 006b 5dbd e52b a43d f603 09bc
00000030: 8ec3 c5bd a4d2 ea3d 15c7 92bd bbbe c3bd
00000040: a414 0fbe a54a aabd df3e 283e 0dd8 263c
00000050: 9efc 26bd bf30 fcbd 647e a53d 074a 163d
00000060: 5f99 ab3d 21b4 dcbc 8ade 823d 30b0 f23d
00000070: 92aa 08bd 62b9 103e 2c87 9e3d 2fd9 afbd
00000080: 3d0b 85bc dd26 61be 36cf d03d 23c0 8abd
00000090: 66da af3c 6596 56bd e614 0cbe db8c 153d
000000a0: ace4 bfbd 5e03 6e3e 4711 953d 0c7d 1dbd
000000b0: 3464 003e 95f8 053c 3375 603d 392b 97bd
000000c0: 3fb8 0c3e 7db8 74ba c6f8 513e accc 8f3d
000000d0: 6ed6 12bd 2a3f 86bd d786 41bd d1e4 423c
000000e0: 752a 273d 18a1 10bd d722 0fbe deb2 9e3d
000000f0: 1802 713d 5d10 dbbb 8b7a 8bbd e8d9 283e
00000100: 5bda 0abd 5e45 88bd 4583 9bbc b49b 37be
00000110: 8943 093e e793 973c 4b39 903d 4190 81bd
00000120: 5c04 b43d 539b 943d 1be2 8e3c 3674 89bd
00000130: f0b1 c8bd 9cca 8ebd 00bd e7bd 68b3 01bd
00000140: 105c 0b3d 8788 79bd c68e 4fbd e47c 573d
00000150: 6031 773b ae10 693d 5380 61be e23a eb3d
00000160: e22a c0bd 02af f4bd 64d3 31be c439 05be
00000170: 1992 903c 253a 90bd 85b5 053d 305c 26bd
00000180: ff74 60bd 0651 4f3c 5db8 693d 4713 6e3d
00000190: 785b 273b c11c 46bd a0bb 04bd 56d9 aebd
000001a0: adac 05bd aae1 d1bd 7e84 d6bd 9612 5a3d
000001b0: 82cb 3c3d 334f c2bd 075b 203c a787 a23d
000001c0: a1b0 293d 1fd1 79bd 0499 7ebd 8585 f73d
000001d0: 65d1 14be 2843 f0bd 619c 963d 95ea 5bbb
000001e0: 790b 043e 8b03 3ebd 9f08 0fbd d796 b9bd
000001f0: 3e46 3e3d 109c b23d 9db1 fa3d d017 97bd
00000200: d9d5 dbbd 95af 463e da08 8d3c b8ac 09bd
00000210: cefc 22bd 36c9 32be 98bc 85bd cb7c b6bc
00000220: f6bb 763d ac6f b0bd 1594 efbc 2254 e0bd
00000230: 16a3 bfbc 9e53 b4bd 2de0 163e 8bd6 b8bc
00000240: 3d4b 29be 0145 b33c 08b1 bebb dea8 d33c
00000250: 35d3 91bc 138d 41bd c3c8 d7bc 0b23 f43d
00000260: af0f 11bc 6a3c 36be 4359 86bd a115 093e
00000270: 2ba7 d83d 3e57 b73d e440 41bb 27f1 83bd
00000280: 3b11 71bb 5548 6a3d 50c9 d93d 04b4 073e
00000290: 25f6 aabd 1564 4c3e f44c 47bd a2cc 9e3c
000002a0: 03c7 ad3d e531 5abd 6b04 c93c 5054 8ebd
000002b0: 902b b43b 28a7 54bd a2fd 0dbe fb26 773d
000002c0: 88ab e6bd b0dc cebd ecb8 fabd cca2 47bd
000002d0: 378e 653d 6885 103e a862 fdbc bde3 bf3d
000002e0: 6390 3abe eb15 9c3d 8e9c 233d 6cff d93b
000002f0: a410 8f3c f514 74bc aede 143e e835 303b
00000300: 751e a83d 6897 d33c a671 75bc 4847 5b3d
00000310: 62d8 223e dd74 133e 0205 c13c fc2e acba
00000320: 9153 cbbb 8c48 ab3d 0e18 923d 1030 593d
00000330: 9a36 2cbe 158a 9d3c 8145 a1bd 15d8 833d
00000340: d005 e23c 3b5a b03c 663a 1e3e 11c8 00be
00000350: a8b0 983d be37 053c 5215 18be a9db 833d
00000360: f432 a23c f8fc f5bc de49 bdbd 03b9 a83c
00000370: bbc2 013d e56d c93d c0c1 703b 15df bd3d
00000380: cc92 bf3d e91f 02be ecde 8d3d 69e4 75bd
00000390: f188 103d 03d0 803d 2185 34be 206f f93c
000003a0: ee04 81bd b09a 863d 0886 80bc 0ce4 91bd
000003b0: 7fc0 88bb a4f9 2fbc 16e8 5cbd 102b fc3d
000003c0: 9b34 58bd 0365 4ebd d4a8 1a3c 148e 583e
000003d0: a08f dc3d c139 c63d f6c2 b93c b793 fdbc
000003e0: 6ac2 dc3d d904 4ebe e2fc 953e 09fd 973c
000003f0: 2801 68bd be16 eabc 2850 3cbd 2329 593d

gconv1.0.W.weight f4 [140, 140]
0.00916347 0.026290124 0.012826329 -0.019063497 0.0019401398 -0.11825764 0.050017208 0.04273449
0.12133822 0.2157546 0.03120355 -0.034298304 -0.059266254 0.034791306 0.120567866 -0.12319968
0.043096174 -0.19476554 -0.15695573 0.17188193 0.06066312 -0.10661789 -0.13163732 -0.0678815
-0.11296808 -0.07550616 -0.062533185 0.011925387 -0.020730475 -0.046888776 -0.008090861 -0.020543972
0.034145296 0.17702223 -0.0052505345 0.02176761 -0.04382787 -0.09590999 -0.14226398 -0.017962934
-0.16474184 0.12236502 -0.049512796 -0.028167674 0.024363475 -0.0485075 -0.034010816 -0.07833503
0.20330612 0.013337682 -0.059479468 -0.035104204 -0.07525211 -0.083093695 -0.06643046 -0.13412
-0.0118684545 0.08334808 -0.020422736 0.07633967 0.024823435 -0.012075774 -0.02019195 -0.027150854
0.018492024 0.102403335 0.025575694 0.020686897 0.06443975 0.1358193 -0.11632608 0.009469347
-0.15477163 -0.13960582 0.19075246 0.021397648 0.10622295 0.056171965 0.032469757 -0.13053219
-0.010511203 0.07461311 0.13989621 0.110038735 -0.05415233 -0.1036412 -0.07537631 0.057736624
0.0023257292 -0.111548334 -0.047961153 0.021259483 0.10390569 -0.201452 0.11073668 -0.038945746
0.054569323 0.14717515 -0.043090735 0.028084705 0.16726944 -0.14467181 0.045806337 -0.026512671
-0.024928298 -0.0938648 -0.18054579 -0.0581888 0.036712684 0.0005877713 -0.056647744 0.029459333
0.20692338 0.14789852 0.16959134 0.117771976 0.051048502 -0.044326946 -0.31266803 -0.14500974
-0.0126286885 -0.042438902 0.04080047 0.032920156 -0.029497398 -0.00088290835 -0.13575947 -0.1392264
0.20400964 -0.07679116 0.19892767 -0.16449039 -0.022687996 -0.05624637 0.02580755 0.048778616
0.076717794 0.14210252 -0.09080829 0.011083088 0.025029996 -0.038948674 -0.06939462 0.020528378
0.019233279 -0.07774244 0.08323298 0.09432365 -0.12630099 0.12589648 -0.12204486 -0.03530863
0.090774894 0.0616551 -0.22125967 0.025953645 0.07874814 0.040587083 0.033073578 -0.08224011
-0.05829563 -0.0045160786 -0.06748452 -0.16694231 -0.05043333 0.016931025 -0.053380407 0.18301615
0.06793254 0.02154664 0.023174828 0.06410678 -0.17713743 -0.10978315 -0.1927149 0.0060600885
-0.09763844 -0.098197095 -0.06868429 -0.26063538 0.07566645 0.12730202 -0.041475337 0.06293842
-0.015871251 0.03444458 -0.14943513 -0.082030416 0.18411165 0.046639986 -0.036677867 -0.065891124
0.006608599 -0.033587378 -0.23341413 -0.03732177 0.05055412 0.019098982 0.20571919 0.017000306
-0.03680701 0.06441312 -0.07723488 -0.028252095 0.06434419 -0.08672321 -0.08402756 -0.10724579
-0.06699974 -0.08612786 0.0415573 0.039290823 0.061057862 -0.03701837 0.024219688 -0.0923764
-0.15261292 0.21418183 -0.036265064 0.121386126 -0.07773669 -0.045712188 -0.080837585 -0.1032265
-0.09057641 0.090236686 0.027685752 0.13919593 0.009803096 0.052102156 0.14744222 -0.19263718
-0.075685516 0.02583622 -0.044086594 -0.05838421 0.07030178 0.07522944 -0.0033145428 0.015664268
-0.0928583 -0.049506355 0.12559728 0.010950114 -0.080784686 0.16866058 -0.047928795 -0.20653158
-0.06603149 0.07377254 -0.062259853 -0.097271316 0.07474456 0.19780117 -0.07127616 0.059659548
00000000: 6122 163c 635e d73c 8625 523c 0d2b 9cbc
00000010: 4a4c fe3a 1031 f2bd d8de 4c3d 5c0a 2f3d
00000020: 2c80 f83d c6ee 5c3e 969e ff3c 617c 0cbd
00000030: 2cc1 72bd 5481 0e3d 49ec f63d 1d50 fcbd
00000040: 9d85 303d 9e70 47be 01b9 20be d101 303e
00000050: e479 783d 7b5a dabd efcb 06be 7505 8bbd
00000060: cf5b e7bd f9a2 9abd 6611 80bd b362 433c
00000070: f5d2 a9bc 720e 40bd 888f 04bc d54b a8bc
00000080: f0db 0b3d 5145 353e ad0c acbb fd51 b23c
00000090: da84 33bd 756c c4bd a6ad 11be 0127 93bc
000000a0: 16b2 28be 839a fa3d eecd 4abd e5bf e6bc
000000b0: e995 c73c cdaf 46bd ed4e 0bbd 1e6e a0bd
000000c0: 7b2f 503e 4b86 5a3c bea0 73bd 6dc9 0fbd
000000d0: c71d 9abd 072d aabd b10c 88bd c156 09be
000000e0: e873 42bc 66b2 aa3d 954d a7bc f957 9c3d
000000f0: 845a cb3c 78d9 45bc 9769 a5bc 786b debc
00000100: 967c 973c d7b8 d13d 1e84 d13c 9177 a93c
00000110: fdf8 833d 3714 0b3e 5e3c eebd 5225 1b3c
00000120: 747c 1ebe d4f4 0ebe 9d54 433e 1f4a af3c
00000130: 6b8b d93d 9314 663d 02ff 043d 3baa 05be
00000140: 2e37 2cbc c2ce 983d f440 0f3e fd5b e13d
00000150: d5ce 5dbd d641 d4bd e55e 9abd 3d7d 6c3d
00000160: 436b 183b 7473 e4bd ea72 44bd 5e28 ae3c
00000170: 82cc d43d 6f49 4ebe eac9 e23d 9385 1fbd
00000180: 1584 5f3d 15b5 163e e97f 30bd e511 e63c
00000190: ae48 2b3e d924 14be 6d9f 3b3d 1a31 d9bc
000001a0: 6e36 ccbc 303c c0bd ffe0 38be 6157 6ebd
000001b0: 0a60 163d aa14 1a3a 7707 68bd b354 f13c
000001c0: b9e3 533e b672 173e 5aa9 2d3e 6f32 f13d
000001d0: 3c18 513d 2c90 35bd 0616 a0be 6f7d 14be
000001e0: 8fe8 4ebc 6ad4 2dbd 651e 273d 49d7 063d
000001f0: 87a4 f1bc fa72 67ba 8804 0bbe 5e91 0ebe
00000200: e7e7 503e af44 9dbd b2b3 4b3e 2b70 28be
00000210: 2ddc b9bc 9862 66bd 5b6a d33c 16cc 473d
00000220: 381e 9d3d 5383 113e b2f9 b9bd d795 353c
00000230: b50b cd3c a588 1fbd c41e 8ebd 212b a83c
00000240: 1c8f 9d3c 6e37 9fbd 0d76 aa3d c22c c13d
00000250: 0c55 01be 02eb 003e a8f2 f9bd c89f 10bd
00000260: 30e8 b93d 0f8a 7c3d e591 62be bd9c d43c
00000270: b446 a13d a43e 263d 2978 073d 816d a8bd
00000280: 66c7 6ebd 9dfb 93bb 5335 8abd edf2 2abe
00000290: 2e93 4ebd efb2 8a3c 6aa5 5abd 9668 3b3e
000002a0: 3720 8b3d 9482 b03c 23d9 bd3c 6a4a 833d
000002b0: 8463 35be fdd5 e0bd 0e57 45be b593 c63b
000002c0: aaf6 c7bd 8f1b c9bd 59aa 8cbd 0072 85be
000002d0: 03f7 9a3d 765b 023e 0be2 29bd dce5 803d
000002e0: 6d04 82bc c315 0d3d 8605 19be 90ff a7bd
000002f0: c487 3c3e 9209 3f3d 883b 16bd edf1 86bd
00000300: f28c d83b eb92 09bd 1d04 6fbe b6de 18bd
00000310: d611 4f3d 7875 9c3c 0da8 523e 3a44 8b3c
00000320: f3c2 16bd 07eb 833d 522d 9ebd f070 e7bc
00000330: e3c6 833d f09b b1bd a416 acbd aea3 dbbd
00000340: 2937 89bd ce63 b0bd fd37 2a3d 6aef 203d
00000350: cf17 7a3d 93a0 17bd 5e68 c63c d72f bdbd
00000360: 9046 1cbe 7b52 5b3e ad8a 14bd 4a99 f83d
00000370: 6a34 9fbd b43c 3bbd 2d8e a5bd 6a68 d3bd
00000380: 2080 b9bd 03ce b83d 3bcd e23c 6189 0e3e
00000390: 2a9d 203c 1269 553d 18fb 163e ae42 45be
000003a0: 0201 9bbd 7ba6 d33c 2594 34bd 4824 6fbd
000003b0: 61fa 8f3d e511 9a3d cd38 59bb 5a52 803c
000003c0: 7e2c bebd 2dc7 4abd 939c 003e 1b68 333c
000003d0: 7172 a5bd 5cb5 2c3e fc50 44bd 047d 53be
000003e0: 853b 87bd 0f16 973d 3004 7fbd 2f36 c7bd
000003f0: ad13 993d 648c 4a3e 3cf9 91bd 925d 743d

gconv1.0.W.bias f4 [140]
-0.09639574 -0.07637603 0.078504495 -0.09866339 0.08957962 0.031422492 0.07559748 0.056232464
0.035030548 -0.037132863 -0.026976336 0.028267471 -0.026542047 -0.004848365 -0.03153022 0.055909585
-0.03734952 -0.061465897 -0.05288861 0.1107154 0.007415798 0.044347886 -0.089134164 -0.043143295
-0.007590716 -0.0507023 0.031843457 -0.035669755 0.074053355 0.021167723 0.048967067 0.014049054
-0.08785476 -0.043972302 0.024421386 -0.10633499 0.019697506 -0.021322342 -0.021744912 0.005633697
-0.022709897 0.06983871 0.053212646 -0.03274632 -0.06559872 -0.040845655 -0.04759438 0.08698655
0.050205264 -0.082128026 -0.013564844 -0.0011554328 0.0390302 -0.052838832 0.065817796 0.025780786
0.004830205 -0.103844576 0.006137192 0.021641433 0.023347836 0.036203273 -0.06261206 -0.040746726
0.10794513 -0.095671825 0.08970116 0.068745166 -0.034488723 0.0030507715 0.0612626 -0.0076318746
0.030731607 -0.021425905 0.035750642 0.050386503 -0.11390692 0.01975343 -0.04191039 0.03354265
-0.06874953 -0.072032094 0.050975684 0.098597825 0.042067435 -0.03520528 -0.070782736 -0.056491707
0.034060404 0.0693894 0.019695962 -0.037498023 0.09713252 0.02344954 0.0631301 0.012717986
-0.08352258 -0.02703551 0.047433022 0.09925634 0.12579389 -0.07788312 -0.09267353 -0.09311198
-0.014092451 -0.057971846 0.015932899 0.0055290265 0.042550735 0.031692203 0.023257846 0.08695883
0.103808045 -0.09316563 -0.015574257 0.05587527 -0.058172777 0.069508225 0.069593824 0.033067323
0.024809327 -0.10262956 -0.12849006 -0.12899317 0.04311666 -0.0144501785 -0.040217165 -0.09347191
0.03246033 -0.026548794 -0.10907776 0.060446594 -0.00047049412 -0.016844863 -0.048139818 0.10007036
0.060024485 -0.06276783 -0.052295536 -0.03666756
00000000: 216b c5bd 096b 9cbd f7c6 a03d 0810 cabd
00000010: 8575 b73d dfb4 003d dad2 9a3d 0354 663d
00000020: 317c 0f3d a118 18bd 7afd dcbc 2f91 e73c
00000030: b56e d9bc 09df 9ebb d525 01bd 7301 653d
00000040: cffb 18bd aac3 7bbd baa1 58bd c1be e23d
00000050: 3900 f33b 21a6 353d f98b b6bd 06b7 30bd
00000060: 8abb f8bb 37ad 4fbd 496e 023d 731a 12bd
00000070: 49a9 973d ef67 ad3c b191 483d 012e 663c
00000080: 32ed b3bd 4d1c 34bd 5c0f c83c 29c6 d9bd
00000090: aa5c a13c 31ac aebc 6322 b2bc e09a b83b
000000a0: 1b0a babc 9907 8f3d 81f5 593d 0121 06bd
000000b0: 9f58 86bd c64d 27bd 53f2 42bd 0126 b23d
000000c0: 09a4 4d3d bd32 a8bd 143f 5ebc e471 97ba
000000d0: 22de 1f3d 886d 58bd 7bcb 863d 3a32 d33c
000000e0: b246 9e3b 77ac d4bd 7f1a c93b 6049 b13c
000000f0: f643 bf3c e249 143d c03a 80bd 0ae6 26bd
00000100: 5612 dd3d 97ef c3bd 3eb5 b73d 44ca 8c3d
00000110: 0c44 0dbd 74ef 473b 7eee 7a3d ce14 fabb
00000120: dac0 fb3c 6185 afbc 446f 123d 1462 4e3d
00000130: 0848 e9bd f2d1 a13c 3baa 2bbd 0564 093d
00000140: 8ecc 8cbd 9085 93bd e1cb 503d a8ed c93d
00000150: e74e 2c3d 6933 10bd 8af6 90bd d963 67bd
00000160: ec82 0b3d 081c 8e3d 6d59 a13c 8797 19bd
00000170: 6aed c63d 4019 c03c 5b4a 813d 195f 503c
00000180: e30d abbd 9379 ddbc 2149 423d e846 cb3d
00000190: 1dd0 003e 2f81 9fbd 9fcb bdbd 7eb1 bebd
000001a0: 06e4 66bc e373 6dbd b685 823c d62c b53b
000001b0: ae49 2e3d afcf 013d 3d87 be3c 7917 b23d
000001c0: 5099 d43d 9fcd bebd 2b2b 7fbc 78dd 643d
000001d0: 9446 6ebd 545a 8e3d 3587 8e3d 9a71 073d
000001e0: ee3c cb3c 722f d2bd e692 03be c916 04be
000001f0: 189b 303d 71c0 6cbc c1ba 24bd 336e bfbd
00000200: 1ff5 043d db7c d9bc 2964 dfbd d996 773d
00000210: a7ac f6b9 3dfe 89bc 422e 45bd b0f1 cc3d
00000220: 3cdc 753d 6c8c 80bd d833 56bd b930 16bd

gconv1.0.input_gate_u.weight f4 [1, 140]
-0.059825458 -0.045188308 -0.10036201 -0.15125471 -0.01942286 0.049752876 -0.12051335 0.14444958
0.09958303 0.0637864 0.1322618 -0.068181746 0.10044758 -0.19339573 0.16123259 -0.055885453
0.07406925 0.02424034 0.05514857 -0.12065454 -0.22488482 0.010251408 -0.37095585 -0.10576028
0.014687784 -0.03921283 -0.054289006 0.29174754 0.025560115 -0.026787035 -0.008947598 -0.1623792
-0.12481718 0.1889473 -0.0013083649 0.013849554 0.16499841 0.41664678 0.004243967 -0.023205128
0.080528714 0.10246902 0.4152651 0.2241978 0.10285853 0.13924798 0.033851314 -0.029153634
-0.0889469 0.1962593 -0.046923645 -0.04564083 0.028773302 0.18760566 -0.07051675 -0.12487757
-0.12874 -0.38002384 0.11254128 -0.077610776 -0.30021077 0.006568646 -0.0077310028 0.1957151
-0.12726058 -0.047863703 0.1371237 0.04504909 -0.0057349494 0.25139523 0.23752227 0.007088747
0.12817515 0.21786599 -0.45858517 0.052385576 0.03190645 0.11737403 -0.3393318 -0.034028567
0.4419987 -0.19026928 0.29821816 -0.39620742 0.0037769782 -0.17992045 -0.053799555 -0.13864587
0.25718832 -0.19757585 -0.27736485 0.1519681 -0.1139891 0.047269873 -0.04910394 -0.04908086
-0.090852484 -0.25180632 0.19415203 0.2411185 0.08149064 0.032579605 -0.09477952 -0.41284907
-0.15737507 -0.30193344 -0.04688806 -0.14792824 -0.021665012 0.19118586 0.05247771 0.21352185
0.06154949 -0.05875007 0.013280876 -0.24976948 -0.32746327 0.27052078 0.025406646 0.0068812864
-0.14503984 0.11167551 -0.24180725 0.39080194 -0.015552564 -0.05980013 -0.3180118 0.23258628
0.12248002 -0.07805554 0.18544063 -0.045197614 0.15199016 0.041523684 -0.048583787 0.13739698
-0.2625147 -0.1264093 0.18475364 -0.0035943969
00000000: 8a0b 75bd 6017 39bd 998a cdbd 84e2 1abe
00000010: b11c 9fbc acc9 4b3d b4cf f6bd 97ea 133e
00000020: 30f2 cb3d 72a2 823d a36f 073e dfa2 8bbd
00000030: 76b7 cd3d 8809 46be 281a 253e 25e8 64bd
00000040: 9eb1 973d ad93 c63c 78e3 613d ba19 f7bd
00000050: 3548 66be 86f5 273c eded bdbe d898 d8bd
00000060: 08a5 703c a29d 20bd 265e 5ebd ef5f 953e
00000070: 7263 d13c 7c70 dbbc f298 12bc bc46 26be
00000080: 26a0 ffbd 677b 413e 717d abba 3de9 623c
00000090: 58f5 283e ba52 d53e fa10 8b3b ae18 bebc
000000a0: 3dec a43d 47db d13d a19d d43e 1c94 653e
000000b0: 7ea7 d23d 0697 0e3e ada7 0a3d 9ad3 eebc
000000c0: cb29 b6bd 33f8 483e 0233 40bd e1f1 3abd
000000d0: fdb5 eb3c b31b 403e 166b 90bd d0bf ffbd
000000e0: 6bd4 03be 7c92 c2be 0b7c e63d 66f2 9ebd
000000f0: 3ab5 99be cc3d d73b 5a54 fdbb 8a69 483e
00000100: 9950 02be bb0c 44bd 286a 0c3e 6585 383d
00000110: 3eec bbbb e0b6 803e 0a39 733e b848 e83b
00000120: 5940 033e 4318 5f3e adcb eabe 4292 563d
00000130: 56b0 023d cc61 f03d e6bc adbe 8a61 0bbd
00000140: a74d e23e f3d5 42be 0db0 983e b3db cabe
00000150: 2e87 773b 113d 38be ec5c 5cbd 2ff9 0dbe
00000160: 30ae 833e 5351 4abe c402 8ebe 879d 1b3e
00000170: 1e73 e9bd 0e9e 413d 3721 49bd 0309 49bd
00000180: de10 babd c2ec 80be cacf 463e c5e7 763e
00000190: 91e4 a63d 3172 053d c41b c2bd f460 d3be
000001a0: ee26 21be 0597 9abe b20d 40bd 807a 17be
000001b0: d37a b1bc 3ac6 433e def2 563d 79a5 5a3e
000001c0: 511b 7c3d eaa3 70bd 0898 593c 92c3 7fbe
000001d0: 44a9 a7be b381 8a3e 9921 d03c 6a7c e13b
000001e0: 5385 14be 21b6 e43d 529c 77be 3117 c83e
000001f0: 2ed0 7ebc fbf0 74bd 71d2 a2be 192b 6e3e
00000200: ced6 fa3d 95db 9fbd 26e4 3d3e 2221 39bd
00000210: 4fa3 1b3e bd14 2a3d cbff 46bd cbb1 0c3e
00000220: 5468 86be 7171 01be 0f30 3d3e f98f 6bbb

gconv1.0.input_gate_w.weight f4 [1, 140]
0.14851727 -0.12634596 0.20762765 0.057727497 0.031076547 -0.11170905 -0.016631484 -0.20854089
0.22751324 0.3140659 0.0658138 0.05614022 0.017143229 -0.11748347 -0.042175405 -0.06766568
0.062639095 -0.01691365 0.14773928 -0.13503607 -0.16635671 0.028104978 -0.17741966 0.1318645
0.005239594 -0.009073228 0.17540857 -0.078670606 -0.11704578 -0.16681448 -0.12065853 -0.0784489
-0.16186143 0.1707032 0.010853945 0.19521537 -0.10525243 0.082489036 0.17461286 -0.18678202
0.1400421 -0.1405435 -0.07173638 -0.17202127 -0.13001622 -0.07796868 -0.026376167 0.05583517
0.07962224 -0.0586222 -0.022185858 -0.17978145 -0.010329372 -0.0890277 -0.19962803 -0.12348124
-0.11219654 -0.17352363 0.09199698 -0.03614716 -0.15237927 0.041690107 0.20979331 0.35794312
0.068385914 -0.06353688 0.05156747 0.14043087 0.10114102 0.10326354 -0.06799762 0.12301118
-0.04608716 0.08026964 0.190533 -0.10715907 0.12735128 -0.19088693 0.2108547 0.19408329
-0.021047672 0.24438737 0.03385991 -0.092729695 0.037095923 -0.15645574 -0.10385907 -0.11573911
-0.00030973225 -0.05336636 0.123662196 0.115617976 0.08243563 -0.0947372 0.018959235 -0.050475497
-0.023714026 0.06902504 -0.00031578902 -0.0058706044 0.00623105 0.30708957 -0.10034717 0.09159858
-0.051232405 0.028843218 0.01703299 -0.17407122 0.06133609 -0.016172888 0.05888691 0.13419469
-0.0993729 0.2661205 0.000664273 -0.08882227 -0.21416599 -0.050021715 0.08683231 -0.15710834
-0.10376402 0.1558644 -0.005872633 -0.060046785 -0.01133825 -0.1155666 0.0045877923 0.28910762
-0.004094487 0.23123612 0.016475964 0.20795186 0.018353498 -0.31284812 0.17084 -0.07391694
-0.016248051 0.030504255 0.036808457 0.095946595
00000000: e914 183e d660 01be 589c 543e ab73 6c3d
00000010: 3e94 fe3c b7c7 e4bd c03e 88bc be8b 55be
00000020: 3bf9 683e 3fcd a03e 63c9 863d 4af3 653d
00000030: f56f 8c3c 2c9b f0bd 1ec0 2cbd 4e94 8abd
00000040: ed48 803d 7f8e 8abc f748 173e e546 0abe
00000050: 6a59 2abe 693c e63c 80ad 35be 7d07 073e
00000060: e6b0 ab3b e0a7 14bc 4e9e 333e 0e1e a1bd
00000070: b3b5 efbd 6ad1 2abe d21b f7bd d1a9 a0bd
00000080: 01bf 25be d2cc 2e3e bfd4 313c 8ae6 473e
00000090: 968e d7bd 03f0 a83d b7cd 323e c943 3fbe
000000a0: 3267 0f3e a3ea 0fbe 86ea 92bd 5826 30be
000000b0: f922 05be 0bae 9fbd d512 d8bc 6bb3 643d
000000c0: fc10 a33d d51d 70bd 1ebf b5bc a118 38be
000000d0: 873c 29bc 2854 b6bd 4a6b 4cbe bbe3 fcbd
000000e0: 4dc7 e5bd 2eb0 31be ea68 bc3d 0b0f 14bd
000000f0: 5009 1cbe 3fc3 2a3d 0fd4 563e 5244 b73e
00000100: ea0d 8c3d a01f 82bd 6938 533d 1ccd 0f3e
00000110: 0623 cf3d d67b d33d 5642 8bbd 49ed fb3d
00000120: e4c5 3cbd 6964 a43d 151b 433e 3776 dbbd
00000130: 6068 023e dd77 43be 4bea 573e c5bd 463e
00000140: 2b6c acbc af40 7a3e b0b0 0a3d 11e9 bdbd
00000150: e5f1 173d ef35 20be 10b4 d4bd a008 edbd
00000160: 8f63 a2b9 af96 5abd 9b42 fd3d 1ec9 ec3d
00000170: 03d4 a83d 9405 c2bd 6650 9b3c 65bf 4ebd
00000180: eb43 c2bc 005d 8d3d 7c90 a5b9 335e c0bb
00000190: d62d cc3b d83a 9d3e d182 cdbd 0998 bb3d
000001a0: 12d9 51bd 9d48 ec3c c588 8b3c ba3f 32be
000001b0: 8d3b 7b3d 017d 84bc 6733 713d 556a 093e
000001c0: 0584 cbbd f240 883e 9b22 2e3a 73e8 b5bd
000001d0: 544e 5bbe 92e3 4cbd 23d5 b13d 02e1 20be
000001e0: 3b82 d4bd eb9a 1f3e 376f c0bb 9ef3 75bd
000001f0: 11c4 39bc 2eae ecbd 3155 963b ea05 943e
00000200: 0c2b 86bb 29c9 6c3e 9af8 863c 55f1 543e
00000210: 135a 963c a12d a0be aef0 2e3e c461 97bd
00000220: a21a 85bc 0fe4 f93c 77c4 163d a67f c43d

gconv1.0.forget_gate_u.weight f4 [1, 140]
-0.0875738 -0.23498875 0.1496883 0.2525483 -0.1850548 -0.084248595 0.05611555 -0.23656854
-0.21433637 0.09824753 -0.26168755 0.10968416 0.054365806 0.1855153 -0.008331728 0.004826655
0.10323981 -0.040103395 -0.1299381 -0.119884156 -0.23561306 0.023062296 0.005302006 -0.1462577
-0.048218347 0.06598319 -0.10323584 -0.07458824 -0.10872696 -0.063034296 0.044951987 -0.06763571
0.029394183 -0.2276635 -0.34538433 -0.16050884 -0.14104122 0.146844 0.07269029 -0.048234075
0.03946462 -0.028808272 0.034855828 -0.21781363 -0.15170118 -0.15702276 -0.049233418 0.033943556
0.078053795 -0.07542117 -0.115236506 0.024432791 -0.073293045 0.13724792 -0.0015728009 -0.037456434
-0.08136398 0.25023055 0.07645246 -0.082524575 0.06657327 0.022534957 -0.051860537 -0.56290513
-0.011644587 -0.12585522 0.086203 -0.03628774 -0.25311235 0.00031212586 0.02171462 0.1635492
0.26605073 0.19743814 0.23420496 0.100694366 -0.12717074 -0.07332148 0.10753376 -0.13372128
-0.5697828 0.63150436 -0.22042677 0.11900058 -0.35704836 0.07473886 0.14244229 -0.048217975
-0.04235863 -0.10480913 0.1809155 0.08528868 -0.2774855 -0.008244846 -0.06441505 -0.2603385
0.20504442 -0.013247618 -0.023923041 -0.27263543 -0.024186581 0.09115339 -0.24390733 0.15065177
-0.22217047 0.50856584 -0.02280434 -0.008622538 -0.13044678 -0.13896789 0.11937331 0.18304472
-0.05523937 -0.12951753 -0.23972256 0.12176089 0.09886741 0.012112294 -0.30736247 -0.14700131
-0.08829678 -0.025588412 0.21408938 -0.071906865 -0.048168994 0.1831219 0.16714011 0.006403497
-0.21879746 0.073615655 -0.015312193 -0.010558803 -0.16542907 -0.049943324 0.030485602 -0.43273827
0.11325017 0.3030093 0.08737861 0.0208108
00000000: e459 b3bd e4a0 70be e447 193e 034e 813e
00000010: 017f 3dbe 878a acbd 6bd9 653d 063f 72be
00000020: fe7a 5bbe 0036 c93d e9fb 85be 17a2 e03d
00000030: aeae 5e3d b9f7 3d3e cd81 08bc eb28 9e3b
00000040: 656f d33d 7543 24bd 7e0e 05be d385 f5bd
00000050: 8d44 71be 24ed bc3c 73bc ad3b 94c4 15be
00000060: 9a80 45bd 3222 873d 506d d3bd b8c1 98bd
00000070: 3eac debd 2018 81bd 931f 383d 9784 8abd
00000080: 12cc f03c 9f20 69be 37d6 b0be 6e5c 24be
00000090: 1c6d 10be 465e 163e a6de 943d 1891 45bd
000000a0: a7a5 213d 53ff ebbc fcc4 0e3d 890a 5fbe
000000b0: 8e57 1bbe 93ca 20be fba8 49bd 6608 0b3d
000000c0: abda 9f3d 6a76 9abd 1e01 ecbd 4727 c83c
000000d0: aa1a 96bd b88a 0c3e 7126 ceba eb6b 19bd
000000e0: 29a2 a6bd 381e 803e 1b93 9c3d a502 a9bd
000000f0: 9157 883d 3b9b b83c b76b 54bd 8d1a 10bf
00000100: f0c8 3ebc 31e0 00be 338b b03d 74a2 14bd
00000110: f197 81be d3a4 a339 dce2 b13c 7179 273e
00000120: cd37 883e 392d 4a3e 6dd3 6f3e d938 ce3d
00000130: 0c39 02be 9229 96bd a93a dc3d 3bee 08be
00000140: 49dd 11bf 45aa 213f 8eb7 61be 93b6 f33d
00000150: 0bcf b6be b010 993d 64dc 113e 3680 45bd
00000160: 3e80 2dbd 2ba6 d6bd ea41 393e d5ab ae3d
00000170: 9412 8ebe 6415 07bc 0aec 83bd 164b 85be
00000180: 2af7 513e 8a0c 59bc 41fa c3bc df96 8bbe
00000190: f022 c6bc a1ae ba3d d8c2 79be 7544 1a3e
000001a0: a880 63be 5f31 023f 2bd0 babc 8c45 0dbc
000001b0: d793 05be 994d 0ebe fe79 f43d 1370 3b3e
000001c0: ad42 62bd 3ea0 04be d579 75be c65d f93d
000001d0: ff7a ca3d a572 463c 9d5e 9dbe 8387 16be
000001e0: f1d4 b4bd ca9e d1bc 3f3a 5b3e e843 93bd
000001f0: da4c 45bd 4f84 3b3e c726 2b3e 6dd4 d13b
00000200: 710c 60be cec3 963d fedf 7abc d4fe 2cbc
00000210: 3d66 29be 5f91 4cbd f1bc f93c df8f ddbe
00000220: b5ef e73d 0924 9b3e 8ff3 b23d 697b aa3c

gconv1.0.forget_gate_w.weight f4 [1, 140]
0.1716639 -0.29700115 0.03919264 0.011003082 0.058316782 0.38175678 -0.00812105 -0.04701889
0.2521186 0.26897532 0.1745146 -0.049744196 0.2429236 0.14091654 0.21605648 -0.11815255
0.08280428 -0.26063335 -0.19433755 -0.11913211 0.09137505 -0.13367109 0.002145946 0.030650068
-0.13314512 -0.012828081 0.19516829 -0.14448237 -0.21337889 0.044329423 0.12399622 0.09869322
0.37626046 0.0805592 0.06305451 0.081627905 0.26947585 0.07286864 0.0009925395 0.07784725
-0.06238315 -0.089030415 0.084286906 -0.184155 0.16766807 -0.2705549 0.14934 -0.19511072
0.10982263 0.1600831 0.14563447 0.053403128 -0.13822371 0.09892214 -0.0027529711 -0.053180926
0.008654981 0.036831178 0.106315464 -0.032572553 0.004907501 -0.13902704 0.11712373 -0.11770575
-0.012126462 -0.115458354 0.101906024 0.21997482 -0.088894725 0.16807522 0.14106618 -0.0059615267
0.10975878 0.24373356 -0.090805404 0.374248 0.0029600048 0.12066488 0.09451132 0.033721246
0.3273885 0.24997291 -0.09864978 -0.009773011 0.14837146 0.08634581 0.0059426725 -0.17296961
0.090734735 0.14382549 -0.013013548 -0.30142882 0.21747899 0.097045496 0.058181368 0.04786562
0.19530503 -0.07850483 -0.123070925 -0.0411453 0.33250505 -0.259393 -0.26046467 -0.0015787027
0.0935546 0.13278611 0.17008246 -0.12909822 0.25181544 0.22888167 0.021483159 0.39296994
0.10305173 0.0017423001 -0.22222622 0.33438072 -0.052649394 0.0485837 0.07709623 0.02046278
-0.15355621 -0.15056162 0.068215184 -0.055613 0.13534707 -0.17279091 -0.04525945 -0.024654808
0.06514679 -0.052375697 0.18190436 0.103357494 -0.031027978 -0.15553011 0.076808706 -0.09335983
0.2473613 0.08559873 -0.05380994 -0.2147397
00000000: a9c8 2f3e 8910 98be 7688 203d 4546 343c
00000010: 94dd 6e3d a075 c33e 270e 05bc e196 40bd
00000020: b015 813e 22b7 893e f5b3 323e 92c0 4bbd
00000030: f7c0 783e 6d4c 103e e93d 5d3e f7f9 f1bd
00000040: 4a95 a93d bc71 85be 6c00 47be 89fb f3bd
00000050: d822 bb3d 13e1 08be 00a3 0c3b da15 fb3c
00000060: 3257 08be df2c 52bc 32da 473e 30f3 13be
00000070: ff7f 5abe c592 353d bbf1 fd3d ac1f ca3d
00000080: 36a5 c03e 39fc a43d b922 813d 882c a73d
00000090: bdf8 893e 273c 953d 1918 823a 616e 9f3d
000000a0: 7985 7fbd 9455 b6bd 9d9e ac3d 2193 3cbe
000000b0: 2eb1 2b3e 2c86 8abe 96ec 183e 1bcb 47be
000000c0: b0ea e03d d3ec 233e 3421 153e 3dbd 5a3d
000000d0: 848a 0dbe b197 ca3d 316b 34bb 3ed4 59bd
000000e0: 9fcd 0d3c 4adc 163d ecbb d93d cc6a 05bd
000000f0: 1acf a03b 1b5d 0ebe 91de ef3d b60f f1bd
00000100: 11ae 46bc 6e75 ecbd 1bb4 d03d 1441 613e
00000110: 700e b6bd e91b 2c3e a773 103e e958 c3bb
00000120: 36c9 e03d 4a95 793e 2ff8 b9bd 6f9d bf3e
00000130: a4fc 413b 261f f73d 278f c13d 4a1f 0a3d
00000140: 779f a73e e6f8 7f3e e508 cabd fb1e 20bc
00000150: b0ee 173e 12d6 b03d c0ba c23b f21e 31be
00000160: 22d3 b93d fd46 133e c736 55bc e154 9abe
00000170: d0b2 5e3e cabf c63d 964f 6e3d be0e 443d
00000180: 0bfe 473e 24c7 a0bd 9c0c fcbd f987 28bd
00000190: 1a3e aa3e 29cf 84be a05b 85be 79ec ceba
000001a0: 8e99 bf3d 15f9 073e 192a 2e3e 5332 04be
000001b0: f4ed 803e f55f 6a3e 73fd af3c 5b33 c93e
000001c0: c90c d33d e45d e43a 458f 63be f333 ab3e
000001d0: e4a6 57bd b4ff 463d a1e4 9d3d 8fa1 a73c
000001e0: d73d 1dbe d32c 1abe 67b4 8b3d 75ca 63bd
000001f0: 6c98 0a3e 1af0 30be f961 39bd e1f8 c9bc
00000200: ae6b 853d e687 56bd 2345 3a3e 18ad d33d
00000210: 632e febc 4943 1fbe e24d 9d3d 7033 bfbd
00000220: 484c 7d3e 634e af3d d067 5cbd b9e4 5bbe

gconv1.0.output_gate_u.weight f4 [1, 140]
-0.08071623 0.06729364 0.33611062 -0.030904418 0.12406149 -0.06716828 0.1797859 0.09331253
0.19009271 0.35937744 0.15993418 0.17631194 0.004166986 -0.091893464 -0.21001317 0.33035302
0.12659344 0.22769691 -0.13610871 0.24847305 0.050234627 -0.19448361 -0.08716964 -0.107424594
0.094376184 0.03262282 -0.094773345 -0.1784112 0.09087588 0.06940605 0.15163802 -0.036072347
0.25789917 -0.22580592 0.0935957 -0.06377675 0.31232202 0.0055162814 0.15110946 -0.15176694
-0.2793316 0.032657757 -0.27605814 -0.1809871 -0.019849109 0.32580405 0.13358046 0.114694424
0.038551275 0.17970684 0.07991399 0.2390917 -0.03443473 0.024104413 0.42841423 -0.013492311
0.42333812 -0.044897255 0.12669984 -0.15640658 -0.08489858 0.36699772 -0.101082504 0.042602602
0.00526118 0.086832605 0.12804309 0.18445651 0.025546245 -0.025189996 -0.105750434 -0.17596327
-0.13573669 0.025862046 -0.11774542 0.25372872 0.045195658 -0.32331747 -0.010520351 0.10966354
-0.2793613 -0.05196678 -0.18198 -0.03695947 -0.21214253 0.07700056 -0.24855694 0.1425578
-0.26114497 0.07184532 -0.079469 0.27064964 -0.020268789 0.30504254 0.35033822 0.14972593
-0.0049745208 -0.21222815 -0.07421545 -0.03969809 -0.002424183 -0.17230393 -0.127919 -0.15727946
0.14838581 -0.15612888 -0.041296802 -0.050532475 0.05782287 -0.0365672 0.29125264 -0.2806127
0.06830794 -0.13774219 -0.14831488 -0.05713312 -0.16886787 -0.070293486 0.28092548 0.119935855
-0.11182141 -0.03846335 -0.02304065 -0.016604327 -0.05567006 0.014749088 0.011773862 0.12439097
-0.21666801 -0.011177718 0.05453716 0.28619322 0.08703212 -0.08939058 -0.047263723 -0.05421533
-0.12321825 -0.06722008 0.14583568 -0.028299095
00000000: 8d4e a5bd 3fd1 893d b116 ac3e 432b fdbc
00000010: f313 fe3d 868f 89bd cc19 383e a41a bf3d
00000020: aaa7 423e 5200 b83e c9c5 233e 1e8b 343e
00000030: 368b 883b a432 bcbd b10d 57be 0824 a93e
00000040: b6a1 013e 6129 693e 1560 0bbe b86f 7e3e
00000050: d3c2 4d3d b626 47be ff85 b2bd 6d01 dcbd
00000060: 4d48 c13d 829f 053d 8718 c2bd 6db1 36be
00000070: 221d ba3d c224 8e3d ff46 1b3e 99c0 13bd
00000080: 5c0b 843e ab39 67be 1aaf bf3d 629d 82bd
00000090: ace8 9f3e ecc1 b43b 70bc 1a3e cb68 1bbe
000000a0: 8d04 8fbe 24c4 053d 7e57 8dbe af54 39be
000000b0: 999a a2bc cacf a63e 51c9 083e e9e4 ea3d
000000c0: f1e7 1d3d 1205 383e f2a9 a33d 74d4 743e
000000d0: 6e0b 0dbd 9e76 c53c 1c59 db3e db0e 5dbc
000000e0: c6bf d83e 2fe6 37bd 9abd 013e 0c29 20be
000000f0: 4fdf adbd 20e7 bb3e 5804 cfbd 1180 2e3d
00000100: fa65 ac3b 4bd5 b13d ba1d 033e 2be2 3c3e
00000110: 5c46 d13c 405b cebc af93 d8bd b72f 34be
00000120: 8ffe 0abe a4dc d33c 8324 f1bd bbe8 813e
00000130: 151f 393d de89 a5be 8d5d 2cbc 4797 e03d
00000140: 7208 8fbe 1edb 54bd f758 3abe d062 17bd
00000150: e43b 59be 78b2 9d3d b685 7ebe acfa 113e
00000160: cbb4 85be a423 933d a5c0 a2bd 9792 8a3e
00000170: bb0a a6bc 892e 9c3e 885f b33e c151 193e
00000180: 4e01 a3bb 5652 59be 45fe 97bd 779a 22bd
00000190: 0bdf 1ebb 7170 30be 33fd 02be de0d 21be
000001a0: 73f2 173e 40e0 1fbe d626 29bd 24fb 4ebd
000001b0: acd7 6c3d 7dc7 15bd 111f 953e 78ac 8fbe
000001c0: 09e5 8b3d 4a0c 0dbe dbdf 17be 6b04 6abd
000001d0: b3eb 2cbe 08f6 8fbd 77d5 8f3e eea0 f53d
000001e0: a002 e5bd bf8b 1dbd bfbf bcbc cc05 88bc
000001f0: 4a06 64bd 29a6 713c 28e7 403c b1c0 fe3d
00000200: 38de 5dbe bf22 37bc 5b62 5f3d eb87 923e
00000210: e53d b23d 6912 b7bd 9b97 41bd e510 5ebd
00000220: da59 fcbd aeaa 89bd f355 153e 81d3 e7bc

gconv1.0.output_gate_w.weight f4 [1, 140]
-0.13755515 -0.13372682 -0.12968975 -0.0680777 0.03394618 0.14163779 -0.048964538 -0.051152397
0.0066558523 -0.17418377 0.09579185 -0.046167687 0.03760228 0.1376405 -0.09920234 -0.094064064
0.1993489 -0.20570527 -0.01491051 0.067856774 0.061055176 0.33293033 0.4423944 -0.049202666
-0.113557376 -0.110784136 0.10451938 -0.13114911 -0.18581027 -0.039883632 -0.014810458 0.21646684
0.018074676 0.09569386 -0.226024 0.032769587 0.2163676 -0.043954495 -0.09064631 0.07356003
0.17441596 0.002039003 -0.11340915 -0.14262342 0.06047754 -0.14922911 0.13941637 -0.22433563
0.2630521 0.07510057 0.16272424 0.17424706 -0.07537291 0.11213006 0.0635338 -0.1500926
-0.043666035 0.42257386 -0.08706735 0.07476582 -0.08954182 0.09293531 0.3199152 0.091253676
-0.13331284 -0.2412221 -0.029846208 0.092629224 -0.15515165 -0.16883978 0.00080579804 0.028455604
0.0036955732 0.26730838 -0.23951791 0.04197619 0.13549985 0.04915434 0.14210068 -0.004986285
0.19584242 0.104229845 -0.037750997 0.036116734 0.057008453 0.012996362 0.0017557181 -0.11155532
-0.2095446 -0.09729483 -0.021111494 -0.38609302 0.0152350515 0.06762155 0.24892914 -0.11025626
-0.011765797 -0.0030977142 -0.18593413 -0.028748546 0.19547908 0.057205215 0.027941424 0.052945375
0.17912997 0.041747235 0.08040994 0.08480758 -0.014364881 0.105638556 -0.061332256 0.035512332
0.22601385 -0.09293746 -0.36773637 0.13444449 -0.19419429 0.23851743 0.060477756 0.0016499435
-0.41763994 -0.06802739 -0.059537627 -0.10273901 -0.0714372 0.3520934 0.054839328 0.043072976
0.024460012 -0.05489248 0.27050936 0.01311842 0.16773513 0.17045172 -0.047771014 -0.34641412
-0.0053108097 0.079955816 -0.0533435 -0.16972232
00000000: 42db 0cbe afef 08be 64cd 04be 526c 8bbd
00000010: 260b 0b3d 7f09 113e 0a8f 48bd 2d85 51bd
00000020: 5619 da3b 3b5d 32be 842e c43d 541a 3dbd
00000030: d904 1a3d a2f1 0c3e 992a cbbd a9a4 c0bd
00000040: 1e22 4c3e 67a4 52be 364b 74bc 7ef8 8a3d
00000050: fe14 7a3d d875 aa3e 8581 e23e bc88 49bd
00000060: c590 e8bd cbe2 e2bd 420e d63d f44b 06be
00000070: 0c45 3ebe 055d 23bd 90a7 72bc 7ca9 5d3e
00000080: 5811 943c 24fb c33d d672 67be 6739 063d
00000090: 788f 5d3e a109 34bd c6a4 b9bd a4a6 963d
000000a0: 199a 323e cba0 053b 0e43 e8bd e00b 12be
000000b0: 4cb7 773d 84cf 18be 2ac3 0e3e 3db8 65be
000000c0: c4ae 863e 54ce 993d 2fa1 263e d26d 323e
000000d0: 1d5d 9abd 72a4 e53d 021e 823d e0b1 19be
000000e0: 28db 32bd 9a5b d83e 5e50 b2bd d21e 993d
000000f0: b461 b7bd de54 be3d edcb a33e 35e3 ba3d
00000100: 2983 08be ed02 77be 0980 f4bc 64b4 bd3d
00000110: 13e0 1ebe 56e4 2cbe 313c 533a ba1b e93c
00000120: 6e31 723b a5dc 883e 2f44 75be 3aef 2b3d
00000130: 79c0 0a3e 1056 493d d782 113e fe63 a3bb
00000140: ea8a 483e 7576 d53d caa0 1abd 24ef 133d
00000150: b281 693d b1ee 543c 2020 e63a 1e77 e4bd
00000160: dc92 56be 8342 c7bd 03f2 acbc fcad c5be
00000170: 709c 793c 2b7d 8a3d 48e7 7e3e 09ce e1bd
00000180: 54c5 40bc 0503 4bbb 8465 3ebe 1282 ebbc
00000190: ab2b 483e 0450 6a3d 6ae5 e43c 40dd 583d
000001a0: d96d 373e 26ff 2a3d f7ad a43d 99af ad3d
000001b0: ae5a 6bbc 0759 d83d 8837 7bbd 6175 113d
000001c0: 2d70 673e ff55 bebd f147 bcbe d1ab 093e
000001d0: deda 46be ea3d 743e 86b7 773d eb42 d83a
000001e0: e7d4 d5be f251 8bbd badd 73bd d468 d2bd
000001f0: ab4d 92bd 9645 b43e 349f 603d 4a6d 303d
00000200: 5d60 c83c f0d6 60bd 3480 8a3e a4ee 563c
00000210: c2c2 2b3e e58a 2e3e 8aab 43bd 315d b1be
00000220: 4d06 aebb e0bf a33d b77e 5abd b0cb 2dbe

gconv1.1.A f4 [140, 140]
0.027816303 -0.020678064 -0.044909175 -0.10971845 0.078626096 -0.0393937 0.15033656 -0.0030376967
0.09713046 -0.020563187 -0.0013118545 0.03614174 -0.021587098 -0.03170724 0.23110019 0.0746718
0.07991103 0.09651746 -0.02425249 -0.04639302 -0.08734683 -0.20396045 -0.083047576 -0.010166289
0.09867884 -0.077741854 0.19258186 -0.08643373 -0.2901489 0.076970465 0.028777063 -0.0042598867
-0.12532018 0.11234328 0.18807374 -0.15162303 0.058371607 -0.09422721 -0.09241962 0.08442695
-0.053779595 0.09062104 0.06897228 0.044803757 -0.1175566 0.04945778 -0.031279586 0.020651346
-0.15604934 0.03391386 -0.06895595 0.09970897 0.13417925 0.07722143 0.25522345 -0.022417102
0.014601291 0.085937046 0.10078191 -0.027369378 0.096162185 -0.074480236 0.19432771 0.030265069
0.10168406 -0.110153124 -0.22494109 -0.06587721 0.10649545 -0.0471937 -0.034788262 0.057358935
0.10123512 -0.07571275 0.02451652 0.088423364 -0.026162181 0.07072562 0.043710135 -0.080948554
0.0016947254 0.07936043 -0.048885286 -0.112453915 -0.02012962 -0.039168827 0.13940734 0.00686738
0.07993761 -0.17916988 0.053472117 -0.11037994 -0.075486206 0.19071509 0.20403837 -0.0029181808
-0.06564102 -0.02821887 -0.043602854 0.014350591 0.015042276 -0.07826055 0.013902842 0.104423866
0.14507055 -0.045495063 0.1890786 0.05284098 -0.13452303 -0.08974787 0.0067228726 0.1767714
0.060832746 0.1841489 -0.10220339 -0.0730684 -0.12069057 0.060823146 0.060268845 0.117564216
-0.04179046 0.04556458 0.0489887 -0.007304151 -0.0024768875 -0.006126325 -0.012887489 0.19455552
0.0487779 0.033592246 0.03852482 -0.08495248 0.10281441 0.026788216 0.10602844 0.016339717
0.033224184 -0.12219748 0.11217985 0.018141638 -0.13916905 -0.0124675585 0.008667649 0.16812025
0.018424977 -0.11556815 0.1903899 -0.02957979 -0.07015423 -0.05425758 0.019022653 0.11618426
0.13459021 -0.020090416 -0.052915502 -0.004896287 0.0349524 0.039591353 -0.032946162 0.11442887
0.031354293 -0.035621095 -0.113164596 -0.17187819 0.067529656 0.09257361 0.06173956 -0.038864706
0.031930294 -0.18923265 -0.13318591 0.097672336 0.06394231 0.009012697 0.05933125 0.12693042
-0.042864207 -0.043918453 0.036166973 0.09638632 -0.11351842 -0.09808289 0.02210162 0.02033089
-0.032912735 0.17321916 -0.034041066 -0.039750446 0.102276914 -0.021502353 -0.060193345 0.112274185
0.13880716 -0.08984894 -0.08573033 0.06042412 0.009845205 0.18108615 -0.03511618 -0.085731596
-0.019598758 -0.054412268 -0.11142581 -0.09968705 -0.0352196 0.048555076 0.005228001 0.024025168
-0.1718628 -0.05262508 0.17147164 0.07603703 -0.016437868 0.12281669 -0.051742777 0.08031319
-0.14877576 0.001776549 -0.084139206 -0.042558666 -0.074868575 0.06255993 0.03422057 0.008364263
0.052755583 -0.13917504 0.079032555 0.16970584 0.05273201 -0.09328239 -0.05928453 0.050267696
0.10558297 -0.06005416 0.14075436 -0.08841431 -0.15110597 -0.0041451496 0.03850337 -0.12147219
-0.09549768 0.11390314 -0.06752452 -0.14078343 -0.0121448515 0.054546434 0.10509944 0.08651107
-0.029873796 0.10967915 0.04620669 -0.017433476 -0.024076058 -0.021239078 0.07455389 -0.16316734
00000000: 04df e33c 0b65 a9bc aff2 37bd 11b4 e0bd
00000010: b806 a13d 4a5b 21bd d4f1 193e 1814 47bb
00000020: 56ec c63d 2174 a8bc 88f2 abba 5c09 143d
00000030: 6dd7 b0bc 73df 01bd 87a5 6c3e 87ed 983d
00000040: 65a8 a33d f2aa c53d 28ad c6bc 9b06 3ebd
00000050: e5e2 b2bd 02db 50be d914 aabd 8290 26bc
00000060: 2218 ca3d 1f37 9fbd 2e34 453e 2b04 b1bd
00000070: 668e 94be b1a2 9d3d e0bd eb3c 8596 8bbb
00000080: ef53 00be 3c14 e63d 6796 403e 1143 1bbe
00000090: 1117 6f3d 32fa c0bd 7f46 bdbd 09e8 ac3d
000000a0: fe47 5cbd 8697 b93d 5741 8d3d 2584 373d
000000b0: 84c1 f0bd 3e94 4a3d 061f 00bd 032d a93c
000000c0: 66cb 1fbe 42e9 0a3d c738 8dbd 3734 cc3d
000000d0: 4966 093e 4526 9e3d a6ac 823e 12a4 b7bc
000000e0: 413a 6f3c c3ff af3d bf66 ce3d bf35 e0bc
000000f0: aef0 c43d 1889 98bd d8fd 463e 73ee f73c
00000100: bc3f d03d f697 e1bd f556 66be a1ea 86bd
00000110: 491a da3d 2e4e 41bd 237e 0ebd 34f1 6a3d
00000120: 5c54 cf3d 490f 9bbd ded6 c83c 4f17 b53d
00000130: 1252 d6bc 98d8 903d 6609 333d 5bc8 a5bd
00000140: 8c21 de3a b987 a23d f03b 48bd 3d4e e6bd
00000150: dfe6 a4bc 7e6f 20bd ccc0 0e3e c207 e13b
00000160: 54b6 a33d 4f78 37be 9405 5b3d e10e e2bd
00000170: 8398 9abd d14a 433e 6fef 503e f33e 3fbb
00000180: cd6e 86bd 422b e7bc e898 32bd be1e 6b3c
00000190: e173 763c 1147 a0bd bfc8 633c 2edc d53d
000001a0: 608d 143e 0859 3abd d29d 413e c96f 583d
000001b0: 68c0 09be bbcd b7bd 8b4b dc3b 9003 353e
000001c0: c22b 793d 8791 3c3e 0350 d1bd e3a4 95bd
000001d0: 9e2c f7bd b121 793d 77dc 763d 82c5 f03d
000001e0: 792c 2bbd eda1 3a3d 60a8 483d a957 efbb
000001f0: 4753 22bb 57bf c8bb 0c26 53bc 9039 473e
00000200: 56cb 473d 0698 093d 34cc 1d3d 91fb adbd
00000210: 5d90 d23d f672 db3c 7025 d93d dfda 853c
00000220: 1516 083d ac42 fabd 8dbe e53d c69d 943c
00000230: 5582 0ebe bb44 4cbc c102 0e3c b727 2c3e
00000240: faef 963c ffae ecbd 92f5 423e 5151 f2bc
00000250: 05ad 8fbd 323d 5ebd 65d5 9b3c 03f2 ed3d
00000260: 04d2 093e a894 a4bc edbd 58bd 0871 a0bb
00000270: 3f2a 0f3d 8b2a 223d 8ef2 06bd af59 ea3d
00000280: 5c6d 003d 6de7 11bd d7c2 e7bd d600 30be
00000290: fd4c 8a3d 3c97 bd3d 9fe2 7c3d 9930 1fbd
000002a0: 57c9 023d 34c6 41be e361 08be 6f08 c83d
000002b0: 30f4 823d fea9 133c 5305 733d 0cfa 013e
000002c0: 6192 2fbd d6e3 33bd d223 143d 3166 c53d
000002d0: 587c e8bd afdf c8bd 750e b53c f78c a63c
000002e0: 81cf 06bd 5d60 313e a56e 0bbd 5dd1 22bd
000002f0: 8f76 d13d b425 b0bc 4c8d 76bd 02f0 e53d
00000300: 7723 0e3e b902 b8bd 6293 afbd 487f 773d
00000310: c84d 213c a66e 393e fcd5 0fbd 0c94 afbd
00000320: 938d a0bc 66df 5ebd 3733 e4bd b928 ccbd
00000330: 6d42 10bd b0e1 463d a74f ab3b 6ed0 c43c
00000340: cdfc 2fbe 658d 57bd 4396 2f3e 4db9 9b3d
00000350: b5a8 86bc 5187 fb3d 3cf0 53bd 3e7b a43d
00000360: ac58 18be 18db e83a 2d51 acbd ff51 2ebd
00000370: b254 99bd 6c1f 803d de2a 0c3d 430a 093c
00000380: 3d16 583d e783 0ebe d2db a13d 5ec7 2d3e
00000390: 85fd 573d d60a bfbd 56d4 72bd 80e5 4d3d
000003a0: e23b d83d 5afb 75bd e921 103e 9012 b5bd
000003b0: 86bb 1abe 09d4 87bb b6b5 1d3d 69c6 f8bd
000003c0: 4a94 c3bd 0d46 e93d 4c4a 8abd 8829 10be
000003d0: 33fb 46bc 156c 5f3d 603e d73d b72c b13d
000003e0: e4b9 f4bc 769f e03d 3a43 3d3d a6d0 8ebc
000003f0: 273b c5bc 93fd adbc b6af 983d 5715 27be

gconv1.1.W.weight f4 [140, 140]
0.09380948 -0.08460976 0.116775535 -0.065279864 0.068353824 0.09048829 -0.057308022 -0.13984807
0.08526682 0.020313704 -0.0236121 -0.11695482 0.01804096 -0.011433519 0.18641314 0.06510212
-0.075467624 0.12322101 0.021671081 -0.024026064 -0.10930548 -0.06467518 0.076676875 -0.087915316
0.14874461 -0.03983087 -0.024803977 0.115208596 -0.05643235 -0.075802416 0.037824623 -0.024336087
-0.0961295 -0.037912723 0.0797523 0.02415937 -0.066661686 0.18678395 -0.029302012 -0.028364632
0.071544655 -0.035727907 -0.07991244 0.035504736 0.038375583 0.07471623 0.008427068 0.053545654
-0.041712135 -0.07859954 -0.00055986876 0.08421941 0.077373534 -0.08816381 0.088755876 0.060918953
-0.012416796 0.102105595 0.10796894 -0.1283957 -0.01916099 0.07776852 -0.02090822 -0.10098469
-0.06257055 0.17073096 0.093606085 0.20184971 0.050345846 0.024357274 -0.09327142 0.07827164
-0.027808135 -0.03760706 -0.015680892 -0.06852317 -4.0018804e-05 0.116589576 -0.116155945 0.06580697
-0.015298321 -0.046219457 0.026418705 0.13064724 -0.14673781 0.18733886 -0.043535028 -0.034370255
0.1388055 -0.04167815 -0.09411341 0.09589804 -0.104512274 -0.10062189 -0.16148248 0.14047304
-0.118256 -0.025914885 0.15791358 0.09338721 -0.030380376 0.0673743 0.00838911 -0.019063972
0.03705822 0.051987104 0.13078545 -0.12802316 0.061708923 0.09358012 0.002291022 -0.14108545
-0.08977042 0.19237001 -0.048675872 -0.106071584 0.1284591 0.12518185 0.055471487 0.11203728
0.020298628 0.1238388 -0.0038065868 0.007279521 0.20494877 0.18686791 -0.036463067 0.14318275
-0.19440357 0.025664434 -0.06950097 0.05810597 -0.014445586 0.0071421587 -0.11116956 0.11003535
-0.03073284 0.14010084 0.058629233 0.052230705 0.06561997 -0.11165768 -0.13267592 -0.010231916
-0.039688043 -0.08806607 0.031646788 0.09465083 -0.045382906 0.13164131 0.09001122 0.12549593
-0.19190165 -0.20306565 -0.09680047 0.07158095 0.110887155 -0.040638868 -0.16962907 -0.00828584
0.03775037 0.08877438 0.08708321 -0.005051513 -0.0614051 0.11054419 -0.102789745 -0.058908626
-0.024707194 0.11414028 0.043230522 -0.03005219 0.12809841 -0.072398305 -0.08963908 -0.08124957
-0.00253284 0.10053248 -0.16526292 -0.0013617006 0.025483703 -0.015412369 -0.11685775 -0.036505427
-0.12858965 -0.043249603 -0.19288465 -0.037786383 0.0105996085 -0.0963745 -0.122187816 -0.14926092
0.22335266 -0.011353643 0.030368892 -0.051450625 -0.1625468 0.08733521 -0.0116347065 0.025719183
0.063627854 -0.21523134 0.037376728 0.026274912 0.009888191 0.059857722 -0.06317851 0.018159207
0.04336938 0.03026873 -0.056809206 -0.077396266 -0.04460388 -0.09118215 0.0955401 -0.13100356
0.02717237 0.11619374 -0.112065606 -0.030641535 -0.107175425 0.088348284 0.08514165 -0.0037366762
0.07538104 -0.07312385 -0.053750724 0.12879112 -0.03497309 -0.16143055 -0.090402186 0.08189085
0.06842405 -0.06483705 0.063491195 -0.096570656 -0.020239267 -0.061821602 0.07436975 -0.043531593
0.020164443 -0.1370847 0.02016079 -0.09229757 0.14615013 -0.14764239 0.016348276 0.01663232
0.090803035 -0.0053735524 0.07338158 -0.079676665 0.14697209 0.16668305 -0.03154085 0.09002229
00000000: 2f1f c03d e247 adbd 0328 ef3d 73b1 85bd
00000010: 17fd 8b3d ed51 b93d d1bb 6abd 5534 0fbe
00000020: 5fa0 ae3d ed68 a63c 2a6e c1bc 0286 efbd
00000030: a3ca 933c a853 3bbc 16e3 3e3e 4354 853d
00000040: c58e 9abd 4c5b fc3d 8d87 b13c 4fd2 c4bc
00000050: 8ddb dfbd 6c74 84bd c408 9d3d f20c b4bd
00000060: 8250 183e b225 23bd b631 cbbc 7cf2 eb3d
00000070: 9c25 67bd 4c3e 9bbd feed 1a3d 795c c7bc
00000080: 8bdf c4bd 5f4a 1bbd 2d55 a33d dfe9 c53c
00000090: ec85 88bd 4b44 3f3e c60a f0bc f25c e8bc
000000a0: 0186 923d 6d57 12bd 22a9 a3bd 6a6d 113d
000000b0: b72f 1d3d d304 993d af11 0a3c b052 5b3d
000000c0: 58da 2abd ccf8 a0bd 28c4 12ba 3a7b ac3d
000000d0: 0476 9e3d 3a8f b4bd a4c5 b53d 2786 793d
000000e0: d16f 4bbc bd1c d13d d21e dd3d 2a7a 03be
000000f0: 82f7 9cbc 1a45 9f3d b747 abbc 10d1 cebd
00000100: fd24 80bd 19d4 2e3e 8cb4 bf3d b1b1 4e3e
00000110: 7237 4e3d e888 c73c 1605 bfbd e24c a03d
00000120: e3cd e3bc dc09 1abd 3775 80bc e055 8cbd
00000130: ddd9 27b8 84c6 ee3d 2be3 edbd cec5 863d
00000140: cfa5 7abc 9d50 3dbd 0a6c d83c 64c8 053e
00000150: 7042 16be c2d5 3f3e c951 32bd d3c7 0cbd
00000160: 0723 0e3e b5b6 2abd 88be c0bd 3166 c43d
00000170: 880a d6bd d912 cebd aa5b 25be 2ad8 0f3e
00000180: 3430 f2bd 744b d4bc 19b4 213e cb41 bf3d
00000190: 44e0 f8bc 89fb 893d 7a72 093c 0c2c 9cbc
000001a0: 5cca 173d 6ef0 543d 9fec 053e 8118 03be
000001b0: 7fc2 7c3d efa6 bf3d f924 163b b478 10be
000001c0: 8ed9 b7bd a5fc 443e 5a60 47bd 0f3c d9bd
000001d0: c88a 033e ac2f 003e 1236 633d cd73 e53d
000001e0: 4f49 a63c 329f fd3d ee77 79bb 0c89 ee3b
000001f0: 17de 513e 4d5a 3f3e 4c5a 15bd 809e 123e
00000200: bb11 47be 383e d23c 8656 8ebd 8700 6e3d
00000210: 2ead 6cbc c508 ea3b deac e3bd 375a e13d
00000220: 70c3 fbbc 9876 0f3e 3525 703d ddef 553d
00000230: c363 863d c8ac e4bd 32dc 07be c4a3 27bc
00000240: ee8f 22bd fc5b b4bd 10a0 013d 4bd8 c13d
00000250: 6de3 39bd fbcc 063e cd57 b83d 0182 003e
00000260: de81 44be 71f0 4fbe 533f c6bd 0899 923d
00000270: ce18 e33d f174 26bd 3eb3 2dbe 55c1 07bc
00000280: 22a0 1a3d 58cf b53d af58 b23d 2a87 a5bb
00000290: ea83 7bbd fe64 e23d 6e83 d2bd 2c4a 71bd
000002a0: be66 cabc 61c2 e93d 7d12 313d 0330 f6bc
000002b0: 3b2c 033e 9045 94bd b294 b7bd 2d66 a6bd
000002c0: 01fe 25bb f9e3 cd3d af3a 29be 177b b2ba
000002d0: 33c3 d03c 2984 7cbc 1e53 efbd b786 15bd
000002e0: 01ad 03be 7f26 31bd 8e83 45be e5c5 1abd
000002f0: fba9 2d3c fe5f c5bd 9b3d fabd dbd7 18be
00000300: 8fb6 643e a104 3abc 2fc8 f83c e4bd 52bd
00000310: ab72 26be cddc b23d 7f9f 3ebc 09b1 d23c
00000320: 524f 823d 9b65 5cbe 5718 193d 7c3e d73c
00000330: 1402 223c 5f2d 753d bc63 81bd 9ec2 943c
00000340: 17a4 313d 21f6 f73c c5b0 68bd ef81 9ebd
00000350: 8fb2 36bd b5bd babd 87aa c33d cc25 06be
00000360: 9798 de3c fcf6 ed3d a782 e5bd f503 fbbc
00000370: ca7e dbbd f2ef b43d bf5e ae3d 06e3 74bb
00000380: 6061 9a3d f5c1 95bd b829 5cbd d2e1 033e
00000390: f13f 0fbd 0d4e 25be c824 b9bd 64b6 a73d
000003a0: e921 8c3d 4ac9 84bd ac07 823d d6c6 c5bd
000003b0: d2cc a5bc a638 7dbd 2b4f 983d 2f4e 32bd
000003c0: e72f a53c ee5f 0cbe 3e28 a53c 8206 bdbd
000003d0: 61a8 153e 912f 17be d2ec 853c 8140 883c
000003e0: f1f6 b93d a014 b0bb 1549 963d 852d a3bd
000003f0: da7f 163e f6ae 2a3e fa30 01bd 9b5d b83d
