save/best_origin_opt2_0.873.pt (torch, 951112 bytes, 24 tensors)

gconv1.0.A f4 [140, 140]
-0.05063762 -0.12448763 -0.059555154 -0.030351475 -0.05699195 0.031855598 0.11272286 -0.042731162
0.048030306 0.049169783 0.07161578 0.07271965 -0.0030240803 0.014009884 0.054192893 0.04674851
-0.0143188285 0.033814605 0.022172349 0.041338682 -0.09289121 -0.11707796 -0.056093406 -0.08199732
-0.09664295 0.032266594 -0.023646379 0.08861216 -0.092099115 0.1172381 0.047042593 -0.067941226
0.101625875 -0.0032554346 0.032241248 0.05717141 -0.019107956 -0.035303216 0.0025981339 0.0743234
-0.04697956 0.042003196 0.031872425 -0.11498226 0.02491937 -0.05368218 -0.001123202 0.07368193
-0.1702068 -0.07497691 -0.029848274 0.004352451 0.10148201 -0.04478918 -0.059387717 -0.034809638
-0.0057005393 -0.0850146 0.14654323 -0.08302132 -0.106168166 0.0849327 -0.08559551 -0.028808307
0.11873419 -0.028331874 0.062289234 -0.003987943 0.049433433 -0.09933066 -0.114809655 0.17520297
0.08395942 -0.12579349 -0.06899758 0.03735625 0.0039171535 -0.01743089 -0.017427934 -0.051877636
-0.025958871 0.0101521155 0.054859154 -0.03599494 -0.03113886 -0.083779894 -0.15597798 0.054054216
-0.06384955 -0.15979768 -0.054754365 -0.102399655 0.04841696 0.14282851 0.1027068 0.050951224
-0.10393664 0.112786345 0.057844557 0.06303462 -0.019060364 -0.1333571 0.045171544 -0.025747605
-0.054033566 -0.12163936 0.10924882 0.016443575 -0.118397005 0.047614735 -0.044097394 -0.05249184
-0.06847779 -0.10391002 -0.10319581 -0.04899458 0.060899444 -0.19848996 0.12131149 0.024373313
0.14576383 0.021379596 0.109382346 -0.07632884 0.002122022 -0.07155496 -0.075092286 -0.07459657
0.048691377 -0.023393009 0.03139791 0.028535295 0.042366084 0.0702701 0.059891924 -0.02299841
-0.02397104 -0.10600761 -0.15906882 -0.059712783 -0.015031319 0.13810559 -0.07283233 -0.07547721
0.15134175 0.049545124 0.099487744 -0.10729629 -0.053676497 -0.07971619 -0.005824099 0.01697429
0.037795287 0.023064334 -0.03931312 0.03393063 0.077798106 -0.14773476 -0.17137004 0.10113164
-0.05658383 -0.02191132 0.011247083 0.14363705 0.0049494742 -0.02910605 0.06318702 0.025838844
-0.020903151 0.07468735 0.05370733 -0.00851497 0.03812392 -0.09621199 -0.1709793 0.012555084
-0.01709435 0.014099455 -0.006103303 -0.15651067 0.050933678 -0.009104597 -0.06489388 -0.002921721
0.13539615 -0.009963034 -0.10344605 -0.0069892923 -0.11801797 -0.025515065 0.12499779 -0.09528239
0.005517654 0.014944504 0.04724311 0.17557254 0.08242517 -0.2998046 -0.05721008 0.0040965253
-0.1102524 0.098814696 -0.093774274 -0.0063072126 -0.17854275 -0.013532173 0.0022631083 0.0014257174
-0.05561019 0.11422181 -0.16707483 -0.09397096 -0.10322019 0.02411299 0.09533231 0.14408182
-0.11628583 -0.087628335 0.07627362 0.19557068 -0.05361739 0.021939496 -0.038737062 -0.16578588
0.10172229 0.052409913 0.17717217 -0.0354973 -0.21880808 0.26598337 -0.0592599 -0.049784727
-0.025745677 -0.035977334 0.19500723 0.084473215 -0.102625415 0.046892334 0.04895891 -0.1440125
0.01151939 -0.14834408 0.06613911 0.16224365 -0.06277846 0.037631683 -0.026373984 0.11689641
-0.038733974 -0.054671217 0.030033268 -0.1353914 0.021780033 -0.006531085 0.14454982 -0.10946258
00000000: 6569 4fbd 5ff3 febd 1bf0 73bd a8a3 f8bc
00000010: 6470 69bd 047b 023d 3edb e63d df06 2fbd
00000020: 6dbb 443d 4166 493d 4bab 923d 0aee 943d
00000030: a62f 46bb b689 653c 5ef9 5d3d 5e7b 3f3d
00000040: 8599 6abc 2f81 0a3d c9a2 b53c c052 293d
00000050: bf3d bebd 92c6 efbd 33c2 65bd 36ee a7bd
00000060: bdec c5bd fa29 043d 0db6 c1bc 4b7a b53d
00000070: 769e bcbd 871a f03d bcaf 403d c524 8bbd
00000080: 3a21 d03d 2159 55bb 660f 043d 922c 6a3d
00000090: 4a88 9cbc 1b9a 10bd 7445 2a3b de36 983d
000000a0: a46d 40bd 8b0b 2c3d a98c 023d d27b ebbd
000000b0: b523 cc3c d8e1 5bbd 6838 93ba 8de6 963d
000000c0: b14a 2ebe 7f8d 99bd 5e84 f4bc 019f 8e3b
000000d0: cdd5 cf3d dc74 37bd 8940 73bd 8d94 0ebd
000000e0: 97cb babb 221c aebd 6e0f 163e 1507 aabd
000000f0: b26e d9bd 32f1 ad3d b34c afbd 66ff ebbc
00000100: e92a f33d 3f18 e8bc ff22 7f3d 4aad 82bb
00000110: b67a 4a3d e06d cbbd 5321 ebbd 6868 333e
00000120: ebf2 ab3d 02d0 00be 9a4e 8dbd de02 193d
00000130: 775b 803b 3acb 8ebc 07c5 8ebc a57d 54bd
00000140: b3a7 d4bc 0f55 263c feb3 603d 6e6f 13bd
00000150: ec16 ffbc cb94 abbd b1b8 1fbe f467 5d3d
00000160: 8ec3 82bd 01a2 23be 1d46 60bd e9b6 d1bd
00000170: dd50 463d a341 123e f157 d23d 3bb2 503d
00000180: bcdc d4bd 87fc e63d 6aee 6c3d 4b18 813d
00000190: 7b24 9cbc c38e 08be cc05 393d a4ec d2bc
000001a0: 4d52 5dbd 0f1e f9bd d8bd df3d adb4 863c
000001b0: 217a f2bd ab07 433d 789f 34bd af01 57bd
000001c0: 153e 8cbd c7ce d4bd 5358 d3bd 8aae 48bd
000001d0: b271 793d f440 4bbe 2972 f83d 8baa c73c
000001e0: 1d43 153e 4324 af3c da03 e03d 4b52 9cbd
000001f0: 9f11 0b3b 688b 92bd fcc9 99bd 16c6 98bd
00000200: 9c70 473d b2a2 bfbc 189b 003d dac2 e93c
00000210: 0f88 2d3d c5e9 8f3d 3c51 753d 2967 bcbc
00000220: ea5e c4bc 851a d9bd f0e2 22be 6495 74bd
00000230: ec45 76bc 8d6b 0d3e 1e29 95bd cc93 9abd
00000240: 55f9 1a3e d4ef 4a3d 3bc0 cb3d 28be dbbd
00000250: e3db 5bbd 3e42 a3bd 15d8 bebb ab0d 8b3c
00000260: 3bcf 1a3d 6af1 bc3c cb06 21bd d8fa 0a3d
00000270: 9d54 9f3d c847 17be a17b 2fbe 1b1e cf3d
00000280: 72c4 67bd 5e7f b3bc af45 383c 9715 133e
00000290: 332f a23b d06f eebc 3268 813d fcab d33c
000002a0: 163d abbc aef5 983d 38fc 5b3d 5f82 0bbc
000002b0: d427 1c3d cb0a c5bd 3315 2fbe d7b3 4d3c
000002c0: 7309 8cbc 6701 673c 37fe c7bb 5544 20be
000002d0: d59f 503d 732b 15bc 15e7 84bd 587a 3fbb
000002e0: 4aa5 0a3e fe3b 23bc 86db d3bd 6f06 e5bb
000002f0: 68b3 f1bd f804 d1bc d7fe ff3d 6a23 c3bd
00000300: 70cd b43b cbd9 743c fe81 413d 4ac9 333e
00000310: 87ce a83d fd7f 99be 1e55 6abd 253c 863b
00000320: 03cc e1bd 5c5f ca3d ba0c c0bd bcac cebb
00000330: e9d3 36be 0cb6 5dbc a850 143b 23df ba3a
00000340: 83c7 63bd 20ed e93d aa15 2bbe d973 c0bd
00000350: 1b65 d3bd 9b88 c53c 963d c33d 2f8a 133e
00000360: 4427 eebd 7c76 b3bd 5835 9c3d ae43 483e
00000370: e99d 5bbd 75ba b33c c1aa 1ebd c6c3 29be
00000380: c753 d03d c7ab 563d 9f6c 353e 9e65 11bd
00000390: 3a0f 60be f92e 883e 82ba 72bd 12eb 4bbd
000003a0: 99e8 d2bc f85c 13bd faaf 473e 4b00 ad3d
000003b0: 462d d2bd 2d12 403d 2389 483d 0378 13be
000003c0: d3bb 3c3c 83e7 17be f173 873d 3323 263e
000003d0: fe91 80bd ae23 1a3d 410e d8bc 6367 ef3d
000003e0: 84a7 1ebd edee 5fbd 5408 f63c 0ba4 0abe
000003f0: 0a6c b23c b602 d6bb de04 143e eb2d e0bd

gconv1.0.W.weight f4 [140, 140]
-0.04813558 -0.030188166 0.030355463 0.008956638 -0.07103588 0.07668419 -0.06713638 -0.026030231
-0.056915704 0.060782142 -0.042056814 -0.07486924 -0.21571356 -0.002400311 0.0454649 -0.03877236
-0.017606484 0.07412192 0.084921725 -0.09829354 0.28551644 -0.17795563 0.18157718 0.06706015
-0.091427065 -0.023074785 0.02973463 -0.02929851 -0.017379686 0.020006293 0.0032930127 -0.13495712
0.021442661 0.058002345 -0.029321073 -0.09211589 0.006626981 0.0015075429 -0.1380073 -0.0073065646
0.07838961 0.038880926 -0.0013420488 -0.05740192 -0.0106817605 0.049039792 -0.02788721 -0.015665555
-0.09632909 0.20041038 0.15460262 0.024518365 0.09314241 0.052094404 0.059190903 -0.04149809
0.08077494 -0.034344338 -0.08789395 0.072361015 0.10411248 0.070044264 0.033244066 -0.08109491
0.02443186 0.17944752 0.037842404 -0.1060195 -0.024641557 -0.15974778 0.10461866 0.15615967
-0.012504527 -0.27005684 -0.026285663 0.066229664 -0.058120526 -0.038614374 -0.04842341 -0.13117263
0.055952694 -0.104175836 0.030896397 -0.14193352 -0.08701105 -0.016220141 0.06697691 0.09164569
-0.1040306 -0.04909232 0.028494487 0.10324808 0.11626818 -0.08991836 -0.042592835 -0.09175866
-0.033092815 0.04401636 0.059421487 -0.041618537 0.11523925 -0.13485384 -0.08156174 -0.06582596
-0.039578803 0.083144 0.11576666 -0.031303767 0.11627777 0.07358392 -0.06463361 0.023127973
0.028560689 -0.16331165 -0.022830592 -0.08167724 -0.049543507 0.18162371 0.14411506 -0.11337468
0.062213022 -0.07663905 0.024203628 0.035580263 -0.013501092 -0.09565462 0.14966024 0.054277934
-0.07283977 0.12497187 -0.042033657 0.124569505 -0.05330067 -0.020036655 -0.06367734 -0.14647652
-0.07419844 -0.077970624 0.12171679 0.02097444 -0.074012585 0.0883528 -0.028692028 0.06651078
0.030334573 0.07107958 0.13863571 -0.17760906 -0.15928143 -0.1884035 0.06181123 -0.001072012
-0.039516788 0.11692901 0.08956875 -0.18835793 0.012047571 0.08795945 0.18256457 -0.012401941
-0.054736875 0.0033048834 0.053361755 0.04470103 -0.00023363688 -0.092443466 -0.019216333 -0.0019821632
-0.039085418 -0.15908636 0.08791925 -0.06676798 -0.042072047 0.03462593 0.033383917 0.03530734
0.0818445 0.06925735 0.17492813 0.03579496 -0.05986227 0.02521187 0.04471239 0.008801316
-0.0028185407 -0.10611529 -0.21000746 -0.044707347 -0.07321756 -0.026031626 0.024040183 -0.089055315
0.04560513 -0.01429068 -0.10125376 -0.12167405 -0.089171246 0.172127 -0.059257206 -0.1457153
0.09300203 -0.02795954 0.024700183 0.054697044 -0.0798571 0.02639397 -0.049952086 -0.00786449
-0.07660741 -0.03536183 0.11375608 -0.059315883 0.01041132 0.02734005 0.11326703 -0.0025323667
-0.021758357 -0.085062616 -0.012190658 0.12810142 0.013197531 -0.032431923 -0.04712634 -0.049862336
0.03535924 0.10156173 0.05412715 -0.20040879 -0.15094322 0.01770338 0.02475526 -0.019419916
-0.002872706 0.13341072 0.13021731 0.064203404 -0.012792932 0.06230946 -0.08119452 -0.032811824
0.1140243 0.06754983 -0.15327205 -0.05122598 -0.048182275 0.002240807 0.050942175 -0.03582221
0.09690293 0.16436519 0.015316474 0.04059565 0.075894214 0.038256515 -0.046768926 0.01356904
00000000: d029 45bd 2c4d f7bc 05ac f83c ddbe 123c
00000010: 427b 91bd 9a0c 9d3d cc7e 89bd 5a3d d5bc
00000020: 7120 69bd b2f6 783d c443 2cbd 0b55 99bd
00000030: 04e4 5cbe 894e 1dbb 6739 3a3d c4cf 1ebd
00000040: 793b 90bc 3ccd 973d 71eb ad3d 204e c9bd
00000050: 362f 923e 003a 36be 5eef 393e d556 893d
00000060: 1d3e bbbd 5507 bdbc 0a96 f33c 6e03 f0bc
00000070: d85f 8ebc 3de4 a33c 96cf 573b 3332 0abe
00000080: 85a8 af3c de93 6d3d bf32 f0bc 41a7 bcbd
00000090: 2527 d93b bf98 c53a c951 0dbe e86b efbb
000000a0: bb8a a03d 9b41 1f3d afe7 afba 471e 6bbd
000000b0: 8d02 2fbc f3dd 483d b873 e4bc 0d55 80bc
000000c0: 3048 c5bd 6138 4d3e 2650 1e3e bdda c83c
000000d0: 73c1 be3d f160 553d 2972 723d e7f9 29bd
000000e0: 556d a53d a6ac 0cbd be01 b4bd 0332 943d
000000f0: ed38 d53d 5e73 8f3d ee2a 083d 1715 a6bd
00000100: 5325 c83c 17c1 373e a300 1b3d c020 d9bd
00000110: 17dd c9bc ec94 23be 4f42 d63d 52e8 1f3e
00000120: cadf 4cbc e444 8abe 0855 d7bc 6ba3 873d
00000130: ca0f 6ebd 1b2a 1ebd a057 46bd 1e52 06be
00000140: a72e 653d 245a d5bd 711a fd3c 0557 11be
00000150: d932 b2bd 1ae0 84bc 312b 893d bcb0 bb3d
00000160: ff0d d5bd 0715 49bd 456d e93c bb73 d33d
00000170: 031e ee3d 1e27 b8bd d375 2ebd f7eb bbbd
00000180: 558c 07bd 804a 343d f263 733d 3378 2abd
00000190: 8e02 ec3d 2017 0abe d709 a7bd c3cf 86bd
000001a0: 621d 22bd 6747 aa3d 1217 ed3d 6138 00bd
000001b0: 0a23 ee3d 2bb3 963d a05e 84bd e076 bd3c
000001c0: 1bf8 e93c 2b3b 27be 3907 bbbc 6646 a7bd
000001d0: 22ee 4abd 91fb 393e e692 133e fc30 e8bd
000001e0: 15d3 7e3d eff4 9cbd b046 c63c 9cbc 113d
000001f0: af33 5dbc 92e6 c3bd 8940 193e 8a52 5e3d
00000200: 042d 95bd 40f1 ff3d 7c2b 2cbd 4c1e ff3d
00000210: ce51 5abd e923 a4bc 4469 82bd f1fd 15be
00000220: 5af5 97bd 10af 9fbd a746 f93d 97d2 ab3c
00000230: e993 97bd 50f2 b43d 8b0b ebbc ce36 883d
00000240: 3680 f83c 2c92 913d 85f6 0d3e 26df 35be
00000250: ac1a 23be d9ec 40be c62d 7d3d c182 8cba
00000260: 5bdc 21bd 7a78 ef3d d26f b73d e7e0 40be
00000270: 2d63 453c 1624 b43d 35f2 3a3e 8331 4bbc
00000280: c633 60bd be96 583b db91 5a3d 6d18 373d
00000290: 6cfc 74b9 0053 bdbd 926b 9dbc 2ee7 01bb
000002a0: 0818 20bd 89e7 22be 020f b43d a7bd 88bd
000002b0: bd53 2cbd ebd3 0d3d 93bd 083d 6e9e 103d
000002c0: 179e a73d ccd6 8d3d 5c20 333e bc9d 123d
000002d0: 2432 75bd 2089 ce3c 5724 373d 6533 103c
000002e0: 44b7 38bb f952 d9bd 320c 57be 0d1f 37bd
000002f0: 17f3 95bd 4740 d5bc ebef c43c a262 b6bd
00000300: 72cc 3a3d 7523 6abc 225e cfbd 3f30 f9bd
00000310: 6a9f b6bd 0f42 303e afb7 72bd 6436 15be
00000320: d977 be3d 680b e5bc 0a58 ca3c 020a 603d
00000330: 1f8c a3bd 2b38 d83c 8f9a 4cbd 10da 00bc
00000340: 59e4 9cbd 91d7 10bd f3f8 e83d 36f5 72bd
00000350: 3e94 2a3c 3ef8 df3c 8bf8 e73d 10f6 25bb
00000360: 953e b2bc 4f35 aebd 53bb 47bc 052d 033e
00000370: 753a 583c 56d7 04bd 8d07 41bd 733c 4cbd
00000380: dad4 103d 99ff cf3d 6eb4 5d3d f637 4dbe
00000390: dc90 1abe ae06 913c 8bcb ca3c 8416 9fbc
000003a0: 0244 3cbb d29c 083e b057 053e 137d 833d
000003b0: 7299 51bc 3438 7f3d 5049 a6bd b165 06bd
000003c0: 9285 e93d 9157 8a3d 59f3 1cbe 55d2 51bd
000003d0: c75a 45bd 81da 123b bea8 503d 4fba 12bd
000003e0: 0b75 c63d 594f 283e f3f1 7a3c a047 263d
000003f0: 6d6e 9b3d ddb2 1c3d c690 3fbd ae50 5e3c

gconv1.0.W.bias f4 [140]
0.055265896 -0.06640644 0.05154509 0.09124536 0.034089115 0.00013148464 -0.09072566 -0.057010297
0.09780355 0.09523224 -0.073027655 0.043972164 0.057217248 0.013542841 -0.0341318 -0.080524564
-0.045935005 0.033491116 0.106324576 -0.07717064 0.07719307 -0.010935925 0.048166595 -0.05585712
0.0395567 0.012349802 -0.08602431 -0.00076213095 0.086058445 -0.013856288 -0.019145584 -0.10488555
0.074473165 -0.042371437 -0.026138486 0.010334335 0.055118367 0.027926339 -0.0828316 0.05444012
-0.028235395 0.0073539773 0.0847351 0.1202368 -0.049972873 -0.027617835 -0.09946374 -0.07723761
0.08045676 0.039629404 -0.06064867 -0.08691222 0.099493176 0.04883979 0.046686806 -0.056422174
-0.043853503 -0.06949406 -0.062569484 -0.049296647 0.055677474 -0.073325105 0.07135744 0.086457565
0.03545716 -0.017540278 -0.07353766 0.007926892 -0.0343874 -0.013543584 0.008552747 0.01046467
0.05011689 0.06299681 0.078596056 0.026740944 -0.062078 0.010271069 0.10013905 -0.11234662
0.03415197 -0.021137822 0.057629835 -0.045463104 -0.053551156 0.068552226 0.09629686 0.014924554
0.046147183 0.056900777 -0.01772513 0.053444248 -0.0010714901 -0.018277744 -0.02549844 -0.058482096
-0.05008768 -0.027448392 -0.07744718 -0.09112406 0.072395384 0.06545853 0.05820077 0.054701995
0.080109484 0.0645767 -0.03459752 0.095904924 0.019694671 -0.09361959 0.022807457 0.07138765
0.057360623 -0.11089822 -0.05896504 0.08199232 -0.10872798 0.079857394 0.017392915 -0.092470735
-0.06895536 -0.0949581 -0.023395685 0.04168427 6.3968444e-05 -0.03238732 -0.0040033436 -0.036905717
0.09662217 -0.0281894 -0.048835453 -0.034732413 -0.012923907 -0.10095071 -0.018436773 0.030974295
-0.045238547 0.018094078 0.092229456 0.011764792
00000000: 7e5e 623d 1a00 88bd f220 533d d9de ba3d
00000010: 07a1 0b3d 24df 0939 60ce b9bd a183 69bd
00000020: 3a4d c83d 1f09 c33d 868f 95bd 281c 343d
00000030: a25c 6a3d cbe2 5d3c c9cd 0bbd 10ea a4bd
00000040: 5826 3cbd fb2d 093d b3c0 d93d a40b 9ebd
00000050: 6617 9e3d 982c 33bc 564a 453d 6fca 64bd
00000060: 3506 223d d356 4a3c 832d b0bd bec9 47ba
00000070: 693f b03d 7c05 63bc 33d7 9cbc 3cce d6bd
00000080: 6385 983d ac8d 2dbd 6120 d6bc 5851 293c
00000090: ccc3 613d c7c5 e43c 9da3 a9bd 9afc 5e3d
000000a0: ea4d e7bc a2f9 f03b 9989 ad3d b63e f63d
000000b0: 5bb0 4cbd cc3e e2bc a5b3 cbbd c12e 9ebd
000000c0: 84c6 a43d 7152 223d bd6a 78bd 09ff b1bd
000000d0: 14c3 cb3d 3b0c 483d aa3a 3f3d f01a 67bd
000000e0: bb9f 33bd e752 8ebd 6e24 80bd 48eb 49bd
000000f0: 100e 643d 792b 96bd d923 923d aa10 b13d
00000100: 873b 113d a1b0 8fbc ea9a 96bd cbdf 013c
00000110: cdd9 0cbd e9e5 5dbc d220 0c3c 0274 2b3c
00000120: 5e47 4d3d 7904 813d f8f6 a03d d30f db3c
00000130: 8045 7ebd fc47 283c b415 cd3d fc15 e6bd
00000140: f0e2 0b3d 3a29 adbc 430d 6c3d 8537 3abd
00000150: 7558 5bbd 1c65 8c3d 4a37 c53d 1e86 743c
00000160: d404 3d3d ca10 693d 4b34 91bc 5be8 5a3d
00000170: 3e71 8cba 35bb 95bc 1be2 d0bc ec8a 6fbd
00000180: bd28 4dbd 73db e0bc a19c 9ebd 409f babd
00000190: 0844 943d 1f0f 863d ee63 6e3d 330f 603d
000001a0: 7110 a43d ca40 843d 21b6 0dbd cd69 c43d
000001b0: b856 a13c a1bb bfbd b4d6 ba3c b033 923d
000001c0: f9f2 6a3d 9b1e e3bd 5385 71bd 97eb a73d
000001d0: c6ac debd 468c a33d 967b 8e3c 4c61 bdbd
000001e0: 7838 8dbd 6479 c2bd 4fa8 bfbc 20bd 2a3d
000001f0: cc26 8638 91a8 04bd 7b2e 83bb 732a 17bd
00000200: d8e1 c53d 75ed e6bc af07 48bd 9343 0ebd
00000210: cbbe 53bc 3fbf cebd b708 97bc cebd fd3c
00000220: 0e4c 39bd 083a 943c cce2 bc3d 1dc1 403c

gconv1.0.gate.weight f4 [1, 280]
0.10092731 0.022964621 -0.018431928 0.055848323 0.15911157 -0.023822265 0.03086354 0.09776811
-0.05835029 0.10438931 -0.09772579 -0.06605213 -0.050311215 0.255852 -0.033673402 -0.077055395
0.0410993 0.098403394 -0.153444 -0.04407953 0.060422517 -0.078751795 -0.054210145 0.10575201
-0.03004887 -0.040081922 -0.10494362 0.09942086 0.03183795 0.08383321 0.07325781 -0.014781253
-0.049090616 -0.12536423 -0.024058688 0.020022234 0.040478636 0.1527554 -0.0660329 -0.14278501
0.023844253 0.06070091 -0.01994499 -0.24203043 0.26888236 0.02526405 -0.113056436 0.029731844
0.012205152 0.08915827 0.015519365 -0.07319803 -0.037324794 -0.14986055 -0.058878217 -0.08226283
-0.04981337 0.10489682 -0.0325525 -0.07438735 0.00449523 0.12500258 0.009896797 -0.067904
-0.10665709 0.030067569 -0.15094124 0.09323187 0.010218524 -0.051423322 0.13421166 -0.13166578
-0.077410266 0.0073379716 -0.020059057 -0.07221355 0.058980502 -0.15110944 -0.11192709 -0.21213174
-0.11605323 -0.005519926 -0.19606759 -0.11874211 0.07998231 0.052582346 0.009107527 -0.08380613
0.003746166 0.08112771 -0.12866901 -0.10889109 -0.014133043 0.24152297 0.048079927 -0.12406249
0.097381756 -0.033204146 -0.00433658 0.015571409 -0.051044077 -0.014249572 -0.020948 0.11522556
-0.1035826 -0.045025934 0.16399089 0.05759178 0.26683852 0.15754281 0.12101538 -0.0027265556
0.019553041 -0.01082092 -0.019390699 -0.036013506 -0.14816278 0.044269156 -0.057345353 0.02006025
0.0483563 -0.07526407 0.039481845 -0.055644743 0.08363345 0.0091995755 -0.13183366 0.16097894
-0.14062601 0.051844995 -0.055194337 -0.058614578 -0.12420092 -0.029085446 -0.13448735 0.029011842
0.042140745 0.054917026 0.010941676 0.0017062295 0.028495315 -0.06501656 0.034899306 -0.03318511
0.067740455 -0.189703 0.1348035 -0.11093066 -0.016782993 -0.0025362042 0.1566434 0.05965138
0.02696267 0.043043 -0.18391271 0.045800753 0.07221181 -0.16875236 -0.044703923 -0.1058076
0.010326818 0.11873841 -0.07513411 -0.18493126 0.030039493 0.12801588 -0.002781686 -0.117331214
-0.089073576 -0.113018356 0.029623406 -0.16205971 -0.24500422 -0.014529095 -0.19996299 -0.25472653
0.0728603 -0.20848703 0.08226417 0.07534171 -0.052645847 0.17332079 -0.075042024 0.15436742
0.033976417 -0.17934904 0.08509272 0.017512882 -0.2218748 -0.12520643 -0.17381532 0.14016336
-0.032099422 0.014631657 -0.08652587 0.03512992 -0.1780363 -0.17778404 -0.008530271 0.0011220541
0.17692901 -0.077263966 -0.16498348 0.05203323 -0.028101949 -0.10497995 0.036013436 -0.1306268
-0.016861748 0.07185665 0.0428584 0.034209453 -0.07152816 0.067693226 0.0652805 -0.10296549
0.08454195 0.13926148 -0.14559568 -0.10429982 -0.18451788 0.12329866 -0.050737746 0.18458526
0.078611016 0.04110056 -0.28153622 0.0074528963 0.09344234 -0.06453288 0.18456343 -0.045005806
0.01757602 0.106057614 -0.06439408 0.18999837 -0.020185243 0.031895794 -0.22613111 0.22004989
-0.11100534 -0.24090283 0.042457048 -0.12000423 -0.21870333 -0.090983085 0.10276867 0.0031059964
-0.027293572 -0.445553 0.023446806 0.10045155 -0.0044327066 0.083537295 0.026977519 -0.07796
00000000: fab2 ce3d 4d20 bc3c 8efe 96bc 36c1 643d
00000010: 25ee 223e e926 c3bc 89d5 fc3c a63a c83d
00000020: b700 6fbd 10ca d53d 7624 c8bd 5746 87bd
00000030: 2213 4ebd 09ff 823e 1fed 09bd 38cf 9dbd
00000040: bd57 283d b887 c93d 6d20 1dbe bd8c 34bd
00000050: 9a7d 773d 9f48 a1bd 750b 5ebd 8394 d83d
00000060: 0c29 f6bc f12c 24bd aeec d6bd 2a9d cb3d
00000070: 8368 023d bfb0 ab3d 3108 963d 122d 72bc
00000080: 3e13 49bd 7b5f 00be ba16 c5bc ab05 a43c
00000090: edcc 253d e96b 1c3e 423c 87bd 3c36 12be
000000a0: 0655 c33c 84a1 783d ad63 a3bc d3d6 77be
000000b0: f3aa 893e 8ef6 ce3c 228a e7bd 3290 f33c
000000c0: 1ef8 473c 9c98 b63d ef44 7e3c d9e8 95bd
000000d0: e2e1 18bd 0b75 19be 492a 71bd 6a79 a8bd
000000e0: 1b09 4cbd 25d4 d63d c555 05bd 6558 98bd
000000f0: b94c 933b ad00 003e 2d26 223c 4111 8bbd
00000100: 086f dabd 4350 f63c 5790 1abe 5af0 be3d
00000110: 996b 273c 43a1 52bd c86e 093e 65d3 06be
00000120: 4689 9ebd 5e73 f03b e452 a4bc b3e4 93bd
00000130: 8a95 713d 6fbc 1abe 083a e5bd 1039 59be
00000140: 51ad edbd 7fe0 b4bb f1c5 48be 102f f3bd
00000150: c4cd a33d 9660 573d bd37 153c 8ca2 abbd
00000160: 3c82 753b 4926 a63d cfc1 03be 4b02 dfbd
00000170: 478e 67bc cc51 773e 75ef 443d 7a14 febd
00000180: 1670 c73d 1201 08bd df19 8ebb 391f 7f3c
00000190: 9813 51bd 0977 69bc 249b abbc 61fb eb3d
000001a0: 1d23 d4bd 1d6d 38bd 3aed 273e 5ce5 6b3d
000001b0: 0f9f 883e e752 213e e9d6 f73d 03b0 32bb
000001c0: b32d a03c 3a4a 31bc 3ed9 9ebc e682 13bd
000001d0: fcb7 17be 9353 353d f6e2 6abd 6555 a43c
000001e0: 4111 463d 0c24 9abd b7b7 213d beeb 63bd
000001f0: 0448 ab3d d1b9 163c 67ff 06be aad7 243e
00000200: 4400 10be 6b5b 543d 7513 62bd d715 70bd
00000210: 0d5d febd 9a44 eebc 0db7 09be 3eaa ed3c
00000220: c69b 2c3d adf0 603d b744 333c 90a3 df3a
00000230: 026f e93c 6727 85bd 93f2 0e3d 1ced 07bd
00000240: 82bb 8a3d 8141 42be ee09 0a3e 9d2f e3bd
00000250: 7d7c 89bc 7236 26bb 2167 203e 0155 743d
00000260: d1e0 dc3c db4d 303d 9d53 3cbe 9299 3b3d
00000270: c9e3 933d 6bcd 2cbe 761b 37bd a8b1 d8bd
00000280: d031 293c 202d f33d eadf 99bd 9f5e 3dbe
00000290: 6215 f63c 9816 033e f24c 36bb 594b f0bd
000002a0: 356c b6bd 2b76 e7bd c9ac f23c fbf2 25be
000002b0: 63e2 7abe 710b 6ebc 19c3 4cbe 846b 82be
000002c0: c837 953d a07d 55be 1e7a a83d c14c 9a3d
000002d0: 2ca3 57bd 017b 313e a2af 99bd 7e12 1e3e
000002e0: db2a 0b3d 46a7 37be 1845 ae3d 2d77 8f3c
000002f0: 2633 63be 1d36 00be a5fc 31be fc86 0f3e
00000300: af7a 03bd 9eb9 6f3c 7a34 b1bd 64e4 0f3d
00000310: 264f 36be 050d 36be 8dc2 0bbc e311 933a
00000320: e12c 353e 923c 9ebd 6ef1 28be cc20 553d
00000330: 0f36 e6bc baff d6bd d382 133d 08c3 05be
00000340: a621 8abc 9429 933d 4a8c 2f3d 361f 0c3d
00000350: 5b7d 92bd bfa2 8a3d c8b1 853d 92df d2bd
00000360: 5424 ad3d 909a 0e3e 0917 15be 259b d5bd
00000370: 41f2 3cbe 0284 fc3d 62d2 4fbd eb03 3d3e
00000380: d0fe a03d 1059 283d 8425 90be 6d37 f43b
00000390: b35e bf3d d129 84bd 32fe 3c3e 0258 38bd
000003a0: 96fb 8f3c bc34 d93d 0be1 83bd ef8e 423e
000003b0: 865b a5bc 2aa5 023d ea8e 67be c254 613e
000003c0: c556 e3bd 3baf 76be 71e7 2d3d c7c4 f5bd
000003d0: c4f3 5fbe 5755 babd 6178 d23d f98d 4b3b
000003e0: c596 dfbc 861f e4be 8413 c03c 8bb9 cd3d
000003f0: 3d40 91bb 9a15 ab3d f5ff dc3c 7ea9 9fbd

gconv1.1.A f4 [140, 140]
-0.113672234 0.02300189 -0.021431675 0.05401237 -0.004223911 -0.12649232 -0.050396543 -0.050166085
0.14956124 0.033207007 0.20064436 -0.047634125 0.09105247 0.016470667 0.12323657 -0.05611906
-0.016259553 0.06616359 -0.111381285 -0.022477364 -0.052172057 0.0827959 -0.0520332 0.09928077
0.13250484 0.08441891 -0.15308961 6.916495e-05 0.014624136 0.10970476 -0.13329887 -0.10361208
-0.15777849 0.014277981 -0.004983395 0.05952668 -0.045102928 -0.06530774 -0.033441015 -0.071865074
0.06403297 -0.002933632 -0.14072692 -0.014967523 0.068746224 0.012052557 -0.033321682 0.12157575
-0.17064203 -0.14021103 0.056562174 0.0899878 0.15798536 0.041732382 -0.043270037 -0.08724362
-0.004412584 -0.02300135 -0.021780686 -0.16086039 0.03705256 -0.06285295 0.0027479313 -0.072441205
-0.11922847 -0.21739611 -0.047234774 -0.049043015 -0.095273554 0.024466312 0.07769488 0.03472115
0.028575234 0.11376479 0.0010633866 -0.07298125 0.011605204 -0.050297067 -0.05554864 0.052102212
-0.028514937 -0.064500324 -0.03016576 0.12332564 0.0084594805 -0.03344127 -0.010974217 -0.09942853
0.0017350491 0.15576862 0.15104689 0.12852772 0.022472212 -0.029955858 -0.18811038 0.058981888
-0.05021976 0.027915852 -0.06676092 0.04792087 -0.08863273 -0.18420283 -0.16295347 -0.07833822
0.016140765 -0.09309618 0.16469185 -0.03616055 -0.036068764 -0.041413035 0.018935971 0.07621438
0.051919892 0.071855634 0.14150518 -0.08013225 0.10267207 -0.02950459 -0.03866243 -0.15881053
-0.01269315 0.057777993 -0.05940669 0.08152365 0.05854274 0.03318255 -0.043458525 -0.017573904
-0.062455636 0.023953594 -0.011930426 0.06118804 -0.0071957475 0.07466098 -0.02831569 -0.066049084
-0.050692704 -0.06329384 0.014028055 0.0011917022 -0.12116596 -0.030205164 -0.1136527 -0.037712716
0.08338276 -0.009512427 -0.061761566 -0.022197025 -0.14914365 -0.11056769 -0.026093237 -0.06764063
0.06124276 0.1232192 -0.0049919616 0.12585957 -0.0041907374 0.016150873 0.133308 0.018211765
0.12838034 -0.113858245 -0.02371597 -0.22596999 0.18178952 -0.08303432 -0.019904563 0.103873946
-0.07732483 -0.047518604 -0.005730898 0.004181987 0.047877952 -0.12807328 0.0012133141 0.115938544
0.0071547586 -0.029324349 0.014856358 -0.061379414 0.0022730895 -0.0034408455 0.098151915 -0.029994603
-0.011344973 -0.039717365 0.04335936 0.12369825 0.04143236 0.055044446 0.057863675 -0.1023068
-0.101239696 -0.008400008 0.008646623 -0.07414403 0.036445443 -0.05454795 -0.29157227 -0.15687537
0.10968276 0.069618866 -0.07802532 -0.08152221 -0.09030013 -0.03251079 0.047384072 -0.06943333
-0.011650679 -0.096819 0.083095536 0.07798531 -0.12751971 -0.048578057 0.19023532 0.04072782
-0.14537752 -0.0035422118 -0.09348856 -0.1322477 -0.04428997 -0.064889945 0.008700028 0.04582342
-0.094032355 0.08487871 0.047307562 0.018157916 -0.10395578 -0.12410808 -0.004373608 -0.020915933
-0.075409986 0.017363481 0.10413827 -0.0015935693 0.03903099 0.00026884943 0.037379242 -0.09453634
-0.12071011 -0.12364798 -0.029216394 -0.0005153359 -0.062887505 -0.038272895 0.08584699 0.12469186
-0.04219247 0.050407615 0.023884252 0.024275083 -0.038796507 -0.06664006 0.053103637 -0.032191843
00000000: fdcc e8bd 766e bc3c 7b91 afbc 133c 5d3d
00000010: bc68 8abb 3487 01be 9b6c 4ebd f47a 4dbd
00000020: 9526 193e 1204 083d b775 4d3e 001c 43bd
00000030: b879 ba3d 7eed 863c 7463 fc3d 19dd 65bd
00000040: c132 85bc c780 873d df1b e4bd 7322 b8bc
00000050: 5eb2 55bd e690 a93d c420 55bd b753 cb3d
00000060: 59af 073e d2e3 ac3d 86c3 1cbe a60c 9138
00000070: 129a 6f3c e4ac e03d 807f 08be 9232 d4bd
00000080: af90 21be 31ee 693c bf4b a3bb 3fd2 733d
00000090: d9bd 38bd 10c0 85bd 72f9 08bd ff2d 93bd
000000a0: b823 833d 2d42 40bb b81a 10be 573a 75bc
000000b0: d2ca 8c3d 1778 453c 517c 08bd b5fc f83d
000000c0: c9bc 2ebe 7b93 0fbe bdad 673d 864b b83d
000000d0: eac6 213e 93ef 2a3d ec3b 31bd c8ac b2bd
000000e0: 7097 90bb 546d bcbc 696d b2bc 96b8 24be
000000f0: 6dc4 173d 0cb9 80bd a316 343b 0e5c 94bd
00000100: 0e2e f4bd 169d 5ebe 4079 41bd 54e1 48bd
00000110: c81e c3bd 936d c83c 7e1e 9f3d c437 0e3d
00000120: 9c16 ea3c 84fd e83d 5561 8b3a 3277 95bd
00000130: c123 3e3c 4c04 4ebd f986 63bd 2169 553d
00000140: 2898 e9bc bf18 84bd 2f1e f7bc 2792 fc3d
00000150: a299 0a3c b7f9 08bd 34cd 33bc 2fa1 cbbd
00000160: 966a e33a cf81 1f3e 09ac 1a3e c59c 033e
00000170: a517 b83c fd65 f5bc 02a0 40be fe96 713d
00000180: 3cb3 4dbd c9af e43c f3b9 88bd ad48 443d
00000190: 1485 b5bd ab9f 3cbe 46dd 26be ca6f a0bd
000001a0: a339 843c 36a9 bebd fba4 283e 161d 14bd
000001b0: d7bc 13bd b7a0 29bd 9c1f 9b3c 4916 9c3d
000001c0: f4a9 543d 0c29 933d bce6 103e 611c a4bd
000001d0: bc45 d23d 9cb3 f1bc 7f5c 1ebd 3a9f 22be
000001e0: eef6 4fbc 9ea8 6c3d 6e54 73bd dff5 a63d
000001f0: 83ca 6f3d 6dea 073d 9101 32bd 26f7 8fbc
00000200: 7bd1 7fbd 543a c43c d577 43bc 4fa0 7a3d
00000210: 4eca ebbb dbe7 983d 4ef6 e7bc be44 87bd
00000220: 27a3 4fbd 33a0 81bd edd5 653c e432 9c3a
00000230: dc25 f8bd d270 f7bc bfc2 e8bd a678 1abd
00000240: 95c4 aa3d 03da 1bbc b2f9 7cbd 89d6 b5bc
00000250: 1db9 18be 5071 e2bd 7cc1 d5bc 2c87 8abd
00000260: b0d9 7a3d 595a fc3d 9c93 a3bb 55e1 003e
00000270: 7452 89bb d64e 843c e481 083e d730 953c
00000280: 2376 033e 832e e9bd fe47 c2bc ad64 67be
00000290: 0827 3a3e e60d aabd e50e a3bc ddbb d43d
000002a0: 7b5c 9ebd dea2 42bd 42ca bbbb 0d09 893b
000002b0: ac1b 443d a425 03be 1108 9f3a 3071 ed3d
000002c0: 7772 ea3b 9e39 f0bc 1568 733c fb68 7bbd
000002d0: 1df8 143b cf7f 61bb df03 c93d 3eb7 f5bc
000002e0: 44e0 39bc adae 22bd 9699 313d 8255 fd3d
000002f0: fab4 293d 4976 613d 7602 6d3d 3a86 d1bd
00000300: c256 cfbd 30a0 09bc 91aa 0d3c d3d8 97bd
00000310: d147 153d ac6d 5fbd f648 95be f0a3 20be
00000320: 5ba1 e03d 5694 8e3d bdcb 9fbd 1ef5 a6bd
00000330: 46ef b8bd 092a 05bd cd15 423d 1033 8ebd
00000340: 7de2 3ebc 0a49 c6bd fe2d aa3d c3b6 9f3d
00000350: 8794 02be c9f9 46bd 0ccd 423e 37d2 263d
00000360: d8dd 14be 7424 68bb ee76 bfbd f16b 07be
00000370: 6669 35bd 05e5 84bd 908a 0e3c 57b1 3b3d
00000380: 0994 c0bd e4d4 ad3d 93c5 413d e9bf 943c
00000390: c5e6 d4bd 612c febd 7c50 8fbb e457 abbc
000003a0: 8d70 9abd dc3d 8e3c 7246 d53d 50df d0ba
000003b0: f6de 1f3d 5cf4 8c39 fa1a 193d 459c c1bd
000003c0: dd36 f7bd 273b fdbd 3857 efbc 9b17 07ba
000003d0: 2acb 80bd 0ac4 1cbd 8cd0 af3d 725e ff3d
000003e0: 03d2 2cbd 3778 4e3d e8a8 c33c 8adc c63c
000003f0: 16e9 1ebd 957a 88bd 3383 593d 98db 03bd

gconv1.1.W.weight f4 [140, 140]
-0.10460414 0.10334572 0.010310013 0.1505491 -0.114283666 -0.10989656 -0.15795457 -0.15628915
-0.06267315 0.018567758 -0.112118095 0.19764307 -0.062438436 0.04755131 0.16676891 0.04314602
-0.13509463 0.015031527 -0.012934921 -0.032837156 -0.04635785 -0.117439784 0.07126903 0.057262916
0.027188592 0.03720203 0.051555805 0.12230393 0.010708748 0.105366245 -0.14739089 0.11387122
-0.027688501 -0.050034426 0.018882914 0.11223099 -0.030855063 -0.051082116 0.10880825 -0.0184824
-0.05005368 0.041783992 0.021736735 0.21774259 0.07312418 -0.07475877 0.03823036 0.04993297
0.037958868 0.03846513 -0.022126801 0.05834899 -0.0066388743 -0.10080034 -0.13427523 0.081668496
0.058044698 -0.018558344 0.09329252 -0.07301804 -0.051816113 0.02797583 0.02992398 -0.024848437
-0.12803647 -0.20469783 -0.010300169 0.07468049 0.025196502 0.081792705 -0.02487038 0.17731324
0.038363453 -0.03813365 -0.07575117 0.051201038 -0.022055889 0.043521177 0.22508575 0.112161
0.14159115 -0.07606358 -0.10014099 0.07206504 -0.047075022 0.010039541 -0.067958795 -0.09934525
-0.1579793 -0.18313183 0.01367931 0.054088403 0.10229215 0.020396221 -0.0023061412 -0.043367535
0.08266187 -0.08086205 -0.037968684 0.029449267 -0.10811049 0.13562119 0.048035637 -0.06277691
0.08682237 0.116094366 0.064835325 0.21979713 0.034833774 0.025431171 -0.1199742 -0.10229718
-0.056170803 -0.03420722 -0.041677855 0.06972107 -0.033148456 0.060087845 -0.12883587 0.12831038
0.06659632 0.07483578 -0.0580114 0.08452364 0.04564158 0.031533614 -0.047094483 0.06554379
0.07011762 -0.039844655 0.124733694 0.073874645 0.040484156 0.05936844 -0.035261687 0.15300101
-0.07134528 -0.13899033 -0.024616644 -0.14368035 -0.052428704 0.07490642 -0.09895242 0.046958268
0.023644496 0.03210122 0.12538444 0.19240144 -0.042674724 -0.069323555 -0.028947107 0.05563705
-0.00780237 -0.06936344 0.019425023 -0.08935954 0.02479313 -0.007892367 -0.06999889 -0.07072465
-0.117264 0.019550525 0.032482676 0.045901556 -0.061519817 0.1626854 -0.013652752 0.030210312
0.14187846 -0.0408412 -0.021986654 -0.03163469 -0.015840968 -0.031859875 0.015989479 0.07451878
-0.043294497 -0.029270418 0.0036420708 0.018471012 -0.124765754 -0.0089365365 0.020712677 0.10607741
-0.027214136 0.035478916 -0.0498097 -0.16104186 -0.041151885 0.13054478 0.09007658 0.047169052
-0.17222698 0.068080924 -0.081677206 -0.048082072 0.12985623 -0.17469317 -0.00058937824 0.12296722
0.0056660348 0.012839626 -0.105004095 -0.0029045101 -0.037296418 0.25863397 0.05887028 -0.024508035
-0.0037927614 0.0021739127 0.006531986 0.09963126 0.0052660974 -0.084503986 0.014763109 -0.032758072
-0.03985789 -0.012615665 -0.008869458 0.15008967 -0.058523737 -0.046752248 0.064870276 -0.07928265
-0.058009163 0.11855777 0.2099755 0.14484249 -0.05489709 0.18593195 -0.006255364 -0.05916169
0.0017440555 -0.0757461 0.053478763 -0.19781646 -0.08319379 0.019729735 -0.058576133 -0.18901049
-0.08216227 -0.043604527 -0.16368264 -0.14093733 -0.11745105 -0.0966315 0.0073308772 -0.03295779
0.061696634 0.12584314 -0.049141496 -0.019015834 0.051495757 0.0951498 -0.054609284 0.06339306
00000000: b23a d6bd eca6 d33d 54eb 283c 8b29 1a3e
00000010: 8e0d eabd 7311 e1bd d8be 21be 430a 20be
00000020: c85a 80bd 691b 983c 2c9e e5bd f262 4a3e
00000030: 72bf 7fbd 2ac5 423d 78c5 2a3e e2b9 303d
00000040: 3f56 0abe cb46 763c feec 53bc 4180 06bd
00000050: bbe1 3dbd 4584 f0bd 7ff5 913d 858c 6a3d
00000060: 9cba de3c 2861 183d 2e2c 533d 7c7a fa3d
00000070: bf73 2f3c 42ca d73d a3ed 16be 5035 e93d
00000080: ffd2 e2bc e6f0 4cbd 57b0 9a3c 5cd9 e53d
00000090: c2c3 fcbc 7b3b 51bd dcd6 de3d 6768 97bc
000000a0: 1605 4dbd b125 2b3d 3d11 b23c eaf7 5e3e
000000b0: 21c2 953d 201b 99bd 7097 1c3d 8486 4c3d
000000c0: c27a 1b3d 9d8d 1d3d 4443 b5bc 5aff 6e3d
000000d0: ea8a d9bb 6970 cebd 727f 09be d041 a73d
000000e0: 47c0 6d3d ab07 98bc 2610 bf3d 7b8a 95bd
000000f0: 223d 54bd 912d e53c 2223 f53c f38e cbbc
00000100: fe1b 03be 4f9c 51be 0ac2 28bc 16f2 983d
00000110: e568 ce3c ef82 a73d f8bc cbbc 9a91 353e
00000120: ff22 1d3d 0832 1cbd 6e23 9bbd 2eb8 513d
00000130: 8dae b4bc 4343 323d e17c 663e abb4 e53d
00000140: 45fd 103e 39c7 9bbd b816 cdbd d696 933d
00000150: bdd1 40bd e37c 243c fb2d 8bbd 8675 cbbd
00000160: 53c5 21be e986 3bbe 2f1f 603c cd8b 5d3d
00000170: 8c7e d13d fa15 a73c a122 17bb 28a2 31bd
00000180: a04a a93d 019b a5bd 0d85 1bbd 973f f13c
00000190: 0869 ddbd 48e0 0a3e 04c1 443d 2e91 80bd
000001a0: edcf b13d e2c2 ed3d 62c8 843d 8012 613e
000001b0: dcad 0e3d 0855 d03c 09b5 f5bd 2f81 d1bd
000001c0: 5b13 66bd df1c 0cbd 66b6 2abd ecc9 8e3d
000001d0: adc6 07bd ac1e 763d 8ded 03be cc63 033e
000001e0: a763 883d 8043 993d 5d9d 6dbd bb1a ad3d
000001f0: aaf2 3a3d 6429 013d 25e6 40bd d33b 863d
00000200: d499 8f3d 2634 23bd 6174 ff3d 974b 973d
00000210: b7d2 253d 522c 733d 8f6e 10bd 4cac 1c3e
00000220: 791d 92bd 7b53 0ebe d8a8 c9bc f120 13be
00000230: 7bbf 56bd 8a68 993d 91a7 cabd 5057 403d
00000240: 1ab2 c13c 927c 033d c764 003e e204 453e
00000250: b1cb 2ebd 82f9 8dbd 7c22 edbc ade3 633d
00000260: 06ab ffbb 6b0e 8ebd 3a21 9f3c 2202 b7bd
00000270: f61a cb3c fd4e 01bc 945b 8fbd 16d8 90bd
00000280: 1c28 f0bd 6c28 a03c 8e0c 053d 4503 3c3d
00000290: 34fc 7bbd 0097 263e cbaf 5fbc 9e7b f73c
000002a0: 9648 113e 1a49 27bd 5b1d b4bc 6093 01bd
000002b0: ebc4 81bc 807f 02bd 5efc 823c 4d9d 983d
000002c0: 9255 31bd 84c8 efbc cfaf 6e3b 8550 973c
000002d0: 3085 ffbd 8d6a 12bc a2ad a93c 1d3f d93d
000002e0: 2ef0 debc 5752 113d 4205 4cbd 28e8 24be
000002f0: e18e 28bd 88ad 053e 127a b83d 5634 413d
00000300: 455c 30be 036e 8b3d 6146 a7bd b5f1 44bd
00000310: 08f9 043e c4e2 32be 8180 1aba 3dd6 fb3d
00000320: 25aa b93b 4b5d 523c 630c d7bd 9859 3ebb
00000330: 21c4 18bd ac6b 843e f621 713d 13c5 c8bc
00000340: fa8f 78bb 3478 0e3b 450a d63b 790b cc3d
00000350: 3a8f ac3b 6d10 adbd f8e0 713c 542d 06bd
00000360: 0742 23bd efb1 4ebc 3451 11bc 1bb1 193e
00000370: 96b6 6fbd 497f 3fbd b5da 843d f15e a2bd
00000380: 049b 6dbd 6bce f23d d103 573e 9751 143e
00000390: c5db 60bd f264 3e3e ccf9 ccbb 8753 72bd
000003a0: cb98 e43a c520 9bbd 8c0c 5b3d 6690 4abe
000003b0: 8161 aabd 41a0 a13c 87ed 6fbd f78b 41be
000003c0: b144 a8bd a99a 32bd 6c9c 27be e051 10be
000003d0: 2d8a f0bd bce6 c5bd db37 f03b bffe 06bd
000003e0: 9cb5 7c3d 06dd 003e 9848 49bd 18c7 9bbc
000003f0: 37ed 523d e6dd c23d fcad 5fbd 38d4 813d

gconv1.1.W.bias f4 [140]
-0.06712424 -0.101594165 -0.041201346 -0.07116556 -0.07306132 -0.02226179 -0.045345318 0.028054673
0.12039376 0.15317035 -0.07574277 0.04645852 -0.013820059 -0.019016646 0.09581902 0.15542541
-0.039668635 -0.10349255 0.019023037 -0.09218596 0.033032432 -0.017370263 -0.054660857 -0.10022136
0.10745707 -0.013350269 -0.098404706 -0.017102735 0.13134493 0.0016858298 -0.043754056 -0.025498342
-0.012707696 -0.06909124 -0.026305111 -0.07566533 -0.11532721 -0.038136546 -0.049863096 -0.05062792
-0.019131701 -0.059736393 -0.06989451 -0.06804957 0.095865086 0.006197724 -0.054806247 -0.110452026
0.14303109 0.065165125 -0.045601793 -0.05561744 0.048324876 0.024739375 -0.02893986 -0.038190424
-0.08477127 0.16556418 -0.054229718 -0.12678477 0.09721879 -0.061255563 0.082020156 0.069294676
-0.083959684 -0.060064226 0.13111433 -0.03136115 -0.054107502 -0.13296612 -0.024478253 -0.11384405
-0.08089909 -0.12684654 -0.03613776 -0.013452905 0.12671609 -0.07388533 -0.044019204 -0.02970864
-0.08807324 -0.03940318 0.123339 0.023568457 -0.023876758 0.05928552 -0.07471152 0.19038528
0.039014917 -0.0635155 0.18850411 -0.065667205 -0.045016166 -0.120156966 -0.08905415 -0.040248055
0.008412722 0.18053791 -0.08831171 0.12881237 -0.06370693 0.1907055 -0.03526271 -0.04165882
-0.024603765 0.0062003564 0.06333043 -0.05838416 0.17755176 0.14150375 -0.03964872 0.11722946
-0.031199263 0.007445518 0.07246722 0.19182847 -0.012409592 0.11744207 -0.015516494 -0.019440051
-0.07288136 -0.07876984 -0.14563209 0.0003463666 0.0061454265 0.09798956 -0.023303745 0.010435203
0.087761745 -0.0195343 -0.015729379 -0.01539799 -0.105447955 0.15376294 -0.022561664 0.13883047
-0.05522908 -0.08035198 -0.06578245 -0.06086493
00000000: 6f78 89bd 9a10 d0bd bec2 28bd 40bf 91bd
00000010: 2ca1 95bd 5c5e b6bc 03bc 39bd ead2 e53c
00000020: 0191 f63d b0d8 1c3e 071f 9bbd 4a4b 3e3d
00000030: 876d 62bc ccc8 9bbc c33c c43d d727 1f3e
00000040: 947b 22bd e7f3 d3bd 33d6 9b3c fecb bcbd
00000050: 044d 073d 154c 8ebc 10e4 5fbd db40 cdbd
00000060: 7412 dc3d 16bb 5abc 6888 c9bd 091b 8cbc
00000070: 497f 063e 10f7 dc3a 7437 33bd e6e1 d0bc
00000080: f133 50bc b57f 8dbd d17d d7bc 6df6 9abd
00000090: ac30 ecbd 1135 1cbd 3f3d 4cbd 395f 4fbd
000000a0: 16ba 9cbc 26ae 74bd da24 8fbd 935d 8bbd
000000b0: ea54 c43d 4716 cb3b 847c 60bd ac34 e2bd
000000c0: be76 123e 4b75 853d f2c8 3abd 1dcf 63bd
000000d0: 4ef0 453d 3baa ca3c 4913 edbc 906d 1cbd
000000e0: 8f9c adbd a889 293e fb1f 5ebd ded3 01be
000000f0: a51a c73d 1de7 7abd 2ffa a73d 5eea 8d3d
00000100: 0ef3 abbd e805 76bd d642 063e 8d74 00bd
00000110: d49f 5dbd 4528 08be 9e86 c8bc 1227 e9bd
00000120: 6cae a5bd 0fe4 01be 3005 14bd 9369 5cbc
00000130: ddc1 013e 3151 97bd 7b4d 34bd 895f f3bc
00000140: be5f b4bd 3b65 21bd 2899 fc3d a312 c13c
00000150: 3199 c3bc 60d5 723d 5a02 99bd 5cf4 423e
00000160: 1bce 1f3d 6a14 82bd 3907 413e 877c 86bd
00000170: df62 38bd db14 f6bd 0662 b6bd 25db 24bd
00000180: 83d5 093c eede 383e c5dc b4bd 64e7 033e
00000190: c778 82bd 4d48 433e a26f 10bd 70a2 2abd
000001a0: d68d c9bc 5c2c cb3b 62b3 813d 3b24 6fbd
000001b0: 21d0 353e 5ce6 103e b266 22bd 0016 f03d
000001c0: 9995 ffbc 88f9 f33b b269 943d af6e 443e
000001d0: 9a51 4bbc 7885 f03d e538 7ebc be40 9fbc
000001e0: d342 95bd 1552 a1bd 9420 15be 8a98 b539
000001f0: 935f c93b c0ae c83d 7fe7 bebc 6af8 2a3c
00000200: 6ebc b33d 6506 a0bc e6da 80bc da47 7cbc
00000210: 19f5 d7bd 0874 1d3e 3dd3 b8bc 9329 0e3e
00000220: e337 62bd 948f a4bd f3b8 86bd 814d 79bd

gconv1.1.gate.weight f4 [1, 280]
-0.18014559 -0.00066453253 -0.05690124 -0.04617425 0.053381566 0.061551355 0.038804732 -0.028295837
0.033851743 0.0790215 -0.13613223 -0.1073756 -0.052332558 0.06734998 0.101053156 -0.042107802
0.006073287 0.0013469356 -0.043406922 0.10396483 0.0710464 -0.00062640465 0.12481911 -0.04420284
0.08455843 -0.04406628 -0.1034935 0.025757547 0.025199823 -0.11768384 0.09370244 -0.045120027
-0.051540826 0.07376012 0.1392215 0.13714077 -0.05570552 -0.020331545 0.039603766 -0.034305315
-0.028215574 0.07442766 -0.015913922 -0.19472268 -0.010312328 0.0016415424 0.102356724 -0.027325094
0.04058923 0.13157292 0.03685617 0.06337155 0.0042311847 -0.02073205 0.05476613 0.19928473
0.14434317 0.09139707 -0.027115196 -0.008340796 -0.043565206 -0.11080223 0.0074759834 0.07270106
-0.021657728 0.031229706 -0.116736054 0.05235101 0.13600421 -0.008971009 0.064841226 -0.010181246
-0.03653003 0.089823775 -0.033683036 0.08578527 -0.07938614 -0.03921029 -0.027336378 -0.16576944
-0.0019697067 -0.091800466 0.04605082 0.060962874 -0.028790243 -0.21185644 0.017780619 0.06436477
0.07166373 0.1679607 0.20814414 -0.06291193 0.04771398 0.07261557 -0.02652785 -0.08784254
-0.06907745 -0.12513864 -0.036995098 0.18100609 0.015617356 0.1296529 0.028513087 0.076104395
0.056278445 0.07802138 0.01671553 -0.00149132 0.09445554 -0.13595463 -0.028579675 0.077071585
-0.07994564 -0.13813396 0.055478204 0.13108619 0.026734568 -0.099861614 0.043758266 0.009746461
-0.035246596 0.0061521535 -0.035593 0.036932148 -0.12058509 0.090415806 0.021682696 -0.0047944533
-0.02098678 0.1404042 0.0106240455 0.07100024 0.0010519262 0.0027775713 0.052394632 -0.057765935
0.0043496005 -0.09888859 -0.13541304 -0.009851343 0.06930319 -0.054477535 -0.026842663 0.10568811
0.012906074 0.032252453 -0.06879582 0.09267742 0.12082724 -0.0059212823 0.078171246 0.108968794
0.0980223 0.15777737 -0.0049702907 0.067298315 -0.12484331 0.15363948 -0.10065179 -0.051364455
0.026325919 0.11211203 0.021923635 0.04857669 0.10697063 0.06869475 -0.08732359 0.12528285
0.08187581 -0.08086599 0.013013975 0.02156746 -0.05316532 0.008064554 -0.024152087 0.024810508
-0.11941377 0.09400802 -0.037131283 0.10805132 0.0114596775 0.105454355 0.12142376 0.1385729
-0.00158633 0.066300474 -0.119762994 -0.060056042 -0.015036272 0.079089165 0.050479498 0.0029011536
0.28765276 -0.03888111 0.117276445 -0.037598547 0.053322617 0.22012825 0.06721376 -0.08475167
0.13644098 -0.053725384 -0.09696577 0.18146285 0.04170227 -0.026659125 -0.033389762 0.08483074
-0.038063742 -0.04681438 -0.123757675 0.15826172 -0.040159736 -0.032703634 -0.15399961 -0.1340458
0.10588844 0.027212126 -0.037305873 0.17454244 -0.1274474 -0.03915504 0.11895255 0.026759848
0.08064863 0.027828291 0.20675912 0.16830188 0.020137833 -0.09534105 0.012589098 0.10820557
0.03812444 0.06137832 -0.066380836 -0.20098282 0.07368833 0.018139515 0.04626369 0.04592334
-0.038747437 0.1392072 0.06537991 -0.03503355 -0.01895557 -0.0957623 0.058769986 -0.10861947
0.07843626 0.08796773 -0.0007615569 -0.005287618 -0.076715745 0.041985534 -0.119273454 0.028149763
00000000: 1678 38be 0634 2eba 4611 69bd 3621 3dbd
00000010: a1a6 5a3d 461d 7c3d b6f1 1e3d accc e7bc
00000020: 20a8 0a3d 06d6 a13d 3f66 0bbe bde7 dbbd
00000030: aa5a 56bd c9ee 893d f5f4 ce3d 3b79 2cbd
00000040: 6d02 c73b a98b b03a 75cb 31bd 83eb d43d
00000050: c680 913d 4e35 24ba 29a1 ff3d 0a0e 35bd
00000060: f82c ad3d d87e 34bd 66f4 d3bd 7e01 d33c
00000070: dc6f ce3c 3a04 f1bd 11e7 bf3d c7cf 38bd
00000080: 791c 53bd 8c0f 973d 1590 0e3e a16e 0c3e
00000090: 792b 64bd 578e a6bc 8f37 223d bb83 0cbd
000000a0: 5924 e7bc 876d 983d ea5d 82bc 6265 47be
000000b0: 0af5 28bc 0629 d73a 67a0 d13d e0d8 dfbc
000000c0: e440 263d 0dbb 063e 7ff6 163d f1c8 813d
000000d0: c0a5 8a3b 43d6 a9bc 7352 603d 4c11 4c3e
000000e0: b2ce 133e 632e bb3d b020 debc d6a7 08bc
000000f0: 6e71 32bd 48ec e2bd 18f9 f43b 4be4 943d
00000100: 8c6b b1bc 71d5 ff3c 5013 efbd 036e 563d
00000110: b044 0b3e 24fb 12bc 7acb 843d 3ecf 26bc
00000120: 83a0 15bd 87f5 b73d 39f7 09bd 30b0 af3d
00000130: 3395 a2bd f89a 20bd 8af0 dfbc 77bf 29be
00000140: 3216 01bb e201 bcbd c99f 3c3d 35b4 793d
00000150: 84d9 ebbc e5f0 58be a9a8 913c add1 833d
00000160: 6fc4 923d e4fd 2b3e bd23 553e f8d7 80bd
00000170: bc6f 433d 79b7 943d ef50 d9bc cae6 b3bd
00000180: 7a78 8dbd 5824 00be 2c88 17bd a959 393e
00000190: f0df 7f3c bbc3 043e 4794 e93c 9fdc 9b3d
000001a0: 3a84 663d acc9 9f3d 02ef 883c 6578 c3ba
000001b0: e871 c13d b137 0bbe ec1f eabc b5d7 9d3d
000001c0: 8aba a3bd fd72 0dbe 1d3d 633d 753b 063e
000001d0: 7402 db3c 3f84 ccbd de3b 333d 9faf 1f3c
000001e0: bc5e 10bd 0198 c93b f7c9 11bd 2a46 173d
000001f0: 51f5 f6bd ec2b b93d e99f b13c ca1a 9dbb
00000200: 78ec abbc 1ec6 0f3e 7a10 2e3c 9368 913d
00000210: c9e0 893a ea07 363b c19b 563d f99b 6cbd
00000220: 1887 8e3b 1a86 cabd b7a9 0abe 8767 21bc
00000230: d5ee 8d3d d623 5fbd 25e5 dbbc 0273 d83d
00000240: ff73 533c 261b 043d d3e4 8cbd a9cd bd3d
00000250: 4674 f73d 5107 c2bb 3f18 a03d 082b df3d
00000260: eabf c83d 6490 213e d2dd a2bb b3d3 893d
00000270: d9ad ffbd ab53 1d3e 8722 cebd 8963 52bd
00000280: 74a9 d73c fe9a e53d 3299 b33c 5af8 463d
00000290: 6b13 db3d d5af 8c3d b6d6 b2bd 264a 003e
000002a0: 81ae a73d 119d a5bd 9138 553c 3eae b03c
000002b0: e1c3 59bd 3121 043c 99da c5bc 683f cb3c
000002c0: 358f f4bd 4787 c03d f916 18bd 034a dd3d
000002d0: 5fc1 3b3c 74f8 d73d 05ad f83d 0ee6 0d3e
000002e0: 67ec cfba 8bc8 873d 4d46 f5bd 53fd 75bd
000002f0: b25a 76bc 80f9 a13d 97c3 4e3d 4821 3e3b
00000300: 3947 933e cc41 1fbd a22e f03d ef00 1abd
00000310: d168 5a3d 4d69 613e 5ea7 893d 4992 adbd
00000320: 2fb7 0b3e 260f 5cbd fd95 c6bd 66d1 393e
00000330: 00d0 2a3d 3d64 dabc b4c3 08bd bdbb ad3d
00000340: bae8 1bbd 6fc0 3fbd aa74 fdbd 5c0f 223e
00000350: 897e 24bd 3ff4 05bd 13b2 1dbe 4d43 09be
00000360: 0adc d83d f7eb de3c 0bce 18bd 41bb 323e
00000370: 9281 02be 0961 20bd 659d f33d 7837 db3c
00000380: 1c2b a53d 28f8 e33c aab8 533e 5457 2c3e
00000390: 19f8 a43c 2b42 c3bd 8142 4e3c e29a dd3d
000003a0: 5f28 1c3d d567 7b3d adf2 87bd 71ce 4dbe
000003b0: e8e9 963d 5299 943c ff7e 3d3d 1d1a 3c3d
000003c0: a2b5 1ebd 558c 0e3e e7e5 853d 577f 0fbd
000003d0: b648 9bbc 061f c4bd ccb8 703d e273 debd
000003e0: 31a3 a03d 6d28 b43d 38a3 47ba c143 adbb
000003f0: 251d 9dbd 06f9 2b3d a445 f4bd 559a e63c
