save/best_old_opt2_0.812.pt (torch, 951112 bytes, 24 tensors)

gconv1.0.A f4 [140, 140]
000000 18 28 0e 3c e4 f7 ad bd 87 db 02 3e 5a 1b aa 3d
       0.008676551 -0.08494547 0.12779056 0.08305998
000010 35 5f 6c 3d c2 c8 50 bd 22 13 9d 3d ad 0d 0c 3e
       0.057707984 -0.050972708 0.07669665 0.13677092
000020 1f 07 1a bd 3c ea ae 3a cd 56 a2 3a 3a 51 e9 bd
       -0.037604447 0.0013344954 0.0012385488 -0.11392446
000030 94 e1 9d 3d 77 12 da bd d4 b1 0a 3d 78 92 8e 3c
       0.07709041 -0.10648053 0.033860996 0.017403826
000040 6e 6a 3f bd 61 93 dd bc 83 c1 a2 bd f4 35 5f bc
       -0.04673236 -0.027047815 -0.07947066 -0.013623703
000050 c7 eb 8d 3c ca 0a a4 bc 6b ff a9 bc 04 81 28 bc
       0.017324341 -0.020024676 -0.020751676 -0.010284666
000060 cb b7 57 bb 6b fa a2 bd 2b da 75 bd 5d e3 bf bd
       -0.0032915946 -0.0795792 -0.060022514 -0.09369538
000070 43 6f 25 bd 9b 7a 99 3d 18 d9 57 bd 28 d6 ea 3d
       -0.04038931 0.07494088 -0.05269727 0.11466628
000080 48 6b db bd 50 35 42 bb 20 7a 02 3e ae 80 a7 bd
       -0.10713822 -0.0029633828 0.127419 -0.081788406
000090 11 47 8b 3c b7 0c 97 bd 2b c5 2f 3d ba 85 48 3d
       0.01700166 -0.07375472 0.042912643 0.048955657
0000a0 cf fd e5 3d cd 62 a8 bc 7e 6d df bd 07 ce 21 be
       0.11230051 -0.020554924 -0.10909556 -0.1580125
0000b0 be 19 65 3c 4f d7 19 3d 54 74 76 3e f5 59 49 3e
       0.013983188 0.03755885 0.24067813 0.19663222
0000c0 33 5d 52 3c ef 8c 61 3d 8d 50 ba bd 64 45 a2 bc
       0.012839603 0.055066045 -0.09097395 -0.019808479
0000d0 bc 3f 81 3d 23 9b 4f 3d 31 55 c5 bd d7 a0 c3 bb
       0.063109845 0.05068506 -0.096353896 -0.0059701013
0000e0 42 7e 36 bd 67 2a 9c bd b2 a0 f0 bb f7 65 58 3d
       -0.044554003 -0.07625275 -0.007343375 0.052831616
0000f0 60 74 81 3d ea 22 9c 3d d0 53 e2 bd 6b 10 33 3e
       0.06321025 0.07623847 -0.11051142 0.17486732
000100 9f 24 8b bd f7 da 21 bd ba 71 fe 3c bc 2b 8a bd
       -0.06794094 -0.03951546 0.031060088 -0.06746623
000110 64 9b 7a bd b4 ae 4d 3e bc 1c 55 3d 81 b2 c5 bb
       -0.06118335 0.20086175 0.052029356 -0.006033242
000120 f2 53 4b bd f1 8d 39 3e d4 0f 86 bd 8b 3a 90 bc
       -0.049640603 0.18120553 -0.06545988 -0.01760604
000130 8c 71 c7 3b 1c 7f a1 3d 73 7c 5b 3d 40 80 a2 bc
       0.006086534 0.07885572 0.05358548 -0.019836545
000140 d3 2b cd bd fe e3 27 be 94 6d 86 3d ca 9f a6 3d
       -0.100181244 -0.16395566 0.06563869 0.08135946
000150 2e a0 c7 3d fb fb 71 bd f5 91 26 bd f0 12 83 3d
       0.09747349 -0.059078198 -0.04066654 0.064000964
000160 8c 34 6f bd 4e be 11 3c 9c 0c f6 bd 13 11 a0 bc
       -0.058399722 0.00889547 -0.12014124 -0.019539392
000170 09 37 86 3c ba 3f 32 be 47 fe b7 bd 07 29 1d 3c
       0.016383665 -0.17407122 -0.089840464 0.009592301
000180 06 82 de bc dc eb b2 3d bb b8 d8 bc 51 bb d8 bc
       -0.02716161 0.08736393 -0.026455274 -0.026456507
000190 3d 95 ba 3c 8d ef 81 bc d8 ad 74 bc 78 d9 1b 3d
       0.02277624 -0.015861297 -0.014934026 0.03804919
0001a0 00 54 02 bd 49 b1 6e 3b 50 cb 69 be ee 72 2c 3d
       -0.03181839 0.0036421588 -0.22831464 0.042101793
0001b0 e2 fc 63 3e 88 df 2e bc 35 28 9f 3d bd 1f 14 bd
       0.22264436 -0.010673411 0.07771341 -0.03616308
0001c0 81 ad c7 3d d2 02 d4 3c e7 44 86 bd d8 d7 eb 3b
       0.0974989 0.025880251 -0.06556111 0.0071973614
0001d0 6e 50 99 bd d1 af 43 bd d2 94 02 be 1a 92 eb 3c
       -0.07486044 -0.047775093 -0.12752083 0.02875619
0001e0 27 63 03 be 3d 78 ee 3c 78 fa 53 3d 29 53 0f 3e
       -0.12830792 0.029110068 0.051752537 0.13996567
0001f0 11 9a 20 bc 79 6d f3 bc 8a ce 54 bd 5d 64 04 3d
       -0.009802357 -0.029715287 -0.051954783 0.032322276
000200 ee c9 bb 3d 55 97 bf 3d 2f e2 64 3e eb e3 f8 3c
       0.091693744 0.09355036 0.22351907 0.030382117
000210 47 1a 0d bd e8 38 22 bc ff cd ac 3d fa 06 5e 3d
       -0.03444889 -0.009901263 0.08437728 0.054205872
000220 c7 11 34 be 1d 2d 10 3d f3 12 07 3e 01 7a 0f bb
       -0.17584907 0.035199273 0.13190822 -0.0021892788
000230 41 82 65 bd 9a f4 3a 3e 71 65 09 be de f9 da bd
       -0.056032423 0.1825737 -0.13417603 -0.1069219
000240 0c f5 d4 bc 5c fc 37 3d 13 20 68 3d 78 ba f2 3d
       -0.025995754 0.044918403 0.056671213 0.11851972
000250 c1 75 59 bd 89 76 23 3c d9 23 08 be 89 54 e9 3d
       -0.053090815 0.009976991 -0.13294925 0.11393077
000260 9e 1e 33 bd 94 84 6d 3e 2d ec d6 bd b9 bb 0e 3e
       -0.04373037 0.23195106 -0.10494266 0.13938798
000270 3a 1d 39 bd 52 9e bc bd 72 ab 4e be 1f b3 39 3e
       -0.04519389 -0.09209885 -0.20182589 0.18134736
000280 81 07 06 3e 66 7f d2 bc 2b 3c 29 be 7c 8c a1 bd
       0.130888 -0.025695514 -0.16526859 -0.078881234
000290 ae 38 fb 3d a7 4a 9f 3d ce 16 20 3c ee 5a d0 3d
       0.1226667 0.07777911 0.009771062 0.101735935
0002a0 57 1d a1 bd 40 b8 06 bc 20 bf 87 bd cb 46 d5 bd
       -0.07866924 -0.00822264 -0.06628251 -0.10413893
0002b0 83 67 0b bc 6f 16 06 3e de 12 16 bc 13 80 8e 3c
       -0.008508566 0.13094495 -0.009159772 0.017395055
0002c0 60 1b 99 bd ee b9 90 bc 5a a5 ce 3c 9c c5 b0 bd
       -0.074759245 -0.017666783 0.02522533 -0.08631441
0002d0 03 13 fd bb a9 f4 3d 3d 72 34 6b bd cc 42 ea 3d
       -0.0077232136 0.046375904 -0.057423063 0.11438522
0002e0 d0 56 72 bd 9d b6 51 3d 47 04 1a 3d 05 28 7f 3e
       -0.059164822 0.051199544 0.037601735 0.2491761
0002f0 e9 e7 8e 3d fa d4 62 3d 29 4b e2 bd 9d ce b1 3d
       0.06977827 0.05537889 -0.11049492 0.086819865
000300 44 89 31 3d 65 e9 3d 3d f2 de b0 bd eb 40 bb 3d
       0.043343797 0.04636516 -0.086362734 0.091432415
000310 38 90 72 3d 40 ce ba 3d cb b3 01 bd 88 4d ca 3d
       0.05921957 0.0912137 -0.031665605 0.09878069
000320 bf e8 a6 bc 99 5c ba bd 12 d5 0c 3e 76 fa ae 3d
       -0.020374654 -0.09099693 0.13753155 0.085438654
000330 7a 0f 34 bd a4 ba 85 bd b4 7c 12 3c f0 cf f1 3c
       -0.043960072 -0.065297395 0.008940864 0.029518098
000340 96 af e5 3c 60 54 45 3e a2 e7 e7 bd 0a e9 3b bd
       0.028037827 0.19270468 -0.11323477 -0.04587654
000350 d5 fb 13 3c 5b b2 96 bc b5 1a e8 3c a5 fb 17 3d
       0.009032209 -0.018395593 0.028333047 0.03710522
000360 34 0b dd bb 86 df b2 3d df 6a be bd 8a d7 5a bb
       -0.0067457203 0.0873404 -0.09297728 -0.0033392631
000370 90 70 94 3d 71 e5 25 bc ae 3b 26 bd df 68 a0 3d
       0.07248032 -0.010125504 -0.04058426 0.078325026
000380 58 c2 11 3d f4 b1 05 3e 88 30 bf bd ab 9f 86 bd
       0.03558573 0.13056165 -0.093354285 -0.06573423
000390 4b f5 a6 3c ba 1d 8f 3d b7 e6 c3 bc 66 72 13 ba
       0.020380637 0.06988092 -0.023913724 -0.00056246517
0003a0 1e 22 6d 3d 67 4b c0 bc dd d5 ce bc 5a a7 d0 bd
       0.057893865 -0.023473455 -0.025248462 -0.1018817
0003b0 c1 70 0f 3d cb 44 9e be a3 c9 08 3e c6 d4 2f bd
       0.03501964 -0.3091186 0.13358168 -0.042927526
0003c0 77 c9 36 3d bf ed db 3d 62 67 69 3d cb b8 e8 3d
       0.044625726 0.10738706 0.05698336 0.113633715
0003d0 45 fc 78 38 31 c3 0c be e9 64 13 3d 22 b4 80 be
       5.9362752e-05 -0.13746335 0.035984907 -0.2513743
0003e0 15 89 a5 b9 7e cd c0 bd ef 21 f3 bc dd 3b c2 3d
       -0.00031573387 -0.094141945 -0.029679267 0.09484074
0003f0 e5 1f 33 bc 24 3d 27 3e cc 30 0d bd c8 8c 27 be
       -0.010932897 0.16331917 -0.034470364 -0.16362298

gconv1.0.W.weight f4 [140, 140]
000000 98 20 69 ba 26 19 b4 bd 77 fe 7e 3d 8a e9 08 3e
       -0.00088931015 -0.08793859 0.062254395 0.13370338
000010 47 9d e8 bd 06 1a 0f bb 92 a7 41 3d c4 42 48 3d
       -0.11358123 -0.002183558 0.047278948 0.048891798
000020 ba c9 4e 3d c6 a8 32 be 10 6f 3d 3c b5 e9 db 3d
       0.05048535 -0.17447194 0.011562124 0.107379355
000030 5b 02 13 bd 83 49 34 3d 72 b6 68 bd e8 ac c9 bc
       -0.03589092 0.04401542 -0.05681462 -0.024618581
000040 ac db 7e bd 4d 12 29 3d dc 4b 10 3e 72 32 30 be
       -0.062221214 0.04127722 0.14091438 -0.17206743
000050 4a 04 9e 3d c3 80 97 bc 68 71 e7 bc 74 fd 1b 3c
       0.07715662 -0.018494016 -0.028252319 0.009520877
000060 b3 51 60 bc ee 25 1a bd 88 79 17 be 70 23 a2 3d
       -0.013691354 -0.03763383 -0.14792454 0.079169154
000070 29 6f d4 bd 7c 66 c3 bc b2 6f 25 bd b7 7a ab bd
       -0.103727646 -0.02385258 -0.040389724 -0.083730154
000080 01 64 7a 3d a9 d4 f0 3d 18 9f 7e 3d fc 13 b1 bd
       0.061130527 0.11759312 0.062163442 -0.0864639
000090 19 1b ce 3d bd 92 c0 bd 13 ee 20 bd 3e 5e 1e 3e
       0.10063762 -0.09402988 -0.039289545 0.15465638
0000a0 45 2b ee bc f3 8d 37 3c 8f 0f a9 3c 6e 1b 42 3e
       -0.029073367 0.011203277 0.020637302 0.18955776
0000b0 ec da 5d 3d 1f 1e bb bd 09 5d 1e bd 94 57 f7 3b
       0.05416386 -0.091366045 -0.038662944 0.007548282
0000c0 d0 01 e0 3d 1e 78 a9 3d 08 9e 4b 3d 8f 4f 55 bd
       0.10937846 0.08274864 0.049711257 -0.052077826
0000d0 0a 2b ba 3d e5 79 3d 3e 84 e0 fd 3c 3b f2 e7 bd
       0.0909024 0.1850353 0.030990846 -0.11325499
0000e0 5f 05 81 3c c3 59 a8 3d 58 70 1c 3c f0 65 4c be
       0.015749631 0.08220246 0.009548269 -0.19960761
0000f0 3e d4 bb 3c 8e 7a 41 bd c3 f9 f5 3d 8a 5c cf bd
       0.022928353 -0.047236018 0.12010529 -0.10125072
000100 79 98 2e 3e b0 5e a7 3d de 1e d7 3d c0 5c 13 3d
       0.17050351 0.08172357 0.10503934 0.035977125
000110 29 98 73 3b 07 96 71 bd 95 35 2a bd 71 48 6a bd
       0.0037169552 -0.058980968 -0.041555006 -0.05719799
000120 5c fc 69 bd 13 04 dc bd 94 9d 2f bd b8 5a 30 be
       -0.057125434 -0.107429646 -0.042874888 -0.17222106
000130 8a bb 32 bd f9 8c 84 3d 63 ed 0e be 6f cb f4 3b
       -0.043635882 0.06472201 -0.13957743 0.0074705402
000140 38 34 7c 3d a0 3c d5 3c 49 c0 66 bd fb 29 4b 3d
       0.061573237 0.026029885 -0.05633572 0.049600583
000150 40 a6 15 bc a1 be c9 3d 35 49 b4 bd dc 53 e7 bd
       -0.009133875 0.09850813 -0.08803026 -0.11295292
000160 db c7 c8 3d 64 ad 6d bd 2c 61 e4 3d 86 14 62 3b
       0.098037444 -0.058026686 0.111513466 0.0034497096
000170 93 06 c6 3d d3 9d 43 be e0 db e6 3c 04 f0 2b bd
       0.09669223 -0.19103174 0.028181016 -0.041976944
000180 3a d3 fd bc de 3b 2a 3d 29 a4 f1 3d c8 20 f6 3c
       -0.03098451 0.041561 0.11798889 0.030044928
000190 50 9b 9d 3c 76 fb eb bd a1 4f 54 bd a4 a0 3a bd
       0.019239098 -0.11522572 -0.051833753 -0.045563355
0001a0 e4 a8 20 3d ee c1 a5 bd c6 5c 8a bd 01 25 56 3d
       0.039223567 -0.0809363 -0.067559764 0.052281383
0001b0 9c 2f 2f bd 05 32 30 be b4 ff 9c bc d3 d5 dc bd
       -0.042770013 -0.17206581 -0.019164898 -0.10782971
0001c0 26 8c ec 3d 1a 1a 48 bd b5 5b 56 bd 0d 04 ae 3d
       0.11550169 -0.048853017 -0.052333552 0.084968664
0001d0 10 b8 0c 3d 77 56 ed bd bb 84 b3 3d 82 de c4 bd
       0.034355223 -0.115887575 0.08765551 -0.096127525
0001e0 19 9b fc bc 98 85 34 be 02 ef 35 be a0 bf c3 bc
       -0.030835675 -0.17629087 -0.17766955 -0.023895085
0001f0 64 c0 2c be de 8f 41 3d 23 b8 04 be 36 ec 21 bd
       -0.16870266 0.047256343 -0.12960868 -0.03953191
000200 51 a1 62 3c fc 40 67 bc 86 82 97 be ae e5 01 bc
       0.013832406 -0.014114615 -0.2959177 -0.007928295
000210 5f 04 8f 3d 89 a3 96 bd 71 ac 47 bd 0a aa 9e bd
       0.069832556 -0.073554106 -0.048748437 -0.07747276
000220 ef 3c 80 3d 1e be 81 bd fe 80 f2 bd a2 bc 84 3b
       0.06261622 -0.0633509 -0.118410096 0.004050807
000230 20 e4 bb 3d 50 22 68 bd cf a3 20 3d 42 ec 52 3e
       0.09174371 -0.056673348 0.03921872 0.20597938
000240 7d 36 30 bd dc 08 d1 bd 76 11 02 3b 0c be 87 3c
       -0.043020714 -0.10206768 0.0019846833 0.016570114
000250 21 3e 26 bd c4 b4 74 3d cb 81 af 3c 44 48 8e 3c
       -0.040586594 0.059742704 0.021424195 0.017368443
000260 56 3f 98 bb 49 00 b8 bd e0 f8 4d 3d 7b 4c ec 3d
       -0.004646222 -0.089844294 0.050286174 0.11538025
000270 e0 a6 71 3e fe 5e 94 bd 68 80 dc bb 08 6a c5 3d
       0.23598814 -0.07244681 -0.0067291744 0.096393645
000280 6a f0 83 bc 21 31 50 bd 0e a1 b1 bc 93 23 a4 bb
       -0.01610585 -0.050828103 -0.021683242 -0.0050091236
000290 97 6d 9b 3b 3f 61 ff bb 85 cb 99 bd e7 52 06 be
       0.0047432887 -0.007793575 -0.075095214 -0.13117562
0002a0 13 80 b0 3c 0a c3 ba 3d 83 35 a5 3d bd 27 78 bb
       0.021545446 0.09119232 0.08066847 -0.0037865483
0002b0 6e 8c c6 3d 6a 3b f5 bc 32 e0 ec 3d 83 ad 22 bd
       0.096947536 -0.029935557 0.11566199 -0.039716255
0002c0 23 df c6 3b 55 eb 87 3d 8e 3c 91 3b 6e 76 7e bd
       0.0060690804 0.06636683 0.0044322675 -0.062124662
0002d0 48 60 25 bd e4 22 77 bc ba a9 ad bc eb 20 df 3d
       -0.040375024 -0.015084002 -0.021199096 0.108949505
0002e0 c7 fa 8a 3a 54 81 df bd a5 b6 41 3e 2b d5 02 be
       0.0010603302 -0.10913339 0.1891733 -0.1277663
0002f0 65 e4 1d 3d 4b 48 b4 3d 11 f1 48 bc d3 e5 f8 3c
       0.038547892 0.08802851 -0.012264506 0.030383026
000300 38 31 03 be fc d9 52 be af e1 c5 3d 1c b8 21 3e
       -0.12811744 -0.20590967 0.09662186 0.15792888
000310 d1 f0 c2 bd 35 e8 12 be d0 25 34 3d ae d9 93 bd
       -0.09518588 -0.14346392 0.043981373 -0.072192535
000320 20 27 d1 bb 2f a7 42 bc 2c b7 ca 3c 37 24 f1 3d
       -0.006382838 -0.01188068 0.024745546 0.117744856
000330 52 89 8f 3d 18 c4 b1 3d 47 a2 60 be 65 60 15 3e
       0.07008614 0.0867998 -0.21936904 0.14587553
000340 d7 1e bf bd a7 a1 20 bd 7e 53 65 3d 5b 80 4a 3d
       -0.09332054 -0.039216664 0.055987827 0.049438816
000350 2e 2f 55 3d f3 25 90 3d 1e cc 83 3e 3f 98 9c 3b
       0.052046947 0.07038488 0.25741667 0.0047788913
000360 f5 3d 1e be 99 04 3c bd 81 d5 00 3d 6c 6a 03 3e
       -0.15453322 -0.045902822 0.031453613 0.12833565
000370 d8 c4 e1 bc a3 c1 08 be 3b 50 0b 3e 6c fd b0 3c
       -0.027559683 -0.13355117 0.13604824 0.021605216
000380 af 0c 84 3d 16 a8 a1 3d e3 36 92 3c 8f b9 0b be
       0.06447732 0.07893388 0.017848438 -0.13645004
000390 b8 1c e4 bd a1 e1 9b 3c d4 8d 88 bd be a5 c3 3d
       -0.1113829 0.019028487 -0.066676766 0.09553097
0003a0 7f 8a 85 3d 19 6e ab bc fd 22 16 3e a7 3f 57 be
       0.06520557 -0.020926522 0.14661784 -0.21020375
0003b0 46 fa 44 3d 35 f3 b7 bd 8e 5c 29 3c 40 a1 37 3d
       0.04809024 -0.08981935 0.010337008 0.044831514
0003c0 cf 5e 7f 3d 9e 50 d9 3d 3b 13 b7 bd 05 a8 b5 3d
       0.062346276 0.1061108 -0.08939215 0.08869938
0003d0 85 85 53 bd 3b 5a 0d bd c9 41 02 bd 74 07 bc 3c
       -0.051641006 -0.03450988 -0.03180102 0.022952773
0003e0 14 47 70 3d a7 9b 27 be 84 7c e4 3d 81 8a 73 3d
       0.058661535 -0.1636797 0.11156562 0.05945826
0003f0 de be b9 bd 28 e8 d5 bd 03 60 58 bc 7a f1 06 3e
       -0.09069608 -0.10444671 -0.013206485 0.13178053

gconv1.0.W.bias f4 [140]
000000 3b b7 a8 3d 7d 78 a4 3c da 9d b3 bc 70 85 21 3d
       0.082380734 0.020076985 -0.021925855 0.039433897
000010 f6 8a 09 bc a9 76 73 bd 2c e6 1b 3c a7 ba c3 bd
       -0.008394947 -0.059439335 0.0095153265 -0.095570855
000020 75 c7 2a bd 89 89 af 3d 03 16 6a 3d fe 54 90 bd
       -0.041694123 0.085711546 0.0571499 -0.07047461
000030 95 a2 23 3d 97 ce 83 3d 52 84 b2 3d 77 34 a7 bb
       0.039949972 0.06435888 0.08716644 -0.00510269
000040 44 2c 53 bc 7d 27 d8 bb eb 3f 66 bd 40 86 5c bd
       -0.012888972 -0.0065965042 -0.0562133 -0.05383897
000050 ff 7e 75 3d 64 8b bc 3d 80 91 8b bc 72 7a c1 3d
       0.059935566 0.09206274 -0.017037153 0.09447183
000060 0e d8 55 bd 08 de b2 bc 8e 81 8f bd 05 97 9b bd
       -0.052208 -0.021834388 -0.070071325 -0.07597164
000070 ef d1 a1 3c 8d 96 b5 3b e1 56 29 3d f3 ff 7e 3d
       0.019753424 0.0055416287 0.04134262 0.06225581
000080 6f 49 16 bd 6e bf 3f bb df 24 3e bd a3 65 6b 3d
       -0.036691125 -0.0029258388 -0.04642188 0.057469975
000090 3a 07 56 3d ae 3b a2 bd f1 3d 60 3d 39 66 54 3d
       0.052252986 -0.07921539 0.054746572 0.0518553
0000a0 41 1c b2 3d 97 67 a7 bc 86 b2 71 3d b5 00 9d 3d
       0.08696795 -0.020435138 0.059008144 0.076661505
0000b0 aa f0 af bc b2 13 1c 3d 10 38 1a bd 3d 32 6d 3c
       -0.021477062 0.03810472 -0.03765112 0.01447731
0000c0 9f d1 d1 3d f2 6c 10 3d 2c bb a6 3d 0b f8 ac bd
       0.1024506 0.03526015 0.08141169 -0.08445748
0000d0 24 6d 20 bd a1 b4 2b 3c bb b2 93 bd 1b be ca 3c
       -0.039166585 0.010480077 -0.072118245 0.024748852
0000e0 74 a3 12 3c 0f f4 5b 3c bb 85 43 3d 45 2e 49 b9
       0.008950103 0.013424887 0.047734957 -0.0001918609
0000f0 4b ad a6 3a 00 36 86 3d ac 66 d6 bb 72 21 7c 3d
       0.001271644 0.065532684 -0.006543001 0.061555333
000100 ab 33 fb bc e6 fe a5 bd c9 dc a8 3d 7a be 1c 3d
       -0.030664286 -0.08105259 0.082452364 0.03826759
000110 7e 73 99 3d 30 e6 00 bd ab d2 81 bd 17 a3 5f bc
       0.074927315 -0.031469524 -0.0633901 -0.0136497235
000120 61 c2 a5 bd 05 b3 1b 3c 23 7a c6 3c ab bb c9 b9
       -0.080937155 0.009503131 0.024228161 -0.0003847753
000130 15 65 49 bd c1 38 bd bc 41 f8 08 bd 77 d0 47 bd
       -0.049168665 -0.023098351 -0.03343988 -0.048782792
000140 40 44 57 bc 44 f5 9f 3c 1e 35 6b bd 3e c3 6c 3d
       -0.013138831 0.019526131 -0.057423703 0.057803385
000150 62 49 a9 bd b5 84 98 bd 66 f2 30 bd 87 1f 5a bb
       -0.0826595 -0.07447187 -0.04319992 -0.0033282952
000160 1e a6 a2 bb f8 80 5b bb 87 40 46 3d b4 c4 0b bd
       -0.0049636504 -0.003349362 0.04840138 -0.034123138
000170 04 f3 92 3d f2 86 88 3a 10 e1 ed bc b8 22 36 bd
       0.07175258 0.0010416193 -0.029037982 -0.044466704
000180 55 e2 69 bd 81 7d f3 bc cc a4 9d bc 83 e9 8c bd
       -0.057100613 -0.02972293 -0.01924362 -0.06880476
000190 50 b0 7e bb a5 72 52 bd 6b 5d 50 3d 1a 07 07 3d
       -0.0038862415 -0.051378865 0.05087034 0.032965757
0001a0 99 70 23 3d 71 cd 84 3d e2 f1 83 3d 43 cf 31 bd
       0.039902303 0.06484497 0.0644262 -0.04341055
0001b0 2b 57 34 bc 11 8a 72 3d 14 7f 2d bd 58 22 11 bd
       -0.011007111 0.0592137 -0.04235752 -0.035433143
0001c0 34 56 59 bd b1 d8 d5 bd be 1c 96 bc ee 9f a0 3d
       -0.053060725 -0.10441721 -0.018324252 0.07843004
0001d0 9f be b5 3b 10 2c 1e bd a7 b0 80 3d 89 0d 95 3c
       0.0055464054 -0.03861624 0.06283694 0.01819493
0001e0 0e 5d 44 3d cb e6 fb 3c 93 7d 62 3d a2 2c 46 bd
       0.047940306 0.0307497 0.05529554 -0.04838241
0001f0 c8 ce 57 bd 79 d4 8d bb be bb be 3a 73 31 5c bc
       -0.052687436 -0.004328307 0.0014551801 -0.013439524
000200 cf 3e 4f bd 19 91 16 bd bf fd c3 3b f3 43 24 bd
       -0.05059701 -0.03675947 0.0059811766 -0.040103864
000210 76 50 2a bc 3b c1 06 bd 5b 8c a0 3d 9b e9 93 3d
       -0.01039516 -0.032899123 0.07839271 0.07222291
000220 7b 3b 71 3d b3 15 ce 3c c7 95 00 bd ba d4 30 3d
       0.058894616 0.025156831 -0.03139284 0.04317162

gconv1.0.gate.weight f4 [1, 280]
000000 2c 6f 08 bc 11 9f 83 bd 7b f1 63 3c 53 76 26 3d
       -0.008327287 -0.06426824 0.013912554 0.040640187
000010 cf 1b 92 bd 8c ad 71 3d bb eb b1 3a d3 c0 d9 3c
       -0.0713421 0.059003398 0.0013574281 0.026581204
000020 cf e4 1c 3d d6 c6 84 3c ad 58 58 3d 51 48 f3 3c
       0.038304146 0.016208094 0.052818943 0.02969757
000030 96 f0 80 bc b7 4d b8 3c 6a 7a 7c bd e4 39 ad 3d
       -0.01573972 0.022497995 -0.06164018 0.084583074
000040 12 ec 68 3d 92 e1 5b 3d da 99 b2 3d 61 f0 07 3c
       0.05686576 0.053681917 0.08720751 0.008297057
000050 34 0c 92 3c 49 fe bc bd db ef b4 bd 97 93 0c 3e
       0.017828085 -0.092281885 -0.08834811 0.13728176
000060 6e a1 e8 bd 39 9e 2a 3e 2a 23 20 be d5 aa 10 3e
       -0.11358915 0.1666192 -0.15638414 0.14127667
000070 1a 3d 3c be 53 2d 38 3d 5d 3f 08 bd b2 00 c2 3d
       -0.18382683 0.0449651 -0.033263553 0.09472789
000080 59 36 8c bd 4b ab c2 bd 16 3d 5a bb e2 95 8e 3c
       -0.068463035 -0.09505328 -0.003330057 0.017405454
000090 3e b2 77 bd 44 62 b1 3c d5 91 e0 bd 7c 85 8c 3d
       -0.06047272 0.021653302 -0.10965315 0.068613976
0000a0 57 56 42 be 57 c8 19 bd dc cb 6a 3d 19 e3 e5 bc
       -0.18978249 -0.037544575 0.05732332 -0.02806239
0000b0 6d 9f 0a 3e 21 d0 1a 3c 0a e3 c6 bd af 05 8b bd
       0.13537379 0.009449036 -0.09711273 -0.067881934
0000c0 01 dc 8a bd 0d 89 79 3d 24 10 58 3b 18 3a f6 3d
       -0.06780244 0.060921717 0.0032968605 0.12022799
0000d0 47 8b 50 bd b1 5b 01 3d df 5f 91 bb fc b5 30 3d
       -0.050914075 0.031581584 -0.0044364776 0.043142304
0000e0 61 cd 4d 3d a4 cf b3 3c 13 40 79 bc 35 80 0c be
       0.050244693 0.021949597 -0.01521303 -0.13720782
0000f0 f0 1e 4c 3d 0b e7 05 3d f0 2b 18 3e ed 1b 61 3d
       0.04983419 0.032691043 0.14860511 0.054958273
000100 01 da 3f 3e 12 fb 90 bd e0 04 47 3b 9e f6 41 3c
       0.18735506 -0.07079138 0.0030367896 0.011838583
000110 47 65 ea bd eb 8f c7 bd e7 35 2e 3d 99 d4 c1 3d
       -0.11445098 -0.09744247 0.042531874 0.09464378
000120 23 f5 dd 3d a2 49 18 be 71 ef 01 be f0 ba 18 be
       0.10837772 -0.14871839 -0.12688996 -0.14915061
000130 11 de 06 bc 15 0c b6 3d d1 fc 3c 3e e2 34 cd bc
       -0.008231656 0.08889023 0.18455817 -0.02504963
000140 d9 98 4f 3d 69 eb 24 b7 c8 f9 ae bc 9a 91 eb bd
       0.050682876 -9.829972e-06 -0.02135934 -0.11502381
000150 a5 55 ef 3c b0 df ab bc 07 b0 74 bd c3 11 1a bc
       0.029215643 -0.020980686 -0.059738185 -0.009403649
000160 9f a4 21 bd 61 10 43 3d 18 61 6c 3d fd 28 ff 3d
       -0.039463636 0.047623042 0.057709783 0.1245899
000170 27 78 62 bd f6 14 24 be 86 a2 85 bd 8f 61 37 3d
       -0.055290367 -0.16023621 -0.065251395 0.044770774
000180 e2 1f 18 bc 96 34 8e bb 6a d1 a3 bd f9 c7 c2 bd
       -0.009284945 -0.004339765 -0.07998927 -0.09510798
000190 6f 01 90 bd b0 e6 9a bc e1 ab a7 3d 4f 95 5c 3d
       -0.070315234 -0.018908828 0.0818708 0.05385333
0001a0 ed f3 1d 3c 7e 96 93 3d df 92 9b bd a3 44 6b 3c
       0.009640676 0.072064385 -0.07596373 0.014359626
0001b0 28 2b 86 3d d8 d1 c0 3c d0 5a 13 3d d1 6a f0 bd
       0.065512 0.023537561 0.035975277 -0.117391236
0001c0 f6 b3 a4 bd bb 11 84 bc 6d 48 bf bd d6 bf 4b 3d
       -0.08042137 -0.016121736 -0.09339986 0.049743496
0001d0 91 99 5a bc 56 ab ab 3d 6a ba 96 bc 06 c8 e5 bd
       -0.013342277 0.08382289 -0.018399436 -0.11219792
0001e0 1a 9f 1c 3c c7 cc e9 3d db 1e 50 bc 8d 72 e9 3c
       0.009559417 0.11416011 -0.012702669 0.028497005
0001f0 41 f3 70 3d 69 d6 93 3d dd 76 fb 3a 4d 2f af 3d
       0.058825735 0.0721863 0.0019185204 0.08553944
000200 c8 23 8a bd 20 89 68 3d 34 0f c5 3d 09 f2 14 3c
       -0.06745106 0.056771398 0.096220404 0.009090909
000210 bb 80 d1 3d f3 34 83 bc 06 33 01 bd f8 b8 d3 3d
       0.102296315 -0.01601646 -0.0315428 0.10338014
000220 83 70 d9 bb 65 de e4 bd 9e 7b 19 be 77 fd 97 3b
       -0.006635727 -0.11175231 -0.14988562 0.0046383697
000230 9f 4d 63 bd 5f 2e e4 3d 39 68 83 3d 1c cd 10 bc
       -0.055493947 0.11141657 0.06416363 -0.008837964
000240 c2 34 9b bc 51 28 be bd 81 56 9d 3b 61 1e 91 bd
       -0.018946055 -0.092850335 0.004801572 -0.070858724
000250 5a c1 d1 3d ec a2 0d 3d 8e e7 96 3d 3a c1 48 bd
       0.10241957 0.034579203 0.07368384 -0.0490124
000260 ff d5 28 3d ad bc 80 3d ae c5 c2 bd af ab 18 3e
       0.041219708 0.06285987 -0.09510361 0.14909242
000270 39 06 ba bd 7d 3c d4 bd be f8 3c bd 00 09 bf 3d
       -0.09083218 -0.103631 -0.046135657 0.093278885
000280 d0 d9 fb bd 2b be a5 3d 26 23 cf bb 26 b4 5b 3d
       -0.12297404 0.08092912 -0.0063213287 0.0536386
000290 2b c7 46 bd f6 1a 28 3b 3e 5e 67 bd 4c a2 b5 3d
       -0.048529785 0.0025650836 -0.05648636 0.08868846
0002a0 dc 7c a3 bd f2 76 89 bd 84 35 eb 3b 65 25 15 3e
       -0.079827994 -0.0671214 0.0071780104 0.14565046
0002b0 10 d3 8e bd f9 5a 85 3b 04 d2 04 3e 40 42 63 3b
       -0.06973851 0.0040696827 0.1297074 0.003467694
0002c0 84 ec 48 3e 25 f3 02 3e d7 bb d9 3d fa 1e a7 bd
       0.19621474 0.12788065 0.10631531 -0.08160205
0002d0 37 04 97 bd 2a 17 d6 bd 22 13 ee 3d 35 ae e2 bd
       -0.07373851 -0.10453637 0.11624743 -0.110683836
0002e0 71 25 38 be 01 d3 c5 3d 1f 23 10 3e f7 8e 84 bd
       -0.17983033 0.096593864 0.14075898 -0.06472581
0002f0 a5 92 7b 3d 74 25 bc 3d ef 5e 01 3e 75 46 83 bc
       0.061419148 0.09186831 0.1263387 -0.016024807
000300 fc 6e bc 3c 47 88 d4 bb b1 59 fd bb 7e 61 05 3d
       0.02300214 -0.006485972 -0.0077316393 0.03256368
000310 8d b8 24 3e 57 e9 73 bd 71 8d 43 3e ee bd 88 3e
       0.16086026 -0.059548702 0.19096924 0.26707405
000320 0c 5b 2e be 9f 3d cf 3d 86 cd be 3d 09 cc 00 3e
       -0.17026919 0.10119175 0.09316544 0.12577833
000330 de 88 3a be fc 5d 08 bd 42 af 11 3e d4 30 75 3e
       -0.18216273 -0.033292755 0.14227012 0.23944408
000340 07 3f 84 3d 68 e6 32 3d 6a c5 c5 3c 62 ba 46 3e
       0.06457334 0.043676764 0.024141986 0.19407037
000350 cf f8 70 3d 66 5c 70 3d 36 24 91 3d 36 a1 34 be
       0.058831032 0.058681868 0.07086985 -0.17639622
000360 e7 d3 0d bd 2e a3 3c 3d 77 c7 a6 3d 9b 58 25 bc
       -0.034625914 0.046054058 0.08143514 -0.010091926
000370 db cd 9a bd c2 f1 32 bd 2f f7 4c 3e 73 01 50 bd
       -0.07558795 -0.04368759 0.20016168 -0.050782632
000380 59 c0 72 bd 02 58 16 bc 4a bd 94 3d 34 9e 51 be
       -0.05926547 -0.009176256 0.072626665 -0.20470506
000390 d1 b8 f0 3c 5f 31 47 be 5b 03 5e 3d 3a f0 00 be
       0.029385002 -0.19452427 0.05420242 -0.12591639
0003a0 31 d8 3a 3e f1 00 92 bd 55 4c 5d 3e 5c 25 87 bd
       0.18246533 -0.07129086 0.2161115 -0.065989226
0003b0 d7 7a ec bc a5 83 14 be f8 5a a9 3d d4 8f 7e bd
       -0.028867168 -0.14503343 0.08269304 -0.062148884
0003c0 00 e6 28 bc 3a 29 ca bd 43 54 8e 3d 92 d9 02 3d
       -0.0103087425 -0.098711446 0.069496654 0.031945772
0003d0 cd 39 87 bd e4 2e e1 3a c6 62 13 3d 35 c0 8f 3d
       -0.066028215 0.0017180112 0.03598287 0.070190825
0003e0 94 b7 b1 3d c1 bf 98 bc 1d 91 0b 3c 39 d3 b6 bd
       0.08677593 -0.018646123 0.008518484 -0.08927006
0003f0 7a a8 3d 3e e5 0d ec bd 4c cc f1 3d 24 55 bb 3d
       0.185213 -0.11526088 0.11806545 0.09147099

gconv1.1.A f4 [140, 140]
000000 1e ff c8 3d 87 be 8c 3d 9d 70 1c bc 4f b3 76 bd
       0.09814285 0.06872278 -0.0095483335 -0.060229596
000010 4b 37 d5 bd 46 98 f5 bc f8 6b b0 3d 10 bc c9 3d
       -0.10410937 -0.029979836 0.086143434 0.09850323
000020 31 d4 49 bd 8e 47 84 3d 3f 6a e8 bd 5e 5d fb 3d
       -0.049274627 0.064589605 -0.1134839 0.12273668
000030 61 cc 94 bc 19 1d 6e 3b b8 6c e2 3c 3a 63 1e be
       -0.018163862 0.0036333262 0.027639732 -0.1546754
000040 e4 ea 9a 3c 74 84 37 3c 1c fd 0f 3d 4a 05 49 3d
       0.018910833 0.011201013 0.035153493 0.04907731
000050 6e 49 90 3c c2 b9 c2 3b fb 2c a1 3d 2c 70 99 bd
       0.017613139 0.005942554 0.078699075 -0.07492098
000060 40 cf 59 3e 20 20 f3 bd 8b 5a d7 3d 0d d4 af bd
       0.21270466 -0.11871362 0.105153166 -0.08585367
000070 35 65 1e be 90 32 e2 3c c2 a6 88 3c 34 55 b6 3d
       -0.15468295 0.027612 0.016681079 0.0890297
000080 9d 89 78 3d 29 b9 75 bd ae f2 b5 39 26 50 d3 bc
       0.060678113 -0.059991036 0.0003470382 -0.025795054
000090 3c c0 12 bd 80 a9 78 bd 2a 2a bd 3c 35 6a ef 3d
       -0.03582786 -0.060708523 0.023091394 0.11690179
0000a0 77 40 c6 3d c5 a4 4a 3b 5f 82 11 be c6 df 0e bc
       0.096802644 0.0030920964 -0.14209889 -0.008720344
0000b0 f7 2c f6 bc af 49 7a 3d 77 1d 20 3d 14 59 80 bd
       -0.030050738 0.061105426 0.0390906 -0.0626699
0000c0 96 85 d4 bd c5 02 a9 bc 94 14 c1 bc 0b 36 ed 3d
       -0.10377042 -0.020631203 -0.023569383 0.115825735
0000d0 62 f5 3f 3d da 90 aa bb a8 6b b8 3d 9e 09 18 3d
       0.046864875 -0.005205256 0.09004909 0.037118547
0000e0 21 1f 13 3e 1d e3 c1 bd 56 65 f0 3c 98 a2 a2 bd
       0.14367343 -0.094671465 0.029345196 -0.079411685
0000f0 d8 f9 7c 3e 4b b0 44 be 86 ab 16 bd e6 a5 ae 3d
       0.24704683 -0.19207875 -0.03678467 0.08527736
000100 74 38 8d 3d 90 03 0b be fe 33 86 bd 40 c0 2d be
       0.06895533 -0.13575578 -0.065528855 -0.16967869
000110 a1 6f de bd 7e 39 5b 3c c8 e6 85 bd 1a 1a b2 bd
       -0.10861135 0.013380406 -0.06538159 -0.08696385
000120 c0 93 57 bd bb 9d 93 bd 74 01 fb bd 76 2d 1d bb
       -0.05263114 -0.07207819 -0.122561365 -0.0023983396
000130 dc 5a f6 bd 4a 53 8b bd d0 88 ed bb d5 d6 fa 3b
       -0.12029049 -0.068029955 -0.0072489753 0.0076550045
000140 44 b7 50 be 3d 0d 68 3d 65 12 02 bc 63 a7 c8 bc
       -0.2038241 0.05665325 -0.007938956 -0.024493879
000150 a4 a0 eb bd 06 17 14 be 33 dc a4 3d f2 95 9e 3d
       -0.11505249 -0.14461908 0.08049812 0.077434435
000160 36 38 b7 bc 6b 28 0f bb 71 c2 42 3d 5b 1c c0 bd
       -0.02236567 -0.002184416 0.047548715 -0.093804084
000170 54 26 e8 bc 03 a0 3e bd 05 af 2f 3d 4d f7 d0 bc
       -0.028338589 -0.046539318 0.04289152 -0.025508547
000180 95 3e 36 3e 79 39 04 be 71 44 a7 be da 7f 17 3e
       0.1779731 -0.12912549 -0.32669404 0.14794865
000190 7c ea a9 bc 47 c0 39 3e aa 97 e4 3d 3c c1 fb bd
       -0.020741694 0.18139754 0.1116174 -0.12292716
0001a0 fc 92 8b 3c d6 e0 16 bd 36 f1 fd 3d 9d c7 76 3d
       0.017037861 -0.036835514 0.12399523 0.06024896
0001b0 08 fc f0 bd ab 52 ee 3c 12 17 8b bd 04 e5 13 3e
       -0.11766821 0.029092154 -0.0679151 0.14442831
0001c0 95 64 d1 bc 18 e9 f0 3d f2 d5 ce bd 2c b3 a7 bd
       -0.025560657 0.11763209 -0.100994006 -0.08188471
0001d0 db c4 61 bd dd fa 9a 3d 3b f5 b9 3c fe 3c b3 bd
       -0.055119377 0.075673796 0.022699943 -0.08751868
0001e0 77 66 0c be 84 a7 37 bc 62 7b ad bd a5 25 d6 bd
       -0.13710962 -0.011209372 -0.08470799 -0.10456399
0001f0 39 dc 13 3e 72 91 1d ba 3d 5f f2 bc 57 66 b7 bd
       0.14439477 -0.0006010748 -0.029586429 -0.08955067
000200 56 bc 54 3b 42 4b 88 bd 08 56 0d be 33 29 2f bd
       0.003246089 -0.06654979 -0.1380235 -0.0427639
000210 af ba 11 be ed d6 c2 bd f6 98 ec 3d 38 cc 2a be
       -0.1423137 -0.0951365 0.115526125 -0.16679466
000220 7b 84 55 be 37 53 b4 3d 66 cb e8 bc 39 78 32 3d
       -0.20851319 0.088049345 -0.0284173 0.043571685
000230 23 f1 c5 bd 9a e8 cb bd 25 12 08 be 92 96 15 be
       -0.09665134 -0.099564746 -0.13288172 -0.1460822
000240 e5 7a 58 bc be b5 d2 b9 11 2e 82 bd ca e6 95 bc
       -0.013212894 -0.0004018973 -0.06356443 -0.018298525
000250 e7 55 ec bd 57 a0 21 3e 9d 19 d4 3d c5 55 ec bc
       -0.11539822 0.15783821 0.10356448 -0.028849492
000260 d1 36 6d be 70 95 89 bd bf 40 59 3e 6a 29 0b 3e
       -0.23165442 -0.06717956 0.21216105 0.13590017
000270 fe ed e7 3c 09 7f 12 3e b4 db e5 3d 87 9a 5a 3c
       0.028311726 0.14306273 0.11223546 0.013342506
000280 9c 13 9a 38 7b 22 d3 3d 23 bc c1 3b f5 0e 43 3d
       7.346945e-05 0.10309311 0.00591232 0.047621686
000290 07 29 ed bc 97 13 de 3d 83 85 bd bc 35 f0 0c 3e
       -0.028950227 0.1084358 -0.023134952 0.13763507
0002a0 c5 bc 21 3e 89 65 70 bb b5 ce 39 3d 52 4c 24 bd
       0.15794666 -0.0036681613 0.045363147 -0.040111847
0002b0 75 14 9f 3d 70 dd c3 bc a0 6c 25 3d e5 5c f5 bc
       0.07767574 -0.0239093 0.040386796 -0.029951522
0002c0 e2 b6 24 3d 2f aa fe 3c 80 29 ed 39 5b e5 b5 bc
       0.040213473 0.03108701 0.00045235083 -0.022204092
0002d0 0e d4 11 bd 69 e3 e0 bd b7 75 15 bb f6 87 93 bd
       -0.03560262 -0.10980875 -0.002280576 -0.07203667
0002e0 b1 b4 f3 3d 43 2c 7f bc 79 a3 85 bd 27 6c 40 3e
       0.118996985 -0.015574518 -0.065253206 0.18791257
0002f0 2d c2 32 3b 7e 3a 2d 3e c4 bf 86 3d aa dd 9a 3d
       0.0027276382 0.16916844 0.06579545 0.0756181
000300 b6 9c 2d bd 84 7c 85 bd e3 45 07 be be 78 8d 3d
       -0.04238578 -0.0651789 -0.13210253 0.06907795
000310 52 6c e3 bc 46 13 14 3e f2 86 ee b9 cf 8b 77 3d
       -0.027761612 0.14460477 -0.0004549544 0.060436066
000320 23 92 38 3e bf d0 43 3d 71 ea 36 bc 58 f7 45 bd
       0.18024497 0.047806498 -0.011164294 -0.04833159
000330 94 65 c4 bc 58 7a f3 3d a3 1d 3a 3d 7e 69 32 bc
       -0.023974217 0.118885696 0.04543842 -0.010889409
000340 1b a0 16 3e 2b 6c 6a 3b bd a5 55 bd 17 dd ee bd
       0.14709513 0.003577004 -0.052160013 -0.11663263
000350 05 70 89 3c 7e 77 0e bd c1 83 0f bd f0 1a 18 3d
       0.016777048 -0.034781925 -0.03503776 0.037135065
000360 99 fa fe 3d 9f df 3a be 23 9b 96 bd f1 e4 87 bd
       0.124501415 -0.18249367 -0.07353809 -0.06635464
000370 45 53 91 3d d5 cc 2c bd 53 a8 21 be 60 b7 63 3d
       0.070959605 -0.04218753 -0.15786867 0.055594802
000380 43 b2 94 bc 18 cb 00 3d 60 28 0f be 9b 30 d8 3d
       -0.018151408 0.031443685 -0.13980246 0.10556146
000390 48 10 e7 3c 10 19 17 bd 86 37 92 3c 6b 2f 53 bd
       0.028206006 -0.036889136 0.017848741 -0.051558893
0003a0 79 90 64 bd 77 0a 6c 3d ce 3e 9e 3d 80 96 47 bd
       -0.055801842 0.057627168 0.07726823 -0.048727512
0003b0 b5 28 99 bd 88 b8 c7 bc 37 cc 91 bb 65 c7 25 bc
       -0.074784674 -0.024379984 -0.004449393 -0.01011834
0003c0 f6 21 86 bd 98 e5 25 be 67 06 df bb 45 cd 0f bc
       -0.06549446 -0.16200864 -0.006806183 -0.008776967
0003d0 4d 97 90 3d 91 71 04 3e ab 5b 9c 3b c6 15 a9 3d
       0.07060108 0.12933947 0.00477167 0.08256106
0003e0 ee b2 7d bd 4e 2b 41 bc 41 72 22 3e 16 ff cf 3d
       -0.06193822 -0.01179011 0.15863897 0.10156076
0003f0 20 cf ee 3c 9e 9d 48 bd 20 a3 81 3d 3d 61 9c bd
       0.0291515 -0.04897844 0.06329942 -0.07635734

gconv1.1.W.weight f4 [140, 140]
000000 ba 13 2b 3d 4d 19 2a 3c de 16 09 3e 11 3b 12 bd
       0.04176686 0.010382009 0.1338763 -0.03570086
000010 da d9 b6 3d d8 77 3c 3d 04 37 cf bc 5a 50 68 3c
       0.08928271 0.04601273 -0.025294788 0.014179314
000020 73 ac 4d 3c d7 84 3a 3b 02 34 73 bd b8 0c 83 3d
       0.012553322 0.0028460526 -0.05937577 0.0639891
000030 84 da df bd b6 8a 06 be ba d8 82 3c c6 2c 88 bd
       -0.109303504 -0.13138852 0.015972484 -0.06649165
000040 86 de c5 bc 4b 7f df bc 85 bb 29 3b 28 ca 26 3d
       -0.024153959 -0.027282378 0.0025899124 0.040720135
000050 18 ae a0 bc 26 48 52 bc 49 0c 4f 3d 59 26 9f 3b
       -0.019614264 -0.012834584 0.050548825 0.0048568663
000060 ab 76 bf 3d f9 d7 a5 bd 21 94 9c 3d 7c 28 96 bd
       0.09348806 -0.08097834 0.07645441 -0.073319405
000070 cb 91 a3 3d e4 d7 4b bb 3b 68 61 be dd d0 3a 3d
       0.07986792 -0.0031104023 -0.22012417 0.045609344
000080 d4 11 b3 3d e5 ad b9 bd 45 cd 0f be 0f 13 28 3e
       0.08743635 -0.09066371 -0.14043148 0.1641352
000090 01 4b 09 3c d5 d9 ad 3d 09 e0 05 be bb 76 3f 3e
       0.008379699 0.08488814 -0.13073744 0.18697636
0000a0 1a b9 2f be 8b 34 17 be eb e1 0f 3d ce fe bf bd
       -0.17160454 -0.14766137 0.03512756 -0.09374772
0000b0 24 cd cf 3d 43 85 c5 bb 1e ad 8a 3d 99 35 85 3d
       0.10146549 -0.006027849 0.06771301 0.065043636
0000c0 c4 45 af bd c1 1c 29 3d d5 2e c3 bd 4a e5 83 bc
       -0.085582286 0.041287187 -0.09530417 -0.016100544
0000d0 f6 08 29 3e 91 7a a3 3d ff b8 e0 bd ab 32 86 3d
       0.16507325 0.07982362 -0.10972785 0.06552633
0000e0 38 b6 a1 bd 93 95 1e bb e4 9c 36 bc 83 6b a5 3c
       -0.078960836 -0.002419804 -0.011145804 0.020192867
0000f0 43 b4 38 bc dd e7 d8 3d 66 89 8d 3a 3e 90 02 3e
       -0.0112734465 0.105910994 0.0010798394 0.12750337
000100 01 b6 1f bd 06 d3 70 ba 4b a2 a1 3d bd de 0c 3e
       -0.03899193 -0.00091867184 0.07892283 0.13756843
000110 c1 8c 17 3e 2b 4f 19 3b 10 c3 be 3c 83 e6 b2 ba
       0.14799787 0.0023393135 0.023286372 -0.001364902
000120 d6 6f 5a bc c8 30 28 be 8e 89 45 3c a4 6e 82 3d
       -0.013332328 -0.16424859 0.012056721 0.06368759
000130 68 40 91 bd ca e1 e9 bd 1b 2c b7 bd 85 34 d0 3c
       -0.07092363 -0.11420019 -0.08943959 0.025415668
000140 92 df 22 3d 2c a0 cd 3d 07 de 12 be 8d 86 2f bc
       0.039763995 0.10040316 -0.14342509 -0.010713232
000150 42 6b 4f 3d 52 84 92 3d 1d be df bc 6b e9 54 3d
       0.0506394 0.07154144 -0.027312333 0.051980417
000160 b9 b9 e3 bd 58 84 8e bd aa b4 93 bd 9e 96 ca 39
       -0.11119408 -0.06958836 -0.07212193 0.0003864066
000170 1d 3b 71 bb fd 4a c1 3d 4c 99 74 bd f0 62 89 3d
       -0.0036808916 0.09438131 -0.059716508 0.06708324
000180 23 f6 ac bd d7 ec 2a bc 6a b0 6a 3e 2e 3b 15 3e
       -0.08445384 -0.010432444 0.22918859 0.14573357
000190 d9 a7 3a 3e 50 b4 2b be 48 c7 76 bc a1 a7 ae 3d
       0.18228091 -0.16768003 -0.015062161 0.085280664
0001a0 28 cf e7 bc 0b a1 5a bd 1b 65 0a be cf 21 68 3d
       -0.028297022 -0.05337624 -0.13515131 0.056672867
0001b0 aa fd 3d ba cd e4 85 bd f4 13 de 3c ae 71 90 bd
       -0.0007247577 -0.06537781 0.027109124 -0.07052933
0001c0 a7 f4 33 bd d7 8e 9e bd 81 de 99 bd ab e4 fc 3d
       -0.04393449 -0.07742088 -0.075131424 0.123483025
0001d0 bf 16 37 bd 78 80 55 bd 3b 4d 35 3c 7d 20 2f 3c
       -0.044699427 -0.05212447 0.011065776 0.010688898
0001e0 3a e6 2d 3e 58 ae ca 3d 9d 77 5d bd d6 66 ac 3d
       0.16982356 0.09896535 -0.05406915 0.08418052
0001f0 1a d0 ca b9 2f 58 0b 3e 51 25 c0 bc 13 04 2a 3c
       -0.0003868349 0.13607858 -0.023455294 0.010376948
000200 a3 79 ef bc 5c 91 2e 3e d5 e7 58 3d 9e 4f 3b bd
       -0.029232806 0.17047638 0.052955467 -0.045730226
000210 e2 0b 4d be 70 36 5d 3b c8 8e d3 3d 3a fa 7e bd
       -0.20024064 0.003375437 0.10329968 -0.062250353
000220 12 4e 58 3d 00 80 57 3a b5 6c 93 bd 4e 1e d6 bd
       0.05280883 0.00082206726 -0.071984686 -0.10454999
000230 82 70 42 3d fe 4a 54 be b2 78 b6 3d c4 7d ff bd
       0.047470577 -0.20731732 0.089097396 -0.1247516
000240 54 d0 a1 bb 4c 7b 8e bd fe 63 05 be 22 bf 2e ba
       -0.0049381647 -0.06957111 -0.13026425 -0.0006666054
000250 0c 9d c2 bd 65 20 db 3d fb a7 9f bd ac 4f 12 3e
       -0.095026106 0.10699538 -0.077957116 0.14288205
000260 82 60 f1 bd 64 f3 29 bc de db 6c 3d ad 0d 2a 3d
       -0.117859855 -0.01037297 0.05782687 0.04151695
000270 cb e8 5f 3d 8b fb 1b 3d 0a 99 83 bd 75 88 15 be
       0.054665368 0.038081687 -0.06425674 -0.14602835
000280 de c6 b0 3d aa 9b bd 3d 7b 2d 00 3d 3c 8b f7 bd
       0.08631681 0.09258206 0.031293374 -0.12087104
000290 ab aa a3 3d e6 c1 f1 3d 27 1c 9f bd 98 28 8e bb
       0.07991537 0.11804561 -0.077690415 -0.0043383352
0002a0 bb 54 6e 3d cb c0 6d bd 70 06 00 bd 99 18 bc bd
       0.058186274 -0.05804519 -0.03125614 -0.09184379
0002b0 7f d8 a9 3d 07 57 c6 3d b4 44 04 bc ce 88 cb 3d
       0.082932465 0.09684568 -0.008073021 0.09938203
0002c0 eb 24 c1 bd 2d 87 c5 3c fa 43 d2 3a ef 31 da 3d
       -0.0943087 0.024112308 0.0016041987 0.10654055
0002d0 79 07 89 bd a4 13 4d bc cb 2b 16 3c 8b 5d 8f 3d
       -0.066908784 -0.01251689 0.0091657145 0.07000264
0002e0 ea 52 7c bb f2 65 23 be de e2 e8 3d 59 78 67 3d
       -0.003850157 -0.15956858 0.113713965 0.056511257
0002f0 60 a8 36 3c 15 88 75 3c 02 dd b7 bd 37 b8 80 bc
       0.011148542 0.014986058 -0.08977701 -0.01571284
000300 3d 24 e8 bd 02 ed 02 3e 46 2c 44 bd 81 da dd 3d
       -0.11335037 0.12785724 -0.047893785 0.10832692
000310 21 d1 b1 3d 2e 38 0c bd cc 1b d4 3c f1 3e 26 bd
       0.08682466 -0.034233265 0.02589216 -0.04058737
000320 df 15 ec bd fb b9 21 3c ca 2e 20 be c7 0b 15 bd
       -0.11527609 0.009871001 -0.15642849 -0.036388185
000330 9e 5b f8 3c 02 16 20 3d 5d 87 18 3c 04 0d 05 be
       0.030317124 0.03908349 0.009309617 -0.12993246
000340 76 50 97 bd 5a 16 20 bd 25 a3 f1 3d c0 98 14 bd
       -0.073883936 -0.039083816 0.117986955 -0.036278486
000350 eb b3 37 3d 31 a4 67 bc 7d a7 f8 3d b1 df 57 be
       0.044849318 -0.014138267 0.12141321 -0.21081425
000360 48 84 2b 3d d0 21 4f 3d 72 eb 95 bd 61 80 0a 3e
       0.0418742 0.050569355 -0.07320298 0.13525535
000370 30 e1 c9 3d 77 a8 d2 3c 0b 36 d9 3d 08 0c a5 bc
       0.09857404 0.025715096 0.10606011 -0.020147339
000380 f5 17 c0 3d 47 8b 5a ba 71 f8 d4 3d b0 bb 08 3e
       0.093795694 -0.0008336794 0.10398949 0.13352847
000390 50 36 fe bd 26 fb 0c 3e ca 01 89 bc 36 56 bc 3d
       -0.12412703 0.1376768 -0.016724486 0.09196131
0003a0 b8 a3 f6 3c 68 1f b7 bd d7 6d ce bc 8d c7 0a 3e
       0.030107364 -0.08941537 -0.02519886 0.13552685
0003b0 01 fc a5 3d f9 da 4c 3e 4d b2 df bd ad db 3c bd
       0.081047066 0.20005406 -0.1092268 -0.046107937
0003c0 93 5f 64 3d 1e 60 83 bd 15 00 00 be 00 04 c0 bb
       0.05575521 -0.06414817 -0.12500031 -0.005859852
0003d0 68 70 b8 bd 87 65 96 3c 88 b2 0c 3d 64 a6 f3 3d
       -0.09005815 0.018358959 0.03434995 0.11896971
0003e0 5a 90 0c 3e 19 fb 9a 3d 10 7c 62 be 2e a4 ed 3d
       0.13726941 0.07567424 -0.22117639 0.116035804
0003f0 83 6e 93 bd ae 94 d0 bc ad c5 a1 3d 86 05 2c be
       -0.07198813 -0.025461521 0.07899032 -0.16798982

gconv1.1.W.bias f4 [140]
000000 f1 e4 af bd 1d 8b ca 3b 3f 73 8c bd 05 e7 0c 3e
       -0.08588589 0.0061811344 -0.06857919 0.13760002
000010 8a b3 f2 bd 12 fb 94 bd 55 4e 89 bd 59 9d f6 bd
       -0.118506506 -0.0727445 -0.06704394 -0.120417304
000020 19 f6 82 3d 7a 68 14 3d 38 27 85 3d 63 6a f0 bd
       0.06394596 0.03623245 0.06501621 -0.11739042
000030 59 9a e3 bd a3 39 ed 3d f3 bd 9c 3d 46 3e 95 3d
       -0.11113424 0.11583259 0.076534174 0.07287268
000040 44 76 13 be ae 37 ca bd 55 dd aa bd 99 85 15 bd
       -0.14400584 -0.09873901 -0.08342997 -0.03650436
000050 33 b6 5f bd 22 5e 95 3d c2 c0 c8 bc 6f 31 c3 3d
       -0.054617118 0.07293345 -0.024505977 0.09530913
000060 66 bd da bd a6 8a 3d bc 10 71 ae bd 00 04 63 3d
       -0.10680656 -0.011568701 -0.08517659 0.055423737
000070 94 11 4c b9 5b 94 ee 3b fb 71 b6 bd a2 31 e0 3d
       -0.00019461504 0.007280869 -0.08908459 0.10946967
000080 99 12 ea bd 7a 1c 82 bd c1 cc 22 bd c4 f4 8a bd
       -0.114293285 -0.06353088 -0.03974605 -0.067849666
000090 1e d6 3b 3d 8f b5 24 3d 60 81 9a bd c7 cd ef bd
       0.045858495 0.04021221 -0.075442076 -0.11709171
0000a0 e6 5a 06 bd 66 27 36 bd a9 03 be 3b 86 5a c7 3c
       -0.03280153 -0.044471167 0.005798776 0.024335157
0000b0 7b 49 fd 3c d2 02 16 3d b5 a2 8b bd d9 f6 f4 3c
       0.030918827 0.036623783 -0.06818143 0.029902862
0000c0 a9 08 cf 3d 2e c1 6f bd 6c 85 d0 bd e3 68 c1 3d
       0.10109074 -0.05853384 -0.10181698 0.09443834
0000d0 7e 8e 94 bd bc 3d 8f 3d a2 f0 b8 3c c6 87 2e 3d
       -0.07253741 0.06994197 0.02257568 0.042609952
0000e0 c5 f3 ac bd c8 84 c2 3d de 85 05 be 86 7f fc 3b
       -0.08444933 0.09497982 -0.13039348 0.0077056317
0000f0 41 a1 e7 bd 06 3d 91 3d 6c e5 d8 bc f7 44 ba 3d
       -0.113100536 0.070917174 -0.026476584 0.09095185
000100 fc d1 96 bc 84 94 34 3d 44 e1 25 3d bc 72 89 bd
       -0.018410675 0.044086948 0.040498033 -0.06711337
000110 a9 a5 2c ba 41 ad a8 3d b8 0a 9b 3d 63 a2 ad bd
       -0.00065859646 0.082361706 0.07570404 -0.084782384
000120 02 f7 d3 3c 08 81 ec 3c 61 19 1d 3d 6b 95 9e bd
       0.025874618 0.02887012 0.03835428 -0.07743343
000130 8b 94 c6 3c c5 a9 8e 3d cf 1d f5 3d 85 68 ed bd
       0.024240753 0.06965975 0.11968576 -0.11592201
000140 8e 62 da 3d fa 03 b2 3d 5f 60 c7 3d b1 de b6 bd
       0.10663329 0.08692165 0.09735178 -0.08929194
000150 61 e8 64 3d 51 e8 c6 3d 1e 7d 43 3d 36 08 a4 bd
       0.055885676 0.097122796 0.047726743 -0.080093786
000160 a4 4f a4 bd 65 c6 c8 bd 77 c3 9f 3d 11 cb 73 bc
       -0.08023003 -0.09803466 0.07800954 -0.014879958
000170 be 10 ba 3d 0b ee 98 3d 11 70 6d bd 2e bc c4 3d
       0.090852246 0.07467278 -0.057968203 0.09606205
000180 e3 41 e5 3d b8 09 a8 3d d8 d5 91 3d 38 94 c2 bd
       0.111942075 0.08204979 0.071208656 -0.09500927
000190 47 8a c0 3d 2f e1 ff bb 0a ba 7b 3d 83 a9 8b bd
       0.09401374 -0.0078088264 0.061456718 -0.06819441
0001a0 b5 4e f4 bd e9 33 57 3d 4e 01 ec bd 01 8a 6e 3d
       -0.11929075 0.05253974 -0.11523686 0.05823708
0001b0 33 79 85 3d 3a b6 6f bd be 86 85 bd cb a4 c6 bd
       0.065172575 -0.058523394 -0.06519841 -0.096994005
0001c0 3b c0 33 3d 66 b1 99 bd 45 44 be 3d bb 57 a4 bd
       0.043884497 -0.07504539 0.09290365 -0.08024546
0001d0 20 6c 60 3d 9b 56 77 3c 89 32 2b 3d b1 8e 2f bd
       0.054790616 0.015096332 0.04179624 -0.04286069
0001e0 00 e1 ad 3d e0 8a 9f 3d ca 35 00 bd 96 89 b4 3d
       0.08490181 0.0779016 -0.031301297 0.08815305
0001f0 59 d9 9a bd 2d 8d 9b 3d 03 43 8c bc eb 5f 6c 3d
       -0.07560987 0.075952865 -0.017121797 0.057708662
000200 4e 83 9d bc 7d ea 98 bd 3f ca cc 3c ef 59 17 bd
       -0.01922765 -0.074666 0.024998782 -0.036951
000210 58 73 d7 bd 41 57 e4 3d 23 54 7a bd b8 47 8d 3b
       -0.10520047 0.11149455 -0.061115395 0.004311528
000220 7c f9 05 3c f6 de f1 bd f1 81 c9 bd 7c 84 17 bd
       0.0081771575 -0.118101045 -0.098392375 -0.03699158

gconv1.1.gate.weight f4 [1, 280]
000000 da c3 a2 bc 24 06 40 3e a7 84 66 bd 5e 8b 0d be
       -0.01986878 0.18752342 -0.05627885 -0.13822696
000010 1e 11 ae bd d7 62 94 3d 90 df 93 3c e3 58 ea 3d
       -0.084993586 0.07245415 0.018050939 0.11442735
000020 dd ce 94 bd 8d e6 db 3d fc 79 99 3d 3f fc 43 bc
       -0.072660185 0.107373334 0.0749397 -0.011961996
000030 73 21 2c 3c d5 95 98 3c a4 e8 ad bd 92 f6 58 3d
       0.010506022 0.018626133 -0.08491638 0.052969523
000040 90 9b f3 bc 59 b1 02 3e ce 0c df bd b5 0b c2 bc
       -0.029737264 0.12762965 -0.10891114 -0.023687223
000050 1b 91 01 3c 3d 68 b2 bd 1b bf 08 bc 10 22 a3 bd
       0.007908131 -0.08711288 -0.008346344 -0.07965481
000060 e9 69 d7 3d 0a 28 1f bd 3f cd 90 bd 87 46 db bc
       0.10518248 -0.038856544 -0.070703976 -0.026767028
000070 ab 67 f6 3d a5 ef a4 bd db af 8f 3d 6a e2 92 3b
       0.12031492 -0.08053521 0.07015964 0.004482557
000080 ae cb 0e 3e 0b a9 8f 3d 18 45 eb bc 60 e4 08 bc
       0.13944885 0.07014664 -0.02871947 -0.00835523
000090 23 35 25 3d 47 d9 b7 bd 05 a3 bd 3d f4 9c be 3d
       0.04033388 -0.08976989 0.09259609 0.0930728
0000a0 0c df 94 bc 8c 84 92 bc 06 19 09 3e ab 39 0b 3d
       -0.018172763 -0.017885469 0.13388452 0.033990543
0000b0 98 09 1e be cc 76 09 be 63 a2 34 3b 3c 1c 54 bc
       -0.15433347 -0.13424224 0.002756261 -0.012946185
0000c0 0e 9b 6e 39 ed c4 0a 3e e4 71 d4 bd c2 1b b4 3d
       0.00022755211 0.13551684 -0.103732854 0.08794357
0000d0 63 32 29 bd 16 63 de 3c 26 d1 64 bd 9f de 97 bd
       -0.04130782 0.027146857 -0.055863522 -0.074155085
0000e0 22 d9 ae bd 24 14 9f 3d 8c 8c 05 3d 3a 22 b0 3d
       -0.085375085 0.077675134 0.03260474 0.08600278
0000f0 cb ec e5 bd 9b 7c 6b bc 7c 9f 1d 3d e4 23 c3 3d
       -0.11226805 -0.01437297 0.038482174 0.0952833
000100 41 12 d8 3d 79 d3 cf 3d 06 1c 53 be 77 82 a1 3c
       0.10550357 0.10147757 -0.20616159 0.01971553
000110 89 db 2c 3c aa 0f 44 3d dd 45 42 3e fd 41 3d bd
       0.010550388 0.0478665 0.18971963 -0.04620551
000120 0e 93 15 3d d4 a5 97 3d 79 50 00 3d 8c 4a 2d be
       0.036517195 0.07404676 0.031326745 -0.16922969
000130 5a 76 2d 3e 53 6b 5b 3e 1c e8 3f 3d 55 1e a0 3d
       0.16939679 0.2142766 0.046852216 0.078182854
000140 b0 92 f8 3c e2 74 cb 3d 1d 4f 18 3e 90 28 95 bb
       0.030343384 0.09934403 0.1487393 -0.0045519546
000150 44 9a 09 be 7f 35 8b bd ec 2e 92 bc 51 28 c8 3d
       -0.13437754 -0.06797313 -0.01784464 0.09773315
000160 d8 95 f9 bc 8f 4c 92 3d e1 ee 31 3d 87 4a 0d 3e
       -0.030466959 0.07143509 0.043440703 0.13797961
000170 ef 3d f4 3d 28 38 10 3e a0 91 86 3d 5d 4b 04 3e
       0.119258754 0.14083922 0.065707445 0.12919374
000180 f2 8e 0e 3e 7c 46 c6 3a 51 ba c8 bd 3f 93 58 3d
       0.13921717 0.0015127207 -0.09801162 0.0528748
000190 c1 01 68 bb 29 1e 5d 3a 69 f9 9c 3b bc 56 79 3d
       -0.0035401436 0.0008434975 0.004790474 0.060873732
0001a0 88 a4 aa bb 7a 77 24 3e 2c 17 8a 3d f8 8a 4b 3e
       -0.005207602 0.16061202 0.06742701 0.19877231
0001b0 a9 bf 81 3d 17 51 c0 bc f5 92 f9 3d b5 c1 f7 3c
       0.063353844 -0.023476167 0.12186233 0.030243734
0001c0 47 13 8a bd 91 a5 e4 bb b3 dd 8c 3c 14 8f aa bc
       -0.06741958 -0.006977745 0.017195558 -0.020820178
0001d0 61 92 d3 bc 38 4b cc 3d 27 10 5c 3d 32 92 80 bc
       -0.025826635 0.09975284 0.05372634 -0.015694711
0001e0 65 b3 38 3e 1c 0b 9e 3d f3 35 54 3e 80 aa d9 bb
       0.18037184 0.07716963 0.20723705 -0.0066426396
0001f0 a0 10 8d 3b 04 16 43 3d f5 d1 fe 3d d7 ff 1c bd
       0.0043049604 0.047628418 0.1244239 -0.038329925
000200 f5 ff c6 3c 22 8a 5f 3d 2b 6a 15 3d 04 04 26 be
       0.024291972 0.054575093 0.036478203 -0.1621247
000210 77 a1 c1 bd ff 5c e8 3d d9 9d fb 3d 74 80 06 3e
       -0.09454625 0.113458626 0.122859664 0.13134938
000220 62 2a 19 3d 34 f2 44 3e 39 15 af bd e5 93 72 bc
       0.037393935 0.19233018 -0.0854897 -0.014805769
000230 19 ff 9a bd 17 41 fe bc 21 64 9e 3d a5 c7 9e 3e
       -0.07568187 -0.031036897 0.07733942 0.31011692
000240 f3 8a da 3a ed 75 2d 3d ac f7 2b 3d 46 50 88 bd
       0.001667349 0.04234879 0.041984245 -0.06655936
000250 db 5a 84 3b 4d 8e 43 3d cb 1b 46 3e 06 64 1c 3e
       0.004039151 0.04774313 0.1934654 0.15272531
000260 57 83 4c 3a 6d 85 5c 3d ec 92 56 3c 88 81 bf bb
       0.00078015536 0.053838182 0.013096552 -0.0058442988
000270 e7 fa d0 bd bd c8 a4 bd 3b 47 d9 3d b3 42 06 3c
       -0.10204106 -0.080461 0.10609289 0.008194613
000280 c4 e7 14 3d 7b c2 5e bd b3 dc 20 be 76 3b 32 3d
       0.03635384 -0.05438469 -0.1570919 0.043513738
000290 8b 2c bd 3d 04 ea 1a be d2 a5 8e 3d 58 55 c5 bc
       0.092370115 -0.15128332 0.069652215 -0.024088547
0002a0 08 7b e1 3d 56 3b 17 3c 1d f6 62 bc b4 d8 28 bc
       0.110097945 0.009230455 -0.013852623 -0.010305572
0002b0 d5 79 d6 bd e8 6d 2e bd 38 52 86 bc eb b1 4c bd
       -0.10472456 -0.042585284 -0.016396627 -0.049974363
0002c0 e4 e6 9e bd a6 a8 06 3d 04 66 c3 bd 3f b0 d7 3c
       -0.07758883 0.03287568 -0.09540942 0.026329158
0002d0 40 b4 22 bd 5d be 9a 3b 60 5b 0b bd b4 5a c8 bd
       -0.03972268 0.0047224 -0.03402269 -0.09782925
0002e0 c8 31 c9 3d 81 21 99 bd 70 7e 14 be f3 15 84 bd
       0.09823948 -0.074770935 -0.14501357 -0.06449499
0002f0 1e 38 39 3d fa 16 1f bd de b6 08 3d bb 5d 9a 3c
       0.045219533 -0.03884027 0.03337752 0.018843522
000300 1e 0b 94 bd 92 52 27 be 57 fe dc 3c d8 7d 4e bc
       -0.07228683 -0.16340092 0.026976747 -0.012603246
000310 99 59 17 be 2e 7f 34 bd 5f 81 b1 bd f6 a6 f1 3d
       -0.14780273 -0.0440666 -0.08667254 0.117994234
000320 10 02 a1 bd dd 94 ce b9 10 5f ab 3d 05 53 10 3d
       -0.078617215 -0.00039402294 0.08367741 0.035235424
000330 16 c4 13 be 43 1c 8b bd d6 60 42 3d 61 09 2c bd
       -0.1443027 -0.067925 0.04745563 -0.042001132
000340 31 f6 70 bd b7 f7 49 bd 57 24 f4 3c 9a 21 47 3c
       -0.058828536 -0.049308505 0.029802484 0.012154007
000350 1a 4c 9e 3b 2f 4c cb 3c 74 44 4f 3d 1a b2 f5 3d
       0.0048308494 0.0248166 0.05060239 0.11996861
000360 ab 37 91 3c 04 98 6b ba 13 81 a8 3c 89 bc b4 bb
       0.01772674 -0.00089871907 0.02056936 -0.005515639
000370 d0 84 2b b9 d0 29 f6 3c e7 43 b9 bd 15 76 72 3c
       -0.00016357307 0.030049235 -0.090461545 0.014798661
000380 31 7c ea 3d af bc f6 3d 55 99 48 ba ae 88 b1 bd
       0.11449469 0.12047707 -0.0007652243 -0.08668648
000390 34 2f d5 bd 87 3f 8d 3d ab 9e 8d 3d 86 3c af bc
       -0.10409394 0.068968825 0.06915029 -0.021391165
0003a0 30 61 d6 bd 78 ce ad 3b 9a ac 52 3d 0c 06 c9 3d
       -0.10467756 0.005304154 0.051434137 0.098156065
0003b0 ce d4 11 bc 3e 08 1b bd 5a d2 b5 bd 6c bb 03 bd
       -0.008900834 -0.037849657 -0.08878012 -0.03216116
0003c0 de d2 8f bd 88 75 86 bd 59 42 33 bd bb d9 d9 3c
       -0.070226416 -0.06565386 -0.043764446 0.02659308
0003d0 ce 0b 41 bd de 5c 34 3b 9e ad 9a 3b 05 db 56 bc
       -0.0471304 0.0027521173 0.004720404 -0.013113742
0003e0 82 f9 24 3d e6 e7 aa 3c 25 80 01 be 80 a8 d8 3d
       0.04027701 0.02086253 -0.1264654 0.10579014
0003f0 cd 7b 3f bc 4e 1a 99 bd 9c 41 cd bd 31 de 0d be
       -0.011687231 -0.0747572 -0.100222796 -0.1385429
