save/best_old_0.788.pt (torch, 879432 bytes, 24 tensors)

gconv1.0.A f4 [140, 140]
00000000: a32d f3bd d9e6 e1ba 8110 ac3c 4a31 a3bd
00000010: fb5a 68be d11c cabd 5d33 1ebe cc4e 223c
00000020: e54a 44be d428 163c b3cf 493d fc6a 40be
00000030: dc49 d0bd 5930 b53c 3d68 7c3d ce5a 5e3d
00000040: 8288 c2bc 9b4b e53a 4994 6fbd 3ab6 4c3d
00000050: ef77 b2bd 2255 8e3d e2e4 88bd 6c79 47ba
00000060: 33ed ecbd de41 72bd e09c d3bb b0a7 0c3b
00000070: 0c3d 49be f2c8 7b3d e839 cb3d f719 e53d
00000080: 3779 39bd 0c54 293a a754 b13d 491f da3d
00000090: c6dd b63b db1a 0fbd 859d 0ebe 2c50 2bbe
000000a0: 4a24 6a3d 0c2a 5c3d b3d2 7ebc e8bd 973d
000000b0: f52e 52bd 9037 2fbe 32b7 5cbd 1f23 c93d
000000c0: 42c3 fdbd 248b 643c f5c2 38be 0326 073e
000000d0: cc6a 3bbe bc6e 083e 6b4e 8dbc a848 3abc
000000e0: 89b0 023e 3d53 0abc 358d acbd eed6 febd
000000f0: 9d96 cfbd 1b05 31bc 18e0 973d 3d24 923d
00000100: 798c 25bd bc7d 5f3d 08f9 8a3c 5df7 33bd
00000110: 9fbf 08be 3395 9b3d db18 2fbd 6eec ff3d
00000120: 25c5 5f3d 2dd2 84bd d1c7 e83c 53b1 19bd
00000130: 7355 333d 9b5b 3d3d 098b 993c 708a 2d3c
00000140: fbc7 b63c 1f69 aabd 7d23 bfbc edb0 693c
00000150: 858e d13d 3d2a a33d bbb1 36bd dc0b b6bc
00000160: 2fee d2bd 86f4 0fbd 902d 1dbc b1ed 1d3d
00000170: f705 6ebc 258f dc3c 34bf bf3d b9d0 433d
00000180: 04c4 00bd f977 a53c c414 5fbd 460a 0fbe
00000190: cdf9 8a3d 6b0e f83d 546a 383e caac 4a3d
000001a0: 4193 fabd 7549 b8bd e6bd 1cbd 17ca e43d
000001b0: 46f2 13bd 2b4d f83d b470 1d3d b2ad d4bd
000001c0: 9732 a63d 823e 92bd 19df 6d3d 64f2 503c
000001d0: 7d76 95bc f4d3 b83d 16e2 6c3d 3cb1 a2bd
000001e0: 86cd a1bd 1eaa b4bb 0197 35bd 6e84 6abd
000001f0: 2a1b 233d 9df6 853c 676c 0fbd 9de4 90bd
00000200: 9a8c 20bd 7091 e2bd c959 72bd 3e40 3ebe
00000210: 0d8e 073e cd15 90bb e65d 68bc 8b0d b73d
00000220: dfde 16be b1e0 0f3d 3ab2 333e d4e7 8e3d
00000230: a05f 8e3e bb8d cabd 6adf 43be 224f ff3d
00000240: 89f5 e5bb c214 09bd 68b9 06be e8ab b23d
00000250: 2cf8 333e 2f19 a0bd c0ae 74bd a4f1 373e
00000260: 380d dc3c a875 eebd bab8 9d3d 6839 cbbd
00000270: 5bbc 0dbe 26a7 0bbe 13ee 853c a64a cabd
00000280: 726a 383c 939c 4c3e defe d2bd 335a babc
00000290: 87e4 e73c 1742 373d ef3c 0e3e 8995 e2bd
000002a0: 71ac 993b 3d45 0f3b 8e64 783d bbe3 d4bd
000002b0: 7bb2 c03d 6b8f 333e 20fb adbd a4f6 a9bd
000002c0: 1949 6f3d 16f4 cb3d 2abc c8bc fdfc ca3d
000002d0: b75e 26bd ea47 26bd 3fff eebc b897 0fbe
000002e0: fcea b03b 442b 17be 74d8 6abc 85b9 20be
000002f0: be76 193e 2320 97bb 3da7 f33c 2647 d13b
00000300: e086 3fbd 299d c0bc 9ab3 373e 2ba3 973d
00000310: 098f b2bd 9aa1 61bd e722 88bc 6762 383d
00000320: cdde c2bd a3c2 ba3d 6cfa 1b3e 2063 cebd
00000330: 7a5c 3f3d 771b d33d 1c15 c83d 03e9 3cbd
00000340: 394c d3bd 374d 3b3d dfab a8bd f92f 043e
00000350: 0230 95bd 5713 7c3d 30a5 9d3d 84df 35bd
00000360: 8a16 abbc eb8f efbc 88f6 b43d ba51 443d
00000370: 93af 563e 05fb 3c3d 50dd e23b daf8 40bc
00000380: b272 803d 8bc2 46bd ab30 d0bd 3d1a 173e
00000390: 4935 5e3c 5b76 53bd d0e4 983d 85e4 0bbe
000003a0: e91a 0abd c4ef 9ebd 4f20 dd3d fcd4 f53c
000003b0: 8434 0dbe 4c4d 123d e20f eb3b 8a2b 523d
000003c0: 26c2 e53d 9c7e d83d 9768 95bc 1ea5 eb3d
000003d0: b5e1 113e d65a 123e 6c49 eebd f0fd 063e
000003e0: cd63 2bbd 9ded 983d cffd 1abc 2fb6 4ebe
000003f0: f835 80bd 0a65 493c 5803 eebd 00ab 2c3d
-0.11873939 -0.0017234936 0.021003963 -0.079683855 -0.22690956 -0.098687775 -0.15449281 0.009906482
-0.19169195 0.009165008 0.049270343 -0.18790811 -0.101703376 0.02211778 0.061622847 0.054285817
-0.023746733 0.0017493846 -0.058491025 0.049978472 -0.08714282 0.069498315 -0.06684281 -0.0007609341
-0.1156868 -0.059144847 -0.00645791 0.0021462254 -0.19652194 0.061470933 0.09923154 0.11186593
-0.045281615 0.00064593623 0.08658724 0.106504984 0.0055806367 -0.03493772 -0.13927276 -0.16729802
0.057163514 0.053751037 -0.015553164 0.074092686 -0.051314313 -0.17111039 -0.053885646 0.09821152
-0.12390758 0.013949189 -0.1804312 0.13198094 -0.18302459 0.13323492 -0.017249307 -0.011369862
0.12762655 -0.008442697 -0.084253706 -0.12443338 -0.10136149 -0.01080444 0.07415789 0.07135818
-0.04041717 0.05456327 0.01696445 -0.043937076 -0.13354348 0.07596817 -0.042748313 0.12496267
0.05463137 -0.064854 0.028415592 -0.037522625 0.043782663 0.04622994 0.018743055 0.010592088
0.022312155 -0.083208315 -0.023332352 0.014263374 0.102322616 0.07967041 -0.04460309 -0.022222452
-0.10299336 -0.035145305 -0.0095933825 0.03855676 -0.014527789 0.026923725 0.09362641 0.047806475
-0.031436935 0.020198809 -0.054463163 -0.13968763 0.06785927 0.12112125 0.18009311 0.04948119
-0.12235118 -0.08998386 -0.03826704 0.11171358 -0.03611972 0.121240936 0.03843756 -0.10384692
0.08115118 -0.07140829 0.05807409 0.012753103 -0.018244976 0.09024802 0.0578328 -0.07943961
-0.079005286 -0.0055134436 -0.04433346 -0.0572552 0.039820828 0.016352946 -0.03501549 -0.070748545
-0.039196588 -0.11062896 -0.059167657 -0.18579194 0.13237782 -0.00439713 -0.014182543 0.0893813
-0.14733456 0.03512639 0.17548457 0.069778115 0.2780733 -0.09890314 -0.19128194 0.12466265
-0.0070177955 -0.03346706 -0.13156664 0.08724195 0.17575139 -0.078173034 -0.059736967 0.17963272
0.026861772 -0.11643535 0.077012494 -0.09923059 -0.13841383 -0.13637981 0.016348874 -0.09877519
0.011255847 0.19981603 -0.10302518 -0.022748088 0.028307213 0.044740763 0.13890432 -0.11063678
0.004689746 0.0021861338 0.06064277 -0.10394999 0.094090424 0.17535178 -0.08495164 -0.08298996
0.05841932 0.09958665 -0.024503786 0.09911535 -0.04061767 -0.040595926 -0.029174445 -0.1402272
0.005399106 -0.14762598 -0.014333833 -0.1569577 0.14986703 -0.0046119853 0.029742831 0.0063866554
-0.046759486 -0.02351244 0.17939606 0.07404169 -0.08718688 -0.055085756 -0.016618205 0.04501572
-0.09515152 0.09119155 0.15232247 -0.100775 0.046719052 0.10307973 0.09769651 -0.046120655
-0.10317273 0.045727935 -0.08235907 0.12908925 -0.072845474 0.06154188 0.07697523 -0.044402614
-0.02088477 -0.02924343 0.088360846 0.047929503 0.20965414 0.04613783 0.006923355 -0.011778081
0.062718764 -0.048525374 -0.10165533 0.14756103 0.013562509 -0.051626544 0.074655175 -0.13661392
-0.03371707 -0.077605754 0.10797178 0.030008785 -0.13789564 0.035718247 0.0071735242 0.051311053
0.112186715 0.10571024 -0.018238349 0.11506103 0.14246257 0.14292464 -0.11635098 0.13182807
-0.041843224 0.07467196 -0.009459927 -0.20186685 -0.06260294 0.012292156 -0.116217315 0.042155266

gconv1.0.W.weight f4 [140, 140]
00000000: 0176 1e3c e1ba 19bd d1a3 b3bc ed44 d8bd
00000010: 4fa7 e4bc a27f a83d 595d 71bd ec5c 593c
00000020: 4616 d7bc 0407 2ebd 44c8 54bc 7bc8 853b
00000030: c305 94bc 3e1d c03c 8fd0 8fbd d0af ec3d
00000040: 0ff7 adbd 3651 1f3d 74bf 013e 0879 86bb
00000050: ecfb 0abe fff0 18bb 00c4 ef3d 15f9 04bd
00000060: 487a 36bd aa80 653d 4cdd 273e 9f82 17bd
00000070: f7d7 26be fa50 433c ab83 1b3d 643a b9bb
00000080: d274 18be 9ac5 01be 4d34 a83d a0a6 f93d
00000090: a309 a3bc 0289 4e3d 4a08 12be c0a4 2b3e
000000a0: f141 21bc 5e84 143e feb0 fd3d 0f1e a3bb
000000b0: ee41 8a3d e589 d1bd 5a03 4dbc 5b2a 5fbd
000000c0: beb1 793d de78 ab3b 0332 293e c67c b93d
000000d0: b95c 4a3b 37b7 22bd c1c7 9ebd 6ff4 a9bc
000000e0: eb39 13bc a5c9 8d3d 6c2d 073e c673 bfbd
000000f0: 772d d0bd 7e8d 9cbd c053 883c a2af 23bd
00000100: a5e9 33bd 317f 013e 97d9 3b3d 831c 8abe
00000110: 3095 863d 71f8 a93d 01c2 5fbb 77f1 06be
00000120: 8076 9bbc e041 743d 06d8 293d a03e 8fbb
00000130: f435 8d3b 5d76 c03d 6386 1abe 8002 0a3b
00000140: e9b4 173e 0427 15bd 897d b03d 5679 bdbd
00000150: 4381 6d3d ff11 8dbd 5670 24bd 42c3 a93c
00000160: 7972 bdbb 0839 a23d 359f 06be c38a e6bd
00000170: fe25 a53c cc41 ff3d 65e2 0abd 4274 123e
00000180: 5e0a 0d3e bc0b 413e c9e1 4e3c 6c2a 12bd
00000190: d0be 5d3c e686 94bd 70bd a43d af9c 27be
000001a0: 9ba2 c5bc c55a f33d 4eac 43bd bde1 f83d
000001b0: 603d 4f3d 65ca 3bbe f3b1 99bd bc1c 863d
000001c0: 079a a43d 43e0 013d c71a 833c 18ae 9abd
000001d0: 19dd f1bc 80cd bf3d 4f89 32be df8c 18bd
000001e0: 3587 d43d e1f4 843c 03ee a8bd 3407 7f3d
000001f0: 6a02 d83d 4cd6 23bd 3069 9fbd a5f6 903d
00000200: 65dc 56bd fcae 303d c752 6d3c a784 6d3d
00000210: f40e f83c 3923 8f3d d659 7c3d 4f89 2b3e
00000220: 381b 04be 06d4 bdbd 022c 423d cd67 383c
00000230: 260b 3cbe abfe 90bd eb23 c13d 0406 85bd
00000240: 713c 2b3e 9ee0 28bd b7c1 e83c 9749 1f3b
00000250: aba4 f4bd 3e2c 8e3c 8214 c63d a5b2 05be
00000260: a549 9f3d 58af 783d 3e7e 99bd 7804 ed3c
00000270: 865d 033d 40a0 1c3e b071 bcbd a29c 28be
00000280: a6d4 ba3d 9ae4 743d ca35 fbbd ef7e d8bc
00000290: e134 63bc 7c49 b43d 47d0 86bd 9c6a 043d
000002a0: 6e95 133e 6923 27be 53c2 6fbd 6c8b ed3d
000002b0: 307f d3bd 57be 1ebd 6bd3 4fbd e67f 52bd
000002c0: d331 8dbd 7691 e13c a12f 0c3d 8e46 07bd
000002d0: e05e e83d 9f73 59bc 082f 803d 77bf c13c
000002e0: 4e4e 63bd a22b e23d e835 4b3d 780a 03be
000002f0: 579c aa3d 8428 10bd 577d 93bc b236 203e
00000300: c5ef c2bd 910a 533d 2187 593d 5155 9ebd
00000310: d962 153e b515 bcbd 6253 14be 23cd 843d
00000320: 87de 63bb 3a8a 21be 7268 313d 28d1 133d
00000330: 8a76 0dbc cf0e 433c b1a5 853d 7be5 bfbc
00000340: 6d02 0b3e 787a 933d 24da d6bc ac2a 323c
00000350: b247 c6bd 9496 5d3c cbf8 b0bd fa4e a63d
00000360: 0b07 9d3d eac4 a6bc 607d 9f3d c2ba 4bbd
00000370: 9ac2 68bd 5b9c b73d a968 f1bd 3c39 9b3d
00000380: ac37 f53d 2bf1 96bd 2db8 a0bc 600c 0c3c
00000390: 793e d03d c2df 5b3d b1ea 36bd e593 193e
000003a0: e5cb 123e cdd4 7ebd 6a08 273e db50 7b3c
000003b0: 6e10 973c 937d 3d3e 4238 9dbc 00d8 6dbd
000003c0: 6755 13bc 4206 093d dfad 9abd ea1c 8f3c
000003d0: f332 69bd b606 02be 3a78 17bd 85d5 953d
000003e0: bd10 f23d b938 00bd 9d4e 863c 595b e7bd
000003f0: f3de f7bc 6ec3 c1bb baee ef3d 254a 923d
0.009671689 -0.037531737 -0.0219287 -0.105600215 -0.02791181 0.08227469 -0.058926914 0.013266783
-0.026255738 -0.04248716 -0.0129872 0.004082737 -0.018069154 0.023451444 -0.07022201 0.11556971
-0.08494388 0.03889581 0.1267069 -0.0041037835 -0.13572663 -0.0023337004 0.11707306 -0.032464106
-0.04455021 0.056030907 0.16393012 -0.036989804 -0.16293322 0.011921162 0.037967365 -0.0056527127
-0.14888313 -0.12673035 0.082131006 0.12189984 -0.019902056 0.05042363 -0.14260975 0.16762066
-0.009842382 0.14503619 0.12387274 -0.0049779485 0.06750856 -0.102313794 -0.012513006 -0.054483753
0.060960524 0.0052329144 0.16522984 0.09057002 0.003087802 -0.03972551 -0.07752944 -0.020746438
-0.008985977 0.06923226 0.13200921 -0.09348254 -0.10164922 -0.07644175 0.016641498 -0.03996242
-0.043923993 0.12646176 0.045861807 -0.26974878 0.06571424 0.082993396 -0.0034142735 -0.13178049
-0.018977404 0.059633136 0.04146578 -0.004371479 0.00430941 0.09397576 -0.15090327 0.002105862
0.14815105 -0.03641416 0.08617694 -0.092516586 0.0579846 -0.06888198 -0.040146194 0.020722989
-0.0057814685 0.07921034 -0.1314667 -0.112569354 0.020159718 0.12463722 -0.033907313 0.14302161
0.13773486 0.18852133 0.012627074 -0.035684988 0.013534263 -0.07252292 0.08043945 -0.16368364
-0.024125388 0.11882547 -0.047771744 0.12152431 0.05059564 -0.18338926 -0.07504644 0.065484494
0.08037191 0.031708013 0.01600398 -0.07552737 -0.029524373 0.09365368 -0.17435192 -0.03724372
0.10377351 0.016230049 -0.08248522 0.06226273 0.105473354 -0.03999929 -0.07783735 0.07078294
-0.05245628 0.043135628 0.014485068 0.057987835 0.030280568 0.0698914 0.06160911 0.16751598
-0.12901008 -0.09268956 0.04740525 0.011255217 -0.18363628 -0.07079824 0.09430679 -0.06495288
0.16722275 -0.041229837 0.028412683 0.0024305338 -0.119454704 0.01735508 0.0967188 -0.13056429
0.077777185 0.060714096 -0.07494782 0.028932795 0.032071613 0.15295506 -0.09201372 -0.16466
0.09122591 0.059788324 -0.12266119 -0.026427714 -0.013867588 0.088030785 -0.065826945 0.032328233
0.14412472 -0.16322102 -0.05853493 0.11598858 -0.103269935 -0.03875574 -0.050738733 -0.051391505
-0.06894269 0.027535181 0.03422511 -0.03302627 0.11346221 -0.013272195 0.062589705 0.023650868
-0.0554946 0.110434785 0.049611956 -0.12796962 0.08330601 -0.03519489 -0.018004103 0.15645865
-0.09518389 0.05152375 0.053107385 -0.077311166 0.14588489 -0.09183828 -0.14484933 0.06484439
-0.0034770088 -0.15775385 0.043312497 0.03608814 -0.008634219 0.011905386 0.06525744 -0.023424855
0.13575144 0.072010934 -0.026227064 0.010874432 -0.096816435 0.01352467 -0.086412035 0.08120532
0.07667359 -0.020357568 0.07787585 -0.049738653 -0.05682621 0.08965369 -0.117875405 0.07579276
0.11973509 -0.07370218 -0.019619072 0.008547872 0.10168166 0.05368019 -0.044657413 0.14997824
0.14335592 -0.06221466 0.16311803 0.015339102 0.018440451 0.18504934 -0.019191865 -0.05806732
-0.0089925295 0.033453234 -0.075526945 0.017469842 -0.056933355 -0.12697873 -0.03697989 0.07316116
0.11819599 -0.031304095 0.016394908 -0.1129672 -0.030257678 -0.0059131896 0.11715455 0.07143048

gconv1.0.W.bias f4 [140]
00000000: e1a5 b03c 9ebd 5ebd 8403 093d 64e2 0c3c
00000010: b7a6 22bd 3a5c 423c bc59 8cbd 1296 61bd
00000020: d657 413d f378 b3bd e561 823d c5d9 12bb
00000030: ae0b 8b3d dc7e 033c e1d1 05bd 2f09 96bd
00000040: aacb d13c 7173 d93c cb2b 82bd e49d 493d
00000050: a887 a53c 3f4f 743d c078 593c 55ad 18bc
00000060: 23b7 2a3d 33a2 223d 3a20 8c3d 614f 773d
00000070: 4592 a0bd 57a9 4b3d cbbb a3bd 0ca5 7f3d
00000080: a85a 9a3d 9d46 963d 7002 21bd c65a 163d
00000090: f394 9e3d 894c 9b3d b0f1 983d f16b 013d
000000a0: 2d09 c3bc f94c c2bb 1f8b e6bc b781 3fbd
000000b0: 1e5f d8bc 55dc c13c e3eb 713c f962 c03d
000000c0: 1226 ab3b 0b64 083d 3995 113c 8d52 80bd
000000d0: cfc3 34bd 158f 723d 065c c6bc 9d89 553d
000000e0: ce9c 7fbd 2ee2 5bbc 10d5 2fbd 554a 99bc
000000f0: 9200 473c b1d9 08bd cde2 2ebc 715e fbbb
00000100: fabd a83d 5d0d 923d 9d64 1bbd 8663 2fbd
00000110: ffca 1d3c b968 d93d 2e83 b0bc d88c c53d
00000120: 652c 813d 4f2a 823d 0fd3 cf3d 9022 873d
00000130: c78b aabd b9ae 983d 0b6d cc3d a679 30bc
00000140: 109a b6bc 92cc 97bc 6f04 743c 881c 57bd
00000150: f8c6 283d 30db d23c 4ed8 7fbb d685 06bb
00000160: c1ac ab3d a367 2f3c 5195 683b ec41 49bb
00000170: 7b9c 2a3d 1a41 e43d ac02 35bd 601d 143d
00000180: 311a 563d 7991 57bd fc72 b13b 5b8c d5bb
00000190: 2291 d83d 0c09 743c a0a6 a3bd 6c66 113d
000001a0: ad49 9cbc dadf 473c f74d 1c3c 582e 9dbd
000001b0: 8196 08bd 34e3 b33d 3ddd 243d b534 6ebd
000001c0: 8c39 3e3c afa0 883d 3493 853d aa12 e6bc
000001d0: c640 2f3d a548 db3b e237 87bd 084c b43b
000001e0: e705 55bd f525 afbc d280 24bb a3e6 863d
000001f0: 1334 84bd f69e 0b3d cedf 70bd c607 ba3d
00000200: af70 69bb 9917 63ba 6c04 65bc 1598 83bd
00000210: 3c79 bb3d a5d6 9ebd 6d3c cbb9 ec1e ac3c
00000220: 090b ca3d 389f ebbc 7e45 b03c 4142 f7bc
0.021563472 -0.05438005 0.03345062 0.008598898 -0.039709773 0.011862809 -0.06853053 -0.05507476
0.047202908 -0.087633036 0.06366328 -0.0022407633 0.06789337 0.008025851 -0.03267086 -0.073259704
0.02560981 0.026544305 -0.06356009 0.04922284 0.020206288 0.059645887 0.013273418 -0.009318669
0.04167856 0.039705466 0.06842084 0.060378436 -0.07840399 0.049722042 -0.07994803 0.06241326
0.075368226 0.07337687 -0.039308965 0.036707662 0.077432536 0.07582957 0.07467973 0.03159708
-0.023808086 -0.005929586 -0.02814251 -0.046754565 -0.026412543 0.023664633 0.014765712 0.093938775
0.005223044 0.033298533 0.008885675 -0.06265745 -0.04413205 0.059218485 -0.024213802 0.05213319
-0.0624054 -0.013420625 -0.0429278 -0.018712202 0.012146132 -0.03341073 -0.010674191 -0.0076711704
0.0823936 0.07131455 -0.03793775 -0.042819522 0.009630918 0.106156774 -0.021546926 0.096460044
0.06307296 0.06355726 0.10147678 0.06598389 -0.08327442 0.07455201 0.09981736 -0.010771191
-0.02229026 -0.018530164 0.014893635 -0.052517444 0.041205376 0.025739282 -0.003903884 -0.002052655
0.083825596 0.010705861 0.003548939 -0.0030709459 0.041653138 0.1114523 -0.044192 0.036160827
0.05227107 -0.052628968 0.0054153185 -0.006516976 0.10574557 0.014894735 -0.079907656 0.035498068
-0.0190781 0.012199366 0.009540073 -0.07674855 -0.033346657 0.0878357 0.04025005 -0.058155734
0.0116104 0.06671273 0.065222174 -0.028085072 0.042786382 0.0066920095 -0.06602456 0.0055022277
-0.052007582 -0.021380404 -0.0025101197 0.06586959 -0.06455245 0.034087144 -0.058807187 0.09083514
-0.0035620143 -0.0008662879 -0.013978105 -0.06425492 0.09153983 -0.07755784 -0.00038764198 0.021010838
0.09865386 -0.028762445 0.021517511 -0.03018296

gconv1.0.gate.weight f4 [1, 280]
00000000: c3d2 a53d 69a6 d23c e84f 7cbd 672d 503d
00000010: d0e6 513d 5bff 5cbc e99a 9b3d 341e e9bd
00000020: 641b 78bd 516c 893d bc4a dc3d b54b febd
00000030: b5b8 b0bd f697 59bd 1490 1b3e 590a 50bd
00000040: 30bc 86bd f9e3 f3bd bd77 ec3d 53eb 94bd
00000050: 65e2 a4bd 6464 583d 3322 2ebd 16da 41bd
00000060: dab2 80bd bfcb 75b9 c10e be3d 7601 f6bb
00000070: 1e4c c23d cca1 0b3e 1ef8 583d 4416 b43d
00000080: 261c 933b b983 543e 1428 dbbd 78bd 21bc
00000090: 79aa b53d a217 d3bc fc3d 003d 29fd 0a3d
000000a0: 6e35 be3c 523c 023e e236 43bd 49be dbbd
000000b0: 372f 6abd 1bd4 aa3b 25b7 06be 08a8 feba
000000c0: 7f96 4e3c 7d8f df3c e61d d53d d666 0dbe
000000d0: 8823 86bd 55e0 92bd d34f 08be f3bf 0bbc
000000e0: 6042 e23d 098a 143b d816 a13d 5efb 5a3c
000000f0: 94a6 1ebe 8a7e 2d3e 1ea3 373e 066f c9bc
00000100: f22d b13d b259 453d 4748 2cbe b952 453d
00000110: 6dd3 8abc 3d5f 1a3e f33b 94bd ed0e 363e
00000120: a602 3a3e c30a 43bd 8473 ecbc 24d2 f7bd
00000130: c3b7 8abc 46f3 6e3d 0299 e33d 1408 f9bd
00000140: b495 07bc 8681 96bd 918e 79bc 06f1 0c3d
00000150: 0434 3cbe d2be 913c 6d2e 833c cd82 663d
00000160: 9a2a e3bd 2dd2 89bd 4811 7b3c a477 f8bd
00000170: d435 003e 8d35 4c3e b845 38bd 7a89 1d3c
00000180: 622e 0cbe 9062 d2bd 5731 f2bd 3a0b fcbb
00000190: b3af 9f3c 42c9 ccbc 63e7 b6bb e798 7ebc
000001a0: 854b 28bd a9d1 8b3d 5863 2d3d 5b3c 72bd
000001b0: fbac 04bd 4552 b03c 06ce 013e b839 0f3d
000001c0: 47a5 2abe 18a6 18bc 623c 103d 0abb f839
000001d0: ac20 0ebe 87a1 15be 91da 9abd 2de6 203a
000001e0: 10d1 c9bd 9a34 473e 4b36 48be 5b0a ff39
000001f0: 24b4 753d 2d32 9ebd 0963 07bd a720 c7bc
00000200: 6e8c 443b ecd4 93bd 1a95 333c 1a80 86bd
00000210: 2e04 d83d 4860 f03b 31ab 1c3c 0383 a6bd
00000220: 6175 20ba e9ed 593c b65e be3d 1f32 b53b
00000230: c2cd 033d 2f05 8d3d eed6 3bbd bae4 bc3c
00000240: abe3 a73d 39da a7be fff3 d53d 0f30 ca3c
00000250: 51ac 103d 1344 e03d fde1 b5bc 4319 96bc
00000260: 64c3 2e3d f64c 393d 1444 4d3d c9a2 29be
00000270: b423 f1bc d4f1 483e 3f0d cdbc 5cb4 1dbc
00000280: 7d63 d43c 3438 8f3d 3015 143e c845 4d3c
00000290: 3647 01bd f70f 2cbe 24ac 8d3d d766 293d
000002a0: 470b 0a3d 99c1 be3d 142e a4bb 517b 86bd
000002b0: 4869 593e f60a f43c 1382 a2bd 3b19 86bb
000002c0: 41f2 423d a9bb 7f3d 5a96 c8bc 5e86 aabd
000002d0: 6313 3dbc 4731 b13d 883d d63d 9ec3 66bd
000002e0: 30e9 b03c edff e0bd 6fbc 943e 4d74 4d3c
000002f0: eb60 c33c 1f84 06be e371 803d bc11 37bd
00000300: 6245 f03c 92a4 d13d 1eda 10bd 20c4 953d
00000310: 5476 b73c b6df 15be 0636 5f3d 7cc5 333e
00000320: d7a2 463e 4334 223e ddcf 033c 3b12 86bd
00000330: e1ac ae3d 01a3 8a3e a7c7 eb3d 837a da3b
00000340: 23a7 0b3e 2887 dd3b 7f23 bdbd f3ce 433e
00000350: 8f87 8d3b 9373 e13c e647 133c 566d 433d
00000360: 9629 71bc 2c59 863d 4e70 283e 68bc b4bc
00000370: 8295 b73d 61b4 b13d e194 a33d 159f f8bc
00000380: c0ee 073e 7237 c63d 1216 bb3d 3455 9cbd
00000390: 54a3 53bd 5054 1e3e 23a7 9f3c 9033 2c3d
000003a0: 8a7c 3ebd e69f d33d cae2 8e3c f519 923d
000003b0: a60b 253e 295a 433d 1e9d 49bd be6a ba3d
000003c0: bb1b fd3c 5095 95bc 0488 debd addd 093c
000003d0: f0c9 c43d 0c29 823c 18d4 263c a8a4 123e
000003e0: e5a2 8f3d 133d f33d e952 81bd 65bf 503e
000003f0: eb20 bd3d 4e4d 023d 5cc1 d1bc 4cf2 89bb
0.0809684 0.025714116 -0.061599642 0.05082455 0.05124551 -0.013488616 0.07597906 -0.11382714
-0.060572997 0.06710113 0.10756442 -0.12416784 -0.0862898 -0.053123437 0.1519168 -0.05079112
-0.06578863 -0.11908717 0.11546276 -0.07271447 -0.08050994 0.052830115 -0.042513084 -0.047327124
-0.06284113 -0.00023440922 0.09280158 -0.0075074984 0.094871745 0.1363594 0.052970998 0.08793309
0.0044894395 0.20753373 -0.10701004 -0.009871833 0.08870406 -0.025768105 0.031309113 0.03393284
0.023218837 0.12718323 -0.047659762 -0.107296534 -0.057173934 0.005213273 -0.13155802 -0.0019428739
0.012609123 0.0272901 0.10406093 -0.1380876 -0.06549746 -0.07171694 -0.133117 -0.008529651
0.11047816 0.0022665283 0.07865685 0.013365595 -0.15493232 0.16942802 0.17933318 -0.024589073
0.086513415 0.048181243 -0.16824447 0.048174594 -0.016946519 0.15075393 -0.07237997 0.17779131
0.18165073 -0.047617685 -0.028863676 -0.12100628 -0.016933328 0.058337472 0.11113168 -0.12159744
-0.008275438 -0.073489234 -0.015231744 0.034409545 -0.18379217 0.017791186 0.016013348 0.056277085
-0.1109211 -0.06729541 0.015323944 -0.12132195 0.12520534 0.19942303 -0.044988364 0.0096152965
-0.13689569 -0.102727056 -0.11825817 -0.007691768 0.01949296 -0.024998311 -0.0055817827 -0.015539384
-0.041087646 0.06827099 0.04233107 -0.05913959 -0.03239153 0.021523604 0.12676248 0.034967154
-0.16664611 -0.009316944 0.035213836 0.000474416 -0.13879651 -0.14612399 -0.075612195 0.00061378145
-0.09854329 0.1945366 -0.19551961 0.00048645106 0.05998625 -0.07724414 -0.03305343 -0.024307562
0.002999093 -0.07218346 0.010960842 -0.06567402 0.10547672 0.0073356964 0.0095623 -0.08130457
-0.00061210064 0.013301351 0.092954084 0.0055296565 0.032178648 0.06885754 -0.04585927 0.023058284
0.08197721 -0.32783678 0.10446929 0.02468112 0.035320584 0.10950484 -0.022202486 -0.018322593
0.042666808 0.04523941 0.050113752 -0.16566004 -0.02943597 0.196235 -0.02503073 -0.009625521
0.025926346 0.06993142 0.14461207 0.012528844 -0.031562053 -0.16802965 0.06917599 0.04135784
0.03370216 0.093142696 -0.0050103758 -0.065664895 0.21231568 0.029790383 -0.07934966 -0.004092363
0.047594313 0.062434826 -0.024485756 -0.0832641 -0.011540267 0.08651977 0.10460955 -0.0563389
0.021595567 -0.10986314 0.29050013 0.012539935 0.023849925 -0.13136338 0.06271722 -0.044694647
0.02932996 0.102364674 -0.035364263 0.073127985 0.02239529 -0.1463612 0.05449488 0.17555803
0.19398056 0.15840249 0.008045164 -0.06546446 0.08529068 0.27077487 0.1151269 0.0066674366
0.13637976 0.0067604966 -0.09235286 0.19121914 0.0043191384 0.02752093 0.00898931 0.047711693
-0.0147193875 0.06559977 0.16449091 -0.022062495 0.08964063 0.08676983 0.07987381 -0.030349294
0.1327467 0.09678544 0.09135069 -0.07633439 -0.051669434 0.1546185 0.019488877 0.04204136
-0.04650549 0.103332326 0.017442126 0.07133857 0.16117725 0.047693405 -0.049222104 0.09102391
0.030897012 -0.018259674 -0.10865787 0.008414668 0.09608829 0.015888713 0.010182403 0.14320624
0.070134915 0.11876883 -0.06314642 0.20385511 0.09234794 0.031812005 -0.025604896 -0.0042097922

gconv1.1.A f4 [140, 140]
00000000: 5937 3f3d aa05 f6bd ae3b 80bc a628 053e
00000010: 18a5 1abd fe5d d03c 0e44 e63b 2fd3 083e
00000020: 8ca3 883d 4fd4 34bd e0ca 0f3c 2a94 983b
00000030: 6b02 a4bd b6a8 c8bc 2611 30be bbb9 adb9
00000040: b089 8139 06e5 253e 94d6 643e d4bc 31be
00000050: 83ba b13c f6a0 1f3e b0f4 75bd 1782 f23c
00000060: b6f8 cbbc 9992 e93c e321 8d3d af1a 18be
00000070: 0af5 5fbd 22f4 b33d c163 2dbc 41b4 fdbd
00000080: fc0e 00be 0d0d 82bd f53b 98bd 1d18 b7bc
00000090: 5386 db3d c09a fa3d 3c16 fabb edc4 ec3d
000000a0: 5a8c f33d 391d f4bd 1d90 cc3d 0899 3cbd
000000b0: 60b5 e43d b25d 7e3d 176c 763c 7ccf ff3d
000000c0: 6e70 0c3c 4e52 3dbe fc07 f0bc c847 72bd
000000d0: 134d cf3d 3589 0e3d 4e88 803c ce71 d8bd
000000e0: 3da4 123e 1e22 ebbb 2553 1dbd fc3b 96bd
000000f0: 4f1a 3d3e 5c7a f0bd 5228 3bbe 633d 823c
00000100: 08ef be3c 3c02 00bb b14b 9c3d 6161 9dbd
00000110: 9d43 a63d 8684 3fbd 9e9e 543d 7105 043e
00000120: 21db c6bb 45da 0abe 14d6 04be c1c7 b73c
00000130: 0b3f 6a3e 4db3 a93d b466 afbc e81f 7fbc
00000140: ad44 743d 88e2 c5bd 156f d2bd 0e55 d93d
00000150: e742 94be a79d 583c 12e0 8abc 42c3 533d
00000160: 9bd5 a53d 3a8b c5bd 0798 753d ac28 d63d
00000170: 0324 243c ec3d 7bbd 72a8 ea3c d393 11be
00000180: 37f9 c63c 6fdc 8cbd 7f95 4a3d 7012 ec3d
00000190: 02fb a83c 8096 96bd 5e1f 0c3e 403a 003e
000001a0: f0d0 47bc 7ce0 c83d cd00 0abc 22ee d1bd
000001b0: dac9 153d 3bf8 ae3c 95b0 7b3c 2289 16bc
000001c0: ddb7 63bd 335b 973d c39f 123e e7cc f6bd
000001d0: ef23 82bc 3144 a43d d6ed f5bd 2a0f 95bc
000001e0: c60e 4ebd 7a4c f4ba 9458 b6bc 9b83 ea3c
000001f0: 8421 cf3d ddd5 263e 5b1c 9fbd 5c2a d43c
00000200: 1823 453e 85fb 4abc ec39 56bd f74e f6bd
00000210: f826 0a3e ea0a a439 13b8 23be 3272 6b3d
00000220: 3ba3 8ebc 45f2 14bd 9c7a 16bd 04c4 5b3d
00000230: 8e89 bb3d d1d7 8bbd 5274 d8bc e147 42be
00000240: c22b 3abd ea05 cc3d 476e 76bd ea47 803d
00000250: bd74 88bd 0939 4b3b 0447 5dbe 8f48 013d
00000260: 6d4d 443d be05 883d a04e c3bd e990 793d
00000270: 833d 7bbb cbe7 9f3d 1604 7e3c 48a9 a6bc
00000280: 1d7c 4ebe e090 ec3c c795 d8bd df7e 243d
00000290: a0bb be3d f370 8d3d 0dd9 523d 2dc1 253e
000002a0: c1ce 26be b720 4c3b 24b9 c8bb 104d 25be
000002b0: 2906 9fbd 4338 683d 354b 163d da7c fcbd
000002c0: b140 cebd 905f 043e 1d2b 04bc 1276 c6bd
000002d0: e043 2abd d9e2 bcbd 58c0 27bd ac87 093e
000002e0: d2e1 ea3d 97e9 ce3d 1868 61bd 100e a43d
000002f0: a49f f5bd 6825 333d d3f9 5c3d f6fd 9ebc
00000300: 5370 d8bb c138 b2bc f912 39bc bdb3 a1bd
00000310: 2ba0 94bd a3f9 a63c cfcc e03d a761 2fbd
00000320: 2f3c f6bc 0f20 3cbd 3377 19be 4e20 66bc
00000330: f36e c8bd 2c54 aabd 744a ab3d 12a2 6ebd
00000340: 857d 193e 7fed 99bc 70a0 06be bc1b e3bb
00000350: 0810 cf3a 6fa2 d3bb d887 2dbd 3a50 04be
00000360: 6bba 8b3d a3e2 813d 041c b03b f6f2 46ba
00000370: c0a6 003d d914 4f3d 5585 4cbd 43f6 013e
00000380: 1575 0dbd 42e6 e83d 5289 bebd 3e56 e5bc
00000390: 1927 ac3d 280a 69bd fd83 e83d d6a2 4a3d
000003a0: ea96 e5bd b088 553d 0754 71bd 691f 49bd
000003b0: 9dee 35bd 32e4 cbbd c2da f53d 0250 583d
000003c0: dd4b 0dbe e56f aebc b216 f9bc ce99 df3d
000003d0: 55f3 bebd 2f92 e53d cce7 5d3d 9dec 583d
000003e0: e5d2 2abd 9222 1b3d b912 923d c0e2 bebd
000003f0: a393 01bd cbd7 083e e11a 98bd aed1 0d3e
0.046683643 -0.12012799 -0.015653457 0.13003787 -0.037755102 0.025435444 0.0070271557 0.1336181
0.06671819 -0.044147786 0.0087763965 0.0046563344 -0.08008274 -0.02449451 -0.17194042 -0.0003313551
0.00024707383 0.16200647 0.2234748 -0.17357188 0.021695381 0.15588745 -0.060047805 0.029603047
-0.024898868 0.028512286 0.06891229 -0.14853929 -0.054677047 0.08786799 -0.010582865 -0.12387896
-0.12505716 -0.063501455 -0.07433311 -0.022350365 0.1071898 0.122365475 -0.007632045 0.11560998
0.11892004 -0.11919636 0.09988425 -0.04604438 0.11167407 0.062101074 0.015040419 0.124907464
0.008571727 -0.18488428 -0.029300682 -0.059150487 0.101221226 0.03479882 0.015689995 -0.105685815
0.14320464 -0.007175698 -0.03840937 -0.0733566 0.18467067 -0.11742088 -0.182771 0.015898412
0.023307338 -0.0019532582 0.076316245 -0.07684589 0.08118365 -0.046757244 0.05190908 0.128927
-0.0060686027 -0.13559826 -0.1297229 0.022434117 0.22875611 0.08286152 -0.021411277 -0.015571572
0.059635807 -0.09662348 -0.102750935 0.10611926 -0.28957292 0.013221181 -0.016952548 0.051699884
0.08097383 -0.09645696 0.059959438 0.10456976 0.0100183515 -0.06133835 0.028644774 -0.14216547
0.024288757 -0.06877982 0.049458977 0.11526954 0.020627502 -0.07352924 0.1368384 0.1252222
-0.012195811 0.09808442 -0.0084230425 -0.10250498 0.036569454 0.0213586 0.015361925 -0.009187968
-0.055595268 0.07390442 0.14318757 -0.12050801 -0.015886275 0.08020819 -0.12008254 -0.018195707
-0.050307058 -0.0018638514 -0.022259034 0.028627208 0.101138145 0.1629252 -0.0776908 0.025899105
0.19251668 -0.0123890685 -0.052301332 -0.1202678 0.13491428 0.0003128865 -0.15988187 0.057481952
-0.017411819 -0.03636386 -0.036738023 0.053653732 0.09157096 -0.06828273 -0.026422653 -0.18972732
-0.045451887 0.099620655 -0.060163762 0.062637165 -0.06662891 0.0031009337 -0.21609122 0.031563338
0.0479254 0.0664172 -0.09536481 0.060929213 -0.0038336224 0.07807883 0.015503904 -0.020344391
-0.20164533 0.028877676 -0.10575443 0.040160056 0.093131304 0.06906309 0.051476527 0.16186972
-0.16289808 0.003114743 -0.006125586 -0.16142678 -0.07764847 0.05669428 0.036692817 -0.12328501
-0.10070933 0.12927079 -0.00806692 -0.09690489 -0.041568637 -0.09222955 -0.040954918 0.13430661
0.11468853 0.101031475 -0.055030912 0.08010495 -0.1199334 0.043736845 0.05394919 -0.019408207
-0.006605187 -0.021755578 -0.011296027 -0.078956105 -0.07257112 0.020382708 0.10976564 -0.042817738
-0.030057995 -0.04592901 -0.14986877 -0.014045788 -0.09786787 -0.08316836 0.0836381 -0.05826003
0.14989288 -0.018790005 -0.1314714 -0.0069307964 0.0015797624 -0.0064585726 -0.04236588 -0.12921229
0.06822666 0.06342056 0.0053744335 -0.00075893046 0.031409025 0.05055699 -0.049931843 0.12691598
-0.034535486 0.11372043 -0.093035355 -0.027995225 0.08405895 -0.05689445 0.113533 0.0494717
-0.11210425 0.05213231 -0.058918025 -0.04910222 -0.044417012 -0.09955634 0.12004615 0.052810676
-0.13798471 -0.02129359 -0.03040633 0.10918008 -0.09323756 0.11209523 0.054176137 0.052960027
-0.04170503 0.037874766 0.07132477 -0.09320593 -0.031634938 0.13363568 -0.07427002 0.13849518

gconv1.1.W.weight f4 [140, 140]
00000000: 65da 0b3d bc93 dabc c0e4 733b 5698 82bd
00000010: 5a32 c7bd 97a2 7cbd ea7c 6cbc 461a 59bd
00000020: 6917 dcbc 647b 94bd a8eb 9f3d 3277 143e
00000030: 36a9 1bbd cd6a b5bc 9ba4 8abc 0dc3 67bd
00000040: c5be 6cbd 4160 33be bb1b 61bd 21a6 d33c
00000050: d2a4 a93d 0aec 76bc 58eb 66bd 48ef cf3c
00000060: de91 0c3c 59b3 36bd 3ff4 ae3d c521 0ebe
00000070: d234 443d e53c 953d fd77 993d 95d9 913d
00000080: e90d 59bd 63ed dd3d fd3c 89bd 9047 f13d
00000090: 1cf9 a5bd 1c41 c43d d5be 8c3c ebc2 713d
000000a0: 9898 25be f25b 2fbd a235 333d 92ce 633c
000000b0: 6a62 f3bd 38da aebd 07db 24bd 776e f9bb
000000c0: d90a c1bd 1d93 7e3d 0057 993d ce61 0cbd
000000d0: 1603 f73d f6f0 443d 67d9 9a3a e5ad c73d
000000e0: 03a4 69bc 197d f0bd b5bb dcbd 35f0 4dbb
000000f0: 19fe 1a3e 7904 36be f439 f1bd 5fbd 52be
00000100: fdce 5abd 501b dfbc 9abf ca3c 62a4 fa3d
00000110: 9bf5 eb3d e4a3 913b 2061 1d3e 59f2 b23d
00000120: b95e ac3c 0661 1cba b670 443d d8da ac3d
00000130: cbb4 49bc 0382 bd3d 3193 a93d 1ee8 4fbc
00000140: 5852 ffba 1658 8f3a 4a3c ee3c 30ac ddbd
00000150: 65d4 f9bc 439b 7d3d 8a35 c03c b331 c13d
00000160: 052b 673e c1c1 bb3c 3488 c83d 4715 8abe
00000170: 7593 dcbd e35a 62bc 7b05 67bd 811a 903c
00000180: 7011 02be 320b d93c 7d34 ba3d b629 09bd
00000190: 383c c7ba 7592 a7bc ae27 81bd a66c 6d3d
000001a0: fd47 96bd 9259 b53c fcf7 163d 4617 47be
000001b0: 6d5e 9d3d 4e6b 30bd d884 093e 4fd2 15be
000001c0: be98 123e 1003 103e d33a 11be a27d fe3d
000001d0: c2be 093d 5df0 053e 7dc6 203e 1454 a93d
000001e0: cbaf 093d b061 0ebc 1e57 c7bd bf8a 033e
000001f0: 2134 dfbc 1fec 3bbd e2a7 933d 5f40 10be
00000200: dbe9 23bc d79a 26bd 5ca8 053e 4133 cfbc
00000210: a405 a23d ce99 5d3c 16eb f23d a5a9 acbc
00000220: d5e6 fbbd 8a65 75bd 8117 283d a10a 14be
00000230: c6d6 43bc 3bc5 0cbe 9a38 40bc f9f4 e13d
00000240: 2d84 473d fb29 3d3c 269e 493d 464d 7b3e
00000250: 556c 42bc 53ab bebc 13da 3b3d 7096 c53c
00000260: 9599 a03d 5e1b eebb 9988 c43d 7d68 debd
00000270: 39a5 7c3d fd4b 72bd 1539 3e3e bb16 57bd
00000280: 9943 853d 6d86 323e 28f9 b1bd a83b 3abb
00000290: ab9f 43bc a980 dd3d 2a55 d2bd 5543 0a3e
000002a0: cdbd babc a62f 22be 3b5f 96bd 4c41 193e
000002b0: ce71 5cbb 6f9a 303e 0437 a6bd 8fdf 9dbd
000002c0: 3e6c 163d 156d 3dbd da17 32bd 08dd 543d
000002d0: 3a77 5c3d 90ce a2bd d20e 013e a7cb 11bc
000002e0: cff4 733c 7489 493b 9212 613e 6f28 123d
000002f0: f731 1e3e b684 1ebd e532 90bd 3dd7 f6bb
00000300: e0d0 c73d 268d e63d 89c5 ddbc 659b c83d
00000310: cc73 b33d e8f3 a23d d671 05bd be54 b7bd
00000320: 7001 c2bc 27e2 1ebd 9509 bf3c 0e53 f1bd
00000330: dcbf b9b8 8823 acbd 5ee1 aa3d 10af 51bd
00000340: 2eaa 0f3e 9539 d4bd 6d2b f4bd 70a9 1dbd
00000350: 9cc4 5bbd 9b65 9b3d 9a71 ca3d 0213 84bd
00000360: 700d 94bd a582 893c a34e 663d 31f8 8abd
00000370: 6727 843d a552 0e3c d19f 5a3d 625a 82bd
00000380: e265 e03d 3377 f2bd ad67 a0bd ac81 8e3d
00000390: fd24 85bd f3d4 843d 02e0 cdbd 8001 963c
000003a0: a3f7 213c 3bf9 55bd 9ad8 393e aae7 bd3d
000003b0: 2ac6 6fbc 7781 2fbe 23d7 d2bd 979c 02be
000003c0: e09b 46bc c1d3 27bb 4173 d03d 46db 223e
000003d0: 4cf8 e0bd 9a98 763e d269 093c b9ee c43d
000003e0: a49f a5bc eeb1 2fbe b5c1 3a3e 2215 5f3d
000003f0: a569 053d 634b 513e e45c 5e3c f783 8d3b
0.034143824 -0.026681773 0.0037215203 -0.06376712 -0.09726401 -0.061678495 -0.014434079 -0.053003572
-0.026866632 -0.072500974 0.0780862 0.14498594 -0.03800317 -0.022145653 -0.016924193 -0.0565825
-0.05779912 -0.17517187 -0.054958086 0.025836052 0.0828339 -0.015070925 -0.056376785 0.025382653
0.008579699 -0.044604633 0.0854268 -0.1388007 0.047901936 0.07287005 0.07493589 0.071215786
-0.05299178 0.108362935 -0.06701086 0.117812276 -0.081041545 0.09582731 0.01718084 0.05902378
-0.16171491 -0.042812295 0.04375232 0.013904231 -0.11884005 -0.08537716 -0.040247943 -0.0076120454
-0.09425897 0.062152017 0.07487297 -0.03427296 0.120611355 0.04808136 0.0011814059 0.097499646
-0.014260295 -0.117426105 -0.1077799 -0.0031423692 0.15135993 -0.17775144 -0.11778632 -0.20580052
-0.053420056 -0.027234703 0.024749566 0.12238385 0.11521455 0.004444586 0.15369081 0.087376304
0.021041261 -0.00059653854 0.047959052 0.08440179 -0.012311171 0.092533134 0.08280028 -0.012689618
-0.0019479496 0.0010936286 0.029081482 -0.10823858 -0.030496785 0.061915647 0.02346303 0.094333075
0.22575004 0.022919537 0.09791604 -0.26969358 -0.10770313 -0.013815614 -0.05640171 0.017590763
-0.12701964 0.026494596 0.090920426 -0.033487044 -0.0015200442 -0.020455578 -0.063063964 0.057964943
-0.073379494 0.022137437 0.03685759 -0.19442472 0.07684026 -0.043071084 0.13429582 -0.14631008
0.14316079 0.14063668 -0.14182596 0.12426306 0.033629186 0.13079973 0.15700717 0.0826799
0.033614915 -0.008690283 -0.09733413 0.12845896 -0.027246537 -0.04587948 0.072097555 -0.14087056
-0.010004486 -0.04067501 0.13052505 -0.025292994 0.07911232 0.013525439 0.11861245 -0.021076987
-0.12299887 -0.05991129 0.04103804 -0.1445718 -0.011953061 -0.13747112 -0.011732245 0.11033053
0.048710037 0.011545653 0.049223088 0.24541196 -0.011866649 -0.023275053 0.04586227 0.024119586
0.078417934 -0.007266446 0.095963664 -0.10859773 0.061681006 -0.0591545 0.18576463 -0.05251191
0.06507034 0.17434092 -0.08690101 -0.0028416906 -0.011939923 0.108155556 -0.1027015 0.13502248
-0.022795582 -0.15838489 -0.073423825 0.14966315 -0.0033637169 0.17246412 -0.08115962 -0.07708656
0.03672432 -0.046246607 -0.043479778 0.051968604 0.05382464 -0.07949555 0.1260331 -0.008898652
0.01488991 0.0030752094 0.2197974 0.03568309 0.15448748 -0.03870078 -0.07040957 -0.0075329826
0.097566366 0.11257391 -0.027071731 0.09795264 0.08762321 0.07956678 -0.032579266 -0.0895171
-0.023682326 -0.038789894 0.023319999 -0.117834195 -8.857224e-05 -0.084052145 0.08343767 -0.051192343
0.14029762 -0.103625454 -0.11922345 -0.038491666 -0.0536543 0.07587739 0.09884949 -0.06448938
-0.072291255 0.016785929 0.056227338 -0.0678562 0.06452828 0.008686696 0.05337507 -0.063648954
0.109569326 -0.11839142 -0.078322746 0.06958327 -0.065011956 0.06485929 -0.10052492 0.018311262
0.009885701 -0.052239638 0.18149033 0.09272702 -0.014634648 -0.1713923 -0.1029494 -0.12755047
-0.012122124 -0.0025608393 0.10178233 0.15903959 -0.10984859 0.2408165 0.008387046 0.09615845
-0.020217724 -0.17157719 0.18237956 0.054463513 0.032571454 0.20438914 0.013571952 0.00431871

gconv1.1.W.bias f4 [140]
00000000: 2cb2 563d 74c3 283d f90b a93d 1c68 5b3d
00000010: 22e7 903d eb84 1d3d 649f 353d f21b aa3d
00000020: efbd 6ebd e659 4e3d 2b50 19bd 9b13 c7bd
00000030: 4db5 b53d 723b c7bd c61f d3bd c91d 563d
00000040: 869d 863d 7cfa bc3d 7364 b03d 1f6e 8fbd
00000050: 00ec c03d 7e01 ad3d e7b0 a13d 8ff0 c93c
00000060: 677d 453c 7586 46bd 68e4 873d 031a 893c
00000070: a14f d23c 102b a43d ceac c5bd 3c14 40bd
00000080: af1d 2a3c 4da5 803d 21e5 823c f014 f3bc
00000090: d920 023e 1d20 b43d 3e80 e83d 0e32 14bd
000000a0: 6445 c13d c035 613d a248 30bd 283a 9abd
000000b0: 2476 dabd d61a 863d d0fb d03c 8de6 a3bd
000000c0: d4c5 d9bb 7dfb 913d b8c7 a13d 1c3b 5c3d
000000d0: a4d1 663d a9f6 c9bd dea3 86bc 0549 32bd
000000e0: 2a8c 4a3d b751 bd3d bdba d1bd 6dc2 74bd
000000f0: 3215 853d d7e9 d33c 8208 f2bc 5ee6 d0bd
00000100: 82dc 37bc 12b1 cd3d 97a2 e2bc ae53 903d
00000110: 4dba 0fbd 644e 02bd e0cd 283d e230 603d
00000120: 677e ac3d 80d4 9fbd 426d e2bb b381 b5bd
00000130: 4d67 df3d 9bfe 94bd 5a84 c5bd aed8 e33d
00000140: 8551 7fbd 1aea db3d aa0e a23d 5ab6 943d
00000150: ddcf b3bd 9cdd d93d 43a1 73bd 0b36 4bbd
00000160: 7ab2 82bd a47a 4c3d ef81 163e 10fd 0cbd
00000170: 9d56 033e cf98 343d 1e90 fbbd 17e9 82bd
00000180: f49c c73d 3a8a f03d 6296 b63d 48d7 3bbd
00000190: 280f da3d f746 89bd 5dc8 9d3d 1df7 9dbd
000001a0: cb42 83bd 188e 39bd a371 9dbc 6040 7b3d
000001b0: e259 df3d ec7e 853d 7d31 183d b217 d3bd
000001c0: 583e df3d 8f3a 133c fa8d b3bd 06ee 0fbe
000001d0: 760d dc3d 226a 93bd 8944 debd 2034 753d
000001e0: c0a6 51bc d77c 6bbd 9c56 6e3d b547 f83d
000001f0: cf14 c23d 0c20 3b3d ab5b f0bc 68e1 fe3c
00000200: 288a 8abc 48ad a1bd be38 ac3c 57c9 83bd
00000210: 4da6 a73d 8d87 a0bd e94c 7ebd ab16 3e3d
00000220: bb16 ce3d 9ac8 ad3d 0346 53bd 4632 073d
0.05241601 0.041202024 0.08254237 0.053566083 0.07075335 0.03845684 0.04434146 0.083061114
-0.058286604 0.050378703 -0.03742997 -0.09720536 0.08872471 -0.09728135 -0.10308795 0.0522745
0.06573014 0.092274636 0.08612909 -0.07003426 0.094200134 0.0844755 0.078950696 0.02465084
0.012053824 -0.048468072 0.06635362 0.016736036 0.025672736 0.08016026 -0.096521005 -0.046894297
0.010383054 0.062815286 0.015978398 -0.02967307 0.12707843 0.087951876 0.11352585 -0.03618055
0.09437063 0.0549829 -0.043038018 -0.07530624 -0.10667065 0.06548087 0.025510699 -0.080029584
-0.0066458974 0.07128046 0.078994215 0.05376731 0.056352273 -0.098615 -0.01643556 -0.043526668
0.049450077 0.092441015 -0.102406956 -0.05975573 0.06498183 0.02586834 -0.029545072 -0.10200189
-0.011222007 0.10043539 -0.02766542 0.07047211 -0.03508978 -0.03181304 0.041211963 0.05473412
0.08422547 -0.07804203 -0.006909997 -0.08862629 0.10908375 -0.07275125 -0.09644385 0.11125313
-0.062333602 0.10738011 0.07912953 0.07261343 -0.08779881 0.10637972 -0.059479963 -0.049612086
-0.06381698 0.049921647 0.14698003 -0.034421027 0.12826009 0.044091042 -0.122833475 -0.063921146
0.09746733 0.117451146 0.08915402 -0.045859605 0.10647422 -0.067029886 0.07704232 -0.07713149
-0.06409224 -0.045301527 -0.019219225 0.06134069 0.10905816 0.06518349 0.03715657 -0.10307254
0.10900563 0.008986129 -0.08767314 -0.14055642 0.10744755 -0.071979776 -0.10852916 0.059864163
-0.012796104 -0.057492103 0.058188066 0.12123052 0.09476625 0.04568486 -0.029340586 0.031113341
-0.016911581 -0.07894379 0.02102315 -0.06434887 0.08186016 -0.07838354 -0.062085066 0.046408337
0.10062929 0.08485527 -0.05158044 0.03300693

gconv1.1.gate.weight f4 [1, 280]
00000000: 26a1 ebbc ac24 58bd 5ebd e13c bb2e 573d
00000010: e38c 4abd 9a59 543c d33f c53d 171f 1b3e
00000020: 1171 4fbd e542 1c3e 5000 30be 91d0 143c
00000030: 98d8 48be c057 cf3b 5439 473d 125f 323e
00000040: dc28 543b 4921 513e aa68 ce3c f4e3 0ebe
00000050: cd45 b73d c1ba e0bd d76e 98bd 50cd 5bbc
00000060: d3a3 363c 854f 603d 58a5 a13c 8626 b03d
00000070: 6b70 783d 67e0 cabc 2163 91bd fb23 f13d
00000080: 9c1e 42bd 8a70 823d baa7 27bd 1d15 5dbe
00000090: 9bf6 05bd f87b c9bd f1ff d3bb 84e4 c7bd
000000a0: 2684 35bc 19dd 91bd b23c d23d 9c10 d63c
000000b0: 0a0a 323d 65b9 9d3c 6cda 263e 4939 8ebc
000000c0: da69 56bd 66f5 f03d b230 483d 5b4d 393d
000000d0: c582 a63d fba2 f63d 8520 323c 43bf f1bd
000000e0: 34c3 823c 0833 873d 2750 283e 71c8 4ebe
000000f0: 47c5 153c 0771 d93b 2a2f 95b9 6bcd 753c
00000100: d48f 3fbe 3297 193d 1a83 0fbc 778b 003e
00000110: a5d8 dcbd 6a4c fdbc aac4 913d 89f6 143e
00000120: f923 8a3c 7923 adbd 8753 97bc 1121 3e3b
00000130: 15e6 6c3d ada5 993c 5474 aebd d4cc a6bd
00000140: 131b d9bc f957 0fbb 7e3e 0bbe 6ac5 2e3d
00000150: 3c5d 933d 99ee ca3d ab95 db3d 98dd 63bd
00000160: b687 68bc d703 d8bd e8ee 013e d848 b43c
00000170: e9fa 143a 9352 d8bc d982 54bd 9475 f0bd
00000180: 664d 363e 2b98 11be 88ae 02be 2e85 033e
00000190: 15c2 b6bc 23e2 c1bd aded 173e 2d08 1cbd
000001a0: 1140 e3bc 13ad 563c 1c1d 06bd 2e99 70bb
000001b0: 1ab6 75bd 581d 343d b8e7 10bc 341f 34be
000001c0: 4b38 1fbe 031e 33bd 84d1 89bd 7c10 99bd
000001d0: cee1 b5bd e532 bd3d 7810 b9bd c5ac 9ebd
000001e0: e39d 5abe fd03 443d ad3e eabd f4b8 383d
000001f0: e578 e33a 631d 82be 0a1a 1c3d e333 4cbd
00000200: 90ac 40be 722d f2bb ccb9 403c 969e 8fbd
00000210: 9b4a 003e 7b82 0a3d e065 043e f23f c33b
00000220: 6485 923e 55a2 41bd a814 c5bd 0c02 d6bd
00000230: bff5 e9bd 5cdc b93d 1f42 bebc 86c9 1e3e
00000240: 0e6c 083e 0703 e03d e0cc d9bd b070 f8ba
00000250: 8fc0 53bd 83b6 c23d cbec 24be 879c 363d
00000260: 78f3 013d 83a4 f83d 083e eabc a83e 803d
00000270: 28ec 983d 1f4e 56bc ea12 83bd 0d4d 913c
00000280: 4ad4 1fbe 3afe 45bc 3824 3b3d 15e4 593d
00000290: 0f33 ac3d edf1 66bc ebca 173d 735f 1f3d
000002a0: 77ae 913d 8697 d23d fd4c f1bd a985 ee3d
000002b0: b809 6abd 2246 0c3d 787e 753d ce45 e4bb
000002c0: d1f3 e5bb 50ce 313d 2ca1 e73d 2b4b 423d
000002d0: f03c 7f3d 45ad 3dbd f847 67bd 716d cf3d
000002e0: 0d70 853d 188e 143d e9ad 373d 4e66 273c
000002f0: 26af aebd e654 1f3c 6f48 773d 8c5c 90bd
00000300: 6127 8abd cc9c 3abd 5c41 4cbb 343a d63c
00000310: 175a 2abd a247 06bd 7260 82bc 91b5 abbd
00000320: 4fd9 e1bd 9b67 a83d 48f4 0d3d f55f 0c3d
00000330: 81ce 7f3d de0b 1abd 473a 0fbe 2f11 16bd
00000340: 6866 013e 4b6f 803d e0bb 8c3d 02fc 69bd
00000350: 1e06 b03d 2d34 17be 449d 143d 4f6f 8abd
00000360: 3e71 2d3b 8f19 b8bd 1233 a63c d00c 04be
00000370: 3375 91bc 6b4b 0cbe 499e d7bc 59bd 303e
00000380: 5225 c9bd 404c 963c dca3 07bd 83b1 acbd
00000390: c421 08be 4d1d e5bd 1251 503e 0e0f 23bd
000003a0: 2e67 813e 9a56 7fbd 0997 1bbb 5016 ef3c
000003b0: 94a3 06bd 2bb1 013c 4f01 72bd 1afe eabc
000003c0: 9d61 60bd f00c 93bd 8dcb 06be 34b6 8a3d
000003d0: 4687 843d 54d1 223e 85bf f9bd 103b 0fbc
000003e0: 2453 e13d 1a7d babc 3b00 6abc ea39 703d
000003f0: 1f24 e43d 15de 373d a128 2ebd a821 1fbc
-0.028763365 -0.052769348 0.027556118 0.0525348 -0.049450766 0.012960816 0.09631314 0.15148579
-0.050644938 0.15259893 -0.17187619 0.009082929 -0.19613874 0.0063275993 0.048638657 0.17419079
0.0032372987 0.20422854 0.025196392 -0.13954145 0.0894886 -0.109731205 -0.07443016 -0.0134156495
0.011147457 0.054763336 0.019732162 0.08601098 0.060654085 -0.024765207 -0.070989855 0.11774441
-0.047392473 0.063691214 -0.04093144 -0.21590085 -0.032705884 -0.09838098 -0.0064697196 -0.09760383
-0.01107887 -0.07122249 0.10265483 0.026130967 0.043466605 0.019253442 0.16294259 -0.0173613
-0.05234704 0.11765556 0.048874564 0.045239788 0.08130411 0.12042805 0.010872011 -0.118040584
0.01596222 0.0660153 0.16436826 -0.2019365 0.009141273 0.0066357884 -0.00028454635 0.015002589
-0.1870721 0.037497707 -0.008759284 0.12553202 -0.10783509 -0.030920226 0.07117589 0.1454717
0.016862856 -0.084540315 -0.018472446 0.0029011408 0.05783661 0.018755758 -0.085182816 -0.081445366
-0.026502168 -0.0021872504 -0.13598058 0.042668737 0.071955174 0.0990879 0.10721906 -0.05563125
-0.014192512 -0.105476074 0.12688792 0.02200739 0.00056831405 -0.026406562 -0.0518826 -0.11741176
0.17802963 -0.14218204 -0.12761891 0.12843773 -0.022309342 -0.0946696 0.1483676 -0.038093735
-0.02774051 0.013102788 -0.032742605 -0.0036712396 -0.05998812 0.043973297 -0.008844309 -0.17590028
-0.15548818 -0.043729793 -0.06729415 -0.07473847 -0.088809595 0.09238223 -0.09036344 -0.07747797
-0.21349292 0.047855366 -0.11437736 0.04509826 0.0017354755 -0.25413045 0.03811077 -0.04985417
-0.18815827 -0.0073906714 0.011763047 -0.0701267 0.1252846 0.033815842 0.12929487 0.0059585506
0.28617394 -0.047273953 -0.096230805 -0.10449609 -0.114238255 0.09075233 -0.023224888 0.15506563
0.1332247 0.109380774 -0.1063478 -0.0018954482 -0.05169731 0.095074676 -0.16105954 0.04458287
0.03172633 0.12140753 -0.028594032 0.06261951 0.07466918 -0.013080149 -0.06400092 0.017736936
-0.15608326 -0.012084538 0.045688838 0.05319603 0.08408176 -0.014095766 0.037058752 0.038909387
0.07113355 0.10282807 -0.117822625 0.116465874 -0.057138175 0.03424657 0.059935063 -0.006966329
-0.0070175906 0.043409646 0.11310038 0.047434967 0.062313974 -0.04630782 -0.05646512 0.10128296
0.065155126 0.036268324 0.044843588 0.010217262 -0.08529501 0.009724831 0.060371812 -0.07048902
-0.06745792 -0.04555969 -0.0031166887 0.0261508 -0.041589823 -0.032783158 -0.01591513 -0.083842404
-0.110277764 0.08222886 0.034656793 0.0342712 0.062452797 -0.037608974 -0.13987075 -0.03663748
0.12636721 0.062712274 0.06871772 -0.0571251 0.08594917 -0.14765997 0.036282793 -0.06759512
0.0026465203 -0.0898925 0.020288024 -0.12895513 -0.01775608 -0.13700645 -0.026320593 0.1725973
-0.098215714 0.018346906 -0.033115253 -0.08432295 -0.1329413 -0.11187229 0.20343426 -0.03980928
0.25274032 -0.06233845 -0.0023741147 0.029185444 -0.032870844 0.007915775 -0.05908328 -0.028685618
-0.05478059 -0.07180202 -0.13163586 0.06773034 0.06471114 0.15900165 -0.121947326 -0.008742109
0.11002186 -0.022764731 -0.0142822815 0.05864898 0.11139702 0.04488953 -0.042519215 -0.009712614
