save/best_old_opt12_0.832.pt (torch, 957832 bytes, 24 tensors)

gconv1.0.A f4 [140, 140]
-0.016816532 -0.20929858 0.039273422 0.06320102 -0.06087484 -0.041218597 -0.12166786 0.16101368
-0.06860397 0.02180269 0.11681109 -0.076570444 -0.08074707 -0.124240756 0.008406187 0.0002475504
-0.023981549 0.06064973 0.00039392879 0.024380831 -0.045318063 0.08435211 0.023708027 -0.002646323
-0.016298007 0.032775484 0.16124842 -0.07396307 0.020946633 0.027734872 -0.020411493 0.031360533
0.046355654 -0.20385638 0.043829583 0.08001112 -0.026284773 0.018766904 -0.027923288 -0.0023408725
-0.030184817 -0.1182939 -0.10789198 0.098079145 -0.058706604 0.045493074 0.117767364 0.030829296
-0.016959757 -0.10435079 0.12610972 -0.05052602 0.1076413 0.21422814 -0.092635185 0.027522024
0.12495392 0.015667725 0.078948975 -0.089933895 -0.18203244 -0.14163563 -0.124555826 0.1354034
-0.030096725 0.045899533 -0.13710572 -0.037115715 -0.19959764 -0.09840532 -0.18271844 0.08321969
-0.11746994 0.13621406 0.026388947 -0.053928282 -0.050524857 0.0923471 0.014970786 -0.0131484065
0.19747345 0.0022089742 0.123074315 0.047723997 0.006425741 -0.07810374 0.05205505 -0.08673527
0.07363246 -0.006772469 -0.03213687 -0.0018970197 -0.027090752 0.07970713 0.026506051 -0.017867338
0.06243401 0.1047721 -0.12830888 0.048985645 -0.047856767 0.010181576 0.034776893 -0.017689269
-0.0839915 0.045186874 -0.04004942 -0.06258521 -0.01985027 -0.037809066 0.017309237 0.02605718
-0.02638606 -0.11266971 0.06300509 0.030769618 -0.07399564 -0.013614552 0.03179182 0.05954296
-0.06941482 0.1241845 -0.05176881 -0.07715838 0.0496061 0.087306574 0.12178896 -0.21482602
-0.02779278 -0.036592476 0.0020553032 -0.15134835 0.029378261 0.031682994 -0.012223782 0.05486522
0.2606966 -0.0018105017 -0.0103379795 -0.024893578 0.05482576 0.14744797 -0.06791198 -0.025387721
-0.18141098 0.014469373 0.05716591 0.12770203 -0.05204428 0.01430587 -0.058670536 -0.02829146
-0.0011022015 -0.04913219 -0.029584007 0.02328105 0.05944507 -0.04958397 0.014188597 -0.07602584
-0.116072774 0.0575813 -0.06867757 0.119041756 0.09414004 0.04158255 0.014550457 -0.14544933
-0.027986828 0.106466234 0.08235579 -0.025045326 -0.036032304 -0.17616405 -0.049627583 0.089979686
0.035267863 0.0977612 -0.029384699 0.17469352 0.194769 0.16690482 0.06845087 -0.08445392
0.0045198225 -0.034927588 -0.0021138717 -0.111610726 -0.07835405 0.0025609909 0.093125686 0.011737766
0.010938414 -0.027847266 -0.113873966 0.12330535 0.10792373 -0.22695085 -0.01390482 -0.10071001
0.052034333 -0.019528382 0.20982258 0.07560251 0.20449908 -0.07212081 -0.025550986 0.02040488
-0.1314294 0.08618003 0.059907135 -0.059458166 -0.073976025 -0.13967435 -0.1260896 -0.035300184
0.08651967 -0.06648091 0.10562495 0.107661344 -0.017181005 -0.10348433 0.029476237 -0.14164886
0.011338669 -0.09605723 0.0019897071 0.07765731 0.018172808 0.081127316 0.06639871 -0.08635694
0.000304932 -0.13344802 -0.06528511 0.08232106 0.13449797 -0.047493815 -0.021180786 -0.1309072
0.022614004 -0.022821734 -0.08985056 0.024409818 0.057351746 0.01001533 -0.09734652 -0.0059489114
0.072368644 0.12232779 0.06118004 0.06802266 0.0420465 -0.14829624 0.0744307 0.0052245646
00000000: d3c2 89bc 5e52 56be 2bdd 203d 896f 813d
00000010: e557 79bd d5d4 28bd 002d f9bd c5e0 243e
00000020: 3d80 8cbd 8e9b b23c a73a ef3d f7d0 9cbd
00000030: b85e a5bd f071 febd 1bba 093c a7c9 8139
00000040: f474 c4bc da6b 783d 3a88 ce39 4fba c73c
00000050: 6f9f 39bd cdc0 ac3d 5637 c23c ef6d 2dbb
00000060: 6683 85bc 963f 063d 4e1e 253e f379 97bd
00000070: 4698 ab3c 3e34 e33c 0136 a7bc e773 003d
00000080: 6ddf 3d3d babf 50be a686 333d dfdc a33d
00000090: 2a53 d7bc 0dbd 993c 61bf e4bc 5369 19bb
000000a0: 2646 f7bc 1244 f2bd 78f6 dcbd b8dd c83d
000000b0: 5676 70bd f256 3a3d 0430 f13d b88d fc3c
000000c0: 30ef 8abc deb5 d5bd e822 013e 5ff4 4ebd
000000d0: 0b73 dc3d 9f5e 5b3e 84b7 bdbd de75 e13c
000000e0: d7e7 ff3d 9a59 803c 00b0 a13d 432f b8bd
000000f0: b666 3abe ee08 11be 2017 ffbd 30a7 0a3e
00000100: 688d f6bc 2601 3c3d 7165 0cbe a606 18bd
00000110: 5363 4cbe ba88 c9bd 8b1a 3bbe 166f aa3d
00000120: 1494 f0bd b37b 0b3e a22d d83c e7e3 5cbd
00000130: 27f3 4ebd 7a20 bd3d 0748 753c 6a6c 57bc
00000140: 7b36 4a3e 70c4 103b 630e fc3d 3d7a 433d
00000150: 068f d23b dbf4 9fbd ad37 553d 43a2 b1bd
00000160: 9dcc 963d 96eb ddbb f3a1 03bd 6ba5 f8ba
00000170: 6ded ddbc 7e3d a33d 3823 d93c 865e 92bc
00000180: ceba 7f3d c192 d63d 6763 03be 2ca5 483d
00000190: 7505 44bd a0d0 263c 3772 0e3d 16e9 90bc
000001a0: bc03 acbd df15 393d dc0a 24bd ad2c 80bd
000001b0: 099d a2bc aedd 1abd 1acc 8d3c de75 d53c
000001c0: 9427 d8bc 60bf e6bd d008 813d 9110 fc3c
000001d0: 078b 97bd 920f 5fbc 2438 023d 52e3 733d
000001e0: 5b29 8ebd 7154 fe3d 880b 54bd 3605 9ebd
000001f0: c42f 4b3d cacd b23d 7e6c f93d 5afb 5bbe
00000200: afad e3bc fee1 15bd 44b2 063b 10fb 1abe
00000210: aeaa f03c 07c6 013d 4246 48bc 5aba 603d
00000220: 067a 853e 5b4e edba a160 29bc 9eed cbbc
00000230: fa90 603d 9afc 163e 7015 8bbd e9f9 cfbc
00000240: cdc3 39be f310 6d3c cd26 6a3d 52c4 023e
00000250: 622c 55bd 2b63 6a3c 8450 70bd 7ec3 e7bc
00000260: bf77 90ba d63e 49bd 295a f2bc e7b7 be3c
00000270: ac7c 733d 9018 4bbd 4a77 683c 70b3 9bbd
00000280: 90b7 edbd 5fda 6b3d d3a6 8cbd 2acc f33d
00000290: 7ecc c03d 7752 2a3d 0a65 6e3c abf0 14be
000002a0: a244 e5bc f80a da3d 27aa a83d db2b cdbc
000002b0: 9c96 13bd 5964 34be 4b46 4bbd 4547 b83d
000002c0: 0975 103d 0637 c83d 2eb8 f0bc dce2 323e
000002d0: 8671 473e 19e9 2a3e f82f 8c3d 2df6 acbd
000002e0: 051b 943b 3b10 0fbd e288 0abb 2a94 e4bd
000002f0: 1778 a0bd 4cd6 273b aeb8 be3d c24f 403c
00000300: 0937 333c f31f e4bc c136 e9bd 8487 fc3d
00000310: 1e07 dd3d ce65 68be 0bd1 63bc 0d41 cebd
00000320: f421 553d fcf9 9fbc bbdb 563e 7dd5 9a3d
00000330: 3568 513e 13b4 93bd 4d50 d1bc 2328 a73c
00000340: 6e95 06be 287f b03d 2f61 753d 688a 73bd
00000350: be80 97bd cb06 0fbe a21d 01be ed96 10bd
00000360: 3a31 b13d 2527 88bd e551 d83d 8d7d dc3d
00000370: 2ebf 8cbc 98ef d3bd 2678 f13c 660c 11be
00000380: d3c5 393c a7b9 c4bd bf65 023b cc0a 9f3d
00000390: 24df 943c 1426 a63d 0cfc 873d e8db b0bd
000003a0: 48df 9f39 99a6 08be 33b4 85bd f297 a83d
000003b0: d6b9 093e e088 42bd 5483 adbc 890c 06be
000003c0: 0141 b93c a5f4 babc 9203 b8bd 19f7 c73c
000003d0: aae9 6a3d 5717 243c 9d5d c7bd 16ef c2bb
000003e0: 0336 943d fe86 fa3d ec97 7a3d 774f 8b3d
000003f0: f338 2c3d f8da 17be 1f6f 983d d332 ab3b

gconv1.0.W.weight f4 [140, 140]
0.028003471 0.11269109 0.018877221 -0.006784132 -0.14376876 0.02046871 -0.063736275 -0.17522894
-0.022490416 0.029059805 0.06889521 -0.029888695 0.13429944 -0.047187448 0.015139161 -0.09427527
-0.004881488 0.10243831 0.027247328 -0.06157476 0.081402555 -0.013020652 -0.006276326 0.11603379
0.024664026 -0.07250994 0.068958364 0.0293487 -0.11746007 -0.13094065 -0.022955352 0.0060146363
0.058213983 0.044648726 -0.087327614 0.03125652 -0.08675047 -0.11257975 0.02471575 -0.0008899534
-0.05427868 0.04322034 0.13167924 0.027058905 0.11932741 -0.063710675 -0.12572853 0.043543067
0.020768762 -0.060529258 -0.09796329 -0.049081776 0.020497235 0.013525597 0.13470213 0.0069331275
0.016033413 -0.09056454 -0.1528665 -0.06944423 0.008875873 0.04807317 0.09454827 -0.0053799883
-0.029961463 0.031261418 0.06075716 -0.12390982 -0.19914061 0.1729435 0.118982844 0.0039581745
0.06342726 -0.1893728 -0.017606903 -0.011102119 -0.09193655 -0.112618566 -0.026830632 -0.08735275
0.03759916 0.026127521 0.053228058 -0.069946826 0.1215353 -0.07057162 0.014591785 -0.06628196
0.10702293 0.061339073 -0.0072724735 -0.024415102 -0.007617394 -0.061618272 -0.20359664 -0.06509563
0.012896787 0.03787087 -0.11451579 -0.060851734 0.107766874 0.01131771 -0.11283002 0.12229301
-0.1236078 0.04811871 0.027520048 0.012922108 0.024518335 0.028008118 0.09435173 -0.046515338
0.040466823 -0.072898015 0.13197164 -0.016971746 -0.16469418 -0.117418505 -0.0029668757 -0.060665064
-0.012823561 0.07536128 0.074319646 -0.031573903 -0.083112106 0.10746625 -0.04823144 0.13238662
0.06762144 -0.018930424 0.040608708 0.15651682 0.036409203 -0.06014821 0.09402522 0.20023689
0.02339172 -0.06601564 0.0512928 -0.0022990177 0.06289884 0.14609563 -0.119721554 0.10662797
-0.044584315 -0.11449452 -0.030670803 0.089126684 -0.05278848 -0.19785146 0.13980243 -0.11379979
0.058947075 -0.12880161 0.11214804 0.0075010713 0.020886818 -0.01988172 0.0472582 -0.0024406624
0.11200505 -0.045663226 -0.06494056 0.056469038 0.00807679 0.062972575 -0.07824961 0.14124309
-0.053285856 0.0023003272 -0.019648027 0.13554153 0.017690929 -0.06652803 0.18030854 0.050759632
-0.22262542 0.08101492 0.10241756 0.13457501 -0.013067706 0.045324814 -0.12388427 -0.013498479
0.10176835 0.0092073595 0.25255045 -0.054081634 0.014686157 -0.11407205 -0.032428425 0.008634379
0.038604543 0.04905939 0.06788075 0.02412821 -0.042173732 -0.019371362 -0.042585973 0.10567509
-0.0955314 -0.06742042 0.08040476 0.046086576 -0.09496201 -0.05534975 0.017990144 -0.027277391
-0.12607841 -0.026214208 -0.06634301 0.046948303 -0.03799954 -0.045155227 0.035894476 -0.14095083
0.013772961 -0.04691614 0.10211793 0.08641879 0.002405196 -0.14656417 0.030813081 0.08464146
0.049061093 0.065226704 -0.047148105 -0.056390405 -0.09063427 -0.016415073 -0.014185597 0.0041993265
-0.33662146 -0.09814708 -0.1514668 -0.07315388 0.11914258 -0.06236121 0.06381513 0.08526016
0.0051123183 -0.08316591 0.03746647 0.046363164 0.06699195 0.087307066 -0.0021439702 0.058307182
0.0050661154 0.013799639 0.08908784 -0.20076437 0.019788949 0.040891886 0.0023493932 -0.08385947
00000000: 8967 e53c 96ca e63d 67a4 9a3c 6d4d debb
00000010: 1e38 13be ffad a73c 2a88 82bd 376f 33be
00000020: d23d b8bc d40e ee3c ef18 8d3d 23d9 f4bc
00000030: cb85 093e a047 41bd 3e0a 783c 6513 c1bd
00000040: e4f4 9fbb 2dcb d13d ca35 df3c d135 7cbd
00000050: 62b6 a63d 9354 55bc a3a9 cdbb 20a3 ed3d
00000060: 360c ca3c 1780 94bd 0b3a 8d3d af6c f03c
00000070: e88e f0bd 4e15 06be dd0c bcbc 6d16 c53b
00000080: c971 6e3d 95e1 363d d2d8 b2bd d606 003d
00000090: 3baa b1bd 3690 e6bd af78 ca3c c34b 69ba
000000a0: 5253 5ebd d007 313d ecd6 063e a3aa dd3c
000000b0: ee61 f43d be7a 82bd fbbe 00be 375a 323d
000000c0: 4023 aa3c 87ed 77bd faa0 c8bd f909 49bd
000000d0: d1e9 a73c 779a 5d3c 5bef 093e 4a2f e33b
000000e0: 8158 833c e779 b9bd 0989 1cbe c738 8ebd
000000f0: 1c6c 113c 5fe8 443d 86a2 c13d 9d4a b0bb
00000100: be71 f5bc f90b 003d 80dc 783d 6fc4 fdbd
00000110: 84eb 4bbe 1a18 313e 47ad f33d 93b3 813b
00000120: 27e6 813d f1ea 41be 5a3c 90bc aae5 35bc
00000130: 3b49 bcbd 90a4 e6bd eacb dbbc 00e6 b2bd
00000140: 9401 1a3d 6209 d63c aa05 5a3d 4840 8fbd
00000150: 80e7 f83d da87 90bd 6212 6f3c d6be 87bd
00000160: d72e db3d ae3e 7b3d ee4d eebb 2e02 c8bc
00000170: 559b f9bb 7163 7cbd a37b 50be dc50 85bd
00000180: 0c4d 533c 7c1e 1b3d 4187 eabd ab3f 79bd
00000190: e1b4 dc3d eb6d 393c 6d13 e7bd c274 fa3d
000001a0: 1626 fdbd 2018 453d b971 e13c 40b7 533c
000001b0: adda c83c 4871 e53c 7b3b c13d de86 3ebd
000001c0: 8ac0 253d 8e4b 95bd 9323 073e 5508 8bbc
000001d0: 97a5 28be 1d79 f0bd ea6f 42bb ee7b 78bd
000001e0: ea19 52bc 0457 9a3d e634 983d a353 01bd
000001f0: ae36 aabd 4417 dc3d 558e 45bd 5c90 073e
00000200: 1c7d 8a3d fa13 9bbc 5155 263d f245 203e
00000210: d121 153d f85d 76bd 4b90 c03d e60a 4d3e
00000220: fe9f bf3c 3533 87bd 6618 523d 1eab 16bb
00000230: 1bd1 803d 189a 153e 9330 f5bd c45f da3d
00000240: 0b9e 36bd 1a7c eabd 5641 fbbc 0d88 b63d
00000250: bc38 58bd 9399 4abe 5e28 0f3e dd0f e9bd
00000260: 7d72 713d 92e4 03be dfad e53d 8ccb f53b
00000270: d51a ab3c fdde a2bc d091 413d 85f3 1fbb
00000280: e762 e53d 5d09 3bbd 8eff 84bd 144c 673d
00000290: 8354 043c c4f7 803d 5541 a0bd 07a2 103e
000002a0: 4542 5abd 16c1 163b e6f4 a0bc 66cb 0a3e
000002b0: 91ec 903c d93f 88bd cda2 383e 55e9 4f3d
000002c0: ebf7 63be 26eb a53d 4cc0 d13d 08ce 093e
000002d0: ee19 56bc 83a6 393d 09b7 fdbd b928 5dbc
000002e0: ed6b d03d 77da 163c 4b4e 813e b484 5dbd
000002f0: 359e 703c 9b9e e9bd abd3 04bd 3677 0d3c
00000300: cc1f 1e3d 80f2 483d 1005 8b3d 86a8 c53c
00000310: 5dbe 2cbd b1b0 9ebc a16e 2ebd 2e6c d83d
00000320: f7a5 c3bd b813 8abd 40ab a43d 47c5 3c3d
00000330: 717b c2bd 6bb6 62bd 1160 933c d674 dfbc
00000340: b31a 01be 2ebf d6bc d8de 87bd dd4c 403d
00000350: 68a5 1bbd b0f4 38bd 1606 133d 6a55 10be
00000360: fca7 613c 232b 40bd 3523 d13d 56fc b03d
00000370: 7ea0 1d3b eb14 16be b76b fc3c 8058 ad3d
00000380: 49f4 483d 9495 853d 5f1e 41bd a0f9 66bd
00000390: 769e b9bd e778 86bc b56a 68bc 819a 893b
000003a0: a659 acbe 5601 c9bd 1d1a 1bbe b4d1 95bd
000003b0: 0601 f43d 786e 7fbd 82b1 823d e19c ae3d
000003c0: 3c85 a73b e352 aabd 7176 193d 4de7 3d3d
000003d0: 1333 893d 0cce b23d da81 0cbb 83d3 6e3d
000003e0: a801 a63b e217 623c af73 b63d 2d95 4dbe
000003f0: 6f1c a23c 407e 273d 47f8 193b 84be abbd

gconv1.0.W.bias f4 [140]
0.021351475 0.029544419 0.055326883 -0.0027883768 0.022452947 0.06312699 0.06393556 0.030178286
-0.039743733 0.013363924 -0.011123596 0.021587534 0.016703159 0.058418583 0.026259689 0.030464893
-0.06551819 -0.05331167 0.05163634 0.057531413 0.019721968 0.07642028 -0.06847822 -0.020835686
-0.009444386 -0.10088766 -0.029155836 0.063311085 -0.016081477 0.054270256 -0.04951149 -0.007571636
0.011136462 0.02031834 0.09339131 -0.051863093 -0.04114903 -0.07589654 0.040587395 0.07784212
-0.06368451 -0.066997975 -0.05646687 0.06449723 -0.06767781 -0.023676796 0.091779 -0.029373376
-0.023956528 0.036478397 0.060103633 -0.020306852 0.05815804 -0.027000142 -0.01764116 -0.019878006
0.06021581 -0.04990241 0.08798304 -0.009228684 0.035868585 -0.097230844 0.033627186 -0.02534057
0.026994003 -0.082403645 0.0847174 -0.009518459 0.06637684 -0.07271364 -0.027860915 0.082218945
-0.07292772 0.038453538 0.061531305 0.073966555 0.07525598 -0.06083448 0.050682534 0.016882941
-0.011408318 0.060870383 0.06516693 -0.054690648 0.04814815 -0.0719218 0.028766619 -0.014335913
-0.068447836 -0.066176385 0.02711246 0.055039108 0.08986639 -0.05562737 -0.054488305 0.04378995
-0.0033240835 -0.0035237952 0.007562409 -0.046036907 -0.06526432 0.030109681 -0.06697836 -0.04179926
0.045910817 0.035903525 0.032444604 -0.029260257 0.013449037 -0.06647087 -0.08124434 0.040473107
-0.0012559043 -0.06395591 0.09386615 0.054350596 0.05965143 -0.052168947 0.025640626 0.09449704
0.05425051 -0.02344825 0.03902776 0.033536576 0.030718435 0.046318125 0.046052556 0.04079716
-0.045818612 0.013443581 -0.10105681 0.07444654 -0.0033880272 0.025716057 0.031177342 0.027075889
0.0067942874 -0.08881931 -0.03205493 -0.02516537
00000000: 4ae9 ae3c 2307 f23c 719e 623d 33bd 36bb
00000010: 3eef b73c b948 813d a6f0 823d 7438 f73c
00000020: 53ca 22bd 5cf4 5a3c be3f 36bc 57d8 b03c
00000030: 10d5 883c 5348 6f3d 8f1e d73c 8391 f93c
00000040: 672e 86bd 565d 5abd a080 533d 0fa6 6b3d
00000050: f78f a13c 3c82 9c3d 4f3e 8cbd 9aaf aabc
00000060: a0bc 1abc 319e cebd 38d8 eebc 3ea9 813d
00000070: 4dbd 83bc 7d4a 5e3d 8fcc 4abd 7c1b f8bb
00000080: b575 363c a672 a63c f143 bf3d 656e 54bd
00000090: e38b 28bd a56f 9bbd f83e 263d b06b 9f3d
000000a0: 066d 82bd 3c36 89bd ce49 67bd 2017 843d
000000b0: aa9a 8abd d7f5 c1bc a1f6 bb3d 6fa0 f0bc
000000c0: 7b40 c4bc 5f6a 153d 3a2f 763d 8e5a a6bc
000000d0: 2037 6e3d 672f ddbc 3284 90bc 33d7 a2bc
000000e0: daa4 763d 7866 4cbd 7430 b43d e833 17bc
000000f0: f0ea 123d f720 c7bd a9bc 093d 0797 cfbc
00000100: 8722 dd3c 3ec3 a8bd 5180 ad3d 50f3 1bbc
00000110: 95f0 873d e4ea 94bd 933c e4bc 6862 a83d
00000120: 215b 95bd 7581 1d3d 4008 7c3d c77b 973d
00000130: cf1f 9a3d 932d 79bd 7d98 4f3d 184e 8a3c
00000140: f4e9 3abc 3953 793d 3d76 853d 4d03 60bd
00000150: ff36 453d bd4b 93bd f9a7 eb3c 2de1 6abc
00000160: 612e 8cbd 7c87 87bd f31a de3c b070 613d
00000170: df0b b83d 86d9 63bd 212f 5fbd 175d 333d
00000180: ded8 59bb 79ef 66bb 16ce f73b 3291 3cbd
00000190: 4da9 85bd 94a8 f63c f32b 89bd b335 2bbd
000001a0: fb0c 3c3d 930f 133d a2e4 043d 35b3 efbc
000001b0: 5a59 5c3c e121 88bd 6f63 a6bd 21c7 253d
000001c0: 289d a4ba 51fb 82bd e53c c03d bb9e 5e3d
000001d0: 0f55 743d 1baf 55bd 4a0c d23c aa87 c13d
000001e0: c835 5e3d 8b16 c0bc 93db 1f3d a65d 093d
000001f0: 3aa5 fb3c 13b8 3d3d 9ba1 3c3d ec1a 273d
00000200: 4cac 3bbd 7742 5c3c dff6 cebd 6d77 983d
00000210: aa09 5ebb 7baa d23c a067 ff3c 41ce dd3c
00000220: 9da2 de3b e6e6 b5bd 084c 03bd 9b27 cebc

gconv1.0.gate.weight f4 [1, 280]
0.0031290576 -0.083326586 0.011096789 0.03741678 0.037163887 -0.01853803 -0.12796097 0.025426004
0.069377065 0.08596776 -0.11753908 -0.024191733 -0.001610229 0.099108174 -0.07629459 0.05326517
-0.06496387 0.1018213 -0.07240792 0.09550437 0.009516921 -0.010033026 -0.04458411 -0.01354908
0.008536486 0.021942252 0.10258855 0.070882656 0.059029177 0.07734873 0.005728461 0.16314217
0.0069325124 0.015361094 -0.028028252 0.048457865 0.16340962 -0.012360498 0.042675477 0.072871536
-0.012565619 0.20369881 0.08449858 -0.11115857 0.06551299 0.07832718 -0.04180683 -0.049980704
-0.007978149 -0.049501985 0.109313525 0.014207763 -0.010952604 -0.06129692 -0.012963153 0.11656336
-0.058491103 -0.009917281 -0.05743403 -0.14335665 -0.036923863 0.020105377 0.019499637 -0.016442781
0.037556775 -0.016718205 -0.14165252 0.128132 -0.008192095 0.015141867 -0.15248255 -0.14880584
-0.054457918 0.0018265982 0.06899528 -0.055505227 -0.026270304 -0.12228947 -0.15969937 -0.028592499
-0.00064566475 0.090566315 -0.026528321 -0.022444984 -0.07185873 -0.030552004 0.124915004 -0.068732195
0.079971485 -0.05277048 -0.11040487 -0.12707594 -0.01576999 0.031553145 -0.15703519 -0.07186681
0.17768246 0.100547165 0.037974264 -0.0043966984 -0.037999645 -0.026806027 0.070313394 0.009906093
0.02335682 -0.08309551 0.049745742 0.025367392 -0.04805311 0.09514267 0.05650995 0.040467914
0.010598899 0.00516449 0.015557641 -0.042966146 0.016431369 0.11886139 0.034533646 -0.07777121
0.06925537 0.07546971 0.027169429 -0.030341867 0.06524731 -0.038652465 -0.15353112 -0.04186909
-0.11779522 0.1202436 -0.037909366 -0.07103497 0.04011455 -0.06007451 0.031151664 -0.057768423
0.16696765 0.021387277 -0.08785936 -0.13224353 -0.045251947 -0.07255734 0.16406715 0.046924923
0.18131246 -0.045890834 0.19307329 0.10954819 0.094582364 0.006498372 0.2973793 0.13116859
-0.14997992 0.03830836 0.036987647 0.06928603 -0.04419555 0.11762191 -0.27192235 0.0071306196
-0.017797118 0.02975611 0.089102164 -0.08858933 0.0011125164 -0.038162127 -0.16973202 0.04987354
0.1480791 0.051210154 0.11595216 -0.14383645 0.001571531 0.03125889 0.058288977 -0.06946657
0.07055364 0.056874838 -0.071094416 0.025999881 -0.19199818 0.009383198 -0.0024069862 0.02699989
-0.11844905 -0.07321484 0.16033384 -0.02380986 0.004748806 0.16218898 -0.029198954 -0.2149465
-0.06176601 -0.037620008 -0.12553796 0.09082265 0.06169622 -0.06771328 0.06122726 0.0068815877
0.020992449 0.06642703 -0.055276163 -0.10409296 -0.0023593742 -0.22628786 0.12418533 0.058271874
0.28534263 -0.09126677 -0.07930907 0.12553066 0.13823427 -0.029822052 -0.08079472 0.01215096
0.05187986 0.015811838 -0.09096899 0.022603516 0.05463596 -0.05845315 0.107375056 0.20659433
0.05641676 0.0442618 0.064024925 0.13274471 0.024731038 -0.13713306 -0.15714602 -0.027847655
0.057914756 0.0022760988 -0.034912914 0.16504234 0.045920245 -0.03491476 0.041323666 0.05883524
0.016557926 -0.04556162 -0.04460782 0.15690802 -0.15382025 -0.112686366 0.009206291 0.04533621
0.2065551 -0.059731983 -0.042116273 -0.0035092644 -0.05298718 0.013820781 -0.010945132 0.012762584
00000000: e010 4d3b 21a7 aabd 4ecf 353c 5642 193d
00000010: 2939 183d 11dd 97bc 3308 03be 324a d03c
00000020: 9015 8e3d dd0f b03d 54b8 f0bd be2d c6bc
00000030: 520e d3ba 3af9 ca3d 5740 9cbd 942c 5a3d
00000040: c70b 85bd b087 d03d 9b4a 94bd cc97 c33d
00000050: dcec 1b3c 9061 24bc d49d 36bd f6fc 5dbc
00000060: 9edc 0b3c 3dc0 b33c f219 d23d ed2a 913d
00000070: 94c8 713d 0369 9e3d d0b5 bb3b be0e 273e
00000080: 212a e33b 19ad 7b3c 819b e5bc c17b 463d
00000090: da54 273e b083 4abc 7bcc 2e3d ac3d 953d
000000a0: 07e0 4dbc 6c96 503e 970d ad3d 1ba7 e3bd
000000b0: ad2b 863d 006a a03d a33d 2bbd 91b8 4cbd
000000c0: c8b6 02bc 98c2 4abd c5df df3d adc7 683c
000000d0: 8d72 33bc 7b12 7bbd 6863 54bc c5b8 ee3d
000000e0: 5e94 6fbd 177c 22bc f23f 6bbd 16cc 12be
000000f0: 7a3d 17bd 08b4 a43c b4bd 9f3c 03b3 86bc
00000100: 22d5 193d 9ef4 88bc 5c0d 11be 0935 033e
00000110: 2338 06bc 9815 783c 6324 1cbe 8f60 18be
00000120: 440f 5fbd 776a ef3a 664d 8d3d 7359 63bd
00000130: d234 d7bc e772 fabd 3b88 23be d13a eabc
00000140: d441 29ba d57a b93d ec51 d9bc 8bde b7bc
00000150: ab2a 93bd 3248 fabc 70d3 ff3d 77c3 8cbd
00000160: 17c8 a33d dc25 58bd f31b e2bd 3220 02be
00000170: 1130 81bc df3d 013d d5cd 20be e82e 93bd
00000180: 64f2 353e aceb cd3d e78a 1b3d 2e12 90bb
00000190: 84a5 1bbd 5098 dbbc 7800 903d 2a4d 223c
000001a0: cd56 bf3c fb2d aabd 31c2 4b3d 47cf cf3c
000001b0: 56d3 44bd 29da c23d fa76 673d afc1 253d
000001c0: 01a7 2d3c e23a a93b 7ae5 7e3c 45fd 2fbd
000001d0: 149b 863c 9a6d f33d 2773 0d3d 8346 9fbd
000001e0: c2d5 8d3d dd8f 9a3d 6c92 de3c 828f f8bc
000001f0: 62a0 853d 0c52 1ebd 4337 1dbe ec7e 2bbd
00000200: 9f3e f1bd 4742 f63d da46 1bbd c87a 91bd
00000210: 284f 243d b010 76bd c631 ff3c 959e 6cbd
00000220: 91f9 2a3e 5f34 af3c 9cef b3bd d96a 07be
00000230: 1b5a 39bd f198 94bd 3801 283e 5934 403d
00000240: f9a9 393e 07f8 3bbd 01b5 453e cd5a e03d
00000250: 66b4 c13d 4cf0 d43b 1a42 983e 0f51 063e
00000260: 5694 19be 3ae9 1c3d 5c80 173d d6e5 8d3d
00000270: 6506 35bd c2e3 f03d 6839 8bbe f9a7 e93b
00000280: 43cb 91bc 16c3 f33c 327b b63d 536e b5bd
00000290: dbd1 913a e44f 1cbd 3bce 2dbe 3248 4c3d
000002a0: 0ca2 173e bdc1 513d 5378 ed3d dd49 13be
000002b0: d4fb cd3a 5209 003d 6cc0 6e3d 7d44 8ebd
000002c0: 6d7e 903d 97f5 683d f399 91bd b4fd d43c
000002d0: 2c9b 44be fcbb 193c 87be 1dbb e02e dd3c
000002e0: 6a95 f2bd a9f1 95bd 8e2e 243e e50c c3bc
000002f0: df9b 9b3b de14 263e a532 efbc ef1a 5cbe
00000300: 5bfe 7cbd 7017 1abd 068d 00be 3a01 ba3d
00000310: 2db5 7c3d 43ad 8abd 6fc9 7a3d f17e e13b
00000320: 5bf8 ab3c e50a 883d 4269 62bd b12e d5bd
00000330: bb9f 1abb 01b8 67be e154 fe3d 7dae 6e3d
00000340: 6e18 923e 13ea babd cb6c a2bd 1c8b 003e
00000350: 498d 0d3e 604d f4bc b477 a5bd d214 473c
00000360: fa7f 543d d487 813c f34d babd 022b b93c
00000370: f5c9 5f3d 926c 6fbd 74e7 db3d 778d 533e
00000380: 4315 673d dc4b 353d 801f 833d 3bee 073e
00000390: bf98 ca3c 9c6c 0cbe e3ea 20be c420 e4bc
000003a0: 0638 6d3d 9a2a 153b d800 0fbd dc00 293e
000003b0: de16 3c3d c802 0fbd 0143 293d 38fd 703d
000003c0: 7da4 873c d29e 3abd b1b6 36bd 7fac 203e
000003d0: 0e83 1dbe 1cc8 e6bd fcd5 163c 76b2 393d
000003e0: 2e83 533e 86a9 74bd 1d82 2cbd b0fb 65bb
000003f0: 1609 59bd 8f70 623c 3653 33bc 281a 513c

gconv1.1.A f4 [140, 140]
-0.0619057 0.06080446 -0.045931797 0.10488473 -0.037530456 0.019043883 0.035558835 -0.14253372
0.058367357 0.08825523 0.17955548 0.0745577 -0.041475732 0.026353974 0.010818268 0.04269978
0.003339295 0.03423753 -0.019258417 -0.06802967 0.01297105 0.0024926972 0.0030264654 0.16505297
0.057943024 0.07942137 -0.02925028 -0.03642736 -0.024387704 -0.13938259 0.06028306 -0.29148936
0.08105414 0.02245713 -0.093789905 0.0078082667 0.0125481775 0.18324314 -0.007121958 -0.047159914
-0.058471188 -0.07062548 -0.05267426 0.056052484 -0.01653529 0.11420652 0.08421724 -0.13405618
0.037107483 0.01001746 0.013183987 0.036605466 0.13002288 0.14381203 -0.07742913 0.09694884
0.04669659 0.04562765 0.12487139 -0.033031814 0.014283281 -0.010871144 -0.05049958 -0.011669739
0.05167988 -0.060326166 -0.07899709 -0.019260105 -0.08507708 0.05892503 0.14781542 -0.013243397
-0.022130031 -0.009645467 0.11132229 0.07009545 0.031009495 -0.064787716 0.1124151 0.10545216
0.053867944 -0.024394022 0.037297398 0.033389296 -0.031055558 -0.02715033 -0.01906359 0.029524231
0.044199854 -0.0009656366 -0.16450146 -0.0907575 0.025491688 -0.04833288 -0.023137806 0.005954879
0.009949063 -0.053162843 0.09428808 0.06586609 -0.09900135 0.01137538 -0.017775096 0.028747704
0.09704658 0.004180852 -0.0048109517 -0.20519234 -0.106571145 -0.04443449 -0.09752324 0.14817096
0.1703548 0.12184966 -0.07627991 0.07382063 -0.043407205 0.012644087 0.04705777 -0.007053268
0.11691288 -0.20026255 0.13050048 0.044585522 -0.036121245 0.11025839 -0.08343508 0.0076690484
0.08440015 -0.1835125 -0.081014074 0.014064084 0.079356596 0.048026748 -0.016968315 -0.043443505
0.07319615 0.09386866 0.04661982 -0.05832003 -0.053685863 0.0028764927 -0.039477825 -0.030501941
-0.026532521 0.08531273 0.07456054 -0.026497636 0.0050418978 0.048387937 0.0077023185 -0.085226364
0.04807558 0.076971754 -0.061157834 -0.101553075 -0.016974624 0.14621158 -0.09563192 -0.14912087
-0.02908719 0.081241205 0.035365433 -0.0037108692 -0.058855977 -0.040302247 -0.1335484 0.13835755
0.05408749 0.2027741 -0.06971506 -0.04108498 -0.13482933 -0.038075995 0.18072742 -0.120226294
-0.07281229 0.027263466 -0.028204933 -0.11469769 0.0121535845 0.059766687 -0.056174055 0.04455095
0.0064695803 0.04173146 0.10774709 0.044995684 0.01775471 0.01720752 -0.0038252345 0.09084286
0.0114344 -0.016391017 -0.01650616 -0.029035347 -0.0060022543 0.073694095 -0.021048803 -0.048618942
0.0050472296 -0.102952324 -0.16651404 0.0721712 -0.121045 -0.052607004 -0.02374617 0.018640218
-0.096398294 0.115733705 -0.022390783 -0.15573886 -0.06871191 0.008528521 -0.103168644 0.04166531
-0.08223422 0.15199812 -0.09934091 -0.033989344 0.0029873066 -0.03649903 -0.025178654 -0.12871467
-0.018319648 0.090337306 0.038811132 0.08944078 0.05608417 0.010546222 -0.032151308 -0.017027237
0.028668303 0.034053322 0.098646194 -0.15941864 -0.10176405 0.007830873 -0.114773035 0.07274543
0.112031974 -0.019900268 0.10103138 -0.0037985211 0.037992377 -0.011005734 -0.101653196 0.17046444
-0.058003385 -0.064077474 -0.023238847 0.05783148 -0.010326137 0.08298337 0.018099403 -0.1605147
00000000: d590 7dbd 190e 793d fb22 3cbd cecd d63d
00000010: 89b9 19bd eb01 9c3c 24a6 113d 5cf4 11be
00000020: 9c12 6f3d 28bf b43d 64dd 373e b5b1 983d
00000030: 75e2 29bd 4ae4 d73c 1b3f 313c f7e5 2e3d
00000040: 13d8 5a3b a73c 0c3d d4c3 9dbc 2453 8bbd
00000050: 8784 543c 855c 233b aa57 463b a503 293e
00000060: aa55 6d3d aca7 a23d 489e efbc db34 15bd
00000070: b9c8 c7bc 4fba 0ebe 5feb 763d 183e 95be
00000080: b7ff a53d 04f8 b73c ec14 c0bd 7ddc ff3b
00000090: df96 4d3c 17a4 3b3e 505f e9bb c12a 41bd
000000a0: 7c7f 6fbd 17a4 90bd f7c0 57bd 4a97 653d
000000b0: 0475 87bc 1ce5 e93d 177a ac3d 0646 09be
000000c0: 04fe 173d 4620 243c a601 583c 9def 153d
000000d0: b824 053e 7643 133e 2a93 9ebd 1d8d c63d
000000e0: ec44 3f3d 0fe4 3a3d 92bc ff3d 5e4c 07bd
000000f0: 6c04 6a3c e21c 32bc a6d8 4ebd 6f32 3fbc
00000100: 48ae 533d 9218 77bd 3ac9 a1bd 5ec7 9dbc
00000110: e43c aebd 5f5b 713d ed5c 173e d5fa 58bc
00000120: 0a4a b5bc 0508 1ebc f1fc e33d 348e 8f3d
00000130: a007 fe3c 6caf 84bd e339 e63d 4df7 d73d
00000140: a2a4 5c3d f9d5 c7bc 28c5 183d 37c3 083d
00000150: 3a68 febc 5e6a debc 3f2b 9cbc cddc f13c
00000160: e80a 353d c622 7dba 1273 28be 11df b9bd
00000170: f2d3 d03c b3f8 45bd 7f8b bdbc 2521 c33b
00000180: 6501 233c 48c1 59bd 1c1a c13d cde4 863d
00000190: 38c1 cabd cd5f 3a3c 149d 91bc 4e80 eb3c
000001a0: 5bc0 c63d 87ff 883b 30a5 9dbb f11d 52be
000001b0: f941 dabd f100 36bd 44ba c7bd 21ba 173e
000001c0: 7d71 2e3e 518c f93d a438 9cbd 452f 973d
000001d0: c1cb 31bd 2529 4f3c a6bf 403d 1a1f e7bb
000001e0: 0570 ef3d a011 4dbe eba1 053e 4f9f 363d
000001f0: dff3 13bd 27cf e13d 03e0 aabd a44c fb3b
00000200: fcd9 ac3d b3ea 3bbe b5ea a5bd 0b6d 663c
00000210: b685 a23d b2b7 443d 2301 8bbc d1f1 31bd
00000220: dde7 953d 363e c03d 6df4 3e3d fce0 6ebd
00000230: b5e5 5bbd 8a83 3c3b 80b3 21bd 35df f9bc
00000240: bb5a d9bc 71b8 ae3d 32b3 983d 9211 d9bc
00000250: 8136 a53b 6e32 463d bb63 fc3b 298b aebd
00000260: e6ea 443d 5ea3 9d3d a380 7abd 0ffb cfbd
00000270: 5e0e 8bbc 7db8 153e abda c3bd 24b3 18be
00000280: 4248 eebc ca61 a63d 58db 103d 0e32 73bb
00000290: f712 71bd f813 25bd e9c0 08be 9aad 0d3e
000002a0: d88a 5d3d 03a4 4f3e c5c6 8ebd b948 28bd
000002b0: b310 0abe 93f5 1bbd 9c10 393e 3439 f6bd
000002c0: 9c1e 95bd a257 df3c 080e e7bc 9fe6 eabd
000002d0: d41f 473c eacd 743d c416 66bd 0f7b 363d
000002e0: c6fe d33b 9bee 2a3d 82aa dc3d 654d 383d
000002f0: 5372 913c c9f6 8c3c c9b0 7abb d20b ba3d
00000300: 5a57 3b3c 7446 86bc ed37 87bc 89db edbc
00000310: 8fae c4bb eeec 963d 8a6e acbc a824 47bd
00000320: 3b63 a53b abd8 d2bd a882 2abe 7ece 933d
00000330: 71e6 f7bd 717a 57bd 5487 c2bc 5fb3 983c
00000340: 786c c5bd cb05 ed3d e06c b7bc 027a 1fbe
00000350: d4b8 8cbd 36bb 0b3c 154a d3bd 3ea9 2a3d
00000360: 6a6a a8bd 65a5 1b3e 3f73 cbbd 6938 0bbd
00000370: b0c6 433b 0280 15bd 7743 cebc c7cd 03be
00000380: 1613 96bc c402 b93d 6cf8 1e3d ba2c b73d
00000390: 84b8 653d 10ca 2c3c 17b1 03bd b47c 8bbc
000003a0: cad9 ea3c 7f7b 0b3d 0407 ca3d a43e 23be
000003b0: ac69 d0bd 104d 003c 200e ebbd 8efb 943d
000003c0: 0571 e53d e305 a3bc 8ae9 ce3d 9cf0 78bb
000003d0: e59d 1b3d 6551 34bc 8d2f d0bd 3b8e 2e3e
000003e0: f594 6dbd 0d3b 83bd 655f bebc b4e0 6c3d
000003f0: f52e 29bc 2ff3 a93d 3345 943c f75d 24be

gconv1.1.W.weight f4 [140, 140]
0.06925397 0.03533844 -0.0013137528 0.049474027 0.18457037 0.03383088 0.096550584 -0.0644942
0.03354164 0.15919046 -0.17898764 -0.04462257 -0.058300443 0.026750866 -0.054494474 0.1340071
-0.010811997 -0.18571195 0.020609267 0.121006235 0.02912737 0.004689008 -0.035938628 -0.055710144
0.093286835 -0.098830156 -0.030013336 0.035711233 -0.08841214 0.1789845 0.08450115 -0.028840711
0.100049004 0.022902984 -0.046512164 0.028178625 -0.035931397 0.017701052 0.10880528 -0.0702881
-0.01486551 -0.031637527 -0.03882713 -0.04754043 0.074053414 -0.04594701 0.04041029 0.033336326
-0.02682891 -0.060187094 -0.06621422 -0.025672251 0.06377111 -0.12276237 0.038186897 0.03619693
-0.023784762 0.017204637 -0.024699224 0.1487103 -0.016569588 0.06346609 -0.0288627 0.042874068
-0.059827402 -0.032924417 -0.07167136 -0.06185127 -0.20146044 0.04986104 0.13333388 -0.04699887
0.1347295 0.007587327 -0.04389978 -0.076233715 0.078138545 0.030992152 0.028789718 -0.05387414
0.14339247 -0.03767728 0.036482286 0.037701625 0.0022015143 0.050421353 -0.049240492 -0.17010461
0.13682507 -0.104880966 -0.06583953 0.10254783 -0.083272055 0.032387353 0.08770161 -0.16832629
0.16169374 0.110314414 0.12533908 -0.10027973 0.04683997 0.14430858 -0.12219787 -0.09420933
0.06464251 -0.1288263 -0.16213293 0.020299582 0.041905936 -0.1679859 -0.037691914 -0.14239188
0.09624062 -0.078096434 0.04681723 -0.117580615 0.09691974 0.14784522 0.06894684 -0.041767597
0.00094681897 0.06925946 0.20488746 -0.018229404 -0.17373574 -0.03344445 0.043616317 0.0005258376
0.15311585 0.1357445 0.1191267 0.015655523 -0.039261535 0.06699278 -0.075066514 -0.10944202
-0.011491161 -0.12203565 0.066195935 -0.11319687 -0.1092019 0.14180511 -0.0674321 -0.119878225
-0.12392155 0.024685808 -0.08195796 0.15038766 -0.078685716 0.052511733 -0.1789727 -0.15535855
0.025669944 -0.0057873074 0.047673885 -0.050802935 -0.10966131 -0.078749895 0.10926019 -0.1380939
0.029704167 0.037810512 0.08954888 -0.16347195 -0.0599906 0.09771771 -0.018681621 0.11266233
0.021082241 -0.15085186 -0.21672991 0.037405845 -0.001643216 0.060880095 -0.10414615 -0.01824258
0.07430937 0.042092368 -0.11555492 -0.050909944 -0.0588439 -0.03415607 0.00033170602 0.0018034127
-0.057393193 -0.005806697 -0.005249635 0.009768348 -0.003675287 -0.010551142 0.05235457 0.18858828
-0.08983 0.16344157 0.07526902 0.15907538 0.080030896 -0.09073712 -0.038224634 0.03386251
-0.047932584 0.12986636 -0.010453386 0.022059891 -0.110996336 0.04290612 -0.028790666 0.052239116
-0.09273888 -0.03773627 0.10558179 -0.021611772 0.03498839 -0.17570826 -0.0022868577 -0.031966414
-0.009376756 -0.028673707 -0.09255954 0.09652185 0.07834185 0.085504435 3.3077187e-05 -0.05093097
0.07393209 -0.12940802 -0.027629767 -0.05723818 0.027751617 0.061057225 -0.076677956 -0.001680183
-0.17074908 -0.117399 -0.07643299 0.07092312 -0.12869215 -0.037691552 0.024780964 -0.15978804
0.012781768 0.12958395 -0.22195093 -0.017980937 -0.024782633 -0.1291252 0.03229913 0.080955
0.022383548 -0.025743913 -0.08270271 -0.004140302 0.075366765 0.0560061 -0.13813132 -0.03074368
00000000: 07d5 8d3d 0abf 103d 3b32 acba 47a5 4a3d
00000010: 0400 3d3e 4092 0a3d 50bc c53d 8915 84bd
00000020: f562 093d d302 233e 8948 37be 28c6 36bd
00000030: 72cc 6ebd a224 db3c 9935 5fbd 2839 093e
00000040: cd24 31bc 462b 3ebe c4d4 a83c 1ed2 f73d
00000050: 869c ee3c 40a6 993b 6234 13bd 5230 64bd
00000060: 2b0d bf3d 7767 cabd 87de f5bc f145 123d
00000070: 6d11 b5bd b647 373e f00e ad3d 5b43 ecbc
00000080: 7ee6 cc3d 0a9f bb3c 8a83 3ebd dcd6 e63c
00000090: cd2c 13bd cc01 913c 4dd5 de3d 35f3 8fbd
000000a0: 788e 73bc 5a96 01bd 3209 1fbd c1b9 42bd
000000b0: 51a9 973d ef32 3cbd 4385 253d ac8b 083d
000000c0: 4dc8 dbbc be86 76bd 529b 87bd 9d4e d2bc
000000d0: 6d9a 823d d66a fbbd dd69 1c3d 3b43 143d
000000e0: 43d8 c2bc bdf0 8c3c 0756 cabc 8347 183e
000000f0: f2bc 87bc 82fa 813d 7871 ecbc b89c 2f3d
00000100: 940d 75bd c1db 06bd 6fc8 92bd c257 7dbd
00000110: a54b 4ebe 173b 4c3d ad88 083e e381 40bd
00000120: 88f6 093e 1d9f f83b 41d0 33bd 6c20 9cbd
00000130: 1a07 a03d 41e3 fd3c 6ad8 eb3c 21ab 5cbd
00000140: 7ad5 123e 7e53 1abd 736e 153d 056d 1a3d
00000150: 4847 103b 9f86 4e3d 66b0 49bd e72f 2ebe
00000160: df1b 0c3e d5cb d6bd e0d6 86bd 9904 d23d
00000170: 8a8a aabd 9aa8 043d e79c b33d ba5d 2cbe
00000180: 0b93 253e 86ec e13d e358 003e 765f cdbd
00000190: 45db 3f3d a1c5 133e e042 fabd d2f0 c0bd
000001a0: 4b63 843d 0beb 03be 2d06 26be 4f4b a63c
000001b0: 8fa5 2b3d 7f04 2cbe d662 1abd 2dcf 11be
000001c0: cd19 c53d 06f1 9fbd 6cc3 3f3d 1bce f0bd
000001d0: db7d c63d bd64 173e 0034 8d3d 8014 2bbd
000001e0: f233 783a e7d7 8d3d 05ce 513e d555 95bc
000001f0: c8e7 31be 0cfd 08bd 06a7 323d 5dd8 093a
00000200: 67ca 1c3e 9b00 0b3e b3f8 f33d 0340 803c
00000210: b4d0 20bd 8333 893d 79bc 99bd 2323 e0bd
00000220: 6c45 3cbc d4ed f9bd bc91 873d c3d3 e7bd
00000230: 3fa5 dfbd 5c35 113e d719 8abd b782 f5bd
00000240: 95ca fdbd e439 ca3c 93d9 a7bd 39ff 193e
00000250: fa25 a1bd 8b16 573d 9f44 37be 5016 1fbe
00000260: c649 d23c 74a3 bdbb b145 433d bd16 50bd
00000270: 1c96 e0bd a047 a1bd cec3 df3d 7d68 0dbe
00000280: 2756 f33c 32df 1a3d 6765 b73d 3165 27be
00000290: b4b8 75bd 3920 c83d 330a 99bc 82bb e63d
000002a0: aab4 ac3c e978 1abe 72ee 5dbe df36 193d
000002b0: 2e61 d7ba 685d 793d 944a d5bd 7771 95bc
000002c0: 832f 983d 0c69 2c3d 0fa8 ecbd f286 50bd
000002d0: 4d06 71bd 3ce7 0bbd d4e8 ad39 7d60 ec3a
000002e0: 2015 6bbd 1b46 bebb 2105 acbb 6c0b 203c
000002f0: 15dd 70bb b2de 2cbc bf71 563d 491d 413e
00000300: cbf8 b7bd 3a5d 273e a526 9a3d a8e4 223e
00000310: 3de7 a33d 62d4 b9bd 6f91 1cbd 6ab3 0a3d
00000320: f554 44bd b0fb 043e ae44 2bbc f2b6 b43c
00000330: 0c52 e3bd 54be 2f3d 67da ebbc aff8 553d
00000340: e2ed bdbd 5991 1abd 443b d83d 2c0b b1bc
00000350: fc4f 0f3d deec 33be 1bdf 15bb 37ef 02bd
00000360: f7a0 19bc 1fe5 eabc db8f bdbd 3fad c53d
00000370: b171 a03d f31c af3d 5cbc 0a38 fe9c 50bd
00000380: b569 973d 8983 04be d257 e2bc 9572 6abd
00000390: 5c57 e33c 2417 7a3d 5509 9dbd 9639 dcba
000003a0: d9d8 2ebe e36e f0bd e688 9cbd 2440 913d
000003b0: e0c7 03be 7562 1abd 7301 cb3c 7a9f 23be
000003c0: 9f6a 513c a8b1 043e 1b47 63be c24c 93bc
000003d0: f304 cbbc 6539 04be 184c 043d bccb a53d
000003e0: b45d b73c e6e4 d2bc 0a60 a9bd 5fab 87bb
000003f0: e459 9a3d a766 653d 4c72 0dbe 2cda fbbc

gconv1.1.W.bias f4 [140]
0.027055005 0.0058235233 0.09562693 0.02355926 0.04913711 0.11899963 0.024848264 -0.07650717
0.08623274 -0.045897573 0.1016399 -0.11760043 -0.069124274 -0.07566077 -0.065333396 -0.104730584
-0.046799 0.09701289 -0.03405226 0.09034157 0.011058864 0.09990452 0.07771518 0.035593204
-0.04784872 0.043177817 -0.030643282 0.010939333 0.019142007 -0.10882672 -0.073023714 0.035921343
-0.047926895 -0.071493976 -0.1327847 -0.056717947 0.024122424 -0.10217378 -0.03776797 -0.01952384
0.022235163 0.059660356 0.017823478 -0.07169107 -0.056728415 0.13057643 0.047141477 -0.078388445
0.02271304 0.030795021 0.14881663 0.06456434 0.111156665 0.11463309 0.05781199 0.102973804
0.029820368 -0.08789436 0.08460899 -0.10410258 -0.10556403 0.06911689 -0.110567205 -0.09846024
0.070111215 -0.08755348 -0.12182136 0.041598838 0.016817585 -0.123645216 0.09100816 -0.020375863
-0.11627071 0.027407758 0.004317833 0.025936007 -0.035996404 0.06985861 -0.028168805 -0.045346893
-0.0948571 0.080219336 -0.09328099 0.078808405 -0.018218823 0.020985598 -0.058264676 -0.038368754
0.04711145 -0.12011076 -0.091825955 -0.023589525 -0.019121274 0.065598175 -0.0028613377 0.011223885
0.06301812 0.09119627 -0.102618754 0.08026704 -0.05416293 -0.050926004 0.056679178 0.08257255
0.015633106 -0.024475623 0.07165803 -0.0029124746 0.08273563 0.10879615 0.11318611 0.071474746
0.016734349 -0.0067957686 -0.049021836 -0.128149 -0.11771341 0.102996275 0.121967115 0.06878087
0.11444462 0.009680982 0.03285523 0.029767415 -0.06547903 -0.0923914 0.008085596 -0.07808938
0.050262608 -0.038492747 -0.033138875 -0.119527735 0.042584606 -0.047090422 0.00072743784 0.076415636
0.04791368 0.046012226 0.034000847 0.030461252
00000000: 75a2 dd3c 41d3 be3b 0dd8 c33d 59ff c03c
00000010: ff43 493d 14b6 f33d 968e cb3c cbaf 9cbd
00000020: ca9a b03d 18ff 3bbd 9428 d03d 7fd8 f0bd
00000030: 0791 8dbd 09f4 9abd 84cd 85bd fd7c d6bd
00000040: 4fb0 3fbd b2ae c63d 627a 0bbd 0005 b93d
00000050: 3d30 353c be9a cc3d 2329 9f3d 2eca 113d
00000060: 05fd 43bd 39db 303d 9f07 fbbc e33a 333c
00000070: b3cf 9c3c 8be0 debd 758d 95bd 4222 133d
00000080: fe4e 44bd 6f6b 92bd b6f8 07be 1451 68bd
00000090: 649c c53c 7d40 d1bd 96b2 1abd 76f0 9fbc
000000a0: 8426 b63c 6b5e 743d 8b02 923c c5d2 92bd
000000b0: 0e5c 68bd d4b5 053e 6c17 413d 1f8a a0bd
000000c0: b210 ba3c d745 fc3c 6363 183e 4f3a 843d
000000d0: 1ba6 e33d c1c4 ea3d 44cc 6c3d eee3 d23d
000000e0: d849 f43c f501 b4bd 7a47 ad3d bc33 d5bd
000000f0: f431 d8bd 288d 8d3d 0f71 e2bd 86a5 c9bd
00000100: 7896 8f3d 3d4f b3bd 7a7d f9bd 8b63 2a3d
00000110: 08c5 893c b439 fdbd 7c62 ba3d 48eb a6bc
00000120: 571f eebd 3c86 e03c 9c7c 8d3b c077 d43c
00000130: f770 13bd 0812 8f3d 44c2 e6bc aabd 39bd
00000140: 7044 c2bd 094a a43d 1b0a bfbd 4d66 a13d
00000150: a43f 95bc fde9 ab3c f1a6 6ebd 8e28 1dbd
00000160: f0f7 403d a1fc f5bd 3f0f bcbd d23e c1bc
00000170: 38a4 9cbc 5658 863d 4885 3bbb 63e4 373c
00000180: a50f 813d 1cc5 ba3d c829 d2bd 0c63 a43d
00000190: f3d9 5dbd c997 50bd 6d28 683d cc1b a93d
000001a0: 0011 803c 1a81 c8bc 72c1 923d 37df 3ebb
000001b0: 4c71 a93d 84d0 de3d 1fce e73d 5a61 923d
000001c0: 7916 893c 0aaf debb 1fcb 48bd 7e39 03be
000001d0: ba13 f1bd b6ef d23d e5c9 f93d fcdc 8c3d
000001e0: f161 ea3d fb9c 1e3c 3593 063d cbda f33c
000001f0: df19 86bd b437 bdbd 7379 043c 53ed 9fbd
00000200: 2ae0 4d3d 92aa 1dbd a1bc 07bd f5ca f4bd
00000210: 326d 2e3d e3e1 40bd 87b1 3e3a cd7f 9c3d
00000220: 2341 443d 5177 3c3d 7944 0b3d e089 f93c

gconv1.1.gate.weight f4 [1, 280]
0.06554999 0.020912554 -0.019773252 -0.08659238 -0.06409793 0.04827928 0.078421965 0.016521735
-0.028363198 -0.10364153 -0.07218396 -0.01498809 -0.06475487 -0.026148293 0.059466507 -0.06188388
-0.15329921 0.0924287 -0.16351625 -0.01605839 0.1541913 0.08646414 0.12185358 -0.061417125
0.006407871 -0.007843558 0.011133916 0.051844575 -0.042490248 0.15540236 0.18455414 0.19997391
0.1940227 0.20478746 0.019915488 -0.05781171 -0.09431762 -0.10136262 -0.06658408 0.13601863
-0.1450592 0.041280888 0.017857688 0.090605095 -0.04263829 0.11428029 -0.013702392 -0.1301335
-0.011387115 -0.03322214 0.1496503 -0.049402088 -0.0869079 0.015289896 -0.04024794 0.016053975
0.13175637 0.039393943 0.01608397 0.053034343 -0.10722942 -0.03403486 0.06771129 0.058171716
0.123611756 0.041522652 0.093594246 0.02012784 0.054254837 -0.0008660613 0.090567276 0.063699
0.031362623 -0.10114976 0.001282734 0.00734434 0.1082538 0.046558626 -0.012779026 0.04519268
-0.06286128 -0.1019611 0.10792919 -0.0980079 -0.025995327 0.017047176 -0.23213269 -0.08286366
-0.0238865 0.039966322 -0.026663886 0.096054286 0.04800731 0.00826162 -0.059287924 0.14248167
-0.11073751 -0.12983596 -0.054877523 0.22502321 -0.12085349 -0.093173146 0.025715921 -0.014276582
0.020441927 -0.10938037 0.12859772 0.051494636 0.070601456 -0.015282253 -0.06186639 -0.030226743
0.09603798 -0.08457846 0.0027976509 0.14672069 -0.018026626 -0.071432754 0.039783057 0.0311665
-0.06262505 -0.03577298 0.026157308 -0.05886566 -0.23315756 -0.17867473 -0.085312605 0.115470305
0.049370997 -0.06425388 -0.09436871 -0.11725531 -0.0051034773 0.13777596 0.09576433 -0.06883824
-0.052039992 -0.12155681 -0.049329635 0.025439385 0.07356783 0.05963599 0.048269596 0.05688729
-0.093610264 -0.016975405 -0.1187523 0.032797076 0.042084653 -0.071470544 0.052801996 -0.04409787
-0.080031395 -0.09074789 -0.040886264 0.051695112 -0.18985727 -0.04798162 0.042106204 -0.049057975
-0.020717759 -0.15374763 0.058459796 0.069570035 0.09555964 -0.027118953 0.05026005 -0.0675157
-0.04800654 0.013269292 -0.080178 -0.094621986 0.03392584 0.088506 -0.055873826 -0.21282679
-0.043808013 0.08762734 -0.086619966 0.08281013 0.14385188 -0.09959233 -0.1823909 0.042539295
0.102405496 0.030886628 0.095949 0.036555637 0.040595543 -0.0733695 0.18132843 0.09993915
0.009690536 0.018087009 -0.11205593 0.02700127 0.04091951 0.11218128 0.03775262 0.06641748
0.052902408 -0.049541555 -0.09344613 0.023433724 0.1843498 -0.06300166 -0.016702978 -0.031256415
-0.02562783 -0.06067823 0.047534786 0.07791815 -0.08841186 -0.014613863 0.062027495 0.009883153
-0.11404362 -0.054789566 0.055716272 -0.060548037 0.27505857 -0.071948044 0.08485643 -0.0049504815
-0.052929703 0.10408244 -0.0008064204 -0.11452914 -0.009292344 -0.015660144 0.12130966 -0.1559622
-0.032783918 0.099301085 -0.11257983 0.10034571 0.08230193 0.041451827 -0.03107507 0.044868484
0.08229124 -0.067606084 0.0631423 -0.066770285 -0.040132698 -0.06411955 -0.0057746246 -0.008686156
0.017529463 0.019517152 0.22977524 0.09689027 -0.17727867 -0.04886788 0.090583816 0.09730616
00000000: 133f 863d ce50 ab3c 84fb a1bc 5957 b1bd
00000010: c745 83bd 7fc0 453d b29b a03d 9758 873c
00000020: f059 e8bc 0342 d4bd 2fd5 93bd 9b90 75bc
00000030: 349e 84bd f234 d6bc 2793 733d f479 7dbd
00000040: 78fa 1cbe 424b bd3d ce70 27be e28c 83bc
00000050: 53e4 1d3e 1c14 b13d 5f8e f93d 8690 7bbd
00000060: 1ef9 d13b 4482 00bc 076b 363c fa5a 543d
00000070: 410a 2ebd cc21 1f3e c3fb 3c3e f6c5 4c3e
00000080: e3ad 463e ceb3 513e ce25 a33c f9cb 6cbd
00000090: 9929 c1bd 3597 cfbd 3c5d 88bd 7848 0b3e
000000a0: 668a 14be 2616 293d 494a 923c 2a8f b93d
000000b0: 7da5 2ebd c90b ea3d ff7f 60bc b741 05be
000000c0: 0691 3abc f013 08bd ee3d 193e d859 4abd
000000d0: c5fc b1bd 7982 7a3c 06db 24bd a083 833c
000000e0: 24eb 063e 8b5b 213d 88c2 833c 8a3a 593d
000000f0: 199b dbbd 2368 0bbd 38ac 8a3d 7745 6e3d
00000100: 2928 fd3d a813 2a3d 57ae bf3d 24e3 a43c
00000110: 523a 5e3d 6408 63ba 567b b93d 9f74 823d
00000120: 1876 003d 9b27 cfbd 6921 a83a caa8 f03b
00000130: 2bb4 dd3d 42b4 3e3d 1f5f 51bc f61b 393d
00000140: 6abd 80bd fbd0 d0bd fb09 dd3d 5eb8 c8bd
00000150: 27f4 d4bc 85a6 8b3c 31b4 6dbe 6cb4 a9bd
00000160: 9fad c3bc bab3 233d 396e dabc 1cb8 c43d
00000170: 50a3 443d bf5b 073c e5d7 72bd b7e6 113e
00000180: 59ca e2bd b8f3 04be 41c7 60bd 7c6c 663e
00000190: 0982 f7bd 90d1 bebd 32aa d23c 53e8 69bc
000001a0: d475 a73c d102 e0bd 1faf 033e 0aec 523d
000001b0: 7f97 903d 6a62 7abc 9d67 7dbd 139e f7bc
000001c0: 8faf c43d 7937 adbd cb58 373b f33d 163e
000001d0: 93ac 93bc 564b 92bd 8ff3 223d e350 ff3c
000001e0: 9041 80bd b086 12bd da47 d63c 1e1d 71bd
000001f0: dbc0 6ebe 82f6 36be 60b8 aebd b27b ec3d
00000200: 3e39 4a3d 8a97 83bd 6244 c1bd 8d23 f0bd
00000210: 123b a7bb 2415 0d3e 1720 c43d 10fb 8cbd
00000220: e327 55bd c7f2 f8bd df0d 4abd 4266 d03c
00000230: bbaa 963d de44 743d 57b6 453d a602 693d
00000240: bdb6 bfbd 0110 8bbc 6834 f3bd 3a56 063d
00000250: f560 2c3d 265f 92bd e846 583d f89f 34bd
00000260: 80e7 a3bd 08da b9bd 5b78 27bd 41be 533d
00000270: f269 42be 6088 44bd 8e77 2c3d 04f1 48bd
00000280: 4ab8 a9bc 0570 1dbe 8a73 6f3d bc7a 8e3d
00000290: c6b4 c33d 9128 debc 7bdd 4d3d ac45 8abd
000002a0: 81a2 44bd 7267 593c 5d34 a4bd 2cc9 c1bd
000002b0: d2f5 0a3d a242 b53d f4db 64bd 44ef 59be
000002c0: 0870 33bd f675 b33d cf65 b1bd 5c98 a93d
000002d0: e84d 133e 10f7 cbbd aec4 3abe af3d 2e3d
000002e0: f9b9 d13d f405 fd3c e980 c43d 5dbb 153d
000002f0: 8347 263d c042 96bd 29ae 393e e6ac cc3d
00000300: 0ec5 1e3c 352b 943c 947d e5bd c431 dd3c
00000310: 379b 273d 4dbf e53d 7ea2 1a3d e305 883d
00000320: 32b0 583d 16ec 4abd af60 bfbd 15f8 bf3c
00000330: 32c6 3c3e 0407 81bd afd4 88bc ba06 00bd
00000340: 74f1 d1bc bc89 78bd d6b3 423d 8d93 9f3d
00000350: 4711 b5bd fc6e 6fbc 8b10 7e3d f3ec 213c
00000360: b48f e9bd 066b 60bd bf36 643d 3801 78bd
00000370: 7ad4 8c3e 7f59 93bd 35c9 ad3d a637 a2bb
00000380: d1cc 58bd 2d29 d53d f565 53ba 418e eabd
00000390: ea3e 18bc b449 80bc 3371 f83d 8eb4 1fbe
000003a0: 6e48 06bd 5e5e cb3d 4190 e6bd 0d82 cd3d
000003b0: ea8d a83d 64c9 293d 2591 febc 04c8 373d
000003c0: 4f88 a83d 0f75 8abd c050 813d dcbe 88bd
000003d0: 2f62 24bd 1c51 83bd 1039 bdbb 6150 0ebc
000003e0: f399 8f3c 6fe2 9f3c 334a 6b3e 686e c63d
000003f0: 8a88 35be b029 48bd 0284 b93d 7448 c73d
