save/best_origin_opt1_0.877.pt (torch, 886152 bytes, 24 tensors)

gconv1.0.A f4 [140, 140]
0	0x3c2117f2	0.009832369
1	0x3ca284e9	0.019838767
2	0xbd12dcab	-0.035854977
3	0xbdfab4f0	-0.12241542
4	0xbcb5577e	-0.022136446
5	0x3d6e664f	0.058203038
6	0xbd3dc0ef	-0.046326574
7	0xbcd7c00c	-0.026336692
8	0xbe180a81	-0.14847757
9	0x3d7bbda9	0.06146017
10	0xbc83808b	-0.016052505
11	0xbd015df6	-0.03158375
12	0x3d140943	0.036141645
13	0xbd224190	-0.039613307
14	0xbe3d46c8	-0.18484032
15	0xbd4ff124	-0.05076708
16	0x3d189d4a	0.037259378
17	0x3b892490	0.004185267
18	0x3cb8eac2	0.022572879
19	0xbd03bb79	-0.03216121
20	0xbd0a9a5e	-0.033838622
21	0xbcf3809b	-0.02972441
22	0xbbfcdfc7	-0.007717106
23	0x3b761754	0.0037550526
24	0x3a09b97a	0.00052537734
25	0x3e08c502	0.13356403
26	0xbd86b840	-0.06578112
27	0xbc397192	-0.011318581
28	0xbdb09b47	-0.08623367
29	0x3af0f06f	0.0018382202
30	0xbd5138f5	-0.05107971
31	0x3d2e59bf	0.042566057
32	0x3d99eba5	0.07515649
33	0xbd53263d	-0.05155014
34	0xbd5d27bf	-0.053992983
35	0xb9be9185	-0.00036348045
36	0x3d9cd184	0.076571494
37	0x3e4aa433	0.197892
38	0x3d14fb10	0.036372244
39	0xbc9ba4e4	-0.018999524
40	0xbd0d2f20	-0.03446877
41	0x3e2ad7f2	0.16683939
42	0xbd552928	-0.052041203
43	0xbd0cb196	-0.034349047
44	0xbe0a559a	-0.13509217
45	0xbda24f89	-0.079253264
46	0xbdf437f1	-0.119247325
47	0x3cf33e78	0.029692873
48	0xbc3070a2	-0.010769041
49	0x3d00c39c	0.031436548
50	0xbdac05a6	-0.08399515
51	0x3e5fc469	0.21852268
52	0xbe2d61d9	-0.16931857
53	0x3de95676	0.11393444
54	0x3e069deb	0.13146178
55	0xbdfd6b26	-0.123739526
56	0xbe43ec12	-0.19133022
57	0xbc3283a1	-0.010895641
58	0xbd6f2b5d	-0.058390964
59	0x3d330e2e	0.043714695
60	0xbda089ca	-0.07838781
61	0x3d625608	0.055257827
62	0x3e1cf816	0.15329012
63	0x3e07d3c4	0.13264376
64	0xbdc3a0d6	-0.095521614
65	0xbc4ec6a0	-0.012620598
66	0xba15b2b2	-0.00057105266
67	0x3d2363f3	0.03989024
68	0x3d7635c1	0.060109857
69	0x3d21a236	0.039461337
70	0xbe022deb	-0.12712829
71	0x3c23feef	0.010009511
72	0xbd659366	-0.056048773
73	0x3defa988	0.117022574
74	0xbd6f4d26	-0.058423184
75	0xbdd5795d	-0.10423539
76	0xbd69dce8	-0.05709544
77	0xbc2e5b97	-0.010641954
78	0xbdf54cf1	-0.11977566
79	0xbe815e66	-0.25267333
80	0xbd866100	-0.0656147
81	0xbd69a318	-0.057040304
82	0xbd872749	-0.0659929
83	0xbd8f50eb	-0.06997856
84	0x3b7b226e	0.0038320082
85	0xbe1b83ce	-0.15186998
86	0x3c8c9c9b	0.017164519
87	0x3d847fb8	0.06469673
88	0xbdd9ddec	-0.10638031
89	0x3df40168	0.11914331
90	0x3d13c5ad	0.03607719
91	0xbd956dff	-0.07296371
92	0xbd5d9a93	-0.05410249
93	0x3c2838a6	0.010267412
94	0xbdeb129c	-0.11478159
95	0xbe09995e	-0.13437411
96	0x3dc67094	0.09689441
97	0xbd9e4d12	-0.07729544
98	0x3cc8a7de	0.024494108
99	0xbdbd41ec	-0.09241089
100	0xbc98d54b	-0.018656394
101	0x3d8cc6b4	0.06873837
102	0xbe05f3c2	-0.13081267
103	0xbd23759a	-0.039907075
104	0xbd9b2a9f	-0.07576489
105	0x3e2d2257	0.16907631
106	0x3e42aa77	0.1901034
107	0xbdca53e1	-0.0987928
108	0x3d090a05	0.03345682
109	0x3dd1da39	0.10246701
110	0x3de677a2	0.11253287
111	0xbd01f8a6	-0.03173127
112	0xbd4b640e	-0.049655966
113	0xbcb7bef8	-0.022429928
114	0x3d0d4ba6	0.034495972
115	0xbe09fdec	-0.1347577
116	0x3cbb0803	0.022830969
117	0x3cf6529d	0.03006869
118	0xbd6cc608	-0.057806045
119	0x3b8a73f1	0.004225247
120	0x3ab5818f	0.0013847816
121	0xbd1eb249	-0.038744245
122	0xbe259cd3	-0.16173105
123	0xbdea9913	-0.11454978
124	0xbb21fb9f	-0.0024716628
125	0xbbe72d2d	-0.007054946
126	0xbb8658f7	-0.004099961
127	0x3dc3f499	0.09568138
128	0xbd624e34	-0.05525036
129	0xbdf9ca8a	-0.121968344
130	0x3e09aec2	0.13445571
131	0xbd7c82e2	-0.061648257
132	0x3da8516b	0.08218654
133	0xbe17636d	-0.14784022
134	0xbc2fec27	-0.010737455
135	0x3e17ec57	0.1483625
136	0x3d6114c1	0.054951433
137	0x3d3af43d	0.04564308
138	0x3d21540a	0.039386787
139	0x3b8ba577	0.0042616683
140	0x3dd4d8a0	0.103928804
141	0xbe721f97	-0.23644863
142	0xbe43dd27	-0.19127332
143	0x3cf3fff0	0.029785126
144	0xbd26ca46	-0.040720247
145	0x3d714491	0.05890328
146	0xbc970f0f	-0.018439798
147	0xbd4e1d73	-0.050321054
148	0xbe157e50	-0.14598966
149	0xbe55191e	-0.20810363
150	0x3c2bba39	0.010481411
151	0xbc832dda	-0.016013075
152	0xbc06a44c	-0.008217882
153	0xbe440c2e	-0.19145271
154	0x3dc38ac4	0.09547952
155	0x3d39cd58	0.045361847
156	0x3b181dd4	0.0023211138
157	0x3c0f6938	0.008753113
158	0x3e0b05fe	0.13576505
159	0xbd94d383	-0.07266905
160	0x3d860c43	0.065453075
161	0x3e4817cb	0.19540326
162	0xbd3749b8	-0.044748038
163	0xbc962226	-0.01832683
164	0xbd822f87	-0.06356721
165	0xbd2e35e5	-0.042531867
166	0x3adc68d5	0.001681591
167	0x3d02f2cf	0.03196984
168	0x3bd67858	0.006545108
169	0x3bd3bc1e	0.0064616343
170	0x3c836f04	0.016044147
171	0xbc793160	-0.015209526
172	0x3db2b7f8	0.087264955
173	0x3dcde85b	0.10054084
174	0x3d60c0f6	0.054871522
175	0x3d299db8	0.041410178
176	0x3cc843b9	0.024446355
177	0x3e6fc9ef	0.23416875
178	0x3d499c0e	0.04922109
179	0x3d0b5007	0.034011867
180	0x3e0b9b76	0.13633522
181	0x3cc2999c	0.023754887
182	0xbd0cb341	-0.034350637
183	0xbb29faaa	-0.002593676
184	0x3dbc9e32	0.09209861
185	0x3dc999be	0.09843777
186	0x3cf7b4a7	0.030237509
187	0xbe4e7be6	-0.20164451
188	0x3db23c2c	0.08702883
189	0xbe0896f1	-0.1333883
190	0x3cc1cf01	0.023658277
191	0x3c904d8d	0.017615104
192	0xbd4da67f	-0.05020761
193	0x3c8a6e97	0.016898436
194	0xbd7d6f20	-0.061873555
195	0x3d0b6afa	0.034037568
196	0xbc9e553c	-0.019327752
197	0xbcf7008b	-0.030151626
198	0x3e4d79ed	0.20066042
199	0x3e37ee09	0.17961897
200	0xbe517cee	-0.20457813
201	0xbdf6301a	-0.120208934
202	0xbd7f1041	-0.06227136
203	0x3da173a6	0.07883386
204	0x3e191e9f	0.14953087
205	0xbd90ae4d	-0.07064495
206	0x3dd03198	0.10165709
207	0x3e4317eb	0.19052093
208	0x3d2e9af9	0.042628262
209	0xbd9c4917	-0.07631128
210	0x3e17b07e	0.1481342
211	0x3c6e079c	0.014528181
212	0xbda552f2	-0.08072461
213	0x3bb66e75	0.0055673667
214	0x3df4cd56	0.11953227
215	0x3cc32e61	0.023825826
216	0xbaaf178f	-0.0013358461
217	0xbd3683f7	-0.044559445
218	0x3cc2fb94	0.023801602
219	0x3d915e2e	0.070980415
220	0xbe0a3202	-0.13495639
221	0xbdf5a2d3	-0.11993947
222	0x3d9317c9	0.07182271
223	0x3c74ab56	0.014933428
224	0xbdcdd945	-0.100512065
225	0xbd822406	-0.06354527
226	0xbc5f4a8d	-0.013628614
227	0xbbfd3266	-0.007726955
228	0xbbc41df2	-0.005985015
229	0x3d8a859c	0.06763765
230	0xbbbd7d3f	-0.0057827528
231	0x3da56af0	0.08077037
232	0xbdc71c26	-0.09722166
233	0x3d94ebdb	0.07271548
234	0xbd3f5060	-0.04670751
235	0xbc33db95	-0.010977645
236	0x3d8551eb	0.06509765
237	0xbce4ba5a	-0.02792089
238	0xbde69a6f	-0.112599246
239	0x3b1c327b	0.00238338
240	0x3e1ab052	0.15106323
241	0x3c998f5d	0.018745119
242	0xbe1c3b5b	-0.15257017
243	0xbe40f312	-0.18842724
244	0xbc57bbb0	-0.013167307
245	0xbca9b216	-0.0207148
246	0xbd7640f2	-0.06012053
247	0x3e434ec6	0.19073018
248	0x3dc2b1cc	0.09506568
249	0xbd9112a1	-0.07083631
250	0xbd5eb56d	-0.05437224
251	0xbd111f23	-0.035430085
252	0x3d41d7cd	0.047324944
253	0x3de5b01d	0.112152316
254	0x3e02afc6	0.12762365
255	0x3db24945	0.08705381

gconv1.0.W.weight f4 [140, 140]
0	0x3a049941	0.0005058237
1	0x3ded4002	0.11584474
2	0xbe1cc515	-0.15309556
3	0xbcda3497	-0.026636405
4	0xbd53273d	-0.051551092
5	0xbd1e4998	-0.038644403
6	0xbda03691	-0.07822908
7	0x3d2f5d85	0.042813797
8	0x3dd62a09	0.10457236
9	0xbe4821b8	-0.19544113
10	0x3d38d56e	0.045125417
11	0xbdd99112	-0.10623373
12	0xbe2fcd5b	-0.1716818
13	0x3da18975	0.07887546
14	0xbc13ce26	-0.009021318
15	0xbd8f6236	-0.07001154
16	0xbd53f9b3	-0.051751804
17	0x3def2af6	0.11678116
18	0xbc6c7904	-0.014433149
19	0x3de86610	0.11347592
20	0x3e01c2a2	0.12671903
21	0xbd608871	-0.05481762
22	0x3e0d224c	0.13782614
23	0x3d8e36a2	0.06944014
24	0xbc3d6b91	-0.01156129
25	0xbd95d128	-0.07315284
26	0xbdb12d5a	-0.08651228
27	0x3dc66e8f	0.09689056
28	0x3d741933	0.059594344
29	0xbddfcf02	-0.109281555
30	0x3d8df670	0.0693177
31	0xbe1f6c6c	-0.15568703
32	0xbc37672f	-0.0111940345
33	0xbc859e31	-0.016310783
34	0x3c59f009	0.013301858
35	0x3db2cfc2	0.08731033
36	0x3e03af09	0.1285974
37	0xbc2c232e	-0.010506434
38	0xbd964617	-0.07337587
39	0xbd9c1d39	-0.07622761
40	0x3b9a0918	0.004700791
41	0xbcfad6ab	-0.03061994
42	0xbb21be50	-0.0024680085
43	0x3e2f1aec	0.17100114
44	0xbd4182d4	-0.047243908
45	0x3e2d3c9b	0.1691765
46	0x3ce7e739	0.028308498
47	0xbdfc1198	-0.12308043
48	0x3dc0a639	0.094067045
49	0xbd26a56a	-0.040685095
50	0x3da4c0d2	0.0804459
51	0xbdf15d97	-0.11785429
52	0xbc745570	-0.014912948
53	0x3d55a261	0.05215681
54	0x3ddf60c9	0.10907132
55	0x3cf9c97a	0.03049158
56	0xbc8f3a5c	-0.017483883
57	0x3c5da4df	0.013528078
58	0x3d1eb260	0.03874433
59	0x3bd63000	0.0065364838
60	0x3dc686c4	0.09693673
61	0x3dc9539b	0.098303996
62	0x3d8ab6d8	0.06773156
63	0x3c6777d0	0.014127687
64	0x3ca31985	0.01990963
65	0x3d802839	0.06257672
66	0xbdb63b8a	-0.08898075
67	0xbd7916ca	-0.06081275
68	0x3d2be0d5	0.041962463
69	0x3db8b417	0.090187244
70	0x3e05ea44	0.13077646
71	0x3ca72a43	0.020405894
72	0xbe311684	-0.17293745
73	0x3dc7c2c7	0.09753948
74	0xbe22343b	-0.15840237
75	0x3cfb907b	0.030708542
76	0x3c9a7322	0.018853728
77	0x3d050339	0.032473776
78	0x3d44f988	0.048089534
79	0xbe0830ec	-0.13299912
80	0x3d4645c7	0.04840639
81	0xbcfd5b47	-0.030927313
82	0x3de581ef	0.112064235
83	0x3d56ee73	0.052473497
84	0xbdce8015	-0.100830235
85	0xbe16ef50	-0.14739728
86	0xbdca3b66	-0.098746106
87	0x3e0ea275	0.1392916
88	0x3d8d484b	0.068985544
89	0xbd03f838	-0.03221914
90	0x3d1d0bf2	0.03834147
91	0xbe01f6d3	-0.12691812
92	0x3c949cde	0.018141206
93	0x3d950b12	0.07277502
94	0x3db9341f	0.090431444
95	0xbcf598eb	-0.029980144
96	0xbd0abfe2	-0.0338744
97	0xbd8fb50c	-0.07016954
98	0x3d2451d6	0.040117107
99	0x3e31b216	0.1735309
100	0x3d32d465	0.043659586
101	0x3d23a847	0.039955404
102	0xbd7acc71	-0.061230127
103	0x3db07708	0.086164534
104	0xbdd75483	-0.10514166
105	0x3e316619	0.17324103
106	0x3cadd666	0.021220397
107	0x3db2b926	0.087267205
108	0x3d1984ce	0.037480168
109	0xbd8aa1a3	-0.06769111
110	0xbdb44061	-0.08801342
111	0xbd04a61c	-0.032384977
112	0x3de0faa5	0.10985307
113	0x3d13bf70	0.03607124
114	0xbc9b88bd	-0.0189861
115	0x3d473bcd	0.048641015
116	0x3e1af64a	0.15133014
117	0x3c192f47	0.009349651
118	0xbd8b7e9d	-0.06811259
119	0xbe0118dd	-0.12607141
120	0xbdc62897	-0.09675711
121	0x3e085f83	0.13317685
122	0x3d1c1c74	0.038113073
123	0x3db14b66	0.08656959
124	0x3d605def	0.054777082
125	0x3d2f53b3	0.04280443
126	0xbda6fd56	-0.08153789
127	0xbd9c6be6	-0.076377675
128	0xbd432acc	-0.047648236
129	0x3da45ff5	0.08026115
130	0x3da08863	0.07838514
131	0x3c62a31a	0.013832832
132	0x3c3a51d0	0.011372045
133	0x3bb6d3fe	0.0055794707
134	0x3dda939b	0.10672685
135	0x3d265d41	0.040616278
136	0xb7c2518c	-2.3164575e-05
137	0xbd846d92	-0.064662114
138	0x3dc2dabe	0.09514378
139	0xbe377cdf	-0.17918728
140	0x3da9389e	0.08262752
141	0x3d16ff51	0.036864582
142	0xbd9c50e8	-0.07632619
143	0xbc74d85a	-0.01494416
144	0xbd290efc	-0.041274056
145	0x3a804f1d	0.0009789203
146	0x3d57c1fc	0.052675232
147	0x3e1dba39	0.1540307
148	0xbd92596a	-0.07145961
149	0x3e129229	0.14313568
150	0x3d9de79a	0.0771019
151	0xbca18678	-0.01971744
152	0xbd86bc85	-0.06578926
153	0x3dc2aa11	0.09505094
154	0x3d49055c	0.049077377
155	0x3dbffc8e	0.09374343
156	0x3beb9d65	0.0071903937
157	0xbdcde732	-0.10053863
158	0x3d0004a3	0.031254422
159	0x3da3fc41	0.08007098
160	0x3d0561f8	0.032564133
161	0x3e19b570	0.15010619
162	0xbd8c536d	-0.0685185
163	0x3d32f206	0.043687843
164	0x3e0bb5da	0.1364359
165	0x3d07ecf0	0.033184946
166	0x3df9d03f	0.12197923
167	0xbd5ea0cd	-0.05435257
168	0x3d7feaca	0.06247977
169	0x3e0c4927	0.1369978
170	0x3e461b34	0.19346315
171	0xbda406d4	-0.08009115
172	0xb9ee6271	-0.00045468242
173	0xbc5c502f	-0.013446852
174	0x3d9c5f21	0.07635332
175	0xba257629	-0.0006311858
176	0x3dd67eb1	0.10473383
177	0xbe16a985	-0.14713104
178	0xbe5c4e93	-0.21514349
179	0x3b8fcb81	0.004388273
180	0xbd9b4e42	-0.07583286
181	0x3e476365	0.1947151
182	0xbe4947cc	-0.19656295
183	0xbd27a3d7	-0.040927734
184	0xbde1fa5e	-0.11034082
185	0xbdb69972	-0.08915986
186	0x3db9877b	0.09059044
187	0x3dadabc9	0.08480031
188	0xbe229f78	-0.15881145
189	0xbd10210b	-0.035187762
190	0x3c72fa70	0.014830217
191	0xbe5b094e	-0.21390268
192	0x3df42b08	0.1192227
193	0xbc7a784e	-0.015287472
194	0x3d311c89	0.043240104
195	0x3d8a618f	0.06756889
196	0x3d278b6a	0.04090444
197	0xbd17ce70	-0.03706211
198	0x3e456886	0.19278154
199	0xb8a03aeb	-7.640369e-05
200	0xbc81d5c2	-0.015848998
201	0xbd890a3b	-0.066914044
202	0xbdcfa3a2	-0.10138632
203	0xbe03d6bc	-0.12874883
204	0x3d7217e4	0.059104815
205	0x3deaab71	0.11458481
206	0x3d9ca38f	0.07648384
207	0xbd01ae80	-0.031660557
208	0xbcb503db	-0.022096565
209	0x3df0a0bf	0.1174941
210	0xbc4e483a	-0.012590462
211	0xbc0dff4b	-0.008666824
212	0xbe1276eb	-0.14303176
213	0xbdc3df70	-0.09564102
214	0xbd2eefa4	-0.042709008
215	0xbb38e612	-0.0028213304
216	0x3c071244	0.008244101
217	0xbd8aed70	-0.06783569
218	0xbe18ddac	-0.14928311
219	0x3b38b463	0.002818369
220	0xbe097145	-0.13422115
221	0xbdc403d7	-0.09571045
222	0xbd00530d	-0.031329203
223	0xbdc7ca69	-0.097554035
224	0xbc5f69ca	-0.013636062
225	0xbd46cd9d	-0.04853593
226	0x3d04ba29	0.0324041
227	0x3da1ba62	0.07896878
228	0xbe0f0930	-0.13968349
229	0x3cc23b0e	0.0237098
230	0x3e3a0159	0.18164577
231	0xbda61e54	-0.081112534
232	0x3d309bc3	0.043117296
233	0x3d9846b7	0.07435363
234	0xbd694002	-0.05694581
235	0x3da93465	0.082619466
236	0x3c88f8e5	0.016720245
237	0xbd5d66b1	-0.054053012
238	0x3e5b1b03	0.21397023
239	0xbdd66d1c	-0.1047003
240	0x3d8c91ac	0.06863722
241	0xbca5dee5	-0.020247886
242	0x3dafb0ec	0.08578667
243	0xbd782c85	-0.060589332
244	0x3d870248	0.06592232
245	0x3e011f9d	0.12609716
246	0xbe4ad390	-0.19807267
247	0x3d88cb5c	0.06679413
248	0x3dc779e0	0.09740043
249	0x3e279c3c	0.16368192
250	0x3de1aa9a	0.11018868
251	0x3d965bda	0.07341738
252	0xbe447174	-0.19183904
253	0xbd185983	-0.03719474
254	0x3dc1fe31	0.09472311
255	0x3d7075fb	0.058706265

gconv1.0.W.bias f4 [140]
0	0xbd62be3b	-0.0553572
1	0x3c831d1a	0.016005088
2	0x3d018bf4	0.03162761
3	0xbd61fc98	-0.055172533
4	0x3cef3c34	0.029203512
5	0x3d47eab2	0.048807807
6	0x3cb5e87c	0.022205584
7	0x3db62057	0.08892887
8	0x3c348674	0.011018384
9	0x3d23dee6	0.040007494
10	0x3ce20512	0.027590308
11	0x3cff0eec	0.031135045
12	0x3d2f9805	0.042869586
13	0xbd6203aa	-0.055179276
14	0xbc76298e	-0.015024556
15	0xbd9646b7	-0.073377065
16	0xbbc377a2	-0.005965189
17	0x3c386bfd	0.011256215
18	0xbda01de5	-0.07818202
19	0x3d0819c0	0.033227682
20	0xbcd06de2	-0.025443021
21	0x3da142f3	0.07874098
22	0x3d0e092b	0.034676712
23	0xbdb62d3f	-0.08895349
24	0x3c2e49b0	0.010637686
25	0xbb8e3297	-0.004339527
26	0xbd66e0e2	-0.05636681
27	0xbd3d1b2b	-0.046168488
28	0xbd08411e	-0.033265226
29	0xbbb5afc1	-0.005544633
30	0xbc95c4e9	-0.01828237
31	0xbdb2baa1	-0.08727003
32	0xbdb4c733	-0.08827057
33	0xbd54d28b	-0.051958602
34	0x3cc31140	0.023811936
35	0xbd8a9b10	-0.06767857
36	0x3caae1f1	0.02085969
37	0xbddd651d	-0.108103015
38	0x3db2fcc9	0.08739621
39	0xbd721ffe	-0.05911254
40	0xbc944686	-0.018100034
41	0xbd707778	-0.058707684
42	0x3db0fbc6	0.08641772
43	0x3d269691	0.040670935
44	0xbbb7d4da	-0.0056100907
45	0xbdb8007f	-0.089844696
46	0x3d983702	0.07432367
47	0x3d9ec218	0.07751864
48	0xbd711097	-0.058853712
49	0xbd074556	-0.03302511
50	0x3bcfb353	0.006338516
51	0xbd75c1c7	-0.059999254
52	0x3c5a0bd3	0.013308483
53	0xbd28f37d	-0.041247834
54	0xbd8960d1	-0.067079194
55	0xbdbb2cd9	-0.091394134
56	0x3c517451	0.01278408
57	0x3da0fd39	0.078607984
58	0x3c3c7363	0.01150212
59	0xbd35a613	-0.044347834
60	0x3d60985e	0.05483281
61	0x3a34dee0	0.0006899666
62	0xbd4afea3	-0.049559247
63	0xbd5add33	-0.05343361
64	0xbd8ff64b	-0.070293985
65	0xbd38eb10	-0.045146048
66	0xbd2bd12b	-0.041947525
67	0xbd00a116	-0.031403624
68	0x3d9fd7a4	0.07804802
69	0x3d082e9c	0.033247575
70	0xbdc521ca	-0.096255854
71	0x3d931172	0.07181062
72	0x3c4b6f1a	0.012416625
73	0xbd7b1e11	-0.06130797
74	0x3d10e6c2	0.035376318
75	0xbc321554	-0.010869343
76	0xbc0fbe4e	-0.0087733995
77	0x3d809460	0.062783
78	0xbd4ab274	-0.049486592
79	0x3ce8f71f	0.028438149
80	0xbdb4a32e	-0.088201866
81	0xbc97a9d5	-0.0185136
82	0xbd81b541	-0.063333996
83	0xbd3d473c	-0.046210513
84	0x3bf65f8e	0.007518715
85	0xbc81cff3	-0.015846228
86	0xbd8a1579	-0.06742377
87	0xbd8e7ed7	-0.069577865
88	0x3d94f9f5	0.07274238
89	0x3d3ce193	0.04611356
90	0x3d9280a3	0.07153442
91	0x3cc14fb0	0.023597568
92	0xbc7d0712	-0.01544358
93	0xbdcb1e78	-0.09917921
94	0xbb9f6161	-0.0048639034
95	0x3cc10bba	0.023565162
96	0xbbf739fa	-0.007544753
97	0xbce4b7ef	-0.027919738
98	0x3d889e87	0.06670862
99	0xbcd8e31a	-0.026475478
100	0xbd04bc99	-0.032406423
101	0xbbb43920	-0.005499974
102	0x3d219b99	0.03945503
103	0xbd8b36df	-0.06797575
104	0xbd6164af	-0.05502766
105	0xbb166406	-0.0022947802
106	0xbcf04f38	-0.02933465
107	0x3da08000	0.07836914
108	0x3d2aa624	0.04166235
109	0x3d8618d7	0.065477066
110	0x3c9b353c	0.018946283
111	0x3da70c4c	0.08156642
112	0x3b664555	0.003513654
113	0xbd773174	-0.060349897
114	0xbc20bb91	-0.009810344
115	0xbd0ef4c3	-0.03490139
116	0x3cae46f1	0.021274062
117	0x3d1c74f7	0.038197484
118	0x3d6f9631	0.058492843
119	0x3d5024d7	0.050816383
120	0x3d4efd01	0.050534252
121	0xbd3371eb	-0.043809813
122	0x3d0c9179	0.03431842
123	0x3d3be0d0	0.045868695
124	0xbd816611	-0.06318296
125	0xbdc15461	-0.09439922
126	0x3a374bd4	0.0006992195
127	0x3d7e0cb4	0.062023833
128	0x3d9524d1	0.07282413
129	0xbd146cd4	-0.0362366
130	0x3d822fbd	0.063567616
131	0xbd1b4074	-0.037903264
132	0xbd8d9340	-0.06912851
133	0x3cc8f449	0.024530547
134	0xbcb97b80	-0.022641897
135	0x3dca9aba	0.09892793
136	0xbd97a02d	-0.07403598
137	0xbd997478	-0.07492918
138	0x3cdb14d5	0.026743332
139	0x3d7ff6e6	0.06249132

gconv1.0.gate.weight f4 [1, 280]
0	0x3dd81bab	0.10552152
1	0xbd97b0cd	-0.07406769
2	0xbe0638f6	-0.13107666
3	0x3d0e7f90	0.03478962
4	0x3d57272d	0.052527595
5	0xbdcbede7	-0.09957486
6	0x3d1c91ab	0.038224857
7	0xbe001f92	-0.12512043
8	0x3d443546	0.047902368
9	0xbcfc4823	-0.030796116
10	0xbd03f5be	-0.03221678
11	0x3e82b3c6	0.2552778
12	0xbe1abb94	-0.15110618
13	0x3da7a50c	0.08185777
14	0x3cdd9dbc	0.027052753
15	0xbe25474c	-0.16140479
16	0x3d1d0f8e	0.038344912
17	0xbcc9fc99	-0.02465658
18	0xbd774a68	-0.060373694
19	0x3dbbae67	0.09164124
20	0x3d82e6db	0.063916884
21	0xbdf496e0	-0.119428396
22	0x3e16109d	0.14654775
23	0x3e1a6c16	0.15080294
24	0xbe270daa	-0.16313806
25	0x3d0b80da	0.03405843
26	0xbc114bfa	-0.008868212
27	0x3cbaa58f	0.022784023
28	0xbd27bfd9	-0.040954445
29	0x3e0153b2	0.12629583
30	0xbdb822d2	-0.089910164
31	0x3d24556a	0.04012052
32	0x3c2ea5d0	0.01065965
33	0xbc3bf082	-0.011470916
34	0xbd79ce24	-0.060987607
35	0xbdefe2d7	-0.11713188
36	0x3db7d85b	0.089768134
37	0xbd8e97ae	-0.06962524
38	0xbdb6654d	-0.0890604
39	0x3da0cd9b	0.07851716
40	0x3c854c55	0.01627175
41	0xbcbc1c20	-0.02296263
42	0xbd360f12	-0.044447966
43	0xbdb3d9ba	-0.087817624
44	0xbc24edf6	-0.0100665
45	0x3dbb8ff9	0.0915832
46	0xbda22e91	-0.07919038
47	0xbd124e6e	-0.035719328
48	0x3cbe053c	0.023195855
49	0xbda683b8	-0.08130592
50	0xbe2bcb7d	-0.16776843
51	0x3de9f663	0.11423948
52	0x3ca4e11d	0.020126874
53	0x3ddf21c0	0.10895109
54	0x3e457718	0.19283712
55	0x3e10eea7	0.14153539
56	0x3e1ead57	0.15495811
57	0x3e16541d	0.14680524
58	0x3d88c69f	0.06678509
59	0x3c2a8435	0.010407497
60	0xbd9727a5	-0.073806085
61	0xbb8c996c	-0.0042907503
62	0x3bc3cb0a	0.005975132
63	0xbd4c183a	-0.04982779
64	0x3d9557b0	0.07292116
65	0x3ded054c	0.11573276
66	0xbd30f2d1	-0.043200318
67	0xbdc34616	-0.09534852
68	0x3c3c5d94	0.01149692
69	0xbe043270	-0.12909865
70	0x3ce4ddc6	0.027937781
71	0x3d4e7a33	0.050409507
72	0x3de8fc49	0.113762446
73	0x3d06d9e9	0.03292266
74	0x3e3f0398	0.18653715
75	0xbcb70ec9	-0.022345917
76	0x3d38608b	0.045013946
77	0x3db00ee1	0.08596588
78	0x3dd280b7	0.10278457
79	0xbd111619	-0.035421465
80	0x3cdaa596	0.026690286
81	0xbe01a213	-0.12659483
82	0x3cc738a4	0.024319
83	0x3d343d9d	0.04400407
84	0xbe20caaf	-0.15702318
85	0x3e1e9f12	0.15490368
86	0xbd61ebf6	-0.05515667
87	0xbd381c13	-0.04494865
88	0x3d4fa073	0.050690126
89	0x3c63831a	0.0138862375
90	0x3e2b2597	0.16713558
91	0x3cbc4a4f	0.022984652
92	0x3d8511f3	0.06497564
93	0xbd787f2b	-0.06066815
94	0xbda26d50	-0.07931006
95	0x3d4bc4b2	0.04974813
96	0x3da1c3c7	0.0789867
97	0x3e3ace2f	0.18242715
98	0xbde00384	-0.109381706
99	0xbc8cf01f	-0.017204342
100	0xbdfd59db	-0.12370654
101	0x3d7a10f0	0.06105131
102	0xbd35c83e	-0.04438042
103	0xbbc521a5	-0.0060159736
104	0xbe3770c6	-0.17914113
105	0xbb630555	-0.003464063
106	0x3e1a1a8c	0.1504919
107	0xbcc2ebce	-0.023794081
108	0xbd275ba7	-0.04085889
109	0x3d238a45	0.039926786
110	0x3de47b7a	0.11156364
111	0xbd849414	-0.06473556
112	0xbbecc622	-0.0072257677
113	0x3d99f1f1	0.0751685
114	0xbdb06d4e	-0.08614598
115	0x3cde06a7	0.027102781
116	0x3e23d7ae	0.16000244
117	0x3e04f477	0.12983881
118	0x3cd39e7e	0.02583241
119	0xbbab4476	-0.005226667
120	0xbd88c434	-0.06678048
121	0xbdc7815a	-0.09741469
122	0x3d22af95	0.03971823
123	0x3d9e34c5	0.07724909
124	0x3d14e949	0.03635529
125	0x3dc67ee7	0.096921735
126	0x3d8e1bb6	0.06938879
127	0x3d18f276	0.037340604
128	0xbd000e53	-0.03126366
129	0x3e4d7bb4	0.2006672
130	0xbd361728	-0.044455677
131	0x3dc533b8	0.09629005
132	0xbdf51c0e	-0.11968242
133	0xbc709dbd	-0.014686045
134	0x3db0c880	0.08631992
135	0xbda27117	-0.079317264
136	0xbdccbc41	-0.09996844
137	0xbceab444	-0.02865041
138	0xbcc5923e	-0.024117585
139	0xbd2b9368	-0.041888624
140	0xbe26cc51	-0.16288878
141	0xbdf6fd13	-0.12059989
142	0xbde8fa89	-0.11375911
143	0xbd88358f	-0.066508405
144	0x3e33178a	0.17489448
145	0xbcb7592a	-0.022381384
146	0x3e07ed14	0.13274032
147	0x3dcbc42c	0.09949526
148	0xbda32b8d	-0.07967291
149	0xbe631370	-0.22175384
150	0x3e0d0492	0.13771275
151	0x3e091381	0.13386346
152	0x3c1d7a4f	0.00961168
153	0x3d47ea72	0.04880757
154	0xbde0bd49	-0.10973603
155	0x3d90ae9a	0.070645526
156	0xbd96290e	-0.07332049
157	0x3dc2337f	0.09482478
158	0x3cdaac25	0.026693413
159	0xbcca5b67	-0.024701787
160	0x3afed64e	0.001944253
161	0x3e729b6e	0.23692104
162	0xbdfc4a21	-0.123188265
163	0x3e09dcee	0.13463184
164	0xbd976d31	-0.073938735
165	0xbaad74bd	-0.0013233643
166	0xbc9c1c0e	-0.019056346
167	0xbe044a00	-0.12918854
168	0xbd17c198	-0.03704986
169	0x3e2c9988	0.16855443
170	0xb91c76ad	-0.0001492153
171	0xbd4e269a	-0.050329782
172	0x3a22ec7e	0.00062150497
173	0xbba30c2b	-0.004975816
174	0xbd52d373	-0.051471185
175	0xbdcddd4e	-0.10051976
176	0x3d95b724	0.07310322
177	0x3c5139ab	0.012770097
178	0x3da045a3	0.07825782
179	0x3e661e66	0.22472534
180	0x3d1f470e	0.038886122
181	0x3d9eac22	0.077476755
182	0x3e0a3976	0.13498482
183	0xbdc3d770	-0.09562576
184	0xbd9f0c8f	-0.07766067
185	0x3e079553	0.13240556
186	0x3d9da06e	0.07696615
187	0x3db71dec	0.08941254
188	0xbb17df3e	-0.0023173834
189	0xbcc5d485	-0.024149189
190	0xbe0a010f	-0.13476966
191	0xbdf40648	-0.119152606
192	0xbdc41d5f	-0.095759146
193	0x3c0c4601	0.008561612
194	0x3c62d566	0.013844823
195	0x3d5d9767	0.054099467
196	0xbde9cbf1	-0.11415852
197	0x3d81c0f4	0.06335631
198	0xbb0db2bf	-0.0021621434
199	0xbd7c379d	-0.061576474
200	0x3d754960	0.05988443
201	0x3d14f030	0.036361873
202	0x3c93eb2c	0.018056475
203	0xbdbc286e	-0.09187399
204	0xbda730df	-0.08163618
205	0xbc6227be	-0.013803421
206	0x3c9846d6	0.018588465
207	0xbe35583b	-0.17709439
208	0xbcf3f966	-0.029782008
209	0xbcb3a26b	-0.021928033
210	0x3913cca9	0.00014095254
211	0x3e2b9ca3	0.16758971
212	0xbd57e9ce	-0.052713208
213	0x3d0cd99d	0.03438722
214	0x3de6238b	0.11237248
215	0xbc8c9b8e	-0.017164018
216	0xbd337fbd	-0.043822993
217	0xbd2668c1	-0.040627245
218	0xbc6579da	-0.014006102
219	0xbc93274b	-0.017963072
220	0x3dc7821c	0.09741613
221	0xbd3b7a78	-0.045771092
222	0xbe4a50d5	-0.19757397
223	0x3d3642ae	0.044497184
224	0xbd8a3d91	-0.06750024
225	0xbe084ca7	-0.1331049
226	0xbdcdfda0	-0.10058141
227	0x3b5a95eb	0.0033353518
228	0x3c21090e	0.009828819
229	0xbdeafe75	-0.11474315
230	0x3d272cd6	0.040814243
231	0xbd831ba0	-0.064017534
232	0x3d2e87f0	0.04261011
233	0x3ea4ba2a	0.32173282
234	0x3e273fa0	0.16332865
235	0xbd34b4f2	-0.044117875
236	0xbd5d9911	-0.054101054
237	0xbce1f1f1	-0.027581187
238	0x3dfc024f	0.12305128
239	0xbbe5f9d7	-0.0070183086
240	0x3db18354	0.08667627
241	0xbd56828c	-0.052370593
242	0x3da45aee	0.08025156
243	0xbd2f92da	-0.042864658
244	0xbd18f32d	-0.037341285
245	0xbcd470b1	-0.025932642
246	0xbdd88836	-0.10572855
247	0x3d071b20	0.032984853
248	0x3cb1b742	0.02169383
249	0x3d71e88e	0.059059672
250	0x3ce1115b	0.027474096
251	0xbdde7779	-0.10862631
252	0x3dc40da5	0.09572915
253	0xbe1b9966	-0.15195236
254	0x3ccae6d2	0.024768267
255	0xbe2eddb6	-0.17076764

gconv1.1.A f4 [140, 140]
0	0x3d37f017	0.044906702
1	0x3d70aa2f	0.05875605
2	0x3bdf5351	0.006815352
3	0xbd9aa977	-0.07551854
4	0x3c976deb	0.01848503
5	0x3dc70c65	0.09719161
6	0x3d90e941	0.0707574
7	0xbd31395d	-0.043267597
8	0xbd59cc76	-0.053173505
9	0xbe115de3	-0.14195971
10	0xbdb48cfa	-0.08815952
11	0xbde7713c	-0.113008946
12	0xbbc36049	-0.005962406
13	0xbd6d6327	-0.057955887
14	0xbd6361ce	-0.055513196
15	0xbd1fa3bb	-0.038974505
16	0x3d89442c	0.06702456
17	0xbe1acf02	-0.1511803
18	0x3b7f4930	0.0038953535
19	0x3d2e62f4	0.042574838
20	0xbe31a977	-0.17349802
21	0x3d1d2494	0.03836496
22	0x3c527411	0.012845055
23	0x3cd44ae4	0.025914617
24	0x3d6e7718	0.058219045
25	0xbc530098	-0.0128785595
26	0xbd2ea3cd	-0.04263668
27	0x3b5c2cac	0.0033595962
28	0x3d4c60be	0.049896948
29	0xbcafc7c6	-0.021457564
30	0x3c8c71d9	0.01714413
31	0x3e14bfb4	0.14526254
32	0x3d3e60b2	0.046478935
33	0xbd88c78f	-0.06678688
34	0x3c8cc976	0.017185908
35	0x3c9dcd56	0.01926295
36	0x3d2f5195	0.042802412
37	0x3d69c3db	0.057071548
38	0x3d4c3922	0.049859174
39	0xbd44339c	-0.04790078
40	0x3e093b84	0.1340161
41	0x3d3b8a73	0.045786332
42	0xbd863085	-0.06552223
43	0xbd57d253	-0.052690815
44	0xbd342039	-0.043976042
45	0xbcd8af1d	-0.026450688
46	0x3c7cab39	0.015421682
47	0x3cf50a44	0.029912122
48	0x3da65531	0.08121718
49	0x3dd73ef4	0.10510054
50	0x3d70ebd9	0.05881867
51	0xbc8c4fd8	-0.017127916
52	0x3e1e26a6	0.1544443
53	0xbd13d3ca	-0.03609065
54	0xbdbdab8b	-0.09261235
55	0x3dea8ecf	0.1145302
56	0xbca452a6	-0.020058941
57	0xbd89b8af	-0.06724679
58	0xbd5f00d5	-0.054444153
59	0xbc922bc2	-0.017843131
60	0x3d1dc147	0.0385144
61	0x3d9fadf9	0.077968545
62	0x3d87fa75	0.06639568
63	0x3ce17d0f	0.027525453
64	0xbddfc383	-0.10925963
65	0xbe0ede70	-0.1395204
66	0x3bdad824	0.006678598
67	0xbd85f31b	-0.06540509
68	0x3e2a87d7	0.16653381
69	0x3d13d6cf	0.03609353
70	0xbd835154	-0.064119965
71	0xba4e047c	-0.00078589446
72	0xbc25bcb5	-0.010115792
73	0xbace2ebd	-0.0015730482
74	0x3d60a6e9	0.054846678
75	0x3d3022d0	0.04300195
76	0x3d57d7d5	0.052696068
77	0xbd5946a4	-0.053045884
78	0x3e0c8c1b	0.13725321
79	0x3cf2f4b4	0.0296577
80	0xbcb374ea	-0.021906335
81	0xbbc2b856	-0.0059423847
82	0x3d42a987	0.047524955
83	0xbdd3f52c	-0.10349497
84	0x3c9b08e0	0.01892513
85	0x3d0b1ed3	0.033964943
86	0xbe8c1077	-0.27356312
87	0xbd637661	-0.055532817
88	0x3d3a2423	0.04544462
89	0xbdc61dda	-0.096736625
90	0xbcd289b6	-0.025700431
91	0x3dbb4a8a	0.091450766
92	0xbc8d4f39	-0.01724969
93	0x3de276ca	0.110578135
94	0xbda81086	-0.082062766
95	0x3e326e3b	0.17424862
96	0x3e0ae404	0.13563544
97	0xbd95acff	-0.07308387
98	0xbda30135	-0.079592146
99	0x3d9900bf	0.074708454
100	0x3d72e3dc	0.059299335
101	0x3b22579d	0.002477146
102	0x3d2e403b	0.042541724
103	0xbd4bc0ee	-0.04974454
104	0xbcc72901	-0.024311544
105	0xbcfd117f	-0.030892132
106	0x3c3cd573	0.0115255
107	0x3da001e7	0.07812863
108	0x3e0552d3	0.13019876
109	0x3d493cbb	0.049130183
110	0x3e47bcc5	0.19505604
111	0x3cec00bf	0.02880895
112	0x3e4652c5	0.19367512
113	0xbbeaedf9	-0.007169482
114	0xbbaf5edf	-0.0053518857
115	0x3e2b00d6	0.16699538
116	0xbd31c2ec	-0.043398783
117	0x3d3195b1	0.043355647
118	0x3c57fba2	0.0131825525
119	0xbc265cee	-0.010153992
120	0x3d66e061	0.05636633
121	0x3d9fbfd6	0.07800262
122	0xbd649ab1	-0.055811588
123	0x3da84a68	0.08217317
124	0xbd729331	-0.059222404
125	0x3da8e92f	0.08247601
126	0xbd5b6924	-0.053567067
127	0xbdaf969c	-0.08573648
128	0xbc83c74a	-0.01608624
129	0x3d4113d7	0.04713806
130	0x3e456620	0.19277239
131	0xbd8ee900	-0.06978035
132	0x3da9fd45	0.083002605
133	0xbe30a3b4	-0.17249948
134	0x3de98a54	0.11403337
135	0x3d57aa35	0.052652556
136	0xbb51aa5f	-0.0031992418
137	0xbe013200	-0.1261673
138	0xbce25197	-0.027626796
139	0x3d8bfd84	0.06835464
140	0xbdbe7465	-0.09299544
141	0xbc91ede7	-0.017813636
142	0x3ca6b10a	0.02034809
143	0x3d63042a	0.055423893
144	0xbde29d44	-0.11065152
145	0xbd668209	-0.056276355
146	0xbe099a6b	-0.13437812
147	0xbd592e05	-0.053022403
148	0x3b9de736	0.0048188223
149	0x3d05fd2f	0.032712158
150	0xbc0d9241	-0.008640827
151	0xbcb149bb	-0.021641603
152	0xbd21e880	-0.03952837
153	0xbc9866fc	-0.018603794
154	0xbc275a42	-0.01021439
155	0x3e04906f	0.12945722
156	0x3c60c53f	0.013718902
157	0x3c8be285	0.017075786
158	0x3d934608	0.07191092
159	0x3d868768	0.065687954
160	0x3d77f3cb	0.060535233
161	0x3be7aed0	0.0070704
162	0x3dc0c32b	0.09412225
163	0x3d33fc1d	0.043941606
164	0xbd814cc6	-0.063134715
165	0x3d860b1c	0.06545088
166	0xbc0abb35	-0.008467485
167	0x3bed51ab	0.0072424016
168	0xbe206192	-0.1566222
169	0xbd3c67d7	-0.045997467
170	0xbd465208	-0.048418075
171	0xbcf20d86	-0.029547464
172	0xbbbdb6a8	-0.0057895966
173	0xbd228e1a	-0.0396863
174	0x3e8e3b9c	0.27779853
175	0xbd826cc8	-0.063684046
176	0xbd5049cb	-0.050851624
177	0x3d02cd82	0.03193427
178	0x3d86570f	0.06559574
179	0xbe004f16	-0.12530169
180	0x3d43edb5	0.047834117
181	0xbbd1fe56	-0.006408493
182	0x3e462149	0.19348635
183	0x3c23fe4e	0.010009361
184	0xbd76e1a8	-0.060273796
185	0xbdcb8e2e	-0.09939228
186	0x3d604918	0.054757208
187	0x3e11d697	0.14242016
188	0x3dceeba2	0.10103537
189	0xba914815	-0.0011084104
190	0x3d859eb2	0.06524409
191	0x3cfc3e02	0.030791286
192	0xbe00a734	-0.12563783
193	0xbd9ff3ea	-0.07810195
194	0x3c0cb5e9	0.008588293
195	0x3e22e99c	0.15909427
196	0x3d24dab6	0.04024764
197	0xbd2ec298	-0.042666048
198	0xbe1bcfb2	-0.15215948
199	0x3d346566	0.044042014
200	0x39ff0940	0.00048644282
201	0x3dceb75c	0.10093567
202	0xbe1a8836	-0.15091023
203	0xbaeb74b8	-0.0017963862
204	0xbb9d8a10	-0.004807718
205	0xbd70bbc9	-0.058772836
206	0x3d6578ca	0.056023397
207	0x3d7045f9	0.05866048
208	0xbdde2688	-0.10847193
209	0xbde408b9	-0.11134476
210	0xbd982c9f	-0.07430386
211	0xbcfe7351	-0.031060847
212	0x3e19576b	0.14974754
213	0x3dcf13b7	0.10111182
214	0xbb88aad2	-0.004170754
215	0xbe0cd0d1	-0.13751532
216	0x3ba6203b	0.00506976
217	0x3d157529	0.036488686
218	0xbdb1029f	-0.08643078
219	0x3cf7d7eb	0.030254325
220	0xbd43c619	-0.047796343
221	0x3d96fade	0.07372068
222	0xbc725a98	-0.014792107
223	0xbd74de2c	-0.059782192
224	0xbce36893	-0.027759826
225	0x3dc374f6	0.09543793
226	0x3d198413	0.03747947
227	0x3e2c5d73	0.16832523
228	0x3d2b0eaa	0.04176203
229	0x3dceb95a	0.10093947
230	0x3d664932	0.05622215
231	0xbd6f062f	-0.058355507
232	0xbb82e398	-0.0039944164
233	0x3c598a03	0.013277533
234	0xbda3c300	-0.07996178
235	0x3cf13d75	0.02944825
236	0xbcd01b55	-0.025403658
237	0xbcdc3756	-0.026881855
238	0xbd05f546	-0.032704614
239	0xbdddff8f	-0.108397596
240	0x3d190ec2	0.03736759
241	0xbdee4dd7	-0.116359405
242	0x3d89b3b6	0.0672373
243	0xbe20741a	-0.15669289
244	0x3d227f45	0.039672155
245	0x3da0a3fc	0.078437775
246	0xbda27d22	-0.079340234
247	0x3d5e8052	0.054321595
248	0xbdf83d4b	-0.12121066
249	0xbd922686	-0.07136254
250	0xbe141485	-0.14460953
251	0x3d083dc8	0.033262044
252	0x3dcd7b5b	0.10033294
253	0x3b9c0f58	0.0047625713
254	0x3cc75023	0.024330204
255	0x3e084536	0.13307652

gconv1.1.W.weight f4 [140, 140]
0	0xbcac9c5b	-0.02107065
1	0xbdf1acd5	-0.11800543
2	0x3dd6de05	0.104915656
3	0x3a974349	0.0011540438
4	0x3e35267e	0.17690465
5	0x3d401690	0.046896517
6	0xbd811cec	-0.063043445
7	0xbdd90f80	-0.105986595
8	0xbe1bd824	-0.1521917
9	0xbc786224	-0.015160117
10	0x3d3042e7	0.043032553
11	0xbd44b36f	-0.048022684
12	0xbe753340	-0.23945332
13	0xbe3eddea	-0.18639341
14	0xbda8d104	-0.082429916
15	0x3df43355	0.11923853
16	0x3db47cf3	0.08812895
17	0xbd2b8473	-0.04187436
18	0xbdaf5a43	-0.08562138
19	0xbbce51bc	-0.0062963646
20	0xbc8ecd02	-0.01743174
21	0x3d31ff5e	0.043456428
22	0x3e231165	0.15924604
23	0x3bda6843	0.006665261
24	0xbdb07521	-0.086160906
25	0x3ca4906d	0.020088399
26	0x3d9ba7e1	0.0760038
27	0x3d51290e	0.051064543
28	0x3dd5c40d	0.10437784
29	0x3dcb40ef	0.099244945
30	0xbdb79d47	-0.08965545
31	0x3d7ad4bd	0.06123804
32	0xbdb9b95b	-0.09068557
33	0xbd35630f	-0.044283923
34	0x3db08fe5	0.08621196
35	0x3d1a3c6b	0.037655275
36	0xbca7be7f	-0.020476578
37	0xbc870079	-0.016479718
38	0xbd9e4345	-0.077276744
39	0x3e5df82c	0.21676701
40	0xbd1b2923	-0.037881028
41	0xbdf7fe9e	-0.12109111
42	0xbb2b6928	-0.0026155207
43	0x3d4fbbaa	0.05071608
44	0xbc8da0ec	-0.017288648
45	0xbe5accc1	-0.2136717
46	0xbe1cc981	-0.15311243
47	0xbe1ec9f9	-0.15506734
48	0x3d8fadca	0.070155695
49	0xbd039b9e	-0.03213083
50	0x3daa8a1c	0.083271235
51	0x3d0d0d9f	0.03443682
52	0x3d623ea1	0.05523551
53	0xbb2d459a	-0.002643919
54	0xbd7c2a85	-0.061563987
55	0xbe6b3cfd	-0.22972484
56	0x3d803e36	0.06261866
57	0x3e1b0ac3	0.15140824
58	0x3d9ed0e1	0.07754684
59	0xbc46ec64	-0.012141321
60	0xbdc8fac8	-0.09813458
61	0x3e11f479	0.14253415
62	0x3d9fe0ee	0.07806574
63	0xbd778fec	-0.06043999
64	0xbd986f01	-0.07443047
65	0xbdcafc0d	-0.09911356
66	0xbe012760	-0.12612677
67	0xbe2fdeb4	-0.17174798
68	0xbd72bce9	-0.05926219
69	0xbe60f978	-0.21970165
70	0xbdeb71fd	-0.11496351
71	0xbbb29409	-0.005449776
72	0x3d3add1b	0.04562102
73	0x3dbbbeb0	0.0916723
74	0xbe3a554a	-0.18196598
75	0xbcf32aa8	-0.029683426
76	0xbe03518f	-0.12824081
77	0x3d6197a7	0.055076268
78	0xbd6c0fa7	-0.057632115
79	0x3da3f2e6	0.080053136
80	0xbc96c758	-0.018405601
81	0x3cb24089	0.021759288
82	0xbd253190	-0.04033047
83	0x3e0b9897	0.13632427
84	0x3d0e15d5	0.03468879
85	0xbc337359	-0.010952794
86	0xbd894475	-0.0670251
87	0xbc39cad6	-0.011339864
88	0x3e5bbf65	0.2145973
89	0xbd887cbd	-0.06664417
90	0xbd2bb7b0	-0.041923225
91	0x3d5758ae	0.052574806
92	0x3d1de67f	0.038549896
93	0x3ca3baf5	0.019986609
94	0x3da12b04	0.07869533
95	0x3da792b2	0.08182277
96	0xbd816cea	-0.06319602
97	0x3c5ff36b	0.013668875
98	0x3e1b798d	0.15183087
99	0xbdc84483	-0.097786926
100	0xbbc5838d	-0.006027645
101	0xbc6c2569	-0.014413216
102	0x3b3b60f4	0.0028591724
103	0xbe1ec1f6	-0.15503678
104	0x3c2a7808	0.010404594
105	0xba9116cb	-0.0011069415
106	0xbcc999f3	-0.024609542
107	0xbc84ff17	-0.016234918
108	0x3af562fc	0.0018721516
109	0xbd4deb20	-0.05027306
110	0xbe4f1840	-0.20224094
111	0x3d36f4c2	0.044667013
112	0xbd4621c4	-0.048372045
113	0x3dfd6276	0.123722956
114	0xbd7bfd78	-0.061521024
115	0x3bc43804	0.005988123
116	0x3c9e91aa	0.019356567
117	0x3d4c8cfe	0.049939148
118	0x3db9240e	0.0904008
119	0xbd9e0e42	-0.07717563
120	0xbcbbaf5f	-0.022910772
121	0xbcf3d6ad	-0.029765451
122	0x3e070cdc	0.13188499
123	0x3da468ea	0.08027823
124	0xbd5ec1dd	-0.0543841
125	0x3dbe3001	0.092865
126	0x3dd6944d	0.10477505
127	0xbdc7319a	-0.097262576
128	0xbd17953b	-0.03700755
129	0x3cd24946	0.025669705
130	0xbd0d275f	-0.034461375
131	0x3d02f6fc	0.031973824
132	0x3dc44fb2	0.09585513
133	0x3d8ed47a	0.069741204
134	0x3e004ba3	0.12528853
135	0x3e012dea	0.12615171
136	0xbda238ee	-0.07921015
137	0x3dc412e8	0.095739186
138	0xbc22d1b2	-0.009937691
139	0x3dcfec73	0.10152521
140	0x3e40181d	0.18759198
141	0xbd43eb53	-0.047831845
142	0x3d62d831	0.055381957
143	0x3d43eb39	0.047831748
144	0x3a267d33	0.00063510536
145	0xbcba3414	-0.02272991
146	0x3e226d1a	0.15861931
147	0x3c53cfa4	0.012927923
148	0x3e5c13dd	0.21491952
149	0x3e0a72d4	0.13520366
150	0xbbf83729	-0.007574935
151	0xbe6939cf	-0.22775958
152	0xbd81d49c	-0.0633938
153	0xbd5ce9f4	-0.053934053
154	0xbd5f1624	-0.054464474
155	0xbdbd6b46	-0.092489764
156	0x3d37a341	0.044833425
157	0xbdb0b6a7	-0.08628588
158	0x3d5e03e1	0.054202918
159	0x3d08f9c3	0.033441316
160	0xbd12f201	-0.035875324
161	0xbe03359d	-0.1281342
162	0xbe049bd7	-0.12950073
163	0x3cd4c645	0.025973449
164	0x393af819	0.00017830766
165	0x3d83ce99	0.0643589
166	0x3d56bd6a	0.052426733
167	0x3d75c48f	0.060001906
168	0x3cbea84e	0.023273613
169	0xbd8eb487	-0.069680266
170	0x3dd87a69	0.10570223
171	0xbd704d73	-0.05866761
172	0xbbdc1c26	-0.0067172227
173	0xbd2b63d5	-0.041843254
174	0xbcd798b2	-0.026317928
175	0xbdcb718d	-0.099337675
176	0x3e13bf97	0.14428554
177	0xbd984fbb	-0.074370824
178	0xbc07a845	-0.008279865
179	0xbe14573b	-0.14486401
180	0xbc9a8095	-0.01886014
181	0x3d62ec45	0.055401105
182	0xbd6058e2	-0.054772265
183	0x3d44a576	0.04800936
184	0xbda0bbbb	-0.07848307
185	0xbdcc7b98	-0.09984511
186	0x3d799e00	0.060941696
187	0x3d8b2277	0.06793683
188	0xbe0e760a	-0.13912216
189	0xbe16716c	-0.14691705
190	0xbd8b143f	-0.06790971
191	0x3dddb64d	0.10825787
192	0x3e3df758	0.18551385
193	0x3d074087	0.033020522
194	0x3da6ee56	0.08150928
195	0xbd58aba6	-0.05289807
196	0xbcc5954f	-0.024119047
197	0x3e043b56	0.1291326
198	0xbd6a690d	-0.05722909
199	0x3d880e86	0.06643395
200	0xbd806e19	-0.062709995
201	0xbc00fa71	-0.00787221
202	0x3d9209ad	0.07130752
203	0xbd50d796	-0.05098685
204	0x3d3dd5b3	0.046346378
205	0x3e0da671	0.13833024
206	0xbdd36fc8	-0.10324055
207	0x39a9831c	0.00032331876
208	0x3e606938	0.21915138
209	0x3d2a3e5e	0.041563384
210	0xbd6fc61d	-0.058538545
211	0xbdbe0a5b	-0.09279319
212	0x3d831360	0.0640018
213	0xbd18d4c8	-0.0373123
214	0xbd42b3bb	-0.047534686
215	0x3d9f354c	0.077738374
216	0x3d97a05b	0.07403632
217	0x3d1d5c01	0.03841782
218	0x3d95d26e	0.07315527
219	0x3ddd1b8d	0.107962705
220	0x3d3fb536	0.046803676
221	0x3b919db5	0.004443849
222	0x3cb379f8	0.021908745
223	0xbd47a047	-0.048736837
224	0xbe1cb1b4	-0.15302163
225	0x3d9a628b	0.07538327
226	0x3cbded70	0.023184508
227	0x3e291cc4	0.1651488
228	0x3ccf3d01	0.025297644
229	0x3d84f7e7	0.06492596
230	0x3daf5f45	0.08563093
231	0xbe12a81e	-0.14321944
232	0x3dbc1448	0.09183556
233	0xbc811974	-0.015759207
234	0x3d9c793d	0.07640312
235	0x3e2c7314	0.16840774
236	0xbd31ef73	-0.043441247
237	0xbd1e2e94	-0.03861864
238	0xbd5ee0f4	-0.05441375
239	0x3cc8bd87	0.024504436
240	0x3e0ac1a4	0.1355043
241	0x3cef3473	0.029199814
242	0x3d87cd77	0.06630986
243	0xbd98b2d5	-0.074559845
244	0x3cb09a47	0.02155794
245	0x3d7a7629	0.061147843
246	0xbd532381	-0.05154753
247	0xbce2cf9c	-0.027686886
248	0xbd7e9140	-0.06215024
249	0x3d215eea	0.039397158
250	0x3d232a3b	0.039835196
251	0x3d2c024f	0.04199439
252	0x3da17f98	0.07885665
253	0x3e16d30a	0.14728943
254	0x3d9b19ed	0.07573304
255	0xbe46bf17	-0.19408832

gconv1.1.W.bias f4 [140]
0	0x3bed40fb	0.0072404123
1	0xbd2dea1e	-0.0424596
2	0xbc868611	-0.01642135
3	0x3da04cbe	0.078271374
4	0x3daf43c4	0.08557847
5	0xbc12618e	-0.008934392
6	0xbd08d780	-0.03340864
7	0x3d5f97f0	0.05458826
8	0x3ddcfebc	0.10790774
9	0xbd134d60	-0.035962462
10	0xbc968804	-0.018375404
11	0xbd9eb67f	-0.07749652
12	0xbaa64233	-0.0012684524
13	0x3d35c2bc	0.044375166
14	0x3d7e473d	0.062079657
15	0x3d72ac8e	0.059246592
16	0xbd752781	-0.059852127
17	0x3c9ea1fa	0.019364346
18	0xbd90e2f5	-0.070745386
19	0xbc027167	-0.007961608
20	0x3cdec638	0.027194127
21	0x3df76a55	0.12080828
22	0x3c2a1201	0.010380269
23	0x3b2fec0a	0.002684357
24	0xbd0440de	-0.032288425
25	0x3dc5a50d	0.096506216
26	0xbcb41141	-0.021980884
27	0xbd61fef5	-0.055174787
28	0x3d8fe2f4	0.0702571
29	0xbcfb057b	-0.030642262
30	0x3bb5d193	0.005548665
31	0x3c978720	0.01849705
32	0x3b4dd2ce	0.0031406167
33	0x3d83efbc	0.0644221
34	0xbd7e61cf	-0.062104996
35	0xbd4e632d	-0.05038755
36	0x3d84006f	0.06445395
37	0x3dc33aff	0.09532737
38	0xbd5702ca	-0.052492894
39	0xbd1f89f6	-0.03894993
40	0xbd5ae394	-0.05343969
41	0xbda62949	-0.08113343
42	0x3d703fd8	0.058654636
43	0x3bbb7574	0.0057207886
44	0xbc385735	-0.0112512605
45	0xbd0024d4	-0.031285122
46	0xbdc8ea5e	-0.09810327
47	0x3da70ffb	0.08157345
48	0x3dd20844	0.10255483
49	0x3de23c37	0.11046641
50	0xbc6b899d	-0.014376071
51	0xbbedfeb2	-0.007263028
52	0x3e0bf156	0.13666281
53	0x3ddc82ce	0.107671365
54	0xbc1131ae	-0.008861942
55	0xbd47225b	-0.04861675
56	0x3d50f23c	0.051012263
57	0xbdcd42a1	-0.10022474
58	0xbda80052	-0.08203186
59	0xbd8a71ff	-0.06760024
60	0x3dbe3fdd	0.09289525
61	0x3d3d77b8	0.04625675
62	0x3de4cf7f	0.11172389
63	0x3d837a38	0.06419796
64	0x3d125d1a	0.03573332
65	0xbd903ec0	-0.070432186
66	0xbd5a5d18	-0.053311437
67	0xbd061a2c	-0.032739803
68	0x3da2c845	0.07948355
69	0x3c8fe5a7	0.017565561
70	0x3c45d9b9	0.012075835
71	0x3d8a751f	0.0676062
72	0x3da89dd9	0.08233232
73	0xbc976727	-0.018481804
74	0x3da892e4	0.08231142
75	0x3b7bb952	0.003841002
76	0x3dbab853	0.09117188
77	0x3de6930e	0.11258517
78	0x3d1c57a5	0.03816952
79	0x3bf4c1d2	0.0074693942
80	0x3d6535ac	0.05595939
81	0xbce36ea2	-0.027762715
82	0x3dbe91d2	0.09305157
83	0xbd356791	-0.04428822
84	0x3d285e73	0.0411057
85	0x3d3754fa	0.044758774
86	0x3dd042bf	0.10168981
87	0x3c28801d	0.010284451
88	0x3da24ede	0.07925199
89	0x3c9b40c5	0.018951783
90	0xbc8d310c	-0.017235301
91	0x3e062a70	0.13102126
92	0xbd9ddfc3	-0.07708695
93	0xbd4481b1	-0.047975246
94	0xbb72e233	-0.0037061095
95	0xbd2a7ec4	-0.0416248
96	0x3dfee224	0.12445477
97	0x3df8c882	0.12147619
98	0x3da0404a	0.07824762
99	0x3be20b81	0.006898344
100	0xbd88b11d	-0.06674407
101	0x3d689568	0.05678311
102	0xbdac7e3c	-0.08422515
103	0x3d33df2f	0.043914016
104	0x3c9436d7	0.018092556
105	0xbd8e8def	-0.069606654
106	0x3dd4d94d	0.10393009
107	0x3d0cdb67	0.034388926
108	0x3da3dc73	0.08001032
109	0xbdc3bf07	-0.0955792
110	0xbd082b60	-0.03324449
111	0x3dbae58b	0.09125813
112	0x3dac60bd	0.08416889
113	0xbc6fcd7d	-0.014636395
114	0x3ceadaa7	0.028668715
115	0xbd487a5a	-0.04894481
116	0x3d666bf3	0.056255292
117	0xbc477f63	-0.012176367
118	0xbd8b49bb	-0.06801172
119	0xbc87988f	-0.016552238
120	0x3d67a24a	0.056551255
121	0x3dee7b7c	0.116446465
122	0x3dc45ae9	0.09587652
123	0x3daa4db2	0.083156005
124	0x3bf52a3a	0.0074818404
125	0x3db0b9a7	0.086291604
126	0x3d8924ab	0.06696447
127	0x3d519c54	0.051174477
128	0xbd329244	-0.04359652
129	0xbc99028d	-0.018677974
130	0x3dc9f745	0.09861616
131	0xbd622cce	-0.05521851
132	0x3c9f5225	0.01944835
133	0xbd45fda4	-0.048337594
134	0xbdaf495b	-0.08558913
135	0x3da02a8f	0.078206174
136	0x3de414b8	0.11136764
137	0x3d959026	0.07302885
138	0x3db1ef3f	0.08688211
139	0x3d8d9d06	0.069147155

gconv1.1.gate.weight f4 [1, 280]
0	0xbded2ed3	-0.11581197
1	0x3cc0063d	0.023440475
2	0x3e2db760	0.16964483
3	0xbd34bcec	-0.044125482
4	0xbdbb2c4f	-0.091393106
5	0xbbe6a672	-0.007038885
6	0x3dcdedde	0.10055135
7	0xbdb27608	-0.08713919
8	0x3da5b282	0.08090688
9	0x3dba7f2e	0.09106289
10	0xbd76b82a	-0.060234226
11	0xbd092f65	-0.033492465
12	0x3de53373	0.11191454
13	0x3cead218	0.028664634
14	0x3e3185ea	0.1733624
15	0xbdf1ea28	-0.1181224
16	0xbdabcd1d	-0.08388732
17	0x3d0a3188	0.033738643
18	0x3cabaf97	0.020957751
19	0x3e0a7b26	0.1352354
20	0x3d0e6c1d	0.034771074
21	0xbde85bba	-0.113456205
22	0x3db6516a	0.08902247
23	0xbd2f42c4	-0.042788282
24	0xbdc37dbd	-0.09545467
25	0x3de204a7	0.110360436
26	0xbbc3c534	-0.005974436
27	0x3deb4460	0.11487651
28	0xbcddbe2d	-0.027068222
29	0x3d373d80	0.044736385
30	0xbdf01eb6	-0.11724608
31	0xbe0da9be	-0.13834283
32	0x3e13d1cd	0.14435501
33	0xbd920cf3	-0.07131376
34	0x3da5f943	0.081041835
35	0x3cdd88ec	0.027042829
36	0xbccf4593	-0.02530173
37	0x3cce4348	0.025178567
38	0xbccea01f	-0.025222836
39	0xbda7e52a	-0.081980065
40	0x3dc11307	0.09427457
41	0x3dc472a2	0.09592177
42	0xbd1b72a9	-0.037951145
43	0xbd23931b	-0.039935213
44	0x3d27b4a3	0.040943753
45	0xbd8cbec2	-0.06872322
46	0xbc20b0b5	-0.009807755
47	0xbd801375	-0.06253711
48	0x3db3cfaf	0.08779847
49	0xbd227216	-0.039659582
50	0xbde23c99	-0.11046714
51	0x3d3caebb	0.046065073
52	0x3bc55b8c	0.006022876
53	0xbd2c337f	-0.042041298
54	0xbd78127c	-0.060564503
55	0xbce8b0d9	-0.02840464
56	0xbccb9978	-0.024853453
57	0x3d30e6fa	0.043189026
58	0xbd518096	-0.05114802
59	0xbdeb79bb	-0.114978276
60	0xbc79548d	-0.015217912
61	0x3d8fe12f	0.07025372
62	0xbd9e04d7	-0.07715767
63	0x3da25cba	0.079278424
64	0x3c4702bf	0.012146651
65	0x3d179dde	0.03701579
66	0x3e5ef127	0.2177168
67	0xbb6fb515	-0.003657644
68	0x3e151fef	0.14562963
69	0xbd94dcd8	-0.07268685
70	0xbcaee736	-0.021350484
71	0xbdbc4681	-0.09193135
72	0x3d9fd72f	0.07804715
73	0xbd4cb3d2	-0.049976178
74	0xbce815a6	-0.028330635
75	0xbcef76ba	-0.029231418
76	0x3b75846f	0.003746297
77	0xbcb67008	-0.022270218
78	0xbe036df5	-0.12834914
79	0x3db5b974	0.08873263
80	0xbda924a6	-0.08258943
81	0xbd965a7a	-0.07341476
82	0xbd080dda	-0.033216335
83	0x3dfff15f	0.1249721
84	0xbe846470	-0.25857878
85	0x398dadc4	0.0002702308
86	0x3cc0203e	0.023452874
87	0x3cf37a58	0.029721424
88	0x3e5273d8	0.20552003
89	0x3da4df03	0.080503486
90	0x3d77261e	0.060339086
91	0x3bf7dece	0.007564402
92	0xbe857fc3	-0.26074037
93	0xbbaa2e2b	-0.005193492
94	0xbdabe1d3	-0.08392682
95	0x3d936682	0.07197286
96	0xbdb0b1f1	-0.0862769
97	0x3dca3123	0.09872653
98	0x3da1eec9	0.07906873
99	0xbdb4f169	-0.08835108
100	0x3cd67b12	0.026181731
101	0x3c002101	0.007820369
102	0x3dcc8e03	0.09988024
103	0x3ca1e59c	0.019762807
104	0x3d910dca	0.07082708
105	0xbdcb7da9	-0.09936077
106	0x3d8946b7	0.06702941
107	0x3e16b589	0.14717688
108	0x3e60474f	0.21902202
109	0x3e28fc50	0.165025
110	0xbd1b001b	-0.037841897
111	0xbda11293	-0.07864871
112	0x3e1112d1	0.14167334
113	0x3d192ef7	0.037398305
114	0x3ca5d614	0.020243682
115	0x3cbfcf29	0.023414211
116	0xbc655d69	-0.0139993215
117	0x3e0414d6	0.12898573
118	0xbe0c34b5	-0.13691981
119	0xbb7829e8	-0.0037866775
120	0x3c9b9fe3	0.018997138
121	0x3df07cb0	0.11742532
122	0x38e3ee53	0.00010868595
123	0xbdfe82ae	-0.12427269
124	0x3bb2af94	0.0054530594
125	0xbe0c07f2	-0.13674906
126	0xbd319fa9	-0.043365154
127	0x3da625b1	0.08112658
128	0x3c76d464	0.015065286
129	0x3dc56879	0.09639067
130	0xbd7037d3	-0.058646988
131	0xbe1378ab	-0.144015
132	0x3c1c2d2f	0.009532257
133	0x3d6cc06d	0.0578007
134	0x3d566fc2	0.052352674
135	0xbdaff48b	-0.08591565
136	0x3df19c69	0.11797411
137	0x3d6b613d	0.05746578
138	0x3d66ab85	0.056315918
139	0xbbe2047f	-0.0068975086
140	0xbe105836	-0.1409615
141	0xbe11af1a	-0.14226952
142	0x3dacac0f	0.08431255
143	0xbd77ebc5	-0.06052758
144	0xbe5f67ac	-0.21816891
145	0x3dd89aa2	0.10576369
146	0xbcf940a4	-0.03042633
147	0xbd46d155	-0.04853948
148	0x3dd0a402	0.10187532
149	0xbcaf3ee1	-0.021392288
150	0xbd873d0d	-0.066034414
151	0xbdb68fee	-0.08914171
152	0xbd3205ca	-0.043462552
153	0xbd8708c4	-0.06593469
154	0x39e99b2f	0.00044556844
155	0x3d4479e4	0.047967806
156	0x3d0a5624	0.033773556
157	0xbd3fd1b1	-0.046830837
158	0x3da568ba	0.08076616
159	0x3dba222d	0.0908855
160	0xbd372b69	-0.044719134
161	0x3e9227f0	0.28546095
162	0x3d6af867	0.0573658
163	0xbb04b302	-0.0020248299
164	0xbb0a7b24	-0.0021130526
165	0x3c2155d0	0.009847119
166	0xbd549da7	-0.05190816
167	0x3d50f248	0.051012307
168	0x3cadf873	0.021236634
169	0xbcca4d1c	-0.024694972
170	0xbccc6f0b	-0.024955293
171	0x3ddf4802	0.10902406
172	0x3ae0b1d6	0.0017142843
173	0xbe39010f	-0.1806681
174	0xbdbb0b7e	-0.09133051
175	0x3de752a4	0.11295059
176	0xbd6d25f1	-0.057897512
177	0x3d720427	0.05908599
178	0xba5c13ad	-0.0008395266
179	0xbc243cc4	-0.010024253
180	0xbc204fc0	-0.009784639
181	0xbd8ec5e6	-0.0697134
182	0x3ce45455	0.027872244
183	0x3c3d30dd	0.011547294
184	0xbe299752	-0.1656163
185	0x3d68ac76	0.056805097
186	0x3da01ea8	0.07818347
187	0x3d03d029	0.03218094
188	0x3be50232	0.006988787
189	0x3dbeb78b	0.09312352
190	0x3dd863df	0.10565924
191	0xbe17681c	-0.14785808
192	0x3db2e5a8	0.0873521
193	0x3cde67ef	0.027149169
194	0xbd3ea3ae	-0.046542816
195	0xbd9cc2c2	-0.076543346
196	0x3d7c53c9	0.06160334
197	0xbd26c298	-0.040712923
198	0x3aab8bc7	0.0013087922
199	0xbc0fcb32	-0.008776473
200	0x3bae074c	0.0053109284
201	0xbd9d1645	-0.07670263
202	0x3d5d8d71	0.054089967
203	0xbd599a79	-0.053125832
204	0xbca7b5dd	-0.020472461
205	0xbe382b64	-0.17985302
206	0xbbac5082	-0.0052586207
207	0xbdb577d0	-0.08860743
208	0x3b7614a5	0.0037548926
209	0x3c65d755	0.01402839
210	0x3d13855c	0.036015853
211	0x3d996cd9	0.07491464
212	0xbd5afa2c	-0.05346124
213	0xbd3229a5	-0.043496747
214	0xb9d80144	-0.00041199673
215	0xbd36b7e3	-0.04460896
216	0x3cd2b509	0.02572109
217	0x3d7cbf2b	0.06170575
218	0x3d8582ef	0.06519114
219	0x3ca5e857	0.02025239
220	0xbe55d2cc	-0.20881194
221	0xbe1beb6a	-0.15226522
222	0x3e33c513	0.17555647
223	0xbe23b437	-0.15986715
224	0x3dffac7f	0.12484073
225	0xbbfc4210	-0.007698305
226	0xbdc6f182	-0.09714033
227	0x3d21213e	0.039338343
228	0x3ca253d9	0.019815372
229	0xbd638f1d	-0.055556405
230	0x3da8d60e	0.08243953
231	0x3d53be91	0.05169541
232	0x3a927d34	0.001117623
233	0xbcc7f85f	-0.024410425
234	0x3d20da3b	0.03927062
235	0x3d156224	0.036470547
236	0x3e896beb	0.26840147
237	0x3dcd986f	0.1003884
238	0xbd363781	-0.044486526
239	0x3e0e80ba	0.13916293
240	0x3d3225ba	0.04349301
241	0x3bf4430c	0.0074542817
242	0x3defa6b7	0.1170172
243	0xbdfc37da	-0.1231534
244	0x3e1f2eed	0.15545245
245	0xbcaffa61	-0.021481695
246	0xbd1dad27	-0.03849521
247	0xbdb3e04e	-0.08783017
248	0xbe030eb0	-0.12798572
249	0x3e426446	0.18983564
250	0x3cb019d3	0.021496689
251	0x3c6c8b9f	0.014437585
252	0xbc6dc0c4	-0.014511291
253	0x3d619d61	0.05508173
254	0xbd297343	-0.041369688
255	0xbcc36dce	-0.02385607
