save/save_1.pt (torch, 880006 bytes, 24 tensors)

gconv1.0.A f4 [140, 140]
000000 c1 f9 0d 3d da b2 36 bd 51 07 77 3c 3b bb b8 3c
       0.034662012 -0.04460416 0.015077428 0.022550216
000010 6d 2d 79 bd 0c ba 66 bd dd d7 5d bc ae 0b 91 bd
       -0.060834337 -0.056329772 -0.013540235 -0.07082306
000020 b9 8a 79 bd 45 c8 e0 bd d2 a9 9d 3d 15 d3 98 3d
       -0.06092331 -0.109756984 0.07698406 0.07462136
000030 8c e4 1b be 41 22 a7 3d ee bd 95 bd d9 8b b9 bd
       -0.15223902 0.0816083 -0.07311617 -0.09059877
000040 0a 7f 09 bd 4a b4 1f 3e 07 51 01 3d bd f1 f0 3c
       -0.03356842 0.15596119 0.031571414 0.029412145
000050 c3 d6 21 3e f0 f1 85 3d 65 83 d3 3a db 73 93 bd
       0.15804581 0.065402865 0.0016137181 -0.07199832
000060 78 a2 d2 3c a4 97 e5 bc 61 48 87 3e fc f2 ec 3c
       0.025712237 -0.02802641 0.26422408 0.028924458
000070 d2 f5 96 3d 24 1a 75 bd f1 f2 99 3c bc 99 05 bd
       0.07371105 -0.059839383 0.018792601 -0.032617316
000080 40 39 53 3d ce aa f3 bc 89 58 0b be 02 0a 1d 3e
       0.05156827 -0.029744532 -0.13607992 0.15335849
000090 d0 ff ec bd 8c 24 fe bb 5b 88 60 3c b6 0f 82 bc
       -0.1157223 -0.0077558216 0.013704385 -0.015876632
0000a0 da 26 08 bd 38 85 6a be dc 64 62 bc 96 b4 af bd
       -0.033240177 -0.22902381 -0.013817992 -0.08579366
0000b0 7c ac 16 3e b2 96 f4 3d 9a 3f 32 3d e0 c5 cf bc
       0.14714235 0.11942805 0.043517686 -0.025362909
0000c0 47 ae 12 be f3 5b c1 3d fa 7d 9d bc ac ae 7d 3d
       -0.14324294 0.09441366 -0.01922511 0.06193416
0000d0 6a 2e c9 3d fa 65 e3 3d 8f bb d1 bb 7a 5a 8c 3d
       0.09823306 0.11103435 -0.0064005326 0.068531945
0000e0 4c 07 60 bd 99 36 49 bc f3 da 06 be 57 56 31 bd
       -0.05469446 -0.0122810835 -0.1316946 -0.04329523
0000f0 f6 cf fe bc 4a 81 2f 3d eb 85 0b bd 2b 3e 27 be
       -0.031105023 0.04284791 -0.03406326 -0.16332309
000100 c0 27 52 bc ef f4 98 bd 27 20 d1 3c 4b 75 71 be
       -0.01282686 -0.074685924 0.025528027 -0.235799
000110 12 69 ad 3c 76 04 eb 3c ec 83 a6 3d 44 df 66 bd
       0.021168265 0.02868865 0.08130631 -0.056365266
000120 da 8b c7 bd 4f d5 bf 3d 33 be fb 3d ff 4a 5f 3d
       -0.097434714 0.09366857 0.12292137 0.05451488
000130 71 4f 8d 3d 48 5d 84 bd 27 db 38 3b 8d fa d7 3c
       0.06899918 -0.064631045 0.0028206797 0.02636459
000140 46 2b e0 bd eb 00 19 3e da 06 e9 bd 8b 18 0b 3d
       -0.10945754 0.14941756 -0.1137826 0.033958953
000150 ed 8e 54 bd 68 ee 26 bc 49 ec 72 3d 3a 1e 33 3e
       -0.051894117 -0.010188676 0.05930737 0.17492
000160 17 b4 4f 3c 12 92 2b 3c de 19 03 3c 3a 02 34 3d
       0.012677214 0.010471838 0.008001773 0.043947436
000170 a7 e8 a7 bc 3d e0 78 bd ba 06 a1 3b 71 b8 22 bd
       -0.02049668 -0.060760725 0.004914132 -0.03972668
000180 a1 07 e7 bd 0d 6c 12 3c 96 e5 9e bd 93 6e 25 bd
       -0.11280752 0.008936894 -0.07758634 -0.040388655
000190 23 7e 1e 3d c6 4d 25 be 49 3d af bd b4 db 9c bd
       0.038694512 -0.1614295 -0.08556611 -0.076590925
0001a0 65 c1 39 bc ec cb 49 3b 87 68 bc bd 56 c8 1c 3c
       -0.011337613 0.0030791713 -0.091996245 0.009569248
0001b0 c9 38 2a be 17 57 f2 bc a6 0b c8 3c 4f 3b 3b 3d
       -0.16623224 -0.029582543 0.024419617 0.045710858
0001c0 3b 36 ee 3d f8 ca 3c bd 8b ab cd bc b9 04 67 b9
       0.116314374 -0.046092004 -0.025106212 -0.00022031636
0001d0 dd 24 35 bd 4e 94 89 bd 9b d6 37 bd 1a b9 eb bd
       -0.04422461 -0.0671774 -0.044882398 -0.11509915
0001e0 be 16 5f 3d 74 b4 05 bd 72 c6 f2 3d 7b 85 8d 3d
       0.054465048 -0.032642797 0.11854257 0.06910225
0001f0 f7 61 9c bc 6d c5 b0 bd d9 87 72 bc 98 30 33 bd
       -0.019089682 -0.08631406 -0.014802896 -0.043747514
000200 5b 27 69 3e 1e 6f 6a bd c5 32 28 3d 12 da 3a 3e
       0.22768919 -0.057234876 0.041064043 0.1824725
000210 47 d1 12 3c ce 4a d3 3d 47 d7 41 3d 7d 9d 3e bd
       0.008961028 0.10317002 0.047324445 -0.04653691
000220 6b f6 b9 3d 0c 5c d4 bd 6f 36 25 bd 98 b8 8b 3d
       0.090802036 -0.10369119 -0.040335115 0.06822318
000230 a1 a9 37 3c c2 80 70 3b 8f 3f 92 3d fa 24 c0 bc
       0.011209876 0.003669784 0.07141029 -0.023455132
000240 aa 9a 80 bd a4 d7 3a be 31 92 dd bd 04 45 84 ba
       -0.062795 -0.18246323 -0.108188994 -0.0010091369
000250 b3 27 c8 bd c4 0f ce bc 03 94 ba bd b8 44 65 3c
       -0.09773197 -0.025154002 -0.09110262 0.013993435
000260 71 aa 90 3d 24 19 b4 3d c3 d2 98 3d 87 d5 a7 bc
       0.07063759 0.08793858 0.074620746 -0.02048756
000270 8c ec 7e bb e0 68 5d ba 00 96 a3 3c 32 ac 48 3c
       -0.0038898317 -0.00084461085 0.019968987 0.012248086
000280 74 6a a5 3c 05 39 66 bd 28 19 03 be f6 af 12 3d
       0.020192362 -0.05620672 -0.12802565 0.03581234
000290 fe f4 0d 3d 2e 1e ed bb 24 8b 98 bd b7 c2 c2 bd
       0.03465747 -0.0072362637 -0.07448414 -0.09509795
0002a0 f8 bd ff 3c 2c d8 92 3d d9 96 0d be a8 2c 71 3c
       0.031218514 0.07170138 -0.13827075 0.01472012
0002b0 d0 bf c9 bd bb e7 ec 3d f8 81 47 bd 02 41 0b bd
       -0.098510385 0.115676366 -0.048707932 -0.033997543
0002c0 67 86 85 3d 53 37 eb bb d6 4b c7 3d 82 00 d8 3d
       0.06519776 -0.007178226 0.097312614 0.10546972
0002d0 52 a8 28 3d 19 20 0f 3e 8c 26 f2 bd 0b ca 8a bd
       0.041176148 0.13977088 -0.118237585 -0.06776818
0002e0 b0 3f 23 3d 41 4f df bd 88 4d 15 3d eb 03 f4 bc
       0.03985566 -0.10903788 0.036450893 -0.029787024
0002f0 b6 c6 34 bc b7 ee 10 be 84 8e b2 3d b1 06 9e bd
       -0.0110337045 -0.14153562 0.08718589 -0.0771612
000300 17 ef a3 bd bb 8c 16 3e 1f 60 d5 bc e3 c8 50 3d
       -0.08004587 0.14702122 -0.02604681 0.05097283
000310 d9 44 a9 3d 34 b0 fb bc 3f a8 06 3d 56 2e 21 be
       0.08265085 -0.030723669 0.032875296 -0.15740332
000320 62 15 35 be 27 9f fd bd 52 fc 3a 3d ce 75 0f be
       -0.17683938 -0.123838715 0.045650788 -0.14009783
000330 9d c2 50 bc b3 d0 a2 bc 82 01 e3 3d 16 0d 11 be
       -0.012741712 -0.019874906 0.11084272 -0.14165148
000340 a5 a1 23 bd 5a 07 f8 bc 39 f5 0c bd 31 0e 92 3d
       -0.039949078 -0.030276943 -0.03441355 0.07131613
000350 bf 0e 16 bc c4 1b cb 3d f8 27 79 bd 02 7f 98 3c
       -0.009158789 0.09917405 -0.060829133 0.01861525
000360 a0 2d 86 3d 2f bb 19 3e 43 3c f8 3d 64 6c ac bd
       0.06551671 0.15012811 0.12120869 -0.08419111
000370 bd ce f3 bc 28 7a 0c be 5f e5 6f 3c 09 24 34 3d
       -0.029761666 -0.13718474 0.014642089 0.04397968
000380 9d 8c 8c bc 01 30 0b bd d7 c7 02 be 29 01 2d bd
       -0.017156893 -0.033981327 -0.12771545 -0.042237435
000390 6f 2d af 3d 16 91 1a be d3 e1 6f bd 31 04 c4 bd
       0.08553588 -0.15094408 -0.058564972 -0.09571112
0003a0 1b 4d 01 be 03 31 e4 3d c8 45 f7 bc bf 5f 16 be
       -0.1262707 0.11142161 -0.030184641 -0.14684962
0003b0 3f 4a 95 bd 29 87 a2 3d 1b e2 a5 bd cf cd cd 3d
       -0.07289552 0.07935936 -0.08099767 0.100490205
0003c0 93 ca 74 3d 80 7d 98 bd 80 69 7b bd 97 03 28 3e
       0.059763502 -0.07445812 -0.06137991 0.1640762
0003d0 35 4c 3f bb 21 06 74 3b 88 37 d9 bc 58 6c d8 bd
       -0.002918971 0.0037235098 -0.026515737 -0.1056754
0003e0 29 7c 07 bc b8 72 6d 3d 7e 1c 6c 3d 7a 9d bf 3d
       -0.008269348 0.057970732 0.05764436 0.09356208
0003f0 ca b0 b2 3d f5 ff 0d be 84 23 9f bc 80 1f 08 bd
       0.08725126 -0.13867171 -0.019426115 -0.033233166

gconv1.0.W.weight f4 [140, 140]
000000 b2 6f 09 3d 40 f2 b4 bc c3 de 9a 3c 36 1f 00 be
       0.033553787 -0.02208817 0.01890505 -0.12511906
000010 78 ef 90 bd 14 bc d4 3d 6d 6f b4 3d 03 01 eb 3d
       -0.07076925 0.103874356 0.08810315 0.11474802
000020 55 1a 29 3e 62 de a9 3d a7 1d b9 3d ec 22 4d bb
       0.16513951 0.08294369 0.09038859 -0.0031301333
000030 9b 8d 9f bd b4 ba 61 bc 43 f2 0a be b1 d1 86 3d
       -0.07790681 -0.013777424 -0.13568978 0.06582964
000040 2f 84 73 3d 3f 12 0d be fb b2 a3 3d 5b 7f 6d 3c
       0.059452232 -0.13776492 0.07993122 0.014495696
000050 8f 1b b5 3d f3 0a cc 3d a6 ff 64 3d a6 90 a2 3c
       0.08843147 0.09963026 0.055907868 0.019844364
000060 d1 76 30 bd 88 92 2e bd d4 fe 0a be 99 01 38 3d
       -0.043082062 -0.04262021 -0.13573772 0.0449234
000070 95 aa 49 3e 16 ca 45 3e 41 5e 8f bd 3b 2a 5b 3d
       0.19693978 0.19315371 -0.070003994 0.05350707
000080 30 c9 34 3d d2 ae c3 3d e3 ff 2b 3d b3 ea 18 3c
       0.04413718 0.09554829 0.04199208 0.0093333
000090 22 e5 86 bd 24 7d 1b 3e 9c a7 5e bd 5e 4d c4 3d
       -0.06586672 0.15184456 -0.054359064 0.09585069
0000a0 f7 5c 1d 3d b9 4a b9 bc 0c cc 27 be a4 7f 85 bd
       0.038418736 -0.022618638 -0.16386431 -0.06518486
0000b0 57 e0 48 3c 73 43 19 be 8a dc a7 3d ce b0 e0 bd
       0.012260518 -0.14967136 0.08196361 -0.10971223
0000c0 7f e1 48 be b2 ca 43 3d 56 1f 8f bd 5c 9d 41 3d
       -0.1961727 0.047800727 -0.06988399 0.04726921
0000d0 89 02 2b 3d c3 93 48 bd 85 8a 71 bd 12 0d 0a 3c
       0.041750465 -0.04896904 -0.058969993 0.008425968
0000e0 96 b2 55 3d bf 12 d0 3d a8 be 79 bc 77 c9 b5 3c
       0.052172266 0.101598255 -0.01524321 0.022190792
0000f0 94 8d 64 3b 73 72 2a 3e 79 09 3d bd bf af c0 bd
       0.0034874426 0.16645221 -0.046151612 -0.09408521
000100 1f 5b 6e bd 02 36 7d bd c8 0d a4 bd ee 4f 89 bd
       -0.05819237 -0.061819084 -0.08010441 -0.067046985
000110 fa 96 f5 bd d6 af 3c bd 5e aa 4f bc 59 78 cb bd
       -0.11991687 -0.046066128 -0.012674896 -0.09935064
000120 6d 5c 91 3e dd ab 37 bd 4d 8e 12 bd aa 40 17 bd
       0.28390828 -0.044841636 -0.03578024 -0.036926903
000130 82 3d 01 3d 7d 05 14 bd 68 20 d6 bd 5a 21 50 3c
       0.0315528 -0.036138047 -0.104554 0.012703264
000140 c4 2f 19 3d 82 e1 33 3e c4 46 19 bd 77 c1 9e 3c
       0.03739907 0.17566493 -0.037421003 0.01937936
000150 5a 91 42 3d ed 15 97 bd 26 a2 3d be 8f f5 08 3d
       0.0475019 -0.07377229 -0.18518886 0.033437308
000160 3a bd a7 3d 7d 29 a5 bd 7a c4 ba 3d 25 c0 d8 bd
       0.08190389 -0.08064554 0.09119506 -0.10583524
000170 95 58 62 3d c5 32 28 3e 4e 5d 15 bd d0 1e b8 3d
       0.05526026 0.16425617 -0.036465935 0.08990252
000180 1b cc f9 3d 19 7e a3 bc a3 0d 6c bd 00 95 e5 bd
       0.12197133 -0.019957589 -0.057630192 -0.1121006
000190 a7 96 07 bd 54 e9 30 bd 8e ea 3b 3d 86 98 3b 3e
       -0.033102658 -0.04319127 0.045877986 0.18319902
0001a0 29 be 42 bd 62 7a 80 3d 39 6f 0c bd 93 a2 77 3b
       -0.047544632 0.06273343 -0.034285758 0.003778611
0001b0 b2 06 17 3d 53 82 6c be 57 44 48 3d b2 04 f6 3d
       0.03687162 -0.2309659 0.0488933 0.12012614
0001c0 38 42 4d 3d 59 08 4a bd 62 32 17 be 47 6a a0 3b
       0.05011198 -0.049324367 -0.14765313 0.0048954817
0001d0 3d 70 fe 3d 6b 97 18 bd 91 52 a9 bd ca 6c 2e 3d
       0.124237515 -0.03725378 -0.082677014 0.042584218
0001e0 7c 12 d6 3c 54 28 e3 3c 75 29 55 bd 29 07 41 3b
       0.02613186 0.02772919 -0.05204149 0.002945373
0001f0 10 9e 3e 3e 33 50 b2 bd 9d 3a ad 3d 5d c6 12 be
       0.18614984 -0.08706703 0.08458445 -0.14333482
000200 04 29 74 bd 1e 1b d3 bc a2 f6 b2 3c e6 54 b4 3d
       -0.059609428 -0.025769766 0.02184612 0.088052556
000210 ef 0e f6 bd 64 7f 27 bd 0a eb 4d 3e 6b ee 43 3d
       -0.12014567 -0.040892974 0.20109192 0.047834795
000220 a4 a0 ec bd c8 58 b9 bb 0a 04 84 3e 9e 85 8c be
       -0.11554077 -0.0056563355 0.25784332 -0.27445692
000230 6e b4 9b 3b 70 35 10 3e 81 e3 07 bd f5 d3 6b 3d
       0.0047517335 0.14082885 -0.03317595 0.057575185
000240 c2 10 86 3d b0 2b 29 3d 9a 2e 35 3c 9e 31 31 3d
       0.06546165 0.04130143 0.011058474 0.04326021
000250 58 bf 70 bd d8 c6 24 3e 9e 54 24 3c 47 39 1c be
       -0.05877623 0.16091478 0.01002994 -0.15256225
000260 fd f0 21 be 7d 1d 6c bd aa 04 7f bb c4 0f ca 3d
       -0.15814586 -0.05764531 -0.0038912692 0.09866288
000270 94 e4 98 3d 7b 8d 1a be 5a 76 2d 3d 41 91 e0 3d
       0.07465473 -0.15093033 0.042349197 0.10965205
000280 f8 31 25 be 9d d4 2e bd ad 55 98 bc 42 37 74 3c
       -0.16132343 -0.042683233 -0.01859554 0.014905753
000290 48 66 9c 3a 91 16 22 bc 70 e9 57 3d 8f 48 02 3e
       0.0011932338 -0.009893076 0.052712858 0.12722991
0002a0 9c 5d e5 3c 06 aa e4 b8 96 1a 51 bd 8a 5a 8a 3c
       0.027998738 -0.000109035565 -0.051050745 0.016888876
0002b0 64 d7 b6 bd d3 61 ba 3c e8 e5 92 ba 69 ae 3d bd
       -0.08927801 0.022751724 -0.0011207433 -0.04630891
0002c0 0b 5e a1 3d 66 a7 9a bd e5 0a 2a be 8d 43 a2 bd
       0.078792654 -0.0755146 -0.16605718 -0.079230405
0002d0 b4 e1 19 be 59 0e c0 bd 15 dc cf 3d 93 f3 88 3d
       -0.15027505 -0.093777366 0.10149399 0.06687083
0002e0 77 b9 85 3d 80 f8 0f 3e c9 f6 d6 3d 43 e9 6c bd
       0.06529515 0.14059639 0.10496289 -0.057839643
0002f0 01 32 25 bc 7f 0f 99 3d 8b f2 e7 3d 7a 8d 2c 3d
       -0.010082723 0.07473659 0.11325558 0.04212711
000300 99 c5 64 bd c3 d9 9a 3d 99 e0 0f 3e 5b 40 03 be
       -0.055852506 0.07561066 0.14050521 -0.12817518
000310 13 96 f9 bc b2 b5 11 be 07 a6 e8 bd cd b1 84 bd
       -0.030467069 -0.14229468 -0.11359792 -0.06479225
000320 e1 e2 76 bd 15 99 cd 3c cc 93 02 3d 08 e8 97 bc
       -0.060274962 0.02509741 0.03187923 -0.018543258
000330 70 6f dc 3d 35 fc 7d bd ce b0 b0 bb 7b b9 8d bd
       0.107634425 -0.0620081 -0.0053921705 -0.06920143
000340 3a 86 93 3d b2 3f ac 3c b9 22 07 be c0 8f 78 3c
       0.07203336 0.021026466 -0.1319684 0.015170991
000350 c3 37 1e bd a7 18 95 3d 96 0f 4c bd d2 3c 58 3c
       -0.038627397 0.07280093 -0.04981955 0.013198094
000360 29 d1 5b 3d 8c 67 a5 39 10 96 f8 3c 43 71 b7 3d
       0.053666268 0.000315484 0.030344993 0.0895715
000370 88 8a 4e 3c c7 bf 78 3d 5f 17 50 bd 57 36 a0 bd
       0.012606271 0.060729768 -0.05080354 -0.078228645
000380 8e a8 f1 bc 08 a7 a4 bd 63 a9 9a 3d c3 9c 80 bd
       -0.029499318 -0.08039671 0.07551839 -0.062799
000390 ea c2 31 bc 8d 68 98 3c 34 25 a1 b7 78 0a 84 bd
       -0.010849694 0.018604541 -1.921002e-05 -0.06447309
0003a0 93 11 e8 bc e0 92 46 bd 63 6a 77 bd c2 df 97 bc
       -0.028328693 -0.048479915 -0.060404193 -0.018539313
0003b0 65 cb 87 3d 63 78 94 3d a9 ef fd bb 46 4f 1f 3e
       0.06630591 0.072495244 -0.007749517 0.15557584
0003c0 c2 50 13 3e f4 56 2f 3e ba cd 4f bd d1 4d 11 3e
       0.14386275 0.17123014 -0.050733306 0.14189841
0003d0 c2 e9 af bb 67 ff 1a 3d b9 c0 f5 3d 32 d6 98 bd
       -0.0053684423 0.037841227 0.119996496 -0.074627295
0003e0 2a 93 ee 3c ec 19 04 3e 73 2b 04 3d 1d 8a e6 bc
       0.029122908 0.12900513 0.032268 -0.02814203
0003f0 ef df 5e 3e 57 db 77 bd 81 5f 33 3c b6 3a f5 3c
       0.21765111 -0.060511913 0.010948063 0.029935222

gconv1.0.W.bias f4 [140]
000000 b1 af a5 3d a6 b2 bf 3c 1b b2 84 bd f1 5c 88 3c
       0.08090151 0.023400616 -0.064792834 0.01664588
000010 2e ee 9a bd f9 8a 97 3d 61 4c aa 3c dd 4c 82 bd
       -0.075649604 0.07399554 0.020788373 -0.06362317
000020 68 4c 89 3c 86 e3 15 bc 67 c3 4c 3d fa cc 23 bd
       0.016760066 -0.009148484 0.049991038 -0.039990403
000030 77 7a 1c bd ee f7 fc 3c 8c c7 9e bd 1d a9 41 3c
       -0.03820273 0.03087994 -0.07752904 0.011820105
000040 dd d1 89 3d 2d 3a 43 3d 77 94 96 3c 2a 01 4d 3d
       0.06729481 0.047662903 0.01838134 0.05004994
000050 d7 a9 2c 3d e4 e5 ec 3c 09 d2 6d 3c 7a bb 99 bd
       0.04215416 0.028918214 0.014515408 -0.075064614
000060 8d ec 98 3d 36 dd a3 3d ec 86 9e 3d 02 96 a7 3d
       0.074669935 0.08001177 0.07740578 0.081829086
000070 b3 ab 5c bd 74 05 a8 3d d4 9d 0d 3c 0f 27 5d 3c
       -0.053874683 0.08204165 0.008643586 0.013498082
000080 bb b9 b4 bb 77 a5 05 bd 06 19 8d bd 36 02 b4 bc
       -0.005515305 -0.032628503 -0.068895385 -0.02197371
000090 37 0c 3f 3d aa 63 6a bd bf 70 ab 3d bb 25 95 3c
       0.04664251 -0.057223953 0.08371114 0.018206468
0000a0 a6 7a 56 bd 2d 6c 82 3d d0 c5 81 3d fb 96 aa 3d
       -0.05236306 0.06368289 0.06336558 0.083295785
0000b0 dd 56 91 3d 46 72 27 bd b3 6c 8e bd 1e d5 8e bd
       0.07096646 -0.040880464 -0.069543265 -0.06974243
0000c0 6d 2b 3f 3d 02 15 e5 3c 9f b1 07 3d 21 e3 95 3d
       0.046672273 0.027964119 0.033128377 0.07318712
0000d0 c5 e3 8e 3b 0c fa 21 3d 9f d5 b5 3c c3 09 26 39
       0.0043606483 0.039545104 0.022196589 0.0001583463
0000e0 ea 42 94 3b ee af 64 3d 66 1e 96 3d 51 e5 21 3d
       0.0045245783 0.055831842 0.07330017 0.039525334
0000f0 cb 9d 84 3d 0d 10 de bb d7 24 a9 bd f9 3b 8e bd
       0.06475409 -0.0067768157 -0.0825898 -0.069450326
000100 4a 7d 10 bd c6 36 24 bd 08 a3 a0 bd 1d 3c a1 3c
       -0.035275735 -0.0400913 -0.07843596 0.019681985
000110 da eb e3 3c 3f e4 6e bd e1 4b af bc 04 78 a6 3d
       0.027822424 -0.05832314 -0.021398487 0.0812836
000120 5a ad 7b bc c5 42 84 3d f5 8d 10 3d f0 2e 8b 3d
       -0.015361154 0.06458048 0.03529163 0.06796062
000130 d0 8a 44 bd a1 d9 9c 3c 02 20 ed 38 c8 09 2b bd
       -0.047983944 0.019146742 0.000113070026 -0.041757375
000140 8f 07 9e 3d b4 d6 81 3c 94 0e c7 bc 8f a5 a2 3b
       0.077162854 0.015849449 -0.024298944 0.004963584
000150 11 42 a2 3d 2b ac 98 bd 7c a5 58 bb cb 40 85 bd
       0.079227574 -0.074547134 -0.003305762 -0.06506499
000160 c0 74 21 3c c4 e5 95 bd e2 d4 93 3d d3 fa 82 3d
       0.0098544955 -0.07319215 0.072183385 0.06395497
000170 22 0b 77 3d f6 57 85 bd 03 a1 04 3d 74 2a 01 bd
       0.06031335 -0.06510918 0.032380115 -0.031534627
000180 f3 73 2e 3c 52 d4 7e bd 80 7c 39 3a bb 70 8d 3d
       0.010647762 -0.062214203 0.0007075742 0.06906267
000190 dd 03 9c 3d 51 ad 63 3d 3d f4 89 3c 73 65 3b bd
       0.07617924 0.05558521 0.016840095 -0.045751046
0001a0 b1 18 6c 3d c1 6d a2 3d 3b 3e 70 3d 34 f1 01 3d
       0.057640735 0.0793109 0.058653098 0.03172417
0001b0 ae fd 80 3d 66 36 79 bd 37 27 ad 3d a1 b9 f2 3b
       0.062983856 -0.060842894 0.08454745 0.0074073826
0001c0 48 93 ab bc d5 59 a0 bd c0 6f 1e bd 51 ee 99 bc
       -0.020944253 -0.07829634 -0.03868079 -0.018790396
0001d0 d8 7e 6c bc 15 25 83 bd 9c 86 88 3d a8 05 99 3d
       -0.014434539 -0.06403557 0.066663 0.07471782
0001e0 ea c8 88 3d c2 91 66 bd a4 74 ce bc 0e 4a ae bc
       0.06678946 -0.05629135 -0.025202103 -0.021275546
0001f0 f7 92 96 3d 92 56 51 3c 24 eb 48 bd ad c8 d3 bc
       0.0735225 0.012776988 -0.049052373 -0.025852526
000200 f9 cd 23 bd 40 48 87 bc 87 fb ea bc 37 7e 26 3c
       -0.039991353 -0.016513944 -0.02868439 0.010161928
000210 46 92 38 bd e2 54 6f bd 07 31 53 bd 30 dd 81 3c
       -0.045061372 -0.05843056 -0.051560428 0.01585254
000220 6e ee 0c 3d ee 44 ff 3b 19 90 97 3d 7c d8 1a 3d
       0.03440707 0.0077901995 0.07400531 0.03780411

gconv1.0.gate.weight f4 [1, 280]
000000 43 79 84 bd 42 04 42 bc e4 ea 82 be a0 8a 79 3d
       -0.06468441 -0.011841835 -0.25569832 0.06092322
000010 00 5f e5 3b a2 16 c5 bd 96 8a 93 3d 07 45 f2 bd
       0.0069998503 -0.096234575 0.072041675 -0.11829572
000020 fa ec 9d bd f7 0c 98 3d 5a 8a b5 3c 04 10 cb 3d
       -0.07711215 0.07424348 0.022160698 0.09915164
000030 b7 67 fb 3a 61 88 0a 3e 3c 6e b0 3d 87 0a 92 bc
       0.001918069 0.13528587 0.086147755 -0.017827285
000040 10 25 91 bd 5a 73 29 be cb 89 a6 3d 1e ab 8e bd
       -0.07087147 -0.1654791 0.08131751 -0.06966232
000050 d6 da e7 bd 02 51 3e 3d 81 55 d5 3c 9f 63 67 bc
       -0.113210365 0.046463974 0.026041748 -0.014122873
000060 7b ce 24 bd a3 7e fc bc 12 a0 be 3d 69 cc 8a 3c
       -0.040235978 -0.030822104 0.09307875 0.016943173
000070 e8 95 3e 3c 30 14 63 3d b3 3b 73 bd 07 32 43 bc
       0.01163242 0.055439174 -0.059383105 -0.011913783
000080 ec a2 06 3d 06 35 bc bd 6b 75 3d 3e c4 8d 12 bd
       0.03287022 -0.09189801 0.18501823 -0.03577973
000090 e8 59 ae 3d 61 8f af bd 26 33 69 3d 0d 1c 88 bc
       0.08513242 -0.08572269 0.056933545 -0.016614938
0000a0 5e 46 fd bd 83 bb 87 3c 73 f4 b4 3d 99 ab 18 bd
       -0.12366937 0.016568905 0.088356875 -0.037273023
0000b0 7d 2a f8 3d 53 2b 30 be 56 68 f8 3d 9e b0 e7 bd
       0.12117479 -0.17204027 0.121292755 -0.11312984
0000c0 88 89 0b be 21 6d 87 bd 6a 15 f1 bc 1d a2 4b bd
       -0.13626683 -0.066126116 -0.029429156 -0.04971515
0000d0 1e 2e 64 3e 8d 30 0f 3e 98 34 12 3e e3 f5 dd 3d
       0.22283217 0.13983364 0.14277875 0.10837915
0000e0 fa d4 e1 3c fd c2 5b bd 86 3a 3d bd 77 1d b9 3d
       0.027567375 -0.053652752 -0.04619839 0.09038823
0000f0 c2 3b b3 3c 8d 86 4f bd d9 a2 3d 3d 9b 01 0e be
       0.02187908 -0.050665427 0.04629788 -0.138678
000100 3e e0 08 be a9 66 67 bd 0f ac 3b bc d3 c3 94 3d
       -0.13366792 -0.05649439 -0.011454596 0.07263913
000110 62 7c d3 bc e2 af 37 3d 55 7c d0 3d 17 8f ea 3c
       -0.025816146 0.04484547 0.101799645 0.028632684
000120 be 5f 19 bd c6 d9 78 be 03 30 7e 3a d0 5c c2 3c
       -0.037444822 -0.24301824 0.00096964854 0.023725897
000130 fa 2a 32 be 9e 00 65 bc e0 c2 90 bc e1 f2 e7 3d
       -0.17399207 -0.013977198 -0.017671049 0.11325622
000140 54 82 63 3d 51 64 7c 3d 17 16 5f 3e 42 d6 0e 3e
       0.055544212 0.061619107 0.2178577 0.1394892
000150 b7 e8 b9 bd c3 8f ff bc 97 3d bd 3d 04 2a c3 bd
       -0.0907759 -0.03119648 0.09240263 -0.09529498
000160 e7 e1 52 bd d7 81 6e 3d c9 2d 35 bd 05 1e a0 bd
       -0.05148497 0.058229294 -0.044233117 -0.07818226
000170 d3 27 06 bd e3 83 1c bd c5 29 8f bc cf 5c 00 3d
       -0.032752823 -0.038211714 -0.017475972 0.03133851
000180 eb 57 7b bc 6d 90 f5 3d 1e 96 ea bc a2 33 86 bb
       -0.0153407855 0.11990438 -0.028636035 -0.0040955106
000190 3f cd db bd 77 33 11 3e 75 e7 2b 3e 79 44 15 3d
       -0.10732507 0.14179789 0.16787513 0.036442254
0001a0 b4 23 e1 3d 4c 87 30 be cd 71 29 3e 7a 94 56 3d
       0.10993138 -0.17239112 0.16547318 0.052387692
0001b0 7c 7d cd bc e6 f8 13 3d 19 3f 55 bd fd 0e d7 bd
       -0.02508425 0.03612604 -0.052062128 -0.10500906
0001c0 4a b7 0f bd 2a 63 b7 bd 25 4b 65 3d c4 6e 96 bc
       -0.035086907 -0.08954461 0.055979867 -0.018363364
0001d0 d3 99 41 3d 18 67 95 3c b7 58 b5 bc 21 85 01 bd
       0.04726584 0.018237635 -0.02213703 -0.031621102
0001e0 0d 55 96 3d 04 7e a3 bd 44 75 60 be d4 3a 20 bd
       0.07340441 -0.0798302 -0.21919733 -0.039118603
0001f0 12 66 51 3d 27 c4 a9 3c 90 fb 06 3e 4e 30 08 bd
       0.051122732 0.020723416 0.13181901 -0.033249192
000200 01 57 58 3d 04 36 98 bd d6 aa af bd f1 9e 02 be
       0.05281735 -0.07432178 -0.08577506 -0.12755944
000210 bf dc e9 3d 9b 7b 73 3d 8a ed 6e be 7a 54 06 bd
       0.11419057 0.05944405 -0.23332801 -0.032795407
000220 b1 98 a6 bc 94 c0 d9 3d a7 06 c1 3d 6d 8c c1 bd
       -0.02033648 0.106324345 0.09425097 -0.09450612
000230 82 a7 75 3d be a9 23 bd 49 14 fa bc ba a6 fa 3d
       0.0599742 -0.0399568 -0.03052725 0.12238832
000240 de 82 e3 3a f0 56 45 3c 09 6b cb 3d 3d 71 9b 3d
       0.0017357727 0.012044653 0.09932525 0.07589958
000250 4b fd 0b 3e 46 26 bb 3d 8d cf 73 3d d2 78 c4 3c
       0.13670842 0.091381595 0.059524108 0.023983393
000260 43 64 6b 3d 70 6f c4 bc 4c 20 03 be a3 b0 c6 3d
       0.057468664 -0.023978919 -0.12805289 0.097016595
000270 4c c1 00 3d 6b 62 b9 3c 1e ca c2 bd f1 c9 27 3c
       0.031434342 0.022629937 -0.09511207 0.010241018
000280 e7 f6 9f bd a5 e7 2c bd da 60 1d be f4 43 6f bd
       -0.07810765 -0.0422131 -0.15368977 -0.058414415
000290 92 af 89 3d 2d 48 b8 bc 3f f8 37 be 64 cd 92 3a
       0.067229405 -0.022495354 -0.17965792 0.0011200127
0002a0 5a 75 39 3e 0d e3 42 bd 6b 61 9b 3d f4 95 74 bc
       0.18111172 -0.047579814 0.075869404 -0.01492833
0002b0 61 a1 2b 3d ed c2 85 bd f8 30 d5 bd bc 8f 90 bc
       0.04190195 -0.0653132 -0.10409731 -0.017646663
0002c0 d0 c9 8d 3d 2b cd 52 3d 26 9e 22 3b ac 42 88 bd
       0.06923258 0.051465195 0.0024813502 -0.06653342
0002d0 9b c3 eb bd ff 3e ea 3d e8 6f 3b be 6e fb f3 3b
       -0.11511918 0.11437797 -0.18304408 0.0074457442
0002e0 69 ab 67 be 09 9e 61 3c ca 7e dd bc bc 98 c8 bd
       -0.22623982 0.013770589 -0.027037997 -0.09794757
0002f0 61 af 95 bd 9e ff a5 3d 85 05 81 3d d8 f0 0b bd
       -0.073088415 0.08105396 0.06299881 -0.034165233
000300 8c 5f ed 3d a2 02 8b bd 48 1b 88 3d 67 d2 8d bc
       0.1159049 -0.067876115 0.066458285 -0.017312242
000310 a8 cf c5 39 18 60 03 3d 09 51 15 bd c2 69 e8 3d
       0.00037729484 0.032074064 -0.036454234 0.11348297
000320 66 08 34 be 72 c0 c5 bc 36 61 fc 3d bb 90 ac bc
       -0.17581329 -0.024139617 0.12323229 -0.021065107
000330 2f 69 bd bd e2 d8 d9 bd d7 b8 d6 3d 64 c5 5b bd
       -0.09248578 -0.1063707 0.10484474 -0.053655043
000340 f4 c0 8f 3d 77 ee 87 3c 98 14 e6 bd 62 1a 56 3c
       0.07019225 0.016593201 -0.11234397 0.013067814
000350 a8 d8 5a bd 41 22 9d bd af 07 f9 3d 45 26 04 3c
       -0.053429276 -0.07672549 0.12159669 0.008065765
000360 71 b9 e4 3d 67 c7 18 bd 45 94 ca bb 33 79 a3 bd
       0.11168183 -0.03729954 -0.006182226 -0.07982101
000370 ab e4 17 3e 39 d5 e3 bd 6c e2 65 bd 1f 13 b3 3d
       0.14833324 -0.11124653 -0.056124136 0.087438814
000380 b4 a1 29 bd 5e 25 b5 bc fb 49 46 be 15 0e ab 3c
       -0.041413978 -0.022112545 -0.19364159 0.020880738
000390 33 29 8e bd 60 d6 da 3d b5 a2 c6 3d 2d c6 0a 3d
       -0.06941452 0.1068542 0.09699003 0.0338804
0003a0 e7 3a 50 bd b4 41 92 3d 4f 63 16 3d 8e 8c 06 3e
       -0.050837424 0.07141438 0.0367158 0.13139555
0003b0 f3 a8 6f 3e 9d 81 47 3d 65 08 41 bd 6b a9 ff 3d
       0.23404293 0.048707593 -0.047127146 0.12483486
0003c0 91 42 12 ba 39 55 8d 3d 9c fc fb 3d 05 f2 c4 bd
       -0.0005579377 0.069010206 0.12304041 -0.09616474
0003d0 05 f6 83 3d 38 1a 26 bb 47 9b e4 3d 80 88 02 bd
       0.06443409 -0.0025345217 0.11162429 -0.031868458
0003e0 dd 3f 11 be 03 ea 00 3d 39 fe 57 3c 43 b9 ed 3d
       -0.14184518 0.03147317 0.01318317 0.116076015
0003f0 ee c2 ab bd 19 2b 0a 3b ca 0d da bb 04 db 33 bc
       -0.08386789 0.0021082817 -0.006654476 -0.01097751

gconv1.1.A f4 [140, 140]
000000 3d 5d 83 bd 9f 88 92 bd db 3e c3 bd 4c 44 02 3e
       -0.06414268 -0.07154965 -0.09533473 0.12721366
000010 14 ef c6 bd 54 ed 0e 3a a9 e0 4a bc da 5a ac bd
       -0.09713569 0.0005452235 -0.012382665 -0.08415766
000020 f9 3b 10 bd dc 20 82 3c 5a e4 0f 3d c5 09 24 bc
       -0.035213444 0.01588481 0.035129882 -0.010012095
000030 68 9e 83 3d 68 bb 4a 3d 48 81 7f 3c 47 1a 05 bd
       0.06426698 0.04949513 0.015594788 -0.032495763
000040 07 14 2d bd c9 20 13 bc 78 45 0e 3b 92 46 30 be
       -0.042255428 -0.008979985 0.0021708887 -0.1721442
000050 79 40 9c bc a4 cb 41 bd 01 de 86 bc 12 3f 8c 3d
       -0.019073712 -0.047313347 -0.016463282 0.06847967
000060 a0 cb 79 3d 4b fe 9d 3d de 96 3f 3e 39 e7 c3 bd
       0.060985208 0.07714518 0.18709895 -0.095655866
000070 c5 57 2d bd 84 42 0d be e6 ac df 3c 47 4b 13 3d
       -0.04232003 -0.13794905 0.027304124 0.035960462
000080 d2 e7 b6 3d a2 24 07 bd 1f 26 95 bd 70 91 64 bd
       0.08930935 -0.03299392 -0.07282662 -0.055802763
000090 64 05 b3 bd f8 25 ae 3b d2 2a 4b bd 5b 9e 94 bd
       -0.087412626 0.005314585 -0.049601384 -0.072567664
0000a0 d2 da 4b 3d 3c 89 cf 3c 3f 2f ee bd c5 ae 18 bc
       0.04976923 0.025333993 -0.11630105 -0.009319012
0000b0 24 20 3a bd e4 f3 b9 3d f2 0d ca 3c fd 12 06 3e
       -0.045440808 0.090797216 0.024664853 0.13093181
0000c0 ab 95 64 3a 64 13 07 3e 20 0d 1b bd 52 0f cc bb
       0.0008719812 0.1319099 -0.037854314 -0.0062274123
0000d0 69 05 67 bd c4 97 3f bd 54 8b 03 bc 2d 82 7c ba
       -0.056401644 -0.046775594 -0.008028824 -0.0009632435
0000e0 59 4a 15 3e 00 10 f8 3c fe e5 06 3e 0c 71 0e bd
       0.14579143 0.030281067 0.13173673 -0.03477578
0000f0 26 0e 20 bd 6e 5c bc bc 7d 24 59 bd 42 16 2c 3e
       -0.039075993 -0.022993293 -0.053013314 0.16805366
000100 38 64 dd 3c 4a 0a 59 3d 8c 6d fb bd b9 8e c4 3d
       0.027025327 0.052988328 -0.12276754 0.09597535
000110 cd 0d 2a bd f8 b1 81 bd d9 cf 0b bd f0 96 bb bd
       -0.041517068 -0.06332773 -0.034133766 -0.091596484
000120 7f 76 76 bd cd 1d 8e 3c ff f3 59 be df 96 f3 3d
       -0.0601716 0.017348194 -0.21284483 0.11894011
000130 7d 52 09 3d c6 30 67 bc 76 ab 9a 3c 29 3b 08 3e
       0.033525933 -0.01411075 0.018880587 0.13303818
000140 d7 3c c3 bd ba a8 00 3d 8f 0c 8a bc b7 bc ad bd
       -0.09533089 0.03141091 -0.016851692 -0.0848326
000150 04 92 52 bd 00 78 da bd c1 b9 15 3d 4f 10 ad bd
       -0.051408783 -0.106674194 0.0365541 -0.08450376
000160 cd 9e 89 3d 78 ad 4b bc e8 b9 83 3d 41 9c 81 3c
       0.06719742 -0.012431495 0.06431943 0.015821578
000170 19 01 a0 ba 5b 6e b6 3c 8d 14 0c bd 07 2b 90 3e
       -0.0012207358 0.022269418 -0.034199286 0.28157827
000180 eb 35 2b bd 86 1f 0d bb d5 67 dc 3c 9a 25 81 3c
       -0.041799467 -0.0021533682 0.02690498 0.015765
000190 53 b9 ab ba 6e e1 00 be 86 59 cd 3d a7 21 af bc
       -0.0013101496 -0.12585995 0.10026841 -0.021378351
0001a0 50 73 b7 bd e3 1e 2d bc f2 04 b8 3d 88 30 bd bd
       -0.08957541 -0.010566446 0.08985318 -0.09237772
0001b0 8d 59 cc bd fe c1 29 bb cc 93 80 3d 90 e7 53 bd
       -0.09978018 -0.0025902982 0.0627819 -0.051734507
0001c0 4d 85 92 3d dd 92 68 3e ac 6c 87 bd 65 75 e7 bc
       0.07154331 0.22712274 -0.066125244 -0.02825422
0001d0 f1 ce 01 bd 9c 6b f2 bc 49 a0 98 3d 83 4b cc 3c
       -0.031691495 -0.029592328 0.07452447 0.02493835
0001e0 30 8b ac 3d ff b0 6b 3d 51 c4 f1 3b 01 e3 91 3d
       0.084249854 0.057541844 0.007378139 0.07123376
0001f0 5a 67 f1 bd 40 55 98 bc d7 9e 85 3c 5b 5c 81 bd
       -0.11787291 -0.018595338 0.016311092 -0.063164435
000200 db 8e 8b 3d 1e 29 94 bd 6b f2 08 3d c7 69 3c 3c
       0.06814357 -0.07234405 0.033434313 0.011499829
000210 56 1f 30 3d db 36 9d bd 0d 12 9f bd cb bb a3 bb
       0.042998634 -0.076764785 -0.07767115 -0.004996752
000220 5b c8 a0 bc 46 c0 8b bd ba e6 67 3d ac fc 0e 3d
       -0.019626787 -0.068237826 0.056616522 0.034908935
000230 93 8b cf 3d 38 2b 9e bd 7f d4 d5 ba 36 f1 a3 bd
       0.101340435 -0.07723087 -0.0016313939 -0.08004992
000240 96 51 8c 3d 74 8c 3d bd ab 88 08 bd 12 f8 8f bd
       0.06851499 -0.046276525 -0.03333346 -0.070297375
000250 0e 92 b8 3b 3e 36 8d bd cc 34 5f bd 95 ac 4c bd
       0.0056326455 -0.068951115 -0.05449371 -0.049969275
000260 1e b1 7e 3d 58 34 94 3d 55 23 01 3e 2b 52 00 bd
       0.06218063 0.07236546 0.12611134 -0.03132836
000270 ea fc 2c be 7d 25 97 3c bc 84 fe bd 6e 1b ee bd
       -0.16893354 0.018450493 -0.12427661 -0.116263255
000280 fa 41 d0 bc ff 03 9b bb 3c 74 04 bd d5 55 15 3d
       -0.025422085 -0.004730701 -0.032337412 0.03645881
000290 eb 96 08 3e 02 49 c4 3d c0 53 64 bd f4 cb b2 bd
       0.1333882 0.09584238 -0.055743933 -0.08730307
0002a0 e5 bd 01 3e 79 50 e3 3c 74 62 66 bb be 9c 37 3c
       0.12670095 0.027748333 -0.0035153897 0.011206804
0002b0 cb 42 37 bd 0c 81 11 3e 86 03 9a 3d 71 4a eb bd
       -0.044741433 0.14209384 0.07520203 -0.11488808
0002c0 2b ec be 3d ed 3d 1f be dc 01 21 3d be f4 8d bd
       0.09322389 -0.15550967 0.039308414 -0.069314465
0002d0 08 7a 35 3d 95 b8 cd bc 6e b7 ca bc e4 c7 89 bd
       0.04430583 -0.02511243 -0.02474567 -0.06727579
0002e0 f8 cd 9b bb 16 0e 29 3d f0 d9 07 3e 86 7e 22 3d
       -0.004754778 0.0412732 0.1326673 0.039671443
0002f0 89 c5 6f bd 6c 42 94 3b 55 87 1d bd 46 9d a0 3d
       -0.058537994 0.0045245197 -0.03845914 0.078424975
000300 15 97 2c 3d 61 59 c0 bb 66 5f 54 3d 01 27 61 3c
       0.04213627 -0.00587003 0.05184879 0.013742209
000310 06 ab 57 bd 06 c9 0b 3e ff df f2 bd b5 4a 9e 3a
       -0.052653335 0.13650903 -0.1185913 0.0012076708
000320 2b d2 9a 3c 47 e6 c5 bc dc 4f 13 be c1 dd dd 3d
       0.018899044 -0.024157656 -0.14385933 0.10833312
000330 82 2a ea 3d 72 cf 1d be 86 56 0b 3d 1a 25 59 3d
       0.11433889 -0.15411165 0.034018062 0.0530139
000340 d3 2c 76 be 5e 4d e4 bd 4e 5b 32 bd c4 5a 62 bd
       -0.24040537 -0.11147569 -0.043544106 -0.055262342
000350 22 3f 10 3d bd 3e 18 3d 85 59 8b 3d 57 56 19 3e
       0.03521646 0.037169207 0.06804184 0.14974342
000360 0e 2d 5d 3e cf 62 8c 3d 5d 1a ba bd 9c 7a d8 bd
       0.21599218 0.06854784 -0.0908706 -0.10570261
000370 6f c3 77 bc 0a 33 cd bd e5 0d 1f bd 15 8c 4e 3c
       -0.015122279 -0.100195006 -0.03883161 0.01260664
000380 41 ca da 3d 73 74 94 bd ac 5c e5 3d 83 4e a2 3d
       0.10683108 -0.072487734 0.111993164 0.07925131
000390 c6 49 83 bd 76 7b c7 3d ce 03 ec bb 50 02 a6 3d
       -0.064105555 0.09740345 -0.007202602 0.0810591
0003a0 f4 cf 24 bc 16 db ce bd d5 c2 86 3d 27 78 d7 bb
       -0.0100593455 -0.10100381 0.0658013 -0.0065756026
0003b0 d0 e1 85 bd db e0 d2 bc 38 af fa 3d 22 f5 24 bd
       -0.06537211 -0.025741985 0.122404516 -0.04027284
0003c0 fa e1 4e bd b8 aa 80 3d b5 ed ef 3d 50 f8 30 bd
       -0.050508477 0.06282562 0.11715261 -0.04320556
0003d0 94 81 a5 3d 80 93 b4 3c 5c 23 4d 3d b1 bd d2 bd
       0.08081356 0.02204299 0.05008255 -0.10290087
0003e0 d9 b4 9b bd 39 6d ae 3d 33 34 70 3d 00 2b 45 be
       -0.07602853 0.08516926 0.05864353 -0.19254684
0003f0 c1 3c 08 bd e8 d5 84 bc 8e 41 21 be f1 ea 2f be
       -0.033261064 -0.01621528 -0.15747663 -0.17179467

gconv1.1.W.weight f4 [140, 140]
000000 07 0f 9d 3d 87 84 6b 3c 16 ad 3a 3e 8d 0e e6 3c
       0.07668882 0.014374859 0.1823009 0.02808311
000010 25 21 84 3d a5 b5 09 bd 64 e5 1f bd b6 da d2 bd
       0.06451634 -0.033620495 -0.039037123 -0.10295622
000020 79 55 04 3d aa d6 1f be 75 03 25 bd 96 1d 80 3d
       0.032308076 -0.15609232 -0.0402865 0.06255643
000030 73 e9 fc 3c 9d 17 13 be a7 c7 7e ba 82 e3 0e be
       0.030873036 -0.14364477 -0.00097190816 -0.13953975
000040 59 6a 02 3e 44 5d cb bd 9c f7 26 3d 8b 97 81 3c
       0.12735881 -0.099298984 0.040763482 0.015819332
000050 73 c0 9b 3d dc 29 e9 bd 81 2a 17 bd e8 5b 9f bb
       0.07605066 -0.11384937 -0.03690577 -0.004863251
000060 47 81 34 bd db c1 1f bd 23 57 c9 bb 94 ea c6 bc
       -0.0440686 -0.039003234 -0.0061444207 -0.024281777
000070 77 88 29 3d 4a 02 41 bc ee 1b 3f 3d b0 92 3c bd
       0.04138991 -0.011780331 0.046657495 -0.04603833
000080 7f 98 27 be 25 25 48 3c 69 90 c3 3c d6 a7 29 be
       -0.16366766 0.012215887 0.023872571 -0.1656793
000090 78 e2 88 3b 6e 11 0a 3e 74 92 00 bd 13 dc 90 3d
       0.004177388 0.13483211 -0.03138967 0.07073226
0000a0 8b cf bd bd cd bc 04 bb 90 ef 8c 3d 9d 77 99 3c
       -0.09268101 -0.0020254136 0.068816304 0.018733794
0000b0 e5 15 a4 3d 23 41 84 3c 7c 36 78 bc 1a b0 c5 bd
       0.080119886 0.01614434 -0.015149709 -0.09652729
0000c0 82 e2 d2 3c 12 e2 a7 3c f8 5e 27 3e 81 d1 ba bd
       0.025742773 0.02049354 0.16344821 -0.09121991
0000d0 cb dc 31 3e eb 26 76 bc d9 f5 9c 3d c6 5e 37 3d
       0.17369382 -0.015023927 0.07664079 0.044768117
0000e0 41 2f 36 bd 8c fa 1f 3d f2 a0 f7 bd fe bf 7e 3c
       -0.04447866 0.0390573 -0.12091245 0.015548704
0000f0 ba 6b 2b 3d 6c 08 8c 3d cc 8e 00 3e eb 01 91 bd
       0.041850783 0.06837544 0.12554473 -0.07080444
000100 5f 31 2f bd d0 a8 d8 3d bb d2 98 bd 9c f6 07 3d
       -0.042771693 0.105790734 -0.07462069 0.03319417
000110 a4 13 45 bd e5 97 0b 3e 37 77 64 3c 1d ed 47 3e
       -0.048114434 0.13632162 0.013944439 0.19524045
000120 f4 5c b3 3d 0d 3d 40 bd 50 8b a6 3d 2e f5 a4 3a
       0.08757964 -0.046933223 0.081320405 0.0012585276
000130 a7 07 1b be 07 2e 02 be 62 6d 09 3d e2 86 39 bc
       -0.15139638 -0.1271287 0.03355158 -0.0113236625
000140 a8 a9 14 3e 9f a9 bb 3d 32 0e d3 bd 89 61 69 bd
       0.14517844 0.09163212 -0.10305442 -0.056977782
000150 49 6f b9 3b 4e 24 d7 bc f1 77 84 bd c1 52 84 bd
       0.005659018 -0.026262429 -0.064681895 -0.064610966
000160 3c d8 ba bd aa af 32 bd e2 d8 54 3c a1 17 5e 3c
       -0.09123275 -0.043624558 0.012991162 0.013555438
000170 d5 ab a1 3d f0 6a b9 bc 69 9f 5c be ee 1f 96 3c
       0.078941025 -0.022634 -0.21545185 0.018325772
000180 50 f5 3d bd 34 76 e9 3d 09 25 3c bc 87 3f 14 3e
       -0.046376526 0.113994986 -0.011483439 0.14477359
000190 5d 74 7d bc 26 d9 e1 bc ca 1d a6 bd 49 5f 6e bc
       -0.015469638 -0.027569365 -0.081111506 -0.014549085
0001a0 46 0c 92 3d 6f fd e1 bc 84 54 3f be e6 b9 d6 3d
       0.07131247 -0.027586667 -0.18684584 0.10484676
0001b0 66 58 29 bd 7d d9 37 3d da ae c1 3b 35 87 44 3d
       -0.04134407 0.044885147 0.0059107365 0.047980506
0001c0 63 94 0f 3e 4c 26 ab 3d ea ca 31 3d b0 26 41 3e
       0.14021449 0.08356914 0.043406405 0.18862414
0001d0 33 59 b0 3d 8b fd d5 3d 42 95 26 bd 8e 7c b8 3d
       0.086107634 0.1044875 -0.040669687 0.09008132
0001e0 fb e1 5e bd b7 d6 47 3d 53 82 23 bd 41 30 cd bd
       -0.05441473 0.048788752 -0.03991921 -0.10018969
0001f0 b3 72 f7 bc 0f 3d ee 3c ef 3b bd bd bb d8 d9 3d
       -0.03020606 0.02908185 -0.09239947 0.10637041
000200 a7 97 da 3d d7 53 55 3d 52 77 85 3d 66 2a f4 bc
       0.10673457 0.05208191 0.06516899 -0.029805373
000210 78 09 86 bd c2 04 82 bd 0d ec 47 bd 8f b7 a8 bd
       -0.06544775 -0.06348564 -0.0488091 -0.08238136
000220 cc a9 b4 bd 92 ea ef 3d aa 6c 8e be 16 db 9c 3d
       -0.08821449 0.117146626 -0.2781728 0.07658975
000230 61 ab ee 3d b4 16 00 be 22 41 a3 bc 12 96 23 3e
       0.11653782 -0.1250866 -0.019928519 0.15975216
000240 d6 2f 91 bd 23 de cc 3c e8 bc 6b 3d 4c 5a e2 bd
       -0.07089202 0.025008267 0.057553202 -0.11052379
000250 71 80 0f be c7 f5 51 3c f0 8f 1a be 76 bb 4a bb
       -0.1401384 0.012814946 -0.1509397 -0.003093449
000260 df 7a ac bd 4b af f1 3d c1 d6 6a 3d e7 6c ef bd
       -0.08421873 0.118010126 0.05733371 -0.11690693
000270 f3 0c bd 3d c6 6d 50 be c7 84 c6 bd 6f 77 53 3d
       0.092309855 -0.20354375 -0.09693294 0.051627573
000280 e6 66 bf 3d cd f0 65 3d 64 ab 00 3e 61 c9 42 be
       0.09345798 0.05613785 0.1256538 -0.19022132
000290 4e 8f 00 bd 66 a9 d5 3b ea 29 0d 3e ee bd a0 bd
       -0.031386666 0.006520438 0.1378552 -0.07848726
0002a0 01 e7 bd 3d 7d 5d b8 bd 76 f5 a7 bd c1 9b 0d bd
       0.09272576 -0.090022065 -0.08201115 -0.034572367
0002b0 d7 ae a8 bc ae 4f ca bc 51 bd 8c bd 78 40 22 bd
       -0.020591183 -0.024696197 -0.06872047 -0.039612263
0002c0 7d c5 cb bc 36 08 5b bd 32 1c 0a 3e 8a 2c bb bd
       -0.024874443 -0.053474627 0.13487318 -0.091393545
0002d0 ff 24 0c bd a9 75 29 ba 49 96 9d 3c 60 58 21 3d
       -0.03421497 -0.0006464371 0.0192367 0.03939092
0002e0 80 47 8f bc 43 76 8b bd 2b 52 d2 bd c9 77 b9 bc
       -0.017490149 -0.06809666 -0.102695785 -0.022640126
0002f0 cf 9c f5 3b 28 74 9c ba 09 d9 16 3d 84 c2 14 3e
       0.0074954997 -0.0011936473 0.036828075 0.14527327
000300 5e 6a d4 3c 0e 17 1e bd e4 0c 9c bd d5 36 e4 bc
       0.025929626 -0.038596205 -0.07619646 -0.027858177
000310 04 00 2b 3d 97 df db bd f8 2a 9e 3b f4 c8 04 3c
       0.04174806 -0.10736006 0.0048268996 0.008104552
000320 9d f0 87 bd 80 5d 34 3b 37 30 07 be d3 3e 8d 3d
       -0.0663769 0.002752155 -0.13201986 0.068967484
000330 02 ff b8 3c d1 3a 34 bd e4 f1 4f bd 05 d2 f0 bb
       0.022582535 -0.044001404 -0.050767794 -0.007349255
000340 3c 11 3c be 31 14 4b be e7 94 47 3d d9 de c1 3d
       -0.1836595 -0.19831921 0.04872599 0.09466333
000350 57 c0 94 bd e5 c3 f6 3d 1f 73 5f bd 81 a0 a8 3d
       -0.072632484 0.12049083 -0.054553147 0.08233739
000360 f1 d7 b6 3d 37 df 08 bc be 77 89 bd 55 7a f4 bc
       0.08927906 -0.008354 -0.06712292 -0.029843489
000370 a5 91 bc 3d 90 8d fc bb 68 c1 a7 3d c9 f4 0f bd
       0.09207467 -0.0077073053 0.08191186 -0.035145555
000380 c8 d0 ec 3d 45 e0 8f bd 1f cd 01 bd 57 3b b0 bd
       0.11563259 -0.07025198 -0.03168976 -0.08605068
000390 75 64 e5 bd 37 7b 2f bd 40 c3 34 3e 6d e5 b2 3c
       -0.11200801 -0.042842116 0.17652607 0.021837914
0003a0 a2 bd 84 3e 6b b3 73 3d 4d ca d8 bd c6 69 c1 3d
       0.25925928 0.05949728 -0.10585461 0.09444003
0003b0 ac 26 91 bc 3e d0 c9 bd a8 68 3a 3d 77 84 89 bd
       -0.017718635 -0.09854172 0.045509964 -0.06714719
0003c0 f7 e3 f6 3d 46 bc 27 be b7 c0 59 bd a2 73 bb 3b
       0.120551996 -0.16380414 -0.053162303 0.0057205716
0003d0 4d 26 08 be 7f ff 99 3d ea 46 9e bd 6a 91 5a 3c
       -0.1329586 0.07519435 -0.077283695 0.0133403335
0003e0 63 11 2a 3e 7b 48 39 3d 33 2c 4e bd a4 40 12 3e
       0.16608195 0.04523514 -0.05033512 0.14282471
0003f0 19 6a 05 bc a2 c8 17 3c f0 64 b9 bb 38 f5 8f bb
       -0.008142971 0.009264143 -0.0056577846 -0.004393246

gconv1.1.W.bias f4 [140]
000000 6c d5 73 bd 73 c1 3b bc b5 4d a1 bd fb ad 7c 3d
       -0.059529707 -0.011459696 -0.078761496 0.06168936
000010 11 4c 3f 3d e8 e0 86 3d 54 88 23 bd dc 13 a4 3c
       0.046703402 0.06585866 -0.039924935 0.020029001
000020 45 26 f4 3c 7f f3 44 3d fe 7b 0b bd 71 e0 48 bd
       0.029803405 0.04808378 -0.034053795 -0.04904217
000030 e1 ce 8a bd 25 06 84 3d ed 75 8a bd 92 a9 80 3d
       -0.0677774 0.064464845 -0.06760774 0.06282343
000040 37 bc 97 3d 31 d5 04 3d c5 9f 93 3c cc 62 e6 3b
       0.07408946 0.032429878 0.01802052 0.0070308205
000050 97 ef 06 bd 74 d0 81 bb 9b 83 fd bc 29 4e 8b 3c
       -0.032943334 -0.003961617 -0.030946543 0.017005043
000060 ab b0 62 3d 3e 83 11 3a c3 f2 a3 bd ac c7 40 bd
       0.055344265 0.00055508676 -0.080052875 -0.047065422
000070 f1 59 3b bd 59 7f 61 bd 1c 92 33 3c 6e 8c 99 3d
       -0.04574007 -0.05505309 0.010960128 0.07497488
000080 17 1d a5 3d 4b f8 71 3d ba a8 cc 3b c7 f2 81 bc
       0.08062189 0.05907468 0.0062456997 -0.015862836
000090 f2 28 98 3d 22 a0 9f bd a0 c6 da bc 02 47 9a 3b
       0.07429685 -0.07794215 -0.02670604 0.004708172
0000a0 a6 56 89 3c 9d 05 a9 3d dc 4b 8c 3d ec 8b 17 bd
       0.01676495 0.08253024 0.068504065 -0.036998674
0000b0 fe 37 89 bd a0 b4 5d bd 4b 69 7f 3d 9a 9a 8e 3c
       -0.06700133 -0.054127336 0.062356275 0.017407704
0000c0 23 32 93 3d e5 17 91 3d 02 ca 9c bd 48 58 9d bc
       0.07187297 0.07084636 -0.076557174 -0.019207135
0000d0 26 43 8f 3d 27 60 31 bd 5d 84 fc 3c 41 b2 b4 3c
       0.069952294 -0.04330459 0.030824834 0.022057654
0000e0 a0 21 2c 3c 2b 9d a0 3d 66 8a 23 3c 58 de a7 3a
       0.010506064 0.078424774 0.009981727 0.0012807352
0000f0 be 4d 93 38 f8 31 04 3d 3e 4f 4d 3d c6 da 71 bd
       7.023987e-05 0.032274216 0.0501244 -0.05904653
000100 6e 67 48 3d 0c 38 88 3a e9 b0 47 3d 05 b3 58 bd
       0.048926763 0.001039268 0.0487527 -0.0529051
000110 5b c4 b7 bb 04 36 46 3d 39 74 90 3d f5 3f 71 3d
       -0.005608124 0.048391357 0.07053418 0.058898885
000120 e5 6c 9e b8 7f 24 84 bd 6e e0 cf 3c a1 bf 8a bd
       -7.55431e-05 -0.064522736 0.025375571 -0.067748316
000130 4e c5 44 bd 7c 65 b2 bc 95 c7 59 3c 4e d0 30 3b
       -0.048039727 -0.021776907 0.013292213 0.0026979628
000140 e5 a1 86 3c db 45 67 bd e5 62 a3 3c 15 b2 4e bd
       0.01643462 -0.056463104 0.019944618 -0.0504628
000150 88 94 a7 bd ce d3 14 3d 2e b8 44 bd 63 1e 9b 3d
       -0.08182627 0.036334805 -0.04802721 0.07574155
000160 79 78 a2 bd 03 ac 78 bc fe 06 1b bc ee 04 67 3d
       -0.079331346 -0.01517773 -0.009462116 0.056401186
000170 02 ef d6 bc 5f 23 bf bc 6c 99 12 3d 4e e1 44 bd
       -0.026237015 -0.023332296 0.035790846 -0.04806643
000180 42 93 ff bb 01 9a 26 bd c4 69 94 3d 62 e6 b7 3c
       -0.007799537 -0.040674213 0.07246736 0.022448722
000190 e1 a4 23 bd f5 eb e3 bc fc 0f 9a 3c 4b e9 52 3d
       -0.039952163 -0.027822474 0.01880645 0.051492017
0001a0 d1 91 78 3d 95 fe 3f bc 47 b6 55 3d 6e 0a 7a bd
       0.060685936 -0.011718412 0.052175786 -0.061045103
0001b0 83 61 67 bd f2 8c aa 3d fe aa a6 3d f7 92 85 bd
       -0.05648948 0.083276644 0.08138083 -0.06522172
0001c0 fd b9 9c 3d a6 90 dd 3c c6 6d 2c 3c a0 05 60 3c
       0.07652662 0.027046513 0.010524219 0.013673216
0001d0 7f 21 4f bd 55 40 0a 3c 0f 0f a3 bd f5 f9 58 3c
       -0.050569054 0.0084381895 -0.079618566 0.013243188
0001e0 79 e8 65 3d e7 27 3b bd 65 e5 9b bc c5 e1 7c 3d
       0.056129906 -0.04569235 -0.019030282 0.061738748
0001f0 61 12 0e bd e7 69 22 3d a9 25 75 bd 63 49 32 bd
       -0.034685496 0.039651778 -0.05985037 -0.04352702
000200 5f fb 29 bd 81 23 a8 bd 0f 9e a2 bc bb 3a a7 3c
       -0.04149949 -0.08209897 -0.019850759 0.020413747
000210 d7 94 0e bd b1 07 2c 3d a3 bd a4 bc d9 95 6e 3d
       -0.034809913 0.041999523 -0.020109957 0.058248375
000220 5d 2e 26 3d bb b3 70 3d f0 f4 46 bd c9 a2 89 3b
       0.04057156 0.058765154 -0.048573434 0.0042003137

gconv1.1.gate.weight f4 [1, 280]
000000 59 f7 a4 bb be 34 1e bc 31 1d 00 be db a7 3a bd
       -0.005034369 -0.009656129 -0.12511136 -0.045570236
000010 d2 14 9f bd 8d ee 32 3e 2b 2e 93 bd 45 8e 0f bd
       -0.07767643 0.17473812 -0.0718654 -0.03504779
000020 82 d0 0f 3c 96 6f 86 bd 0e 31 2a 3e 9f 3b 16 be
       0.0087777395 -0.06564252 0.16620275 -0.14671181
000030 de e3 d0 bc 44 27 b0 bd 52 56 26 bc 82 ac d4 3d
       -0.02549928 -0.08601239 -0.010152416 0.10384466
000040 6c 3e 66 3d 18 8b cb bc 02 37 4a bd 6e fa 6e 3d
       0.056211874 -0.024846599 -0.049368866 0.058344297
000050 3e 7b 03 3e 00 13 19 be 7b 62 87 3c d5 26 cd 3c
       0.12839982 -0.14948654 0.016526451 0.02504293
000060 b2 79 9b 3d 05 7f 06 3e 05 82 db 3c 79 ae d4 3d
       0.07591571 0.13134392 0.026795397 0.103848405
000070 bf b8 85 3c 8e ab 6a 3c ce 51 d1 bc 43 ff af bd
       0.016323445 0.014323128 -0.025551703 -0.08593609
000080 ed a2 5c 3d 35 31 6d 3d 7d 92 93 bd 38 e1 03 bd
       0.053866316 0.057908256 -0.07205675 -0.032197207
000090 8e eb b3 3d 7f 4d c0 3d bd b5 e3 bd b4 00 55 bc
       0.08785163 0.09389781 -0.11118648 -0.013000656
0000a0 5b a0 00 3e ef a7 8b 3d ac e5 72 3c a4 db 1c be
       0.12561171 0.0681914 0.014825266 -0.15318161
0000b0 43 a2 ba 3d ea 27 0c be 4b d6 c9 3c 75 25 07 bd
       0.0911298 -0.13687101 0.024638316 -0.032994706
0000c0 a3 94 a9 3d 61 f2 a7 3d f4 ff 23 39 a2 be 7c 3d
       0.08280303 0.08200527 0.00015640241 0.06170524
0000d0 d3 8b 01 bd ee ed 92 bd 69 f0 2a 3c fb 23 e2 bd
       -0.031627487 -0.07174288 0.010433295 -0.11042019
0000e0 ce 81 8a 3b ba 66 61 3d f6 96 c5 bd 01 c5 88 3c
       0.0042268997 0.05502961 -0.09647934 0.016695501
0000f0 06 50 24 bc b9 02 eb bd 70 d3 70 be 31 8f 51 be
       -0.010028845 -0.11475129 -0.23518157 -0.2046478
000100 0b b7 97 3d 3c 12 37 bc 14 fe 11 3b ae 5a da 3d
       0.074079596 -0.011173781 0.0022276687 0.10661827
000110 42 ce fb bc 52 30 43 3d 88 e9 0c bc 36 4b a5 3d
       -0.030738 0.047653504 -0.0086006 0.08070986
000120 3e 11 14 3e 5d d1 8c 3c be 1d 40 bd 80 84 ce 3d
       0.14459702 0.017189676 -0.046903364 0.10083866
000130 c3 c2 fb 3c b2 83 b8 bd a0 02 80 3d 3a f1 b3 bd
       0.030732518 -0.09009494 0.06250501 -0.08786245
000140 88 5f 90 bd 53 08 1e 3d 05 40 96 ba 7d 39 96 bd
       -0.07049471 0.038582157 -0.0011463171 -0.07335184
000150 56 c0 56 bd 44 71 04 bd 09 4e c8 3d d1 7d eb bd
       -0.05242952 -0.03233458 0.09780509 -0.11498607
000160 3c 45 75 bd 76 bb 87 bb e5 48 f6 bd 8f b5 82 bd
       -0.05988048 -0.00414222 -0.12025622 -0.06382286
000170 1b 34 1b 3d 26 49 7d bd 04 bc 95 bd 81 6a e1 bc
       0.03789149 -0.061837338 -0.07311252 -0.027516605
000180 5f 05 cd 3d bd cc 78 3d 09 77 9f bc 28 8c d4 3d
       0.1001079 0.06074213 -0.01946594 0.10378295
000190 e3 38 09 3b 22 3e d4 3d c1 53 ab 3c dd 7f 99 bb
       0.0020938448 0.103634134 0.02091396 -0.004684432
0001a0 37 63 f9 bc 8d 52 d7 bd 3c 0e 6c bd 22 63 5f 3d
       -0.030442817 -0.10513792 -0.057630762 0.0545379
0001b0 6e e2 2a bd 90 e1 6f 3d 79 f1 c1 3c 12 85 71 3d
       -0.041719846 0.058564723 0.023674713 0.058964796
0001c0 a4 85 ea 3d 7d 31 25 bd 7c 23 65 3c 3d fe 88 bc
       0.11451271 -0.0403304 0.013985511 -0.016722793
0001d0 f8 e4 57 3d 6d 15 9b 3d 33 ea 81 bd bb 7b 7a 3d
       0.052708596 0.07572446 -0.06343498 0.061153155
0001e0 ef f9 ff bd b7 71 2a be 6f 62 f9 3d fa 9d 83 bd
       -0.12498843 -0.16644941 0.12176978 -0.06426616
0001f0 88 11 b5 bd 54 0f 1b 3e 0b 98 df bd 7b 54 73 3d
       -0.088412344 0.15142566 -0.10917672 0.05940674
000200 d1 ea 37 3d 99 83 74 3d ee 0a 1b bd b7 20 13 bc
       0.044901673 0.059695814 -0.03785222 -0.008979968
000210 5e 05 85 3c 59 ad d5 3d 79 03 c3 bd 31 cf 4f 3d
       0.01623791 0.10433454 -0.09522147 0.050734702
000220 98 22 f5 3d 25 2c 77 3d 91 75 27 3e eb 1f ea bc
       0.11969489 0.060344834 0.16353442 -0.028579673
000230 31 4a 60 3d de 2f cb 3c ef b5 70 3d 95 de 6f 3d
       0.054758254 0.024803098 0.058767255 0.05856188
000240 aa 22 ed 3d 1b 92 9c bd 3c 6e a2 3b fb d1 57 3d
       0.11578877 -0.07645055 0.0049569886 0.052690487
000250 7a 21 a8 3d 5e 00 ab 3d 22 9a e8 bc c5 95 76 bd
       0.0820951 0.083496794 -0.028393809 -0.060201425
000260 f7 f6 e3 ba 24 63 d7 bd 36 c1 07 3d 49 76 9a bd
       -0.0017392327 -0.105169564 0.033143245 -0.07542092
000270 3d 49 33 3d 0c 0a 1e bd 57 ce 1a be 25 5f d7 bd
       0.043771017 -0.0385838 -0.15117775 -0.10516194
000280 56 6e ad 3d 41 70 a2 bd 93 dc 10 be 6c d8 0e be
       0.084683105 -0.07931567 -0.14146642 -0.13949746
000290 92 56 9b 3d 8f 52 30 3e 31 9f 3b 3e 08 c5 e3 3d
       0.07584871 0.17218994 0.18322445 0.11121565
0002a0 9d c5 8d bc 2f eb dd 3c 95 41 79 3d 53 3c 16 bc
       -0.017306143 0.027089683 0.06085356 -0.009169656
0002b0 89 ee e4 bd ff 6b 38 3d 01 ec d0 bd b4 4f 23 3e
       -0.111783095 0.045024868 -0.10201264 0.15948373
0002c0 60 51 1c bd aa 14 b7 3c 01 e6 25 bd 10 b3 0f bd
       -0.038163543 0.02234872 -0.040502552 -0.035082877
0002d0 f8 59 16 bd 65 4c 20 3c ba 8c a0 3b 3e 4b 0c 3e
       -0.036706895 0.009783839 0.0048995884 0.13700578
0002e0 f2 a2 1c 3d d1 7b 24 3d 63 d1 e0 3c 80 f1 42 3c
       0.038241334 0.040157143 0.027443593 0.011898398
0002f0 ba 1b 7f bd 55 b9 b3 3d 1f 4d 02 3e 35 a4 df bd
       -0.0622823 0.08775584 0.12724732 -0.10919992
000300 1c 9e 34 bd 82 8c f8 bd e2 4b 07 3d 41 97 6b bd
       -0.044096097 -0.12136175 0.033031352 -0.057517294
000310 91 21 35 bd 09 2b 00 be 4b 25 37 3d ff c5 ad bd
       -0.044221465 -0.12516417 0.0447133 -0.084850304
000320 69 4e b0 3d 26 4a 84 bd c6 58 ad bd 84 49 a9 bd
       0.086087056 -0.06459455 -0.08464198 -0.08265975
000330 c2 fd b7 3d 99 ff 33 3e 79 e8 03 bb 93 54 a1 3d
       0.08983947 0.17577972 -0.0020127578 0.078774594
000340 05 73 f4 3d c4 42 9c bd f8 79 08 be f6 5d 36 bd
       0.11936001 -0.07629922 -0.13327777 -0.044523202
000350 89 c2 ff 3d f0 32 9f bd 93 25 a2 3d 30 8e 02 3e
       0.124882765 -0.077733874 0.07917323 0.12749553
000360 18 84 a0 3c 52 68 04 bd b0 0c 5a 3a 17 82 c3 bd
       0.019594237 -0.03232605 0.00083179306 -0.09546297
000370 a0 4e 06 3d d6 f8 a8 3d e3 f0 96 bd 37 25 75 bd
       0.032789826 0.08250587 -0.07370164 -0.059849944
000380 13 e0 bc 3a 5b 38 b1 3d 4a 31 69 3d 1c 09 5e be
       0.0014410041 0.08653327 0.05693177 -0.21683162
000390 a1 45 0b 3e 5f 75 00 bd d8 14 7b bd bd 3d 02 bd
       0.1360078 -0.031361934 -0.061299175 -0.03179716
0003a0 97 31 89 bc 2b 81 71 bd ec 6a b9 3d 55 19 1f bc
       -0.01674728 -0.058961075 0.09053597 -0.0097106295
0003b0 5e e6 d5 bd d9 17 d3 bc f6 c7 8f 3c 43 6e 93 3d
       -0.1044433 -0.025768207 0.017551403 0.07198765
0003c0 19 00 97 bd 5e 0e 71 3d 31 ec a6 3d fa 81 c0 bc
       -0.073730655 0.058851592 0.08150519 -0.023499478
0003d0 6f 4b 90 3d 02 5a 0f 3b c0 a7 50 bd a8 4e 04 3d
       0.07045638 0.0021873717 -0.05094123 0.032301575
0003e0 19 97 01 3e ca 0c 18 be c6 be df 3d 06 ea 83 bc
       0.12655295 -0.14848629 0.10925059 -0.016102802
0003f0 2c 7e b4 3d 62 83 25 bd 85 50 87 38 39 c1 3e 3d
       0.08813128 -0.0404085 6.4522996e-05 0.04657099
