save/save_0.pt (torch, 880006 bytes, 24 tensors)

gconv1.0.A f4 [140, 140]
000000 15 91 0d 3d 18 8e 36 bd fe a4 78 3c cc fd b7 3c
       0.03456219 -0.044569105 0.015176056 0.022459887
000010 1e 2c 79 bd 75 5e 66 bd 9d 3f 5f bc 33 0e 91 bd
       -0.06083309 -0.056242425 -0.013626006 -0.070827864
000020 1c 29 79 bd 16 b9 e0 bd 50 da 9d 3d eb b4 98 3d
       -0.06083022 -0.10972802 0.077076554 0.07456382
000030 fc ce 1b be 83 44 a7 3d a5 b2 95 bd 11 98 b9 bd
       -0.15215677 0.081673644 -0.07309464 -0.090622075
000040 cc 27 09 bd ed bb 1f 3e 70 01 01 3d ac c3 f1 3c
       -0.03348522 0.15599032 0.03149551 0.029512249
000050 9a ef 21 3e 96 c8 85 3d 2a 65 d5 3a b7 4f 93 bd
       0.15814057 0.06532399 0.001628076 -0.07192939
000060 c8 e5 d1 3c 63 1a e6 bc da 51 87 3e d0 2a ec 3c
       0.025622264 -0.028088754 0.26429635 0.028829008
000070 71 c1 96 3d bd b3 74 bd 15 22 99 3c 5f fa 05 bd
       0.07361115 -0.059741724 0.01869301 -0.032709476
000080 82 d2 52 3d a0 e5 f2 bc 46 4a 0b be a6 f1 1c 3e
       0.051470287 -0.02965051 -0.13602552 0.15326557
000090 ba e2 ec bd 6a 49 fb bb c9 93 61 3c eb db 82 bc
       -0.11566682 -0.0076686637 0.013768145 -0.015974006
0000a0 49 19 08 bd 47 89 6a be 5a e8 61 bc 5c 89 af bd
       -0.03322724 -0.2290393 -0.013788307 -0.08571121
0000b0 e4 b7 16 3e 17 67 f4 3d 63 a5 32 3d e5 87 d0 bc
       0.14718586 0.11933725 0.043614756 -0.025455425
0000c0 a1 c3 12 be 63 8e c1 3d 57 ec 9c bc 11 06 7e 3d
       -0.14332439 0.09450986 -0.019155664 0.062017504
0000d0 e2 fd c8 3d 01 32 e3 3d 45 89 d3 bb 33 32 8c 3d
       0.09814049 0.11093522 -0.006455573 0.06845512
0000e0 44 c3 5f bd fc c7 49 bc 13 c8 06 be 3f a2 31 bd
       -0.05462958 -0.012315746 -0.1316226 -0.04336762
0000f0 7c 72 ff bc 0a 20 2f 3d 7e 2b 0b bd 48 35 27 be
       -0.03118252 0.042755164 -0.033977024 -0.16328919
000100 03 3f 53 bc 39 c5 98 bd ec e0 d1 3c e9 7c 71 be
       -0.012893441 -0.07459492 0.025619946 -0.23582806
000110 33 97 ac 3c 3b d6 eb 3c 43 5b a6 3d 27 94 66 bd
       0.021068191 0.028788676 0.081228755 -0.056293633
000120 cd a1 c7 bd c4 f5 bf 3d 1e c3 fb 3d 18 b3 5f 3d
       -0.09747658 0.09373048 0.12293075 0.054614156
000130 43 81 8d 3d c5 35 84 bd 49 f3 3e 3b 8c 3f d7 3c
       0.0690942 -0.06455568 0.0029136708 0.026275419
000140 11 f8 df bd 4c 15 19 3e e1 39 e9 bd 3c 2e 0b 3d
       -0.10935987 0.1494953 -0.11387993 0.03397964
000150 4a c1 54 bd 74 d5 25 bc b0 da 72 3d 43 38 33 3e
       -0.051942147 -0.010121692 0.059290588 0.17501931
000160 d3 dd 50 3c 66 f0 29 3c f5 bc 01 3c 63 a6 33 3d
       0.0127481995 0.010372257 0.007918586 0.04385985
000170 92 2a a7 bc f1 35 79 bd 6b 69 a3 3b 5b 56 22 bd
       -0.020406041 -0.06084246 0.004986932 -0.039633136
000180 57 3b e7 bd e8 61 11 3c 9a b3 9e bd bb 21 25 bd
       -0.11290615 0.00887344 -0.077491 -0.04031537
000190 bb 36 1e 3d 00 36 25 be a3 46 af bd 95 ae 9c bd
       0.038626414 -0.1613388 -0.08558395 -0.076504864
0001a0 56 23 38 bc 60 99 45 3b fe 5c bc bd b4 f4 1d 3c
       -0.0112388935 0.0030151233 -0.09197424 0.009640861
0001b0 e7 2f 2a be 03 08 f2 bc 0e a9 c7 3c 67 d5 3a 3d
       -0.16619836 -0.029544836 0.024372604 0.045613673
0001c0 b7 6a ee 3d d4 2f 3d bd 99 e0 cc bc c6 5f 29 b9
       0.11641448 -0.04618819 -0.02500944 -0.00016152774
0001d0 bd 8d 35 bd 38 bd 89 bd 28 24 38 bd 07 e7 eb bd
       -0.044324625 -0.06725544 -0.044956356 -0.11518674
0001e0 79 d1 5e 3d 79 fe 05 bd 2a f9 f2 3d 41 b9 8d 3d
       0.054398987 -0.032713387 0.118639305 0.069201
0001f0 15 2a 9d bc 5e a3 b0 bd e3 6c 71 bc aa 52 33 bd
       -0.019185105 -0.0862491 -0.014735433 -0.043780006
000200 b7 32 69 3e 2e bf 6a bd 32 ce 27 3d a1 ef 3a 3e
       0.22773252 -0.05731123 0.040968128 0.18255474
000210 f5 7f 12 3c 9f 21 d3 3d 50 70 41 3d fe cc 3e bd
       0.00894164 0.10309147 0.04722625 -0.046582215
000220 a0 fb b9 3d 8e 83 d4 bd 2e e9 24 bd a4 ec 8b 3d
       0.09081197 -0.103766546 -0.04026144 0.06832245
000230 aa 3c 38 3c 84 fe 69 3b bc 52 92 3d 66 f7 bf bc
       0.011244932 0.0035704682 0.071446866 -0.023433398
000240 bb 66 80 bd b4 bf 3a be f0 b5 dd bd 0e 68 8f ba
       -0.06269594 -0.18237191 -0.108257174 -0.0010941045
000250 4e 58 c8 bd 7a 46 cd bc 9c 5f ba bd 4c f5 63 3c
       -0.09782468 -0.02505802 -0.09100267 0.013913464
000260 33 d7 90 3d 09 00 b4 3d bc 06 99 3d f9 f0 a7 bc
       0.07072296 0.08789069 0.074719876 -0.020500647
000270 8a 61 7e bb c4 42 48 ba 35 25 a3 3c 91 4d 4a 3c
       -0.0038815462 -0.00076393434 0.019915203 0.012347595
000280 e6 3c a5 3c ad 92 66 bd fb 31 03 be b9 5b 12 3d
       0.02017064 -0.056292225 -0.12812035 0.035732005
000290 27 31 0e 3d cb 54 f0 bb de 59 98 bd 48 dc c2 bd
       0.034714844 -0.007334327 -0.07439016 -0.095146716
0002a0 0d f3 fe 3c a1 0c 93 3d fb ae 0d be 74 97 6f 3c
       0.031121755 0.07180143 -0.13836281 0.014623512
0002b0 48 f4 c9 bd 07 15 ed 3d d1 b5 47 bd c3 a9 0b bd
       -0.09861046 0.11576276 -0.048757378 -0.034097444
0002c0 e1 b4 85 3d 44 01 e8 bb f3 7e c7 3d 06 cd d7 3d
       0.065286405 -0.007080229 0.097410105 0.10537152
0002d0 fd 53 28 3d c3 37 0f 3e 55 50 f2 bd 00 98 8a bd
       0.041095722 0.13986115 -0.11831728 -0.06767273
0002e0 52 a6 23 3d 85 6e df bd 63 ad 15 3d a5 7f f3 bc
       0.039953537 -0.10909752 0.036542308 -0.029723952
0002f0 3c a9 33 bc b7 d7 10 be 63 be b2 3d 9e d4 9d bd
       -0.010965642 -0.14144789 0.0872772 -0.07706569
000300 95 22 a4 bd 88 72 16 3e f5 26 d6 bc cb 60 50 3d
       -0.080144085 0.14692128 -0.026141623 0.05087356
000310 1b 77 a9 3d e0 ce fb bc 2d f4 06 3d 1b 1b 21 be
       0.08274671 -0.030738294 0.032947708 -0.15732996
000320 a9 fb 34 be 9f d3 fd bd b7 59 3b 3d 48 8d 0f be
       -0.17674126 -0.12393879 0.045739856 -0.14018738
000330 c3 5c 52 bc dc 0f a3 bc cf 0f e3 3d 7c f4 10 be
       -0.012839499 -0.019905023 0.110869996 -0.14155763
000340 ba f6 23 bd 75 35 f7 bc 57 54 0d bd 9d e4 91 3d
       -0.04003022 -0.030176857 -0.03450426 0.07123683
000350 f0 b0 17 bc 40 50 cb 3d 09 e9 78 bd fe 12 99 3c
       -0.009258494 0.09927416 -0.060769115 0.018685814
000360 fe 51 86 3d 69 d5 19 3e 82 6e f8 3d b1 a0 ac bd
       0.065586075 0.15022816 0.12130453 -0.08429087
000370 cc fc f2 bc 2f 61 0c be d3 48 6e 3c b1 73 34 3d
       -0.029661559 -0.13708948 0.01454373 0.044055644
000380 d2 ee 8b bc 1e c7 0a bd 68 df 02 be 8b f7 2c bd
       -0.017081652 -0.0338813 -0.12780535 -0.042228263
000390 dd 57 af 3d 6e 9b 1a be 23 a9 6f bd 26 38 c4 bd
       0.085616805 -0.15098354 -0.05851091 -0.09581022
0003a0 96 34 01 be 22 ff e3 3d 80 b3 f6 bc e4 75 16 be
       -0.12617716 0.11132647 -0.03011489 -0.14693409
0003b0 c4 7a 95 bd 2d 56 a2 3d ae b0 a5 bd 17 fd cd 3d
       -0.07298806 0.07926593 -0.080903396 0.10058039
0003c0 63 d3 74 3d 7f 4b 98 bd 90 0b 7b bd a3 f8 27 3e
       0.059771907 -0.07436275 -0.061290324 0.16403441
0003d0 9c 11 3a bb a5 84 75 3b c0 b7 d8 bc 64 38 d8 bd
       -0.0028391844 0.0037463096 -0.026454806 -0.10557631
0003e0 92 f8 08 bc 37 17 6d 3d 0a c3 6b 3d 29 a8 bf 3d
       -0.008360045 0.057883468 0.05755905 0.09358246
0003f0 8b 84 b2 3d 32 1a 0e be 39 52 9e bc 89 b6 07 bd
       0.08716687 -0.1387718 -0.019326316 -0.033133063

gconv1.0.W.weight f4 [140, 140]
000000 ab ac 09 3d 7c c2 b5 bc 0f 0f 9a 3c 1c 37 00 be
       0.033611935 -0.022187464 0.018806009 -0.12521023
000010 21 bb 90 bd 89 f0 d4 3d 92 3d b4 3d 45 35 eb 3d
       -0.07066942 0.10397441 0.08800806 0.1148477
000020 66 00 29 3e 74 aa a9 3d f6 51 b9 3d 27 c8 48 bb
       0.16504058 0.082844645 0.09048836 -0.0030636878
000030 1b c2 9f bd dc 16 60 bc 37 df 0a be 32 a0 86 3d
       -0.078006946 -0.013677325 -0.13561712 0.065735236
000040 ce 1c 73 3d 54 1c 0d be 99 92 a3 3d e6 dc 6b 3c
       0.059353642 -0.13780338 0.07986946 0.014395928
000050 13 e7 b4 3d 2f f5 cb 3d ca 98 64 3d 28 54 a3 3c
       0.088331364 0.099588744 0.055809774 0.01993759
000060 ea 19 30 bd e7 f7 2e bd 72 15 0b be ce 98 37 3d
       -0.042993464 -0.042716887 -0.135824 0.04482346
000070 c4 96 49 3e e9 af 45 3e 19 60 8f bd 82 1f 5b 3d
       0.19686419 0.19305386 -0.07000751 0.053496845
000080 1b eb 34 3d 5b 7a c3 3d 1a a4 2b 3d 27 49 17 3c
       0.044169527 0.09544822 0.041904546 0.0092337495
000090 15 b1 86 bd 40 66 1b 3e 92 10 5f bd 14 7e c4 3d
       -0.065767445 0.15175724 -0.054459162 0.0959436
0000a0 1a 07 1d 3d 88 06 ba bc 9c e5 27 be 73 6e 85 bd
       0.03833685 -0.022708192 -0.16396183 -0.06515207
0000b0 d2 74 47 3c 7a 5d 19 be d4 ab a7 3d 4f 7c e0 bd
       0.012173848 -0.14977065 0.081870705 -0.1096121
0000c0 d7 f7 48 be 8a ad 43 3d 74 52 8f bd 46 03 42 3d
       -0.19625793 0.04777292 -0.069981486 0.047366403
0000d0 3d 5d 2b 3d 75 2c 48 bd ac 30 71 bd 8e ac 0b 3c
       0.041836966 -0.048870523 -0.058884308 0.008525027
0000e0 79 f5 55 3d d2 01 d0 3d ed 5d 7b bc 20 2c b6 3c
       0.052236054 0.10156597 -0.015342218 0.022237837
0000f0 66 36 5e 3b c5 8a 2a 3e 71 72 3d bd ad 7b c0 bd
       0.0033906936 0.16654499 -0.046251718 -0.09398589
000100 8c f3 6d bd ce 9e 7d bd 7d 41 a4 bd ef 3d 89 bd
       -0.058093593 -0.061919026 -0.080203034 -0.06701266
000110 dd c2 f5 bd 09 4c 3c bd 01 3b 51 bc 97 ac cb bd
       -0.12000058 -0.04597095 -0.012770415 -0.09945028
000120 6b 69 91 3e dd 42 37 bd 14 71 12 bd 9e db 16 bd
       0.2840074 -0.0447415 -0.03575237 -0.036830537
000130 07 d5 00 3d 5e 6e 14 bd 36 ed d5 bd 8d b2 51 3c
       0.03145316 -0.036238067 -0.10445635 0.0127989175
000140 2f 80 19 3d 82 ca 33 3e cb e4 18 bd e6 8a 9f 3c
       0.03747576 0.1755772 -0.03732757 0.019475412
000150 1a 2e 42 3d e9 e1 96 bd f6 87 3d be 4d 90 08 3d
       0.047407247 -0.07367308 -0.18508896 0.03334074
000160 0f f1 a7 3d e0 1d a5 bd 18 f1 ba 3d fc a1 d8 bd
       0.08200275 -0.08062339 0.09128016 -0.10577771
000170 27 ba 62 3d 00 4d 28 3e 86 5c 15 bd 55 ea b7 3d
       0.05535331 0.16435623 -0.03646519 0.08980242
000180 5f b7 f9 3d c7 ae a2 bc 26 50 6c bd 20 61 e5 bd
       0.121931784 -0.019858731 -0.057693623 -0.11200166
000190 8f f6 07 bd 82 84 30 bd 9c 3d 3c 3d e7 7f 3b 3e
       -0.03319412 -0.04309512 0.045957193 0.1831051
0001a0 3d bd 42 bd 4f ac 80 3d aa 0a 0c bd ab bb 7b 3b
       -0.047543753 0.06282865 -0.034189858 0.003841142
0001b0 19 a7 16 3d 7f 8b 6c be b3 a6 48 3d 26 d1 f5 3d
       0.03678045 -0.23100089 0.0489871 0.120027825
0001c0 0e 86 4d 3d 83 a5 49 bd 43 4c 17 be bc b2 9d 3b
       0.050176673 -0.04923011 -0.14775185 0.0048125666
0001d0 b7 a4 fe 3d c5 2e 18 bd 27 86 a9 bd 92 04 2e 3d
       0.124337606 -0.037153978 -0.08277541 0.042484827
0001e0 6f e4 d6 3c d9 c3 e3 3c 20 8b 55 bd 1e 85 47 3b
       0.026231973 0.027803348 -0.052134633 0.0030444334
0001f0 4b b8 3e 3e ad 83 b2 bd 26 06 ad 3d bb d9 12 be
       0.1862499 -0.087165214 0.08448438 -0.1434087
000200 fa 91 74 bd 7d 4e d2 bc 28 4c b3 3c f8 21 b4 3d
       -0.059709527 -0.025672192 0.0218869 0.087955415
000210 fe 41 f6 bd 05 43 27 bd 7c e5 4d 3e 74 56 44 3d
       -0.12024306 -0.0408354 0.20107073 0.04793401
000220 d6 b5 ec bd 25 70 b7 bb 41 f8 83 3e 07 92 8c be
       -0.1155812 -0.0055980855 0.2577534 -0.2745516
000230 8f 6c 98 3b fb 4c 10 3e 5f c2 07 bd a5 2b 6c 3d
       0.004651613 0.14091866 -0.03314435 0.05765881
000240 ca e0 85 3d 72 cf 28 3d 2d d2 36 3c 55 cb 30 3d
       0.06537016 0.04121346 0.011158508 0.043162663
000250 2d a2 70 bd 28 e0 24 3e dc ea 23 3c 6e 1f 1c be
       -0.058748413 0.16101134 0.010004725 -0.15246364
000260 32 e1 21 be 3d e3 6b bd 7a b4 82 bb ab 43 ca 3d
       -0.15808561 -0.05758976 -0.0039887996 0.09876188
000270 d7 15 99 3d 04 97 1a be 54 df 2d 3d e8 c4 e0 3d
       0.07474869 -0.1509667 0.04244931 0.10975057
000280 f6 19 25 be 6f 72 2e bd bf 84 97 bc e4 bd 72 3c
       -0.16123185 -0.0425896 -0.018495915 0.014815781
000290 14 cd 99 3a aa 72 20 bc 55 15 58 3d f9 60 02 3e
       0.0011734092 -0.009792963 0.05275472 0.12732305
0002a0 37 36 e5 3c fc 21 a5 b7 56 7e 51 bd 81 c6 8a 3c
       0.027979953 -1.9685358e-05 -0.051145874 0.016940357
0002b0 3a a3 b6 bd cb 33 bb 3c 1f f3 88 ba c4 f1 3d bd
       -0.08917852 0.022851845 -0.0010448432 -0.046373144
0002c0 a5 2d a1 3d b2 d1 9a bd 18 f8 29 be f0 74 a2 bd
       0.07870034 -0.075595275 -0.16598547 -0.0793246
0002d0 2a f8 19 be 1c 17 c0 bd 15 07 d0 3d ea 26 89 3d
       -0.15036073 -0.09379408 0.10157601 0.066968754
0002e0 63 c1 85 3d 37 05 10 3e 47 2b d7 3d 7b 43 6d bd
       0.06531026 0.1406449 0.105063014 -0.057925683
0002f0 5b 8e 23 bc a1 1a 99 3d 03 27 e8 3d 78 25 2c 3d
       -0.009982671 0.07475782 0.11335566 0.04202792
000300 05 9e 64 bd ca ab 9a 3d 2e d8 0f 3e 3d 5a 03 be
       -0.05581476 0.075522974 0.1404731 -0.12827392
000310 4f 5f fa bc 01 9e 11 be fd 74 e8 bd 31 8a 84 bd
       -0.030563025 -0.1422043 -0.11350439 -0.064716704
000320 b8 90 76 bd e8 c8 cc 3c d3 2a 02 3d 35 b8 98 bc
       -0.06019661 0.024998143 0.03177912 -0.018642524
000330 48 3b dc 3d 25 9a 7d bd b8 74 ae bb 94 ea 8d bd
       0.107534945 -0.06191458 -0.0053239726 -0.06929508
000340 2f b8 93 3d 9a 87 ab 3c 7e 08 07 be f4 01 77 3c
       0.072128646 0.020938683 -0.13186833 0.015076149
000350 db 9f 1e bd 7a e4 94 3d d7 d9 4b bd 72 f5 56 3c
       -0.03872667 0.07270141 -0.049768295 0.013120042
000360 0b 2a 5c 3d 3d 49 d1 39 c8 df f7 3c e9 a4 b7 3d
       0.053751033 0.00039918153 0.030258074 0.08967001
000370 35 54 4d 3c 91 e7 78 3d 85 68 50 bd 7c 66 a0 bd
       0.012532284 0.060767714 -0.050880928 -0.07832047
000380 11 ec f0 bc ac d7 a4 bd 24 75 9a 3d bc 6d 80 bd
       -0.02940944 -0.08048949 0.07541874 -0.0627093
000390 0e 47 33 bc 25 c0 97 3c 64 e1 a8 38 4d d6 83 bd
       -0.010942234 0.018524239 8.0528465e-05 -0.06437359
0003a0 46 cd e8 bc b7 f9 46 bd c7 d0 77 bd f7 0d 97 bc
       -0.028418195 -0.04857799 -0.06050184 -0.018439276
0003b0 e4 da 87 3d 85 44 94 3d 68 ad fa bb fd 68 1f 3e
       0.06633547 0.072396316 -0.007650066 0.15567394
0003c0 59 6a 13 3e e1 47 2f 3e 44 c9 4f bd 4a 46 11 3e
       0.14396037 0.17117263 -0.05072905 0.1418697
0003d0 ea 89 af bb 47 b0 1a 3d 13 8f f5 3d 2d a7 98 bd
       -0.005357017 0.037765767 0.1199018 -0.07453761
0003e0 1c 57 ef 3c ae ff 03 3e 08 d0 03 3d 80 13 e6 bc
       0.029216342 0.12890503 0.032180816 -0.02808547
0003f0 6b c6 5e 3e 30 8f 77 bd df 01 35 3c 57 f8 f5 3c
       0.21755378 -0.06043929 0.011047809 0.030025644

gconv1.0.W.bias f4 [140]
000000 67 7b a5 3d ff 83 c0 3c 60 98 84 bd 11 8e 87 3c
       0.08080178 0.02350044 -0.06474376 0.016547235
000010 f5 1f 9b bd 86 bd 97 3d 76 d2 aa 3c 72 20 82 bd
       -0.07574455 0.074091956 0.020852309 -0.06353845
000020 08 7d 88 3c 47 b8 14 bc c5 10 4d 3d 17 8d 23 bd
       0.016661182 -0.009077138 0.05006482 -0.039929476
000030 62 ce 1c bd be 71 fc 3c 7c f3 9e bd de c7 42 3c
       -0.03828276 0.030815955 -0.07761285 0.011888472
000040 37 a5 89 3d 52 85 43 3d 0f 03 96 3c ae 1a 4d 3d
       0.06720965 0.047734566 0.018312005 0.05007427
000050 35 59 2c 3d 18 aa ed 3c f1 35 6d 3c 24 e7 99 bd
       0.042077262 0.029011771 0.014478193 -0.0751479
000060 93 00 99 3d 20 10 a4 3d 3b 7d 9e 3d ca 61 a7 3d
       0.07470813 0.08010888 0.077387296 0.08172949
000070 b2 0a 5d bd 03 2f a8 3d 50 42 0c 3c 78 83 5b 3c
       -0.053965278 0.08212092 0.008560732 0.013398044
000080 87 c3 b7 bb 77 3c 05 bd 85 19 8d bd ca 3b b4 bc
       -0.0056080255 -0.032528367 -0.06889633 -0.022001166
000090 bd d6 3e 3d 61 0f 6a bd f0 7a ab 3d 20 89 95 3c
       0.04659151 -0.057143573 0.08373058 0.018253863
0000a0 7a 29 56 bd db 52 82 3d 53 91 81 3d de ca aa 3d
       -0.05228565 0.0636346 0.063265465 0.08339475
0000b0 7a 55 91 3d 3d a4 27 bd 78 6b 8e bd 62 c7 8e bd
       0.070963815 -0.040928114 -0.06954092 -0.06971623
0000c0 c5 c4 3e 3d 27 9e e5 3c a6 14 08 3d 0b 16 96 3d
       0.046574373 0.028029514 0.033222817 0.07328423
0000d0 88 9d 8b 3b 64 c9 21 3d 62 9d b6 3c 7d ab d1 38
       0.0042607225 0.0394987 0.022291843 9.997839e-05
0000e0 bb 41 91 3b d6 ab 64 3d c9 ef 95 3d 29 7d 21 3d
       0.0044328845 0.055827938 0.07321126 0.039426003
0000f0 5b 69 84 3d 1a 42 e1 bb be 4b a9 bd 09 70 8e bd
       0.064654075 -0.006874335 -0.082664 -0.06954963
000100 c1 55 10 bd be 68 24 bd 97 7c a0 bd 27 9f a0 3c
       -0.03523803 -0.040138952 -0.078362636 0.01960714
000110 5a 67 e4 3c 72 85 6e bd b6 89 ae bc 05 90 a6 3d
       0.027881313 -0.058232732 -0.0213059 0.08132938
000120 63 07 7c bc bd 1e 84 3d fc 77 10 3d a7 45 8b 3d
       -0.0153826205 0.06451175 0.035270676 0.068003945
000130 ca a6 44 bd 9b 80 9d 3c 65 5a 56 38 52 e6 2a bd
       -0.048010625 0.019226363 5.1105762e-05 -0.041723557
000140 3e df 9d 3d 55 46 81 3c a7 94 c6 bc 9d 6c a2 3b
       0.07708596 0.015780607 -0.024240805 0.0049567954
000150 70 6a a2 3d 06 85 98 bd 89 aa 5a bb 6c 41 85 bd
       0.079304576 -0.07447247 -0.0033365807 -0.06506619
000160 9b 9c 20 3c 82 ee 95 bd cd a1 93 3d 81 04 83 3d
       0.009802963 -0.073208824 0.072085954 0.063973434
000170 6d a3 76 3d b3 24 85 bd 49 bc 04 3d db 31 01 bd
       0.06021445 -0.065011404 0.032406125 -0.031541687
000180 20 a1 2f 3c 84 24 7f bd bb c4 1f 3a 67 56 8d 3d
       0.010719568 -0.062290683 0.0006094684 0.069012456
000190 c6 1c 9c 3d e2 57 63 3d 75 3c 8a 3c 65 c3 3b bd
       0.076226756 0.055503733 0.016874531 -0.04584064
0001a0 6d 5a 6c 3d e0 87 a2 3d 75 d5 6f 3d cf 55 02 3d
       0.057703424 0.07936072 0.058553178 0.031820115
0001b0 a4 d1 80 3d f5 ce 78 bd f3 f3 ac 3d 6c 1b f5 3b
       0.06289986 -0.060744245 0.08444967 0.0074800756
0001c0 43 5e ab bc c3 44 a0 bd ca 28 1e bd d9 bd 9a bc
       -0.02091897 -0.07825615 -0.03861312 -0.018889355
0001d0 92 cc 6b bc e8 45 83 bd c6 ba 88 3d a4 d3 98 3d
       -0.014392035 -0.06409818 0.06676249 0.07462242
0001e0 79 9d 88 3d 08 c3 66 bd 44 d7 ce bc 54 f7 ad bc
       0.066706605 -0.05633834 -0.025249131 -0.0212361
0001f0 ae ae 96 3d 3c e2 52 3c aa 52 49 bd 2b 81 d3 bc
       0.07357536 0.012871321 -0.0491511 -0.025818428
000200 d5 24 24 bd 0e d9 86 bc 50 65 ea bc 7e 36 27 3c
       -0.04007419 -0.016460922 -0.028612763 0.010205863
000210 75 f3 38 bd a7 93 6f bd cd ca 52 bd 96 5d 82 3c
       -0.045154054 -0.05849042 -0.051462937 0.015913766
000220 68 57 0d 3d 7c ab 00 3c 0b b9 97 3d 62 73 1a 3d
       0.034507185 0.007853385 0.07408341 0.037707694

gconv1.0.gate.weight f4 [1, 280]
000000 ab 58 84 bd a2 5d 43 bc 3a e0 82 be 5e 5f 79 3d
       -0.064622246 -0.011924179 -0.25561696 0.060881965
000010 78 d9 e6 3b 6f ff c4 bd 46 5e 93 3d f0 22 f2 bd
       0.0070449673 -0.096190326 0.071957156 -0.1182307
000020 8c 12 9e bd c1 ea 97 3d 42 50 b5 3c f8 03 cb 3d
       -0.07718381 0.07417823 0.022132996 0.09912866
000030 12 cf f3 3a 32 9e 0a 3e bb 8c b0 3d 84 99 92 bc
       0.001860114 0.13536909 0.08620592 -0.017895468
000040 d6 3e 91 bd 7c 8b 29 be 47 63 a6 3d 6a cd 8e bd
       -0.07092063 -0.16557115 0.081244044 -0.069727734
000050 98 f1 e7 bd c8 f9 3d 3d 83 e2 d4 3c 08 c9 66 bc
       -0.11325377 0.046380788 0.025986915 -0.0140860155
000060 ed 08 25 bd f2 60 fc bc 41 94 be 3d bb 48 8a 3c
       -0.040291715 -0.030807946 0.09305621 0.016880384
000070 09 35 40 3c 91 ce 62 3d 9f fb 72 bd df e4 41 bc
       0.011731395 0.05537278 -0.059321996 -0.011834352
000080 50 59 06 3d bf 56 bc bd fd 60 3d 3e 06 28 12 bd
       0.03280002 -0.09196233 0.1849403 -0.0356827
000090 0b 7d ae 3d 61 91 af bd bb 2f 69 3d 24 95 87 bc
       0.08519944 -0.08572651 0.056930285 -0.016550608
0000a0 46 12 fd bd 6b 78 88 3c c8 e0 b4 3d d7 ff 18 bd
       -0.12357001 0.016658982 0.08831936 -0.037353363
0000b0 2f 44 f8 3d 83 3e 30 be 52 45 f8 3d 0c 86 e7 bd
       0.1212238 -0.17211346 0.12122597 -0.11304864
0000c0 46 9d 0b be 28 98 87 bd 9b 9d f1 bc f4 64 4b bd
       -0.13634214 -0.066208184 -0.029494097 -0.049656823
0000d0 40 14 64 3e 44 41 0f 3e 79 2c 12 3e 26 1a de 3d
       0.2227335 0.1398974 0.14274777 0.10844831
0000e0 9c ed e1 3c 23 c8 5b bd 6b 7e 3d bd df 39 b9 3d
       0.027579121 -0.053657662 -0.04626314 0.09044241
0000f0 e0 f2 b2 3c fc 36 4f bd 03 09 3e 3d 26 f1 0d be
       0.021844327 -0.050589547 0.046395313 -0.13861522
000100 72 d2 08 be 12 b3 67 bd 12 b0 3b bc 97 f2 94 3d
       -0.13361529 -0.05656726 -0.011455553 0.07272833
000110 23 06 d4 bc 49 e2 37 3d 47 56 d0 3d 85 3e eb 3c
       -0.025881832 0.044893537 0.10172706 0.028716335
000120 62 1d 19 bd c4 c8 78 be 72 1b 84 3a 8f bb c2 3c
       -0.037381537 -0.24295336 0.001007898 0.023771076
000130 7c 34 32 be cb e0 65 bc 30 63 90 bc 37 c2 e7 3d
       -0.17402834 -0.014030646 -0.017625421 0.113163404
000140 e2 b3 63 3d eb 24 7c 3d 54 29 5f 3e 9e e4 0e 3e
       0.05559147 0.061558645 0.21793109 0.13954398
000150 ca 15 ba bd 9f 11 ff bc 6f 64 bd 3d 65 4b c3 bd
       -0.09086187 -0.031136332 0.09247672 -0.09535865
000160 25 9d 52 bd c1 d2 6e 3d e3 94 35 bd b5 44 a0 bd
       -0.051419396 0.05830646 -0.044331443 -0.07825605
000170 a7 ec 05 bd ad 43 1c bd 37 ee 8e bc 98 15 00 3d
       -0.032696392 -0.03815048 -0.017447574 0.031270593
000180 87 f5 7c bc ef ae f5 3d b7 02 eb bc 26 fe 88 bb
       -0.015439398 0.119962566 -0.028687818 -0.0041806875
000190 cc d4 db bd 06 41 11 3e c2 d6 2b 3e b4 ab 15 3d
       -0.10733947 0.1418496 0.16781142 0.036540702
0001a0 6c ef e0 3d 04 7e 30 be fd 7b 29 3e 1b 2d 56 3d
       0.10983166 -0.17235571 0.16551204 0.05228911
0001b0 1c 80 cd bc d5 46 14 3d ae 61 55 bd 41 1d d7 bd
       -0.025085501 0.036200363 -0.052095108 -0.105036266
0001c0 84 64 0f bd 3e 8c b7 bd 2a 00 65 3d e9 0b 97 bc
       -0.03500797 -0.08962296 0.05590836 -0.018438296
0001d0 7c f4 41 3d be e1 95 3c 34 cb b5 bc 47 de 01 bd
       0.0473523 0.018296119 -0.022191621 -0.03170612
0001e0 81 78 96 3d bc 72 a3 bd ab 86 60 be 77 da 1f bd
       0.07347203 -0.07980868 -0.21926372 -0.039026704
0001f0 ff 71 51 3d 95 2c a9 3c 9b e3 06 3e 09 35 08 bd
       0.051134106 0.020651141 0.13172762 -0.033253703
000200 d8 15 58 3d dc 0a 98 bd b9 7d af bd 4a ae 02 be
       0.052755207 -0.07423946 -0.085689016 -0.12761799
000210 21 fb e9 3d 43 22 73 3d c4 e4 6e be c2 0d 06 bd
       0.11424852 0.059358846 -0.23329455 -0.032727964
000220 6f b8 a6 bc b7 e9 d9 3d 30 e4 c0 3d c2 6d c1 bd
       -0.020351617 0.10640281 0.09418523 -0.09444763
000230 2d cb 75 3d 3e a3 23 bd a4 8f fa bc 37 99 fa 3d
       0.060008217 -0.0399506 -0.030586071 0.12236255
000240 8a e3 d7 3a de 79 44 3c d5 5c cb 3d ec 6d 9b 3d
       0.001647101 0.011991946 0.09929816 0.07589325
000250 e9 ec 0b 3e b2 fb ba 3d 15 79 73 3d b7 36 c5 3c
       0.13664593 0.09130038 0.059441645 0.024073942
000260 f3 2d 6b 3d 5f b6 c4 bc 38 37 03 be b9 97 c6 3d
       0.057416867 -0.024012743 -0.12814033 0.096969076
000270 0a 8d 00 3d 49 78 b9 3c 60 f4 c2 bd 3d 41 26 3c
       0.031384505 0.022640364 -0.09519267 0.01014739
000280 00 22 a0 bd d4 22 2d bd 09 51 1d be 38 74 6f bd
       -0.07818985 -0.042269543 -0.15362944 -0.058460444
000290 de a2 89 3d af 87 b8 bc ad 00 38 be 1c 69 96 3a
       0.067205176 -0.022525636 -0.17969008 0.0011475417
0002a0 62 82 39 3e 7a 41 43 bd 0e 4f 9b 3d 49 fb 73 bc
       0.18116143 -0.047669865 0.07583438 -0.014891454
0002b0 0b ee 2b 3d 26 e3 85 bd 1e 34 d5 bd f0 dc 8f bc
       0.041975062 -0.06537466 -0.10410331 -0.017561406
0002c0 cd b3 8d 3d d4 9b 52 3d 0c de 1f 3b a6 57 88 bd
       0.0691906 0.05141814 0.0024393825 -0.066573426
0002d0 fc d2 eb bd c9 35 ea 3d 88 6d 3b be 4a 33 f2 3b
       -0.115148515 0.1143604 -0.18303502 0.007391368
0002e0 71 b4 67 be 45 73 62 3c 92 42 de bc 04 9c c8 bd
       -0.22627427 0.013821428 -0.027131353 -0.097953826
0002f0 0c cc 95 bd 3c e3 a5 3d a3 e9 80 3d 0d 38 0c bd
       -0.073143095 0.08099982 0.06294563 -0.03423314
000300 a4 69 ed 3d fd e2 8a bd e9 21 88 3d d6 f4 8d bc
       0.11592415 -0.06781576 0.06647093 -0.017328661
000310 6a 65 b7 39 5f 86 03 3d d9 46 15 bd 03 54 e8 3d
       0.0003498004 0.032110568 -0.03644452 0.11344149
000320 2a 0f 34 be e1 89 c5 bc c2 55 fc 3d 28 6e ac bc
       -0.1758391 -0.024113597 0.123210445 -0.02104862
000330 ce 60 bd bd 21 08 da bd 8b 9d d6 3d e0 06 5c bd
       -0.0924698 -0.10646082 0.10479268 -0.053717494
000340 76 c7 8f 3d f6 2f 87 3c 6c 1a e6 bd aa 7b 54 3c
       0.07020466 0.016502362 -0.11235508 0.012968937
000350 b2 db 5a bd cf 45 9d bd 0b fe f8 3d e1 82 02 3c
       -0.053432174 -0.076793306 0.1215783 0.007965774
000360 00 89 e4 3d 87 16 19 bd c6 93 cd bb 18 8d a3 bd
       0.11158943 -0.037375 -0.0062737195 -0.07985896
000370 b0 cc 17 3e 95 08 e4 bd 7d de 65 bd be e6 b2 3d
       0.14824176 -0.111344494 -0.056120384 0.08735417
000380 88 cd 29 bd 20 6d b5 bc cd 3c 46 be 17 3c aa 3c
       -0.041455775 -0.022146761 -0.19359131 0.020780606
000390 6f 51 8e bd f5 f8 da 3d 4b a8 c6 3d f8 fb 0a 3d
       -0.06949126 0.10692016 0.09700068 0.033931702
0003a0 14 63 50 bd 21 6e 92 3d b6 fb 15 3d cb 78 06 3e
       -0.05087574 0.07149912 0.036617003 0.13132016
0003b0 29 c3 6f 3e 36 48 47 3d 0a 6f 41 bd d2 7c ff 3d
       0.23414291 0.04865285 -0.047225036 0.124749795
0003c0 e2 64 12 ba 3d 2b 8d 3d 0e 06 fc 3d e3 25 c5 bd
       -0.0005584491 0.06893013 0.12305842 -0.09626367
0003d0 aa c1 83 3d 36 8f 24 bb fe 6d e4 3d 87 bf 02 bd
       0.06433423 -0.0025109774 0.11153792 -0.031920936
0003e0 f3 3e 11 be f0 07 01 3d bf a4 58 3c fa b5 ed 3d
       -0.1418417 0.03150171 0.013222872 0.11606975
0003f0 a4 c2 ab bd 99 3c 0f 3b d2 2a dd bb cb 17 34 bc
       -0.08386734 0.0021856187 -0.0067494893 -0.010992001

gconv1.1.A f4 [140, 140]
000000 bb 2b 83 bd f1 59 92 bd 70 65 c3 bd 2c 2d 02 3e
       -0.06404825 -0.07146061 -0.09540832 0.12712544
000010 be 16 c7 bd 5e fa 20 3a 8a 18 4c bc d9 41 ac bd
       -0.097211346 0.0006140823 -0.012457022 -0.08410997
000020 0a e9 0f bd e0 1d 82 3c 76 41 10 3d 5a 9b 22 bc
       -0.035134353 0.015883386 0.03521868 -0.009924734
000030 d7 6b 83 3d 2a a9 4a 3d 1f 92 80 3c f1 7f 05 bd
       0.06417053 0.049477734 0.015694676 -0.032592718
000040 33 b6 2c bd 25 e7 11 bc 02 49 14 3b 3c 5c 30 be
       -0.042165946 -0.008905207 0.0022626524 -0.17222685
000050 a8 a8 9b bc 15 ae 41 bd f5 32 86 bc 23 11 8c 3d
       -0.01900132 -0.04728516 -0.01638172 0.06839206
000060 71 69 79 3d 61 e3 9d 3d 78 ae 3f 3e 8f eb c3 bd
       0.060891572 0.07709385 0.18718898 -0.095664136
000070 ee f4 2c bd 32 46 0d be 1b 60 df 3c a6 f1 12 3d
       -0.04222577 -0.13796309 0.027267506 0.035874985
000080 b9 ee b6 3d 28 69 07 bd c4 fd 94 bd ea ed 64 bd
       0.089322515 -0.03305927 -0.072749645 -0.055890955
000090 73 36 b3 bd 4b 23 b1 3b 7b d1 4a bd e6 69 94 bd
       -0.0875062 0.0054058186 -0.049516182 -0.07246761
0000a0 3d f0 4b 3d 3d da ce 3c 45 60 ee bd 49 33 17 bc
       0.049789656 0.025250548 -0.11639456 -0.009228536
0000b0 38 b7 39 bd e8 21 ba 3d a3 bd ca 3c 18 2a 06 3e
       -0.045340747 0.09088498 0.024748629 0.13101995
0000c0 e6 64 4b 3a 16 fa 06 3e 9e a8 1a bd e6 42 cf bb
       0.00077588705 0.13181338 -0.037758462 -0.0063251136
0000d0 66 2e 67 bd fe 3e 3f bd a6 1b 05 bc bf 3c 84 ba
       -0.056440733 -0.046690933 -0.008124268 -0.0010088905
0000e0 4a 44 15 3e a3 6d f7 3c db e8 06 3e 80 b5 0e bd
       0.14576831 0.030203646 0.13174765 -0.03484106
0000f0 e5 c7 1f bd 84 91 bb bc b1 d5 58 bd ca 0d 2c 3e
       -0.039008994 -0.022896536 -0.052938167 0.16802135
000100 34 c5 dc 3c e3 b5 58 3d 3e 99 fb bd b8 c1 c4 3d
       0.026949503 0.052907836 -0.12285088 0.096072614
000110 e2 66 2a bd 93 d5 81 bd 8b 31 0c bd 86 aa bb bd
       -0.041602023 -0.06339564 -0.034226935 -0.09163384
000120 87 15 76 bd 26 be 8e 3c 71 dc 59 be 40 ca f3 3d
       -0.060079124 0.017424654 -0.21275498 0.119038105
000130 b2 f5 08 3d e8 d7 65 bc 00 1d 9a 3c 11 55 08 3e
       0.03343744 -0.014028527 0.018812656 0.133137
000140 5b 66 c3 bd 27 0f 01 3d 00 42 8a bc 5a 88 ad bd
       -0.09541007 0.03150859 -0.016877174 -0.084732726
000150 f7 34 52 bd 03 6c da bd 85 89 15 3d da 42 ad bd
       -0.051320042 -0.10665133 0.036508102 -0.084600165
000160 f3 cb 89 3d 57 42 4a bc d3 ca 83 3d 6b e3 80 3c
       0.06728353 -0.012344918 0.0643517 0.015733441
000170 bc 32 ab ba e7 39 b7 3c 80 7d 0c bd ba 37 90 3e
       -0.0013061385 0.022366477 -0.034299374 0.28167516
000180 fe f0 2a bd dd e5 06 bb 7c aa db 3c f1 a6 81 3c
       -0.041733734 -0.0020583787 0.026814692 0.015826674
000190 cf 1f b8 ba 30 c8 00 be f4 7c cd 3d 26 b8 af bc
       -0.0014047566 -0.12576365 0.100335985 -0.021450114
0001a0 ad 9c b7 bd 01 93 2c bc f0 d6 b7 3d fd 2c bd bd
       -0.089654304 -0.010533095 0.08976543 -0.092370965
0001b0 d8 27 cc bd cc 76 2f bb ce b3 80 3d fb 36 54 bd
       -0.09968537 -0.002677369 0.06284295 -0.051810246
0001c0 c6 ae 92 3d d4 7d 68 3e 47 45 87 bd f4 0d e7 bc
       0.07162242 0.2270425 -0.066050105 -0.028204896
0001d0 75 7a 01 bd 2a b0 f1 bc e0 ce 98 3d 11 98 cb 3c
       -0.031610925 -0.029502947 0.07461333 0.024852784
0001e0 dc 59 ac 3d b7 e6 6b 3d 90 06 f5 3b 8a b4 91 3d
       0.08415577 0.057593074 0.007477589 0.07114513
0001f0 4b 37 f1 bd 0d 95 97 bc 72 5d 86 3c cf 45 81 bd
       -0.117781244 -0.01850369 0.01640198 -0.06312143
000200 9d 69 8b 3d 52 f6 93 bd 82 40 09 3d 55 d9 3a 3c
       0.068072535 -0.07224716 0.033508785 0.011404355
000210 6b 59 30 3d 8d 50 9d bd 7d e9 9e bd 4b 6a a6 bb
       0.043054026 -0.076813795 -0.07759378 -0.005078589
000220 e7 78 a1 bc 1e e8 8b bd 72 92 67 3d 76 49 0f 3d
       -0.019710971 -0.06831382 0.056536146 0.034982167
000230 41 ba cf 3d c7 19 9e bd 48 9f d2 ba c8 23 a4 bd
       0.10142947 -0.077197604 -0.0016069198 -0.08014637
000240 26 4b 8c 3d 5d 85 3d bd 17 93 08 bd 9f e6 8f bd
       0.06850271 -0.046269763 -0.0333434 -0.07026409
000250 b2 84 ba 3b 96 4f 8d bd b4 3d 5f bd 11 92 4c bd
       0.005692088 -0.068999454 -0.054502204 -0.049943987
000260 4d 0b 7f 3d 28 2d 94 3d cf 2a 01 3e 49 b7 00 bd
       0.062266637 0.07235175 0.12613986 -0.031424794
000270 df f0 2c be 7d ad 96 3c ef 6e fe bd a6 1f ee bd
       -0.1688876 0.018393273 -0.12423503 -0.1162713
000280 87 fb cf bc 74 1a 9e bb d3 4c 04 bd 61 0c 15 3d
       -0.025388492 -0.004824931 -0.032299828 0.03638876
000290 82 a0 08 3e c3 32 c4 3d 94 46 64 bd b8 ef b2 bd
       0.13342479 0.095799945 -0.05573137 -0.08737129
0002a0 98 cf 01 3e db 07 e4 3c d1 23 68 bb 14 4c 36 3c
       0.12676847 0.027835777 -0.003542174 0.011126537
0002b0 4c 52 37 bd 4d 81 11 3e 10 09 9a 3d ed 7e eb bd
       -0.04475622 0.1420948 0.0752126 -0.114988185
0002c0 2c ec be 3d 19 33 1f be 2c 23 21 3d 5c c0 8d bd
       0.0932239 -0.15546836 0.039340183 -0.06921455
0002d0 ec 23 35 3d 96 3b ce bc 98 d4 ca bc f1 96 89 bd
       0.04422371 -0.025174897 -0.024759576 -0.06718243
0002e0 75 ac 98 bb 8f 53 29 3d 30 d9 07 3e 93 16 22 3d
       -0.0046592304 0.041339453 0.13266444 0.03957231
0002f0 b3 fe 6f bd 28 16 94 3b c8 bd 1d bd 46 6b a0 3d
       -0.05859251 0.004519243 -0.038511068 0.07832961
000300 d0 84 2c 3d a0 e0 bf bb 97 1c 54 3d b6 4d 61 3c
       0.042118847 -0.005855635 0.051785078 0.013751438
000310 1b d7 57 bd 9f c1 0b 3e 0f 07 f3 bd 1d 11 99 3a
       -0.052695375 0.1364808 -0.11866581 0.0011678074
000320 02 14 9b 3c 4a 1c c5 bc af 5d 13 be a8 ee dd 3d
       0.018930439 -0.02406134 -0.14391206 0.10836536
000330 92 fd e9 3d 2a e1 1d be a3 31 0b 3d 1a 6e 59 3d
       0.11425318 -0.15417925 0.033982884 0.053083517
000340 eb 41 76 be 98 57 e4 bd 4a 37 32 bd 31 9e 62 bd
       -0.24048583 -0.1114952 -0.04350976 -0.055326644
000350 dc 89 10 3d eb d8 17 3d 1f 85 8b 3d ff 6a 19 3e
       0.035287723 0.037072103 0.068125 0.14982222
000360 29 22 5d 3e c5 53 8c 3d 0a 31 ba bd b9 46 d8 bd
       0.21595062 0.06851915 -0.09091385 -0.10560364
000370 4d de 77 bc 42 04 cd bd d8 f1 1e bd 43 d1 4e 3c
       -0.015128684 -0.10010578 -0.03880486 0.012623134
000380 d8 c4 da 3d cd 98 94 bd f8 8a e5 3d bb 2f a2 3d
       0.10682076 -0.07255707 0.11208147 0.0791926
000390 d5 4c 83 bd 1b 8e c7 3d 85 c4 e9 bb 75 17 a6 3d
       -0.06411139 0.09743901 -0.0071340227 0.08109943
0003a0 12 e4 24 bc c2 bf ce bd 16 a7 86 3d f4 75 d4 bb
       -0.010064142 -0.10095169 0.06574838 -0.0064837877
0003b0 63 c1 85 bd 0c ea d2 bc 4f 7d fa 3d 4c ef 24 bd
       -0.06531026 -0.025746368 0.12230932 -0.040267274
0003c0 b5 2c 4f bd 28 ca 80 3d d6 fc ef 3d 59 f6 30 bd
       -0.050579745 0.06288558 0.117181465 -0.043203685
0003d0 c8 86 a5 3d a2 45 b5 3c 41 c7 4c 3d e8 c9 d2 bd
       0.08082348 0.02212793 0.04999471 -0.10292417
0003e0 28 a7 9b bd a2 69 ae 3d bf 9c 70 3d db 26 45 be
       -0.07600242 0.085162416 0.058743235 -0.19253103
0003f0 41 69 08 bd 86 c7 84 bc 9f 3c 21 be 20 ea 2f be
       -0.033303503 -0.016208421 -0.15745781 -0.17179155

gconv1.1.W.weight f4 [140, 140]
000000 74 40 9d 3d e9 6f 6b 3c 5c c5 3a 3e 53 e0 e6 3c
       0.07678309 0.014369943 0.18239349 0.028183138
000010 ac 1f 84 3d ba 65 09 bd 42 ef 1f bd ca 0c d3 bd
       0.064513534 -0.03354428 -0.039046533 -0.10305174
000020 60 ac 04 3d 2b c5 1f be be b5 24 bd 13 50 80 3d
       0.032390952 -0.15602557 -0.040212385 0.06265273
000030 c4 98 fd 3c 0f 2f 13 be 04 53 6b ba c0 d2 0e be
       0.030956633 -0.1437342 -0.0008976909 -0.13947582
000040 9a 78 02 3e 42 90 cb bd 5a ad 26 3d 74 46 82 3c
       0.12741318 -0.09939624 0.040692665 0.015902735
000050 90 b6 9b 3d 6e 1c e9 bd 30 c6 16 bd b4 86 a2 bb
       0.076031804 -0.11382376 -0.0368101 -0.0049599055
000060 42 27 34 bd 31 7a 1f bd 9f 60 c6 bb ee 4c c6 bc
       -0.04398275 -0.03893489 -0.0060539986 -0.024206605
000070 cd e6 29 3d 4f ac 3f bc 22 b3 3e 3d 37 b0 3c bd
       0.041479874 -0.011698796 0.046557553 -0.04606649
000080 39 81 27 be 0f c9 49 3c 09 4c c4 3c e8 8e 29 be
       -0.16357888 0.0123160025 0.023962038 -0.1655842
000090 4c d3 8b 3b 3d 2a 0a 3e df 3b 00 bd 6d a8 90 3d
       0.004267132 0.13492675 -0.031307098 0.07063375
0000a0 27 a5 bd bd 06 57 ff ba 54 23 8d 3d bf ba 99 3c
       -0.09260016 -0.0019480891 0.06891504 0.018765805
0000b0 ad 27 a4 3d d6 98 84 3c b1 6b 77 bc 31 e4 c5 bd
       0.0801538 0.01618616 -0.015101359 -0.09662665
0000c0 ee a0 d3 3c 34 94 a8 3c 8e 60 27 3e aa c6 ba bd
       0.025833573 0.020578481 0.16345426 -0.091199234
0000d0 ba f6 31 3e cf 38 76 bc bf c4 9c 3d d2 f6 36 3d
       0.17379275 -0.015028193 0.07654714 0.04466898
0000e0 57 df 35 bd 25 44 20 3d 51 6d f7 bd 87 31 80 3c
       -0.044402447 0.039127488 -0.12081397 0.015648616
0000f0 4e d0 2b 3d c0 d4 8b 3d 4a 98 00 3e 76 35 91 bd
       0.0419467 0.06827688 0.12558094 -0.07090275
000100 19 5f 2f bd e5 95 d8 3d 45 a7 98 bd 44 5f 08 3d
       -0.0428153 0.10575465 -0.07453779 0.033293977
000110 49 f0 44 bd 47 a4 0b 3e 81 17 66 3c d8 eb 47 3e
       -0.048080716 0.13636886 0.01404369 0.19523561
000120 bc 2b b3 3d 05 f9 3f bd 03 be a6 3d 4f 5c ae 3a
       0.08748576 -0.046868343 0.081417106 0.0013302657
000130 7c fb 1a be 76 19 02 be ae 49 09 3d 2e 02 3b bc
       -0.15134996 -0.12705025 0.033517532 -0.011414094
000140 dc c1 14 3e 4f c1 bb 3d ff 19 d3 bd 7c c2 69 bd
       0.14527076 0.0916773 -0.10307693 -0.05707024
000150 9a cb bb 3b 11 76 d6 bc d4 44 84 bd 7b 76 84 bd
       0.0057310583 -0.026179345 -0.064584404 -0.06467911
000160 54 af ba bd 9b ad 32 bd 18 a9 55 3c 0c bb 5f 3c
       -0.091154724 -0.043622594 0.013040803 0.013655435
000170 c3 dc a1 3d 15 68 b9 bc 86 a3 5c be 48 9f 96 3c
       0.07903435 -0.022632638 -0.21546754 0.018386498
000180 19 cb 3d bd dd 41 e9 3d 13 58 3b bc 1b 58 14 3e
       -0.046336267 0.113895155 -0.011434573 0.14486735
000190 36 d2 7b bc b7 5b e1 bc 40 f9 a5 bd 1d a0 6d bc
       -0.015369942 -0.027509553 -0.08104181 -0.014503506
0001a0 c2 de 91 3d 01 3e e1 bc 89 6a 3f be 84 e6 d6 3d
       0.07122566 -0.027495386 -0.18692984 0.10493186
0001b0 60 fd 28 bd cd 70 37 3d ec 88 c2 3b ca ef 44 3d
       -0.041257262 0.04478531 0.0059367325 0.048080243
0001c0 30 89 0f 3e c5 4f ab 3d d4 2a 32 3d 45 3b 41 3e
       0.14017177 0.08364824 0.043497875 0.18870266
0001d0 bf 2a b0 3d 6a cd d5 3d c5 6e 26 bd 99 ac b8 3d
       0.08601903 0.1043957 -0.04063298 0.090172954
0001e0 61 8d 5e bd 67 3f 48 3d 75 ad 23 bd 09 13 cd bd
       -0.05433405 0.04888859 -0.039960343 -0.10013396
0001f0 d8 41 f8 bc 3c f9 ee 3c 52 12 bd bd 02 aa d9 3d
       -0.030304834 0.029171579 -0.0923201 0.106281295
000200 6f ca da 3d 0d eb 54 3d b6 a6 85 3d 13 fc f4 bc
       0.106831424 0.051981974 0.06525938 -0.029905355
000210 bc d5 85 bd 67 37 82 bd 33 50 48 bd de 8d a8 bd
       -0.06534907 -0.063582234 -0.04890461 -0.08230184
000220 6e c4 b4 bd c8 19 f0 3d 8d 61 8e be dc e1 9c 3d
       -0.088265285 0.117236674 -0.278088 0.07660267
000230 35 98 ee 3d 2c 2b 00 be 03 a1 a2 bc dc 7b 23 3e
       0.11650125 -0.12516469 -0.019852167 0.15965217
000240 a3 fe 90 bd 5a 3a cc 3c 8c 25 6c 3d ce 84 e2 bd
       -0.07079818 0.024930168 0.057652995 -0.11060487
000250 17 6d 0f be f3 d3 52 3c b4 75 1a be 65 a0 47 bb
       -0.14006458 0.012867915 -0.15083963 -0.0030460593
000260 91 49 ac bd 59 91 f1 3d a6 0a 6b 3d b2 38 ef bd
       -0.08412469 0.11795301 0.057383202 -0.11680736
000270 7b ea bc 3d bb 59 50 be 25 54 c6 bd 3b c2 53 3d
       0.09224411 -0.2034673 -0.09684018 0.051698904
000280 1b 84 bf 3d 72 4f 66 3d 3e 91 00 3e 34 af 42 be
       0.09351369 0.05622811 0.12555405 -0.19012147
000290 f6 2d 00 bd cf 0e d8 3b a8 39 0d 3e b3 8e a0 bd
       -0.03129383 0.006593562 0.13791525 -0.07839718
0002a0 fa fe bd 3d e2 7a b8 bd 92 d2 a7 bd 42 41 0d bd
       0.092771485 -0.09007813 -0.0819446 -0.034486063
0002b0 2b 7e a9 bc 9c b1 c9 bc 4c aa 8c bd fc 39 22 bd
       -0.020690044 -0.024620824 -0.06868419 -0.03960608
0002c0 3c f4 ca bc a6 d4 5a bd ec 2f 0a 3e 88 3b bb bd
       -0.024774663 -0.053425454 0.13494843 -0.09142214
0002d0 64 8c 0c bd e8 7e 1c ba 2d 2b 9e 3c 68 ba 21 3d
       -0.034313574 -0.0005969838 0.019307697 0.03948441
0002e0 4f 76 8e bc 5e 96 8b bd 11 2a d2 bd 2e c8 b9 bc
       -0.017390398 -0.0681579 -0.1026193 -0.02267846
0002f0 8c f3 f6 3b 6c 91 91 ba 8d 40 17 3d bb dc 14 3e
       0.0075363573 -0.0011105961 0.036926795 0.14537327
000300 2e 0f d5 3c 58 49 1e bd 9a dd 9b bd 05 0f e4 bc
       0.026008215 -0.038644165 -0.076106265 -0.027839193
000310 ee ba 2a 3d 8a b7 db bd 34 04 9b 3b 20 25 06 3c
       0.041682176 -0.10728367 0.0047307257 0.008187562
000320 58 d3 87 bd 91 a8 3a 3b c8 41 07 be eb 5e 8d 3d
       -0.066321075 0.002848182 -0.13208687 0.0690287
000330 ff 87 b8 3c e6 ec 33 bd 3a 4c 50 bd 75 ee ed bb
       0.022525785 -0.043927096 -0.050853945 -0.0072610923
000340 fe f9 3b be fc 1c 4b be d7 7f 47 3d 06 e2 c1 3d
       -0.18357083 -0.19835275 0.048705902 0.09466939
000350 e8 ba 94 bd 9b f7 f6 3d ff 61 5f bd a8 ca a8 3d
       -0.07262212 0.12058946 -0.054536816 0.082417786
000360 fb f3 b6 3d d8 ae 07 bc 28 87 89 bd 02 ab f3 bc
       0.08933254 -0.008281432 -0.06715232 -0.029744629
000370 ec c0 bc 3d 09 74 f9 bb 2e ac a7 3d 43 8c 0f bd
       0.092164844 -0.0076127094 0.081871375 -0.035045873
000380 f6 f4 ec 3d bd c1 8f bd df 23 02 bd 06 0c b0 bd
       0.1157016 -0.070193745 -0.03177249 -0.08596043
000390 24 31 e5 bd 25 da 2f bd b2 d6 34 3e c4 3f b3 3c
       -0.111910135 -0.04293265 0.17660025 0.021880992
0003a0 c7 b4 84 3e a3 ad 73 3d 5c 98 d8 bd 87 70 c1 3d
       0.25919172 0.059491765 -0.10575935 0.09445291
0003b0 d2 78 91 bc d8 b3 c9 bd 88 99 3a 3d 17 50 89 bd
       -0.017757807 -0.098487556 0.045556575 -0.06704729
0003c0 84 07 f7 3d 0c a2 27 be 57 5f 59 bd 6f 8d b8 3b
       0.1206198 -0.1637041 -0.05306944 0.0056320946
0003d0 6c 12 08 be 39 28 9a 3d 51 5e 9e bd b5 09 5c 3c
       -0.13288277 0.07527203 -0.07732833 0.013430049
0003e0 e6 25 2a 3e c8 9d 39 3d 86 32 4e bd 6a 44 12 3e
       0.1661602 0.045316488 -0.05034115 0.1428391
0003f0 2c 36 06 bc 22 55 18 3c 07 24 b6 bb 85 18 93 bb
       -0.0081916265 0.009297641 -0.005558494 -0.004489007

gconv1.1.W.bias f4 [140]
000000 f7 28 74 bd b0 5e 3d bc 1c 31 a1 bd 2c f0 7c 3d
       -0.05960938 -0.01155822 -0.07870695 0.061752483
000010 f7 b0 3f 3d 11 e2 86 3d 38 ed 23 bd 24 dc a4 3c
       0.046799626 0.065860875 -0.04002115 0.020124502
000020 9c 54 f3 3c c0 b2 44 3d 8f 26 0b bd 1e 81 48 bd
       0.02970343 0.04802203 -0.03397232 -0.04895126
000030 75 e1 8a bd 33 30 84 3d 5d 47 8a bd 2c da 80 3d
       -0.06781284 0.06454506 -0.06751893 0.06291613
000040 a3 9c 97 3d f5 97 04 3d ed 28 94 3c e3 1c e9 3b
       0.07402923 0.03237148 0.018085921 0.0071140393
000050 49 46 07 bd ef 14 7d bb de de fc bc 25 96 8b 3c
       -0.033026014 -0.0038617214 -0.03086799 0.017039368
000060 9f 82 62 3d 29 f2 29 3a 72 d0 a3 bd cd 12 41 bd
       0.05530035 0.0006482923 -0.07998742 -0.04713707
000070 d4 13 3b bd 6b 16 61 bd 11 e2 33 3c ce bd 99 3d
       -0.045673206 -0.05495302 0.010979191 0.075069055
000080 ae f7 a4 3d 5a 8f 71 3d c1 95 c9 3b ab 24 81 bc
       0.08055054 0.0589746 0.0061518853 -0.015764555
000090 72 f4 97 3d bc 70 9f bd 4a 02 da bc 04 04 98 3b
       0.07419671 -0.07785174 -0.02661242 0.0046391506
0000a0 98 10 89 3c 4b f3 a8 3d 21 18 8c 3d 16 6d 17 bd
       0.016731545 0.082495295 0.0684054 -0.036969267
0000b0 ed 1d 89 bd 3a f0 5d bd af b5 7f 3d 28 e3 8d 3c
       -0.06695161 -0.054184176 0.062429126 0.01732023
0000c0 0f 41 93 3d 7f f7 90 3d 9b ae 9c bd e0 9a 9c bc
       0.07190143 0.07078456 -0.07650491 -0.019116819
0000d0 ae 1e 8f 3d fd 27 31 bd ad b8 fb 3c 5b 9b b4 3c
       0.069882736 -0.043251026 0.030727709 0.022046736
0000e0 3f d5 2a 3c 3a 9a a0 3d d9 f5 22 3c 3b c3 9b 3a
       0.010426818 0.078419164 0.00994631 0.0011883745
0000f0 5e 95 b3 38 7f 12 04 3d 76 9f 4d 3d d5 f5 71 bd
       8.563207e-05 0.0322442 0.050200902 -0.059072334
000100 df fe 47 3d 3e 88 78 3a fb 18 48 3d 3e 6a 58 bd
       0.04882705 0.0009480751 0.04885195 -0.052835695
000110 43 8c b4 bb ee 2a 46 3d 6d 53 90 3d a8 da 70 3d
       -0.0055098846 0.048380785 0.07047162 0.058802277
000120 bc 3d 5d b8 40 11 84 bd 78 ad cf 3c d2 d4 8a bd
       -5.2748e-05 -0.06448603 0.025351271 -0.067788735
000130 73 79 44 bd 4f df b2 bc 68 ba 5a 3c dc a0 2c 3b
       -0.047967386 -0.021834997 0.013350107 0.0026340997
000140 77 d8 85 3c 7e f8 66 bd 0f 0d a3 3c cd e6 4e bd
       0.01633857 -0.056389324 0.019903688 -0.050513078
000150 a0 61 a7 bd ad 7a 14 3d 49 b3 44 bd 3f 03 9b 3d
       -0.08172917 0.036249805 -0.048022542 0.075689785
000160 eb ac a2 bd 45 41 7a bc ab a8 19 bc 6b f1 66 3d
       -0.07943138 -0.0152743505 -0.0093785925 0.056382578
000170 22 3a d6 bc 57 0a bf bc 83 38 12 3d 5a 78 44 bd
       -0.026150767 -0.02332036 0.035698425 -0.04796634
000180 22 92 ff bb 37 31 26 bd dc 4d 94 3d 3a 91 b7 3c
       -0.007799403 -0.04057428 0.07241413 0.022408117
000190 d1 85 23 bd 28 fe e3 bc 33 55 9a 3c 52 e2 52 3d
       -0.03992254 -0.027831152 0.018839454 0.051485367
0001a0 b4 8b 78 3d a1 62 3e bc d2 f7 55 3d 59 72 7a bd
       0.060680106 -0.011620195 0.052238293 -0.061144207
0001b0 32 b9 67 bd 85 b6 aa 3d 2e 79 a6 3d f4 97 85 bd
       -0.0565731 0.08335594 0.08128582 -0.065231234
0001c0 55 e8 9c 3d 96 2f de 3c 1b 81 2c 3c 77 7e 5f 3c
       0.07661501 0.0271223 0.010528828 0.013640991
0001d0 5f c4 4e bd cb cc 0b 3c 46 43 a3 bd a5 62 57 3c
       -0.050480243 0.008532713 -0.07971816 0.013146077
0001e0 01 83 65 3d 5a 14 3b bd 86 5b 9c bc 98 19 7d 3d
       0.05603314 -0.045673706 -0.01908661 0.061791986
0001f0 1b 4e 0e bd 3b 05 22 3d e0 6a 75 bd 37 0e 32 bd
       -0.034742456 0.03955577 -0.059916377 -0.043470588
000200 bb a1 29 bd 30 3f a8 bd be 2c a3 bc f3 91 a6 3c
       -0.041414004 -0.08215177 -0.019918796 0.020333266
000210 72 c7 0e bd 4b 70 2c 3d 9a 38 a5 bc 0f 33 6e 3d
       -0.034858175 0.04209928 -0.020168591 0.058154162
000220 cb 96 26 3d 98 1c 71 3d d8 f1 46 bd b8 74 86 3b
       0.04067115 0.05886516 -0.048570484 0.0041032694

gconv1.1.gate.weight f4 [1, 280]
000000 50 a7 a7 bb e8 b3 1f bc 6d 37 00 be 59 a8 3a bd
       -0.0051163808 -0.009747483 -0.12521143 -0.045570705
000010 cc 13 9f bd 4f fb 32 3e 00 45 93 bd bc 26 0f bd
       -0.07767448 0.17478679 -0.07190895 -0.03494905
000020 80 7c 0e 3c cb 6a 86 bd b9 2b 2a 3e 5e 55 16 be
       0.008696675 -0.06563338 0.16618241 -0.14681002
000030 4b 9b d1 bc 23 f8 af bd 92 da 26 bc b7 7f d4 3d
       -0.025586745 -0.0859225 -0.010183947 0.10375922
000040 5c da 65 3d c9 18 cc bc 53 fb 49 bd 9b ad 6e 3d
       0.056116447 -0.024914162 -0.049311947 0.05827103
000050 21 63 03 3e ab 1a 19 be 7d ab 86 3c 41 f3 cc 3c
       0.12830783 -0.1495158 0.016439194 0.025018336
000060 e5 51 9b 3d 4e 6d 06 3e 4f f3 da 3c 23 7b d4 3d
       0.075839795 0.13127634 0.026727347 0.10375049
000070 6b 03 85 3c 7f 4f 6a 3c bf 80 d0 bc ba 33 b0 bd
       0.016236981 0.01430118 -0.025452016 -0.08603616
000080 80 5c 5c 3d be 1e 6d 3d 46 ad 93 bd 29 2e 04 bd
       0.053799152 0.057890646 -0.07210784 -0.032270584
000090 77 bb b3 3d 08 19 c0 3d 0b ea e3 bd 72 5e 53 bc
       0.087759905 0.09379774 -0.111286245 -0.0129009355
0000a0 4f 8d 00 3e 12 79 8b 3d 2d bb 73 3c de e9 1c be
       0.12553905 0.06810202 0.014876169 -0.15323588
0000b0 a6 70 ba 3d 52 40 0c be bd d8 c9 3c 70 5b 07 bd
       0.09103517 -0.13696411 0.024639482 -0.033046186
0000c0 49 79 a9 3d 6b dd a7 3d f8 4f 80 38 40 75 7c 3d
       0.082750864 0.08196529 6.118411e-05 0.061635256
0000d0 b2 e0 01 bd 39 bb 92 bd 35 85 2b 3c 0d ff e1 bd
       -0.031708427 -0.07164616 0.010468771 -0.11034975
0000e0 f3 00 88 3b d6 0b 61 3d 7d c9 c5 bd 6e 67 88 3c
       0.004150504 0.05494293 -0.096575715 0.016650882
0000f0 31 cd 25 bc b2 0c eb bd 39 ea 70 be 31 86 51 be
       -0.010119722 -0.11477031 -0.23526849 -0.20461346
000100 9b e9 97 3d c9 7d 36 bc 1b 7f 0d 3b 04 33 da 3d
       0.074176036 -0.011138388 0.0021590653 0.10654262
000110 a0 77 fc bc 62 60 43 3d 3c 5c 0d bc ff 5b a5 3d
       -0.03081876 0.04769934 -0.008627947 0.080741875
000120 f9 24 14 3e 55 55 8c 3c 6c 7a 40 bd 2d 6f ce 3d
       0.14467229 0.017130533 -0.04699175 0.10079799
000130 c0 78 fb 3c 43 a2 b8 bd f5 f7 7f 3d 64 e4 b3 bd
       0.030697227 -0.09015324 0.06249233 -0.087837964
000140 a6 40 90 bd 2d f9 1d 3d 7e 0f a2 ba df 40 96 bd
       -0.07043581 0.03856771 -0.0012364236 -0.07336592
000150 ea d1 56 bd 04 d8 04 bd 6e 30 c8 3d d5 b1 eb bd
       -0.052446283 -0.03243257 0.09774862 -0.11508528
000160 37 7f 75 bd f9 d1 89 bb e3 7c f6 bd d9 d9 82 bd
       -0.059935775 -0.004205939 -0.12035539 -0.063892074
000170 51 d1 1a 3d 06 9a 7d bd d5 d7 95 bd 25 3a e1 bc
       0.037797276 -0.061914466 -0.07316557 -0.027493546
000180 23 d6 cc 3d 98 f2 78 3d 7b e3 9f bc 77 7b d4 3d
       0.10001781 0.06077823 -0.01951765 0.103751116
000190 04 bb 04 3b 37 28 d4 3d f6 a1 aa 3c 9c 7c 9c bb
       0.0020253072 0.10359233 0.020829182 -0.004775597
0001a0 22 1a fa bc 0e 84 d7 bd 8a fc 6b bd 76 1f 5f 3d
       -0.03053004 -0.10523234 -0.057613887 0.054473363
0001b0 53 4b 2b bd f1 35 70 3d 00 53 c1 3c 1d 4d 71 3d
       -0.04181988 0.058645193 0.023599148 0.05891143
0001c0 a2 51 ea 3d 31 85 25 bd 99 8d 64 3c c0 bf 89 bc
       0.114413515 -0.040410224 0.013949775 -0.016815066
0001d0 3e 4c 58 3d 0a 07 9b 3d 98 1e 82 bd 4d 1e 7a 3d
       0.052807085 0.07569702 -0.063534915 0.061064053
0001e0 08 12 00 be 1a 8a 2a be f8 48 f9 3d 5b a5 83 bd
       -0.12506878 -0.16654244 0.12172121 -0.064280234
0001f0 ae 21 b5 bd 1c f6 1a 3e 94 cb df bd 63 9b 73 3d
       -0.088443145 0.15132946 -0.10927501 0.05947436
000200 4e a4 37 3d 8c 57 74 3d 6c 63 1b bd b7 6f 14 bc
       0.044834428 0.059653804 -0.037936613 -0.009059838
000210 7b 88 84 3c 54 c0 d5 3d eb d0 c2 bd df 66 4f 3d
       0.01617836 0.10437074 -0.09512504 0.050635215
000220 70 38 f5 3d b8 fc 76 3d aa 5c 27 3e a4 d9 ea bc
       0.11973655 0.060299605 0.16343942 -0.028668232
000230 21 9a 60 3d e8 cb cb 3c d4 13 71 3d 33 2c 70 3d
       0.05483449 0.024877504 0.0588568 0.0586359
000240 64 51 ed 3d 43 62 9c bd 2a 73 a5 3b ec 39 58 3d
       0.1158779 -0.076359294 0.005049129 0.052789614
000250 df 54 a8 3d 38 31 ab 3d f5 3e e8 bc 62 43 76 bd
       0.08219313 0.08358997 -0.028350333 -0.060122855
000260 a4 20 d9 ba 27 2f d7 bd 49 0c 08 3d fc 43 9a bd
       -0.0016565514 -0.105070405 0.03321484 -0.07532498
000270 f7 69 33 3d 58 c2 1d bd de b5 1a be de 2d d7 bd
       0.043802228 -0.03851542 -0.1510844 -0.10506795
000280 f6 4a ad 3d e3 80 a2 bd 0f cb 10 be ec bf 0e be
       0.08461563 -0.079347394 -0.1413996 -0.139404
000290 6d 89 9b 3d 3d 69 30 3e c0 b0 3b 3e 1a d9 e3 3d
       0.07594571 0.17227645 0.18329144 0.11125393
0002a0 a7 fa 8c bc 98 82 de 3c 17 a3 79 3d 9e ae 14 bc
       -0.017209364 0.027161881 0.06094655 -0.009074835
0002b0 9c c7 e4 bd fc d0 38 3d 9b c9 d0 bd f6 68 23 3e
       -0.11170885 0.045121178 -0.10194703 0.15958008
0002c0 d7 e8 1b bd 22 af b6 3c 97 e5 25 bd c5 6c 0f bd
       -0.03806385 0.022300307 -0.040502157 -0.03501584
0002d0 f2 fa 15 bd 22 e4 21 3c c8 cf a3 3b b9 5c 0c 3e
       -0.036616273 0.009881051 0.0049991347 0.13707246
0002e0 ac cb 1c 3d d0 e0 24 3d 7b 86 e1 3c 24 9d 43 3c
       0.038280174 0.04025346 0.027529946 0.011939321
0002f0 34 b5 7e bd 19 e9 b3 3d 1f 4d 02 3e c7 81 df bd
       -0.062184528 0.08784694 0.12724732 -0.10913425
000300 c8 37 34 bd 6c a1 f8 bd df b4 07 3d 48 2e 6b bd
       -0.04399851 -0.12140164 0.033131476 -0.057417184
000310 93 b8 34 bd d8 10 00 be c3 88 37 3d ca 95 ad bd
       -0.044121336 -0.12506425 0.04480816 -0.084758356
000320 32 32 b0 3d 3b 19 84 bd 70 24 ad bd 28 15 a9 bd
       0.08603324 -0.06450125 -0.084542155 -0.08255988
000330 f5 31 b8 3d f3 0d 34 3e 48 10 fb ba 98 2d a1 3d
       0.089939035 0.17583446 -0.0019154632 0.078700244
000340 41 96 f4 3d 9f 0e 9c bd bb 60 08 be e5 ff 35 bd
       0.11942721 -0.07619976 -0.1331815 -0.044433493
000350 9d a9 ff 3d ac 32 9f bd 3b 15 a2 3d b5 8a 02 3e
       0.12483523 -0.07773337 0.07914206 0.12748225
000360 20 1f a1 3c 67 84 04 bd ea 62 73 3a d7 5e c3 bd
       0.019668162 -0.03235283 0.00092844537 -0.09539574
000370 d6 ae 06 3d e5 cd a8 3d 82 bd 96 bd 98 bc 74 bd
       0.03288158 0.08242396 -0.073603645 -0.05975017
000380 0b 63 bd 3a aa 4a b1 3d 55 95 69 3d da ef 5d be
       0.0014449073 0.08656819 0.05702718 -0.21673527
000390 59 38 0b 3e d2 6f 00 bd da ab 7a bd a0 dd 01 bd
       0.13595714 -0.03135664 -0.061199047 -0.0317055
0003a0 79 b4 89 bc 5a e9 71 bd 23 9e b9 3d cf 9b 1d bc
       -0.016809689 -0.059060432 0.09063365 -0.009619667
0003b0 2f b2 d5 bd 47 54 d2 bc 1a 91 90 3c 47 a2 93 3d
       -0.104343764 -0.025674952 0.017647315 0.07208686
0003c0 b6 cb 96 bd 85 58 71 3d 17 ca a6 3d fc b2 bf bc
       -0.073630735 0.05892231 0.08144014 -0.023400776
0003d0 ef 7f 90 3d 68 bc 12 3b c6 41 50 bd 57 02 04 3d
       0.070556514 0.002239013 -0.050843976 0.032228794
0003e0 73 9f 01 3e 15 f7 17 be 29 f0 df 3d e9 1a 83 bc
       0.12658481 -0.14840348 0.10934479 -0.016004043
0003f0 f0 b0 b4 3d 72 1a 25 bd 2e 50 06 39 c3 27 3f 3d
       0.08822811 -0.040308423 0.00012809105 0.04666878
