save/save_2.pt (torch, 880006 bytes, 24 tensors)

gconv1.0.A f4 [140, 140]
0.03474469 -0.04465582 0.014990839 0.02263618 -0.060856428 -0.056419257 -0.013451127 -0.07086039
-0.061007053 -0.109737486 0.07688825 0.074695565 -0.15223286 0.08153074 -0.073180966 -0.0906315
-0.033654626 0.15602092 0.031656805 0.029316213 0.15795177 0.06549104 0.0015489088 -0.07207586
0.025797412 -0.028016156 0.26418498 0.029017566 0.07380471 -0.059937704 0.01889245 -0.03257293
0.05165619 -0.029828615 -0.13613354 0.15344185 -0.11575806 -0.0078302855 0.013711259 -0.015777955
-0.0333039 -0.22895926 -0.013880568 -0.085830204 0.14708996 0.11951764 0.0434275 -0.025273852
-0.14315936 0.094319336 -0.01922148 0.061843436 0.09832052 0.1111337 -0.0063239755 0.06861909
-0.054773312 -0.012331971 -0.13177724 -0.04321582 -0.03101747 0.04293747 -0.034063164 -0.16339031
-0.012745023 -0.07477791 0.025442071 -0.23573412 0.02126448 0.028589485 0.08139061 -0.056448855
-0.09736575 0.09358924 0.122958474 0.054426365 0.06890184 -0.0647167 0.002728187 0.026458515
-0.10955504 0.1493358 -0.11368918 0.034004144 -0.051824942 -0.010264606 0.05931679 0.17482333
0.012593339 0.01054589 0.008080618 0.04403575 -0.020475477 -0.060671657 0.0048407326 -0.039811477
-0.112710916 0.009016387 -0.07768383 -0.040351965 0.038770016 -0.16152142 -0.085505605 -0.07667273
-0.011430407 0.0031598834 -0.091941 0.009484727 -0.16630128 -0.02965152 0.02449298 0.04579268
0.116231754 -0.046006266 -0.02520258 -0.00016851194 -0.044126637 -0.06723906 -0.04487081 -0.11501116
0.05453854 -0.03255931 0.11845982 0.06900718 -0.018992126 -0.086393796 -0.014864738 -0.043731734
0.22761829 -0.057192057 0.041150372 0.18240131 0.008926988 0.10325742 0.047419 -0.046466086
0.090859085 -0.103611425 -0.040413257 0.068124145 0.011158216 0.0036287361 0.071382165 -0.023411963
-0.06277721 -0.18247981 -0.108193554 -0.0010008342 -0.09776921 -0.025163634 -0.0911046 0.014035003
0.07065547 0.08790189 0.0745288 -0.020492163 -0.003937385 -0.00093185937 0.020045072 0.012169537
0.020143759 -0.056122497 -0.12801811 0.035799228 0.03467357 -0.007212229 -0.074514695 -0.0950917
0.031267088 0.071680374 -0.13826242 0.014772853 -0.09851695 0.11568942 -0.048751507 -0.034020558
0.06521645 -0.0071837907 0.09731131 0.10547198 0.041178975 0.13972275 -0.11814916 -0.06786297
0.03986003 -0.10898791 0.036450535 -0.029830242 -0.0110274935 -0.14151058 0.08717657 -0.0771381
-0.07994944 0.14701195 -0.026088463 0.05096117 0.08260983 -0.030658927 0.03279667 -0.15744692
-0.17687403 -0.123829976 0.04564395 -0.1400632 -0.01276705 -0.019915463 0.11078687 -0.14163752
-0.039893515 -0.030287188 -0.034425884 0.071400434 -0.009182567 0.09920108 -0.060782846 0.01855049
0.06556055 0.15005165 0.12117056 -0.08414655 -0.029773165 -0.13719982 0.014596871 0.04400861
-0.017158039 -0.03402224 -0.12768832 -0.04217865 0.08554063 -0.15100577 -0.058597516 -0.09569533
-0.12632984 0.11140422 -0.030145174 -0.14687243 -0.07289558 0.079446025 -0.08100557 0.10047977
0.0598071 -0.07448051 -0.061347913 0.16414322 -0.0029072845 0.0037313402 -0.02659509 -0.10565689
-0.008263258 0.05799465 0.05771393 0.09359533 0.08733185 -0.13867983 -0.01942374 -0.03333185
00000000: 7350 0e3d 05e9 36bd 239c 753c 836f b93c
00000010: 9744 79bd e117 67bd 1e62 5cbc 411f 91bd
00000020: 88e2 79bd 0cbe e0bd 9677 9d3d fdf9 983d
00000030: eee2 1bbe 97f9 a63d e7df 95bd 029d b9bd
00000040: 6fd9 09bd f3c3 1f3e 91aa 013d 8e28 f03c
00000050: 1cbe 213e 2b20 863d c104 cb3a 829c 93bd
00000060: 1855 d33c 2382 e5bc 4143 873e 3fb6 ed3c
00000070: ec26 973d 3d81 75bd 57c4 9a3c 316b 05bd
00000080: 7195 533d 245b f4bc 9766 0bbe dc1f 1d3e
00000090: 9012 edbd 994a 00bc 30a5 603c c540 81bc
000000a0: ac69 08bd 4c74 6abe 526b 63bc bfc7 afbd
000000b0: c09e 163e aac5 f43d 09e1 313d 1c0b cfbc
000000c0: 5e98 12be 7f2a c13d 5d76 9dbc 8b4f 7d3d
000000d0: 455c c93d 119a e33d 5a39 cfbb 2a88 8c3d
000000e0: fb59 60bd 090c 4abc 9df0 06be 1203 31bd
000000f0: 5918 febc 33df 2f3d d185 0bbd ca4f 27be
00000100: 80d0 50bc 2925 99bd e46b d03c 4964 71be
00000110: d932 ae3c 7f34 ea3c 1fb0 a63d ea36 67bd
00000120: b267 c7bd b7ab bf3d a7d1 fb3d 2eee 5e3d
00000130: 681c 8d3d 308a 84bd 62cb 323b 87bf d83c
00000140: 655e e0bd 7ceb 183e dfd5 e8bd ee47 0b3d
00000150: 6446 54bd e12c 28bc 2af6 723d e304 333e
00000160: 4b54 4e3c abc8 2c3c 9264 043c d55e 343d
00000170: 30bc a7bc d882 78bd 029f 9e3b 5c11 23bd
00000180: fbd4 e6bd 78b9 133c b318 9fbd 1a48 25bd
00000190: 4fcd 1e3d df65 25be 901d afbd 9806 9dbd
000001a0: 9a46 3bbc 0c16 4f3b 904b bcbd d465 1b3c
000001b0: e24a 2abe bfe7 f2bc 81a5 c83c 1b91 3b3d
000001c0: ea0a ee3d 1171 3cbd a475 cebc 94b2 30b9
000001d0: 22be 34bd a2b4 89bd 74ca 37bd f98a ebbd
000001e0: ce63 5f3d e95c 05bd 109b f23d a353 8d3d
000001f0: 6095 9bbc 3bef b0bd 3b8b 73bc 0c20 33bd
00000200: c514 693e 3842 6abd 4b8d 283d 69c7 3a3e
00000210: 8042 123c a078 d33d 6d3a 423d 3953 3ebd
00000220: 5414 ba3d 3a32 d4bd 5f88 25bd ac84 8b3d
00000230: f3d0 363c 17d0 6d3b d030 923d 72ca bfbc
00000240: 5691 80bd fddb 3abe 9594 ddbd 6c2e 83ba
00000250: 393b c8bd f723 cebc 0c95 babd 12f3 653c
00000260: d1b3 903d e805 b43d 8ea2 983d 2edf a7bc
00000270: 2e05 81bb 0648 74ba 9035 a43c bd62 473c
00000280: 8604 a53c b4e0 65bd 2e17 03be 36a2 123d
00000290: e005 0e3d 9054 ecbb 299b 98bd 70bf c2bd
000002a0: eb11 003d 29cd 923d aa94 0dbe d609 723c
000002b0: 41c3 c9bd 93ee ec3d a9af 47bd 2459 0bbd
000002c0: 3490 853d 0166 ebbb 274b c73d b201 d83d
000002d0: 49ab 283d 7b13 0f3e 30f8 f1bd befb 8abd
000002e0: 4544 233d 0e35 dfbd 284d 153d 8d5e f4bc
000002f0: a9ac 34bc 26e8 10be a189 b23d 95fa 9dbd
00000300: 88bc a3bd 4d8a 163e 79b7 d5bc a9bc 503d
00000310: 582f a93d 6e28 fbbc cd55 063d c439 21be
00000320: 771e 35be 929a fdbd 27f5 3a3d ba6c 0fbe
00000330: e42c 51bc c125 a3bc 3ae4 e23d 6d09 11be
00000340: 6267 23bd d61c f8bc 2802 0dbd 643a 923d
00000350: 7a72 16bc f029 cb3d 6ff7 78bd 32f7 973c
00000360: 9c44 863d 24a7 193e 4528 f83d 0755 acbd
00000370: dae6 f3bc 1c7e 0cbe b727 6f3c 5f42 343d
00000380: 048f 8cbc e85a 0bbd bac0 02be 85c3 2cbd
00000390: ed2f af3d 42a1 1abe f303 70bd eafb c3bd
000003a0: 9c5c 01be e527 e43d 03f3 f6bc ba65 16be
000003b0: 474a 95bd 99b4 a23d 40e6 a5bd 56c8 cd3d
000003c0: 4af8 743d 3d89 98bd f347 7bbd 2915 283e
000003d0: 2488 3ebb 8089 743b f2dd d9bc a462 d8bd
000003e0: 9e62 07bc cc8b 6d3d 7165 6c3d e9ae bf3d
000003f0: 0adb b23d 1602 0ebe 891e 9fbc fa86 08bd

gconv1.0.W.weight f4 [140, 140]
0.033560086 -0.022066196 0.01889848 -0.12509438 -0.07078764 0.10385254 0.088186964 0.11470518
0.16515225 0.08297102 0.09039395 -0.003113174 -0.077908404 -0.0137877865 -0.13567692 0.06592586
0.059544366 -0.13781671 0.07996971 0.014521177 0.088461585 0.09967527 0.055922035 0.019817032
-0.043066382 -0.042603202 -0.13575642 0.04494816 0.19693667 0.19319429 -0.06996768 0.05348319
0.044180404 0.0955871 0.042015497 0.009315608 -0.06588052 0.15186048 -0.054334234 0.095813245
0.038392592 -0.022632146 -0.1638387 -0.0651559 0.012256691 -0.14966254 0.08201871 -0.10972248
-0.19610427 0.047779746 -0.06986348 0.047249097 0.041734353 -0.049000274 -0.05895418 0.008399033
0.052186996 0.10159709 -0.015200821 0.02218646 0.003498761 0.1663989 -0.0461471 -0.094100796
-0.05820946 -0.06174101 -0.08009744 -0.06710395 -0.11986508 -0.046098053 -0.012586835 -0.099377
0.2838635 -0.04488569 -0.03582921 -0.03694748 0.03158877 -0.036118824 -0.10456685 0.01272481
0.03739137 0.17566839 -0.03744161 0.019356426 0.047594957 -0.073787786 -0.18522194 0.03348173
0.08186394 -0.0806398 0.091226175 -0.10582573 0.055178773 0.16422766 -0.036502857 0.08992894
0.12197497 -0.019999422 -0.057585698 -0.11205883 -0.033013873 -0.04321304 0.045875728 0.18317309
-0.047520924 0.062732086 -0.03433303 0.0038245677 0.036894266 -0.2309687 0.048908137 0.12014105
0.050050654 -0.049313355 -0.14764321 0.004951664 0.124139115 -0.03727738 -0.082628496 0.042672053
0.02609026 0.027702413 -0.051993158 0.0029094368 0.18615721 -0.08699765 0.08461006 -0.14331704
-0.059601273 -0.025777966 0.021780392 0.088062026 -0.12014797 -0.040866673 0.20113346 0.047820896
-0.11553107 -0.0056475643 0.25787416 -0.27444962 0.004745972 0.14085087 -0.03312471 0.05750473
0.06554062 0.041294258 0.010958813 0.043310948 -0.058717337 0.16081654 0.009974734 -0.15258001
-0.15816015 -0.057717565 -0.0038564296 0.0985636 0.07455909 -0.15086134 0.04224886 0.10959581
-0.16138642 -0.04272947 -0.018602863 0.014992507 0.0012481888 -0.009889274 0.052645784 0.12713507
0.027939186 -0.00019514082 -0.05109286 0.016944649 -0.08937694 0.022710845 -0.001147276 -0.046298604
0.078882016 -0.07548129 -0.16609758 -0.07917399 -0.15019631 -0.09371277 0.101537056 0.06677205
0.065328054 0.14052255 0.104948975 -0.057759963 -0.010179386 0.074711405 0.11324877 0.042226873
-0.05589975 0.07567834 0.14054228 -0.1280998 -0.03044281 -0.1423164 -0.11369401 -0.064866535
-0.060267057 0.0251865 0.03192877 -0.018545194 0.10763249 -0.062102217 -0.0053727487 -0.06911955
0.072006166 0.02111939 -0.13206552 0.01523774 -0.038537223 0.07289567 -0.049811147 0.013280806
0.053585835 0.00031810498 0.030360267 0.08947368 0.012688 0.060659632 -0.050719004 -0.078218535
-0.029588252 -0.08039301 0.07561644 -0.06288877 -0.010754978 0.01859081 -8.8292414e-05 -0.06453166
-0.02823457 -0.048384532 -0.06032287 -0.018612625 0.0662425 0.072468065 -0.007760867 0.15548737
0.14377466 0.17127548 -0.05079538 0.14196464 -0.0054323943 0.03780097 0.12007231 -0.07471235
0.029141547 0.12904355 0.032227077 -0.028160965 0.21774861 -0.06059344 0.010859956 0.029955976
00000000: 4d76 093d 2bc4 b4bc fcd0 9a3c be18 00be
00000010: 1cf9 90bd a4b0 d43d 5e9b b43d 8dea ea3d
00000020: ac1d 293e b6ec a93d 7720 b93d 6506 4cbb
00000030: 718e 9fbd 2be6 61bc e4ee 0abe 2304 873d
00000040: cbe4 733d d31f 0dbe 29c7 a33d 3bea 6d3c
00000050: 592b b53d 8c22 cc3d 810e 653d 5457 a23c
00000060: 6066 30bd b280 2ebd bb03 0bbe 901b 383d
00000070: c4a9 493e b9d4 453e 374b 8fbd 3011 5b3d
00000080: 83f6 343d 2bc3 c33d 7118 2c3d 7ea0 183c
00000090: 5eec 86bd 5081 1b3e 938d 5ebd bc39 c43d
000000a0: 8d41 1d3d 0d67 b9bc 55c5 27be 7570 85bd
000000b0: 4ad0 483c 2341 19be 6df9 a73d 2eb6 e0bd
000000c0: 8fcf 48be b2b4 433d 9614 8fbd 4588 413d
000000d0: a4f1 2a3d 83b4 48bd f079 71bd 199c 093c
000000e0: 08c2 553d 2312 d03d dd0c 79bc 61c0 b53c
000000f0: 784b 653b 7964 2a3e be04 3dbd ebb7 c0bd
00000100: 0b6d 6ebd 24e4 7cbd 200a a4bd cc6d 89bd
00000110: d37b f5bd 50d1 3cbd 0339 4ebc 2b86 cbbd
00000120: 8f56 913e 0fda 37bd a6c1 12bd 3e56 17bd
00000130: 3a63 013d 55f1 13bd 2527 d6bd b97b 503c
00000140: b127 193d 6ae2 333e 605c 19bd 5e91 9e3c
00000150: eef2 423d 0d1e 97bd d2aa 3dbe 2324 093d
00000160: 48a8 a73d 7b26 a5bd cad4 ba3d 29bb d8bd
00000170: 2303 623d 4c2b 283e 0584 15bd aa2c b83d
00000180: 03ce f93d d4d5 a3bc fbde 6bbd 1a7f e5bd
00000190: 8e39 07bd 2800 31bd 30e8 3b3d ba91 3b3e
000001a0: 4da5 42bd ae79 803d cba0 0cbd 99a5 7a3b
000001b0: 711e 173d 0f83 6cbe e653 483d 830c f63d
000001c0: ea01 4d3d cdfc 49bd c82f 17be 9141 a23b
000001d0: a63c fe3d 2ab0 18bd 2139 a9bd e4c8 2e3d
000001e0: 3ebb d53c 2cf0 e23c c7f6 54bd 40ac 3e3b
000001f0: ff9f 3e3e d32b b2bd 0a48 ad3d b4c1 12be
00000200: 7720 74bd 502c d3bc cb6c b23c dd59 b43d
00000210: 2410 f6bd d063 27bd eef5 4d3e d8df 433d
00000220: 8e9b ecbd 340f b9bb 1508 843e a984 8cbe
00000230: 1984 9b3b 363b 103e c7ad 07bd 148a 6b3d
00000240: 293a 863d 2b24 293d 988c 333c d266 313d
00000250: 9781 70bd 17ad 243e 116d 233c ef3d 1cbe
00000260: bcf4 21be 4169 6cbd 27bc 7cbb b6db c93d
00000270: 70b2 983d 657b 1abe 240d 2d3d c573 e03d
00000280: 7b42 25be 1905 2fbd 0865 98bc 22a3 753c
00000290: 449a a33a 9f06 22bc 1ba3 573d b22f 023e
000002a0: b8e0 e43c b79e 4cb9 bf46 51bd 81cf 8a3c
000002b0: 420b b7bd 180c ba3c 3260 96ba 9ba3 3dbd
000002c0: e58c a13d ef95 9abd 7c15 2abe f925 a2bd
000002d0: 10cd 19be 7bec bfbd a9f2 cf3d c9bf 883d
000002e0: b7ca 853d 25e5 0f3e 7def d63d b695 6cbd
000002f0: 70c7 26bc 4b02 993d f9ee e73d 16f6 2c3d
00000300: 23f7 64bd 3ffd 9a3d 51ea 0f3e 982c 03be
00000310: 3363 f9bc 64bb 11be 68d8 e8bd bfd8 84bd
00000320: 97da 76bd eb53 ce3c bec7 023d 17ec 97bc
00000330: 6c6e dc3d e55e 7ebd e20d b0bb 8d8e 8dbd
00000340: f877 933d 9202 ad3c 2f3c 07be b7a7 793c
00000350: 35d9 1dbd 534a 953d c606 4cbd bd97 593c
00000360: d27c 5b3d 54c7 a639 18b6 f83c fa3d b73d
00000370: 54e1 4f3c 3c76 783d bbbe 4fbd 0a31 a0bd
00000380: 1063 f2bc 17a5 a4bd cbdc 9a3d d4cb 80bd
00000390: a635 30bc c14b 983c a129 b9b8 2d29 84bd
000003a0: 2f4c e7bc dc2e 46bd 1d15 77bd 8179 98bc
000003b0: 26aa 873d 236a 943d df4e febb 1538 1f3e
000003c0: aa39 133e d762 2f3e d10e 50bd 2e5f 113e
000003d0: 3a02 b2bb 31d5 1a3d 79e8 f53d ca02 99bd
000003e0: 41ba ee3c fe23 043e 8a00 043d d3b1 e6bc
000003f0: 7ef9 5e3e d430 78bd f5ed 313c 3c66 f53c

gconv1.0.W.bias f4 [140]
0.0809488 0.023300609 -0.06482029 0.016627342 -0.07561043 0.07398118 0.020708226 -0.063633114
0.016834496 -0.009140911 0.0499055 -0.039941527 -0.038114656 0.030871324 -0.077502206 0.011844621
0.067318566 0.047596004 0.018384218 0.050062645 0.04221928 0.028821731 0.014474072 -0.074999005
0.07461443 0.08003785 0.07747002 0.08183646 -0.05386491 0.08195769 0.008722062 0.013597444
-0.0054293857 -0.03259899 -0.068906 -0.021938436 0.046618897 -0.0572006 0.08364569 0.018133068
-0.05242975 0.06372248 0.06346432 0.0832684 0.07099875 -0.04087184 -0.069537796 -0.06974847
0.046686184 0.027970243 0.033134732 0.073169604 0.0044540013 0.03954667 0.02213199 0.0002010482
0.004600735 0.05577418 0.07339011 0.03961522 0.06478041 -0.0066780383 -0.08259885 -0.06941976
-0.035344858 -0.04012239 -0.07852125 0.01975974 0.027825465 -0.05841745 -0.02144398 0.08122249
-0.0154117895 0.064558126 0.035241116 0.06791261 -0.047924865 0.01909518 0.00010358112 -0.041701563
0.07711161 0.015931595 -0.024244625 0.0049650045 0.07918463 -0.07453394 -0.0032530962 -0.06511387
0.00992218 -0.07313372 0.07223767 0.064007625 0.060411103 -0.06517765 0.03244133 -0.03147508
0.01058668 -0.062129345 0.0006471807 0.06913739 0.076125085 0.055672828 0.016795656 -0.04566089
0.057595715 0.07924479 0.05861435 0.031756315 0.062997706 -0.060808804 0.08464377 0.0073330784
-0.020887751 -0.078274935 -0.03866074 -0.01869799 -0.014442943 -0.06401604 0.066563174 0.07472663
0.06683747 -0.056230113 -0.025250489 -0.021341225 0.07351371 0.012786919 -0.048974957 -0.025921602
-0.0400033 -0.016566379 -0.02865969 0.010112504 -0.045063466 -0.058359336 -0.0515295 0.015773214
0.03438562 0.0077244123 0.073954776 0.03790132
00000000: 7cc8 a53d ebe0 be3c 80c0 84bd 1036 883c
00000010: a4d9 9abd 7283 973d 4ca4 a93c 1452 82bd
00000020: 7fe8 893c c2c3 15bc b669 4c3d ba99 23bd
00000030: 1d1e 1cbd dce5 fc3c 7ab9 9ebd f10f 423c
00000040: 51de 893d 07f4 423d 809a 963c 7d0e 4d3d
00000050: 20ee 2c3d 8d1b ec3c a824 6d3c 1499 99bd
00000060: 73cf 983d e2ea a33d 9aa8 9e3d e099 a73d
00000070: 74a1 5cbd 6fd9 a73d fbe6 0e3c d0c7 5e3c
00000080: fde8 b1bb 8586 05bd 971e 8dbd 3cb8 b3bc
00000090: 75f3 3e3d 2d4b 6abd 6e4e ab3d cd8b 943c
000000a0: 94c0 56bd ee80 823d 95f9 813d 9f88 aa3d
000000b0: cb67 913d 3b69 27bd d569 8ebd 49d8 8ebd
000000c0: 033a 3f3d da21 e53c 49b8 073d f2d9 953d
000000d0: dff2 913b b0fb 213d 264e b53c 77d0 5239
000000e0: c3c1 963b 7773 643d 8e4d 963d 9243 223d
000000f0: 97ab 843d 72d3 dabb 9629 a9bd f22b 8ebd
00000100: c5c5 10bd 6057 24bd c0cf a0bd 2edf a13c
00000110: 3bf2 e33c 2347 6fbd 49ab afbc fa57 a63d
00000120: bb81 7cbc 0d37 843d fd58 103d c415 8b3d
00000130: dd4c 44bd 7f6d 9c3c b139 d938 42cf 2abd
00000140: b1ec 9d3d fa82 823c aa9c c6bc 7ab1 a23b
00000150: 8d2b a23d 40a5 98bd e631 55bb 6c5a 85bd
00000160: a490 223c 22c7 95bd 58f1 933d 6e16 833d
00000170: a271 773d dc7b 85bd 33e1 043d 03ec 00bd
00000180: c173 2d3c 577b 7ebd 90a7 293a e797 8d3d
00000190: 78e7 9b3d 3109 643d 0b97 893c ea06 3bbd
000001a0: 7ce9 6b3d 184b a23d 9a15 703d e912 023d
000001b0: f104 813d a712 79bd b659 ad3d 524a f03b
000001c0: ca1c abbc 9c4e a0bd b95a 1ebd 872c 99bc
000001d0: 18a2 6cbc d71a 83bd 4652 883d 460a 993d
000001e0: 15e2 883d 8c51 66bd 1dda cebc cbd3 aebc
000001f0: 5b8e 963d 3a80 513c f799 48bd 8a59 d4bc
00000200: 80da 23bd 37b6 87bc bac7 eabc eaae 253c
00000210: 7894 38bd 330a 6fbd 9910 53bd d436 813c
00000220: f0d7 0c3d 111d fd3b 9a75 973d 6a3e 1b3d

gconv1.0.gate.weight f4 [1, 280]
-0.06464477 -0.0118606845 -0.255787 0.060887605 0.007046935 -0.09618996 0.07200947 -0.11826408
-0.07715585 0.07421349 0.02222733 0.09910856 0.0018705529 0.135237 0.08618907 -0.017827021
-0.0709193 -0.16539827 0.08135506 -0.06969689 -0.11325356 0.046450768 0.026002156 -0.01408285
-0.04016246 -0.030881824 0.093019284 0.016903458 0.011532753 0.055400595 -0.05934662 -0.011987497
0.032947663 -0.091921166 0.18498303 -0.03587345 0.08517302 -0.085781656 0.056873754 -0.016584266
-0.12376036 0.01648854 0.08832108 -0.03728511 0.12110056 -0.17207886 0.121275604 -0.11308837
-0.13626601 -0.06617741 -0.029451236 -0.049674455 0.22292662 0.13987137 0.14284618 0.10841159
0.02762279 -0.053710923 -0.046235584 0.09031256 0.021834541 -0.050640415 0.046199176 -0.13863455
-0.13362633 -0.05649812 -0.01151298 0.072551556 -0.025795793 0.044886544 0.10177128 0.02856655
-0.03740765 -0.24298342 0.0009027544 0.023774236 -0.17403793 -0.014022306 -0.01762862 0.11334964
0.05560258 0.06156681 0.2178996 0.13952307 -0.09075885 -0.03115772 0.09243901 -0.0953272
-0.05144982 0.058268774 -0.044214748 -0.07820551 -0.03272203 -0.03817261 -0.017461985 0.03130881
-0.015371052 0.119936995 -0.028600367 -0.00408901 -0.107376665 0.14183816 0.16788712 0.03634295
0.109941445 -0.17234711 0.16550688 0.052479587 -0.025141848 0.03615898 -0.051995154 -0.10506197
-0.03510711 -0.08947242 0.055945165 -0.018349962 0.047274347 0.01827892 -0.02217176 -0.03163398
0.07343309 -0.07979469 -0.2192204 -0.039065998 0.051181827 0.020699965 0.13179216 -0.03330727
0.052778404 -0.07428889 -0.08581299 -0.12758884 0.11411863 0.059511855 -0.23328102 -0.032758266
-0.02027191 0.1063784 0.09421462 -0.0945811 0.0599096 -0.040012352 -0.030582843 0.122357406
0.0017730155 0.0120544955 0.09932116 0.07593847 0.13665386 0.091381565 0.05954741 0.023891484
0.057458553 -0.024027409 -0.12807836 0.09703196 0.03140066 0.022568645 -0.095083326 0.01021311
-0.07810176 -0.042168297 -0.1536941 -0.058341607 0.0671991 -0.02242773 -0.17968804 0.0010551321
0.18103957 -0.04755879 0.075848185 -0.014974237 0.041817017 -0.06531844 -0.10413144 -0.01773844
0.069210075 0.05144965 0.002463782 -0.06646591 -0.11515823 0.114338994 -0.18299541 0.0074235513
-0.22626296 0.013698524 -0.0270552 -0.098001935 -0.07311173 0.081053905 0.06298324 -0.03415609
0.115850866 -0.067869104 0.0664883 -0.017266786 0.00034597455 0.032009225 -0.036516543 0.1134649
-0.17586558 -0.02414435 0.12320203 -0.021025375 -0.09244211 -0.106320955 0.10481922 -0.053659745
0.070147365 0.016629107 -0.112303466 0.013161933 -0.053392593 -0.07671917 0.12156812 0.008043056
0.11174023 -0.037310846 -0.006161397 -0.07977316 0.14836927 -0.111260906 -0.056116194 0.08747602
-0.041438855 -0.022130763 -0.19370697 0.02096111 -0.06938617 0.106772475 0.09693902 0.033818547
-0.050886724 0.071323074 0.036681328 0.13139679 0.23404923 0.048760943 -0.047101036 0.12484142
-0.00059893605 0.06899828 0.12298525 -0.09617102 0.06444048 -0.0025948372 0.11158878 -0.03188867
-0.14181134 0.03141551 0.013122038 0.116042875 -0.083867684 0.0020214596 -0.0066330996 -0.01102658
00000000: 7a64 84bd 5153 42bc 83f6 82be 4865 793d
00000010: fae9 e63b 3eff c4bd b379 933d 7034 f2bd
00000020: e303 9ebd 3efd 973d 1716 b63c 6ef9 ca3d
00000030: 572d f53a 917b 0a3e e583 b03d f909 92bc
00000040: 233e 91bd 2a5e 29be 7b9d a63d 3ebd 8ebd
00000050: 7cf1 e7bd 2943 3e3d 7902 d53c c1bb 66bc
00000060: 6481 24bd e1fb fcbc e580 be3d 1f79 8a3c
00000070: dff3 3c3c bceb 623d 7115 73bd 3567 44bc
00000080: 21f4 063d 2a41 bcbd 316c 3d3e 0af0 12bd
00000090: 316f ae3d 4bae afbd 74f4 683d badb 87bc
000000a0: 1276 fdbd fa12 873c afe1 b43d 46b8 18bd
000000b0: 9203 f83d 7135 30be 585f f83d e09a e7bd
000000c0: 5189 0bbe 0688 87bd b843 f1bc 7177 4bbd
000000d0: e046 643e 713a 0f3e 4546 123e e506 de3d
000000e0: 3049 e23c fcff 5bbd 8661 3dbd cbf5 b83d
000000f0: 5ade b23c 536c 4fbd 593b 3d3d 37f6 0dbe
00000100: 57d5 08be 936a 67bd f0a0 3cbc e995 943d
00000110: b351 d3bc f4da 373d 766d d03d 6604 ea3c
00000120: c438 19bd a5d0 78be d2a6 6c3a 30c2 c23c
00000130: 0037 32be d0bd 65bc e569 90bc db23 e83d
00000140: 88bf 633d 7b2d 7c3d 1321 5f3e 23df 0e3e
00000150: c7df b9bd 7a3e ffbc aa50 bd3d e83a c3bd
00000160: 0cbd 52bd 3dab 6e3d 861a 35bd 362a a0bd
00000170: 8907 06bd e25a 1cbd 700c 8fbc ab3d 003d
00000180: ddd6 7bbc 87a1 f53d 514b eabc 1afd 85bb
00000190: 4ce8 dbbd 063e 113e 9aea 2b3e 58dc 143d
000001a0: fb28 e13d c37b 30be a37a 293e d6f4 563d
000001b0: 47f6 cdbc 701b 143d dff8 54bd bb2a d7bd
000001c0: 79cc 0fbd 513d b7bd c226 653d a952 96bc
000001d0: bfa2 413d acbd 953c 8da1 b5bc a292 01bd
000001e0: 1664 963d 666b a3bd 507b 60be ab03 20bd
000001f0: 09a4 513d f992 a93c 86f4 063e 346d 08bd
00000200: 2b2e 583d c624 98bd b9be afbd a6a6 02be
00000210: 07b7 e93d b4c2 733d 38e1 6ebe 882d 06bd
00000220: 4711 a6bc ebdc d93d 98f3 c03d bcb3 c1bd
00000230: c563 753d fee3 23bd df88 fabc 8596 fa3d
00000240: 8764 e83a 3880 453c e468 cb3d a185 9b3d
00000250: fdee 0b3e 4226 bb3d fce7 733d 13b8 c33c
00000260: a959 6b3d 21d5 c4bc f926 03be b1b8 c63d
00000270: fa9d 003d e1e1 b83c 0cbb c2bd e354 273c
00000280: d1f3 9fbd aab8 2cbd fc61 1dbe 9cf7 6ebd
00000290: af9f 893d 5cba b7bc 2400 38be 5c4c 8a3a
000002a0: 7062 393e 01cd 42bd 4b56 9b3d 8156 75bc
000002b0: 5248 2b3d adc5 85bd dd42 d5bd 3450 91bc
000002c0: 03be 8d3d debc 523d 6777 213b 471f 88bd
000002d0: 14d8 ebbd 902a ea3d 2663 3bbe 4341 f33b
000002e0: 7ab1 67be c66f 603c dea2 ddbc 3db5 c8bd
000002f0: 9abb 95bd 97ff a53d 5bfd 803d 42e7 0bbd
00000300: 3843 ed3d f5fe 8abd 052b 883d 1373 8dbc
00000310: eb63 b539 1b1c 033d 5f92 15bd 4960 e83d
00000320: 1b16 34be 5fca c5bc 5951 fc3d 683d acbc
00000330: 4a52 bdbd cdbe d9bd 76ab d63d 52ca 5bbd
00000340: 6ca9 8f3d c439 883c 5cff e5bd 26a5 573c
00000350: 31b2 5abd f11e 9dbd b5f8 f83d 06c7 033c
00000360: 10d8 e43d 42d3 18bd 8be5 c9bb 1c60 a3bd
00000370: 1dee 173e c2dc e3bd 18da 65bd a126 b33d
00000380: cabb 29bd 934b b5bc 1f5b 46be a2b6 ab3c
00000390: 561a 8ebd 87ab da3d f787 c63d 5185 0a3d
000003a0: 996e 50bd d511 923d 293f 163d e18c 063e
000003b0: 9aaa 6f3e 8eb9 473d 04ed 40bd dcac ff3d
000003c0: eb01 1dba f84e 8d3d b1df fb3d 50f5 c4bd
000003d0: 5ff9 833d 250e 2abb a988 e43d b29d 02bd
000003e0: fe36 11be 8dad 003d d1fd 563c e3a7 ed3d
000003f0: d2c2 abbd 777a 043b 795a d9bb d4a8 34bc

gconv1.1.A f4 [140, 140]
-0.06414837 -0.071546346 -0.09537862 0.1272075 -0.097149454 0.0005371611 -0.012392153 -0.08412051
-0.03519441 0.015839227 0.035121843 -0.00997811 0.06434099 0.049448088 0.0155937895 -0.03249872
-0.042228602 -0.00895699 0.002202209 -0.17213541 -0.019033033 -0.047347154 -0.016428914 0.06845465
0.061081666 0.077118024 0.1871152 -0.095637254 -0.042294305 -0.1378849 0.02737156 0.03594467
0.08936556 -0.03298119 -0.07278242 -0.05571384 -0.08738511 0.0053173266 -0.049603008 -0.072552174
0.04971042 0.025333868 -0.11620474 -0.009343468 -0.045506142 0.090705596 0.024688575 0.13084422
0.0008552147 0.13189359 -0.03780988 -0.006253966 -0.056436244 -0.046759192 -0.008039985 -0.0010205279
0.1457353 0.030361425 0.13167486 -0.03480622 -0.0390878 -0.022971706 -0.052973367 0.16801801
0.02701696 0.0529867 -0.12278446 0.09600866 -0.041515056 -0.06333338 -0.034148026 -0.09152645
-0.060196687 0.017409531 -0.21284232 0.11892637 0.033548392 -0.0140748555 0.018857077 0.13307013
-0.09535227 0.03144472 -0.016890626 -0.084816106 -0.051416587 -0.10671741 0.03656155 -0.084527515
0.067187436 -0.012396629 0.0643501 0.015914941 -0.0011445645 0.022256002 -0.034181688 0.28156877
-0.041833624 -0.00216149 0.026895441 0.015750496 -0.0012873815 -0.12586254 0.10026857 -0.021375967
-0.08948745 -0.0105279675 0.08986855 -0.092330255 -0.09977667 -0.00261578 0.06279884 -0.05173746
0.07153481 0.22709055 -0.06607668 -0.028241621 -0.031668514 -0.029597916 0.07455471 0.024931658
0.084258884 0.05756119 0.007396635 0.07123757 -0.11793604 -0.018684538 0.01633806 -0.06311078
0.068100214 -0.07232733 0.03342844 0.011475552 0.04300057 -0.07677834 -0.07768127 -0.0050235544
-0.019651968 -0.06826211 0.056621093 0.03489465 0.101343736 -0.07720606 -0.0016979481 -0.08004042
0.06847295 -0.046244 -0.033315793 -0.07029355 0.0056162546 -0.069010094 -0.054454084 -0.049924634
0.062207688 0.072383575 0.12606579 -0.031272635 -0.16890974 0.018523138 -0.12423989 -0.11621609
-0.02542682 -0.0047737304 -0.032315087 0.03642784 0.13343684 0.09583089 -0.05569533 -0.087359585
0.12672439 0.027765352 -0.003450844 0.011206413 -0.04472559 0.14207523 0.07516861 -0.11479081
0.09325575 -0.15548776 0.039317966 -0.069287404 0.04439453 -0.025123866 -0.024749551 -0.06727323
-0.004811528 0.041192316 0.1327253 0.039627034 -0.058530316 0.004469216 -0.038387805 0.07847002
0.042099886 -0.0058355667 0.05186852 0.013682773 -0.052694984 0.13657652 -0.11863144 0.0011671127
0.018927108 -0.024108576 -0.14379169 0.10837059 0.1143143 -0.15413153 0.034015674 0.05306859
-0.24031636 -0.11145357 -0.043589316 -0.05518142 0.035198133 0.037158158 0.068089165 0.14967497
0.21595542 0.06861506 -0.09092376 -0.105664656 -0.015177294 -0.10020917 -0.038849067 0.012652148
0.10687598 -0.0724749 0.1120045 0.07921075 -0.06413946 0.09742191 -0.007172595 0.08111418
-0.01001076 -0.10106528 0.06579946 -0.0066362224 -0.065448366 -0.025769243 0.12239756 -0.040272836
-0.050547488 0.06278637 0.117106654 -0.04315844 0.08086939 0.022094885 0.05008812 -0.10285256
-0.07606228 0.08512607 0.058663007 -0.19254258 -0.033190798 -0.016198384 -0.15742303 -0.17173834
00000000: 3860 83bd e486 92bd de55 c3bd af42 023e
00000010: 4bf6 c6bd 45d0 0c3a 7508 4bbc 6047 acbd
00000020: 0328 10bd 44c1 813c ecdb 0f3d 3a7b 23bc
00000030: 35c5 833d 148a 4a3d 187d 7f3c 611d 05bd
00000040: e6f7 2cbd 57c0 12bc f052 103b 4444 30be
00000050: 2aeb 9bbc 17ef 41bd ee95 86bc f431 8c3d
00000060: c530 7a3d 0ef0 9d3d 219b 3f3e 77dd c3bd
00000070: cb3c 2dbd b331 0dbe 523a e03c b83a 133d
00000080: 4a05 b73d 4917 07bd f30e 95bd 3234 64bd
00000090: f7f6 b2bd f83c ae3b 862c 4bbd 3c96 94bd
000000a0: 279d 4b3d f988 cf3c c0fc edbd 5815 19bc
000000b0: a664 3abd dbc3 b93d b23f ca3c 07fc 053e
000000c0: 7d30 603a 1d0f 073e 88de 1abd 12ee ccbb
000000d0: b129 67bd 9186 3fbd 24ba 03bc 3cc3 85ba
000000e0: a23b 153e 86b8 f83c c6d5 063e f890 0ebd
000000f0: 871a 20bd 292f bcbc 9afa 58bd ea0c 2c3e
00000100: ac52 dd3c 9508 593d 6b76 fbbd 30a0 c43d
00000110: b10b 2abd eeb4 81bd cdde 0bbd 3872 bbbd
00000120: cd90 76bd 6f9e 8e3c 56f3 59be ab8f f33d
00000130: 0a6a 093d 399a 66bc 287a 9a3c 8943 083e
00000140: 0d48 c3bd 2ecc 003d 365e 8abc 11b4 adbd
00000150: 339a 52bd a88e dabd 90c1 153d c31c adbd
00000160: 9199 893d 3b1b 4bbc fcc9 833d 0d60 823c
00000170: 3605 96ba 3852 b63c 1902 0cbd c829 903e
00000180: bc59 2bbd c9a7 0dbb d453 dc3c 2f07 813c
00000190: 5bbd a8ba 1ce2 00be 9c59 cd3d a71c afbc
000001a0: 3245 b7bd 7f7d 2cbc 010d b83d a517 bdbd
000001b0: b657 ccbd 826d 2bbb ae9c 803d a9ea 53bd
000001c0: d880 923d 6d8a 683e 3653 87bd f95a e7bc
000001d0: d8b6 01bd 5477 f2bc 24b0 983d 7a3d cc3c
000001e0: ec8f ac3d 48c5 6b3d 795f f23b 01e5 913d
000001f0: 7388 f1bd 5110 99bc 65d7 853c 3a40 81bd
00000200: 2078 8b3d 5a20 94bd 43ec 083d f403 3c3c
00000210: 5e21 303d f63d 9dbd 5c17 9fbd a19c a4bb
00000220: 2afd a0bc 01cd 8bbd 85eb 673d b1ed 0e3d
00000230: 4e8d cf3d 361e 9ebd af8d deba 3bec a3bd
00000240: 8c3b 8c3d 596a 3dbd 2476 08bd 11f6 8fbd
00000250: 8f08 b83b 2a55 8dbd 3f0b 5fbd c67d 4cbd
00000260: 7dcd 7e3d d73d 943d 6417 013e bc17 00bd
00000270: adf6 2cbe d6bd 973c 7c71 febd b402 eebd
00000280: e84b d0bc f46c 9cbb d35c 04bd 5c35 153d
00000290: aba3 083e fc42 c43d c920 64bd 95e9 b2bd
000002a0: 0ac4 013e 2a74 e33c 8e27 62bb 1a9b 373c
000002b0: 2e32 37bd 2b7c 113e 00f2 993d 7217 ebbd
000002c0: dffc be3d 2f38 1fbe e00b 213d 8ee6 8dbd
000002d0: 0ad7 353d 91d0 cdbc 92bf cabc 8cc6 89bd
000002e0: 06aa 9dbb 46b9 283d 24e9 073e f54f 223d
000002f0: 7cbd 6fbd 8072 923b 883c 1dbd e4b4 a03d
00000300: ee70 2c3d 4838 bfbb 1674 543d b62d 603c
00000310: b2d6 57bd b7da 0b3e 0af5 f2bd cef9 983a
00000320: 060d 9b3c 597f c5bc 213e 13be 66f1 dd3d
00000330: 9e1d ea3d a8d4 1dbe 0554 0b3d 735e 593d
00000340: 7e15 76be c541 e4bd b68a 32bd ea05 62bd
00000350: eb2b 103d 2733 183d 5572 8b3d 6544 193e
00000360: 6b23 5d3e 0d86 8c3d 3c36 babd b666 d8bd
00000370: 2faa 78bc 773a cdbd 3320 1fbd f44a 4f3c
00000380: cbe1 da3d b86d 94bd 9e62 e53d 3f39 a23d
00000390: 8d5b 83bd 2385 c73d 1608 ebbb 311f a63d
000003a0: 2c04 24bc 50fb cebd dec1 863d ab74 d9bb
000003b0: cb09 86bd 051a d3bc 92ab fa3d 21f5 24bd
000003c0: e20a 4fbd 2496 803d 9dd5 ef3d e8c6 30bd
000003d0: da9e a53d 5500 b53c 3329 4d3d 5da4 d2bd
000003e0: 8ac6 9bbd 9456 ae3d 9f48 703d e229 45be
000003f0: 13f3 07bd 79b2 84bc 8133 21be 2ddc 2fbe

gconv1.1.W.weight f4 [140, 140]
0.07661831 0.014413405 0.18220866 0.027985692 0.06447774 -0.033651818 -0.039085332 -0.10291515
0.03221857 -0.15606943 -0.040330764 0.062507525 0.03081544 -0.14355135 -0.00096381747 -0.13962045
0.12738329 -0.099274255 0.040832534 0.015779547 0.07610815 -0.11390126 -0.036992617 -0.004765035
-0.044159945 -0.038955368 -0.006223722 -0.02436804 0.041307103 -0.011852086 0.046757605 -0.046093605
-0.16372892 0.01213563 0.02378569 -0.16577078 0.0041053044 0.13474022 -0.03145683 0.07083012
-0.09269608 -0.0020814477 0.068740726 0.018737977 0.080058075 0.01612432 -0.015222177 -0.09658054
0.025694508 0.0204281 0.16341753 -0.09126902 0.17363992 -0.015023484 0.076664895 0.044860955
-0.04455613 0.039024327 -0.12090269 0.01552023 0.041769344 0.06847436 0.1255285 -0.07070634
-0.042725857 0.105859354 -0.07469921 0.033116803 -0.048093896 0.13625833 0.013845351 0.19529259
0.087667264 -0.046975926 0.08123199 0.0011742676 -0.15140255 -0.1271767 0.03358802 -0.011359701
0.14509125 0.091574356 -0.10301256 -0.05688385 0.0055788113 -0.026327483 -0.0647793 -0.06455112
-0.09124686 -0.043589897 0.013010255 0.013457898 0.07885023 -0.02258606 -0.21547748 0.018280657
-0.046400856 0.11409511 -0.011449505 0.1447702 -0.015564784 -0.027618976 -0.081175536 -0.014577362
0.0712992 -0.027643878 -0.18681242 0.10479836 -0.041387055 0.044935867 0.005920134 0.047955252
0.14027977 0.083526365 0.043313146 0.18858987 0.086199105 0.10446774 -0.04068977 0.09001933
-0.05449241 0.04878292 -0.039938457 -0.100203276 -0.030207869 0.029026734 -0.09247383 0.10645961
0.10665352 0.05217622 0.06511622 -0.029784637 -0.0655347 -0.063452825 -0.048744924 -0.08246389
-0.08818599 0.11707974 -0.27824655 0.07656173 0.116477415 -0.12509146 -0.01990825 0.15984343
-0.07087854 0.024994439 0.05745549 -0.1104523 -0.14011389 0.01280072 -0.15103859 -0.003164533
-0.084303275 0.118027404 0.057377625 -0.11687346 0.09228549 -0.20357606 -0.09702844 0.051663164
0.093381 0.056048032 0.12574409 -0.1903206 -0.031482294 0.0064519253 0.13789462 -0.07848346
0.092655644 -0.089948736 -0.08208203 -0.034625206 -0.020647494 -0.024767213 -0.06878991 -0.039583966
-0.024962423 -0.05342002 0.13480873 -0.091449246 -0.03415859 -0.0007169702 0.019157158 0.039315253
-0.017574541 -0.0681586 -0.10268283 -0.022569733 0.0074257622 -0.001271103 0.03673039 0.1452025
0.02586203 -0.038528066 -0.07619538 -0.027901212 0.041778676 -0.107402705 0.0048804674 0.008022767
-0.06633232 0.0026557168 -0.13207962 0.06889056 0.02265928 -0.044078127 -0.05069767 -0.0074422853
-0.18374757 -0.19825064 0.048670743 0.09471833 -0.07269074 0.12039223 -0.0545459 0.08233794
0.08922503 -0.008385374 -0.06706025 -0.0299311 0.09207374 -0.007665245 0.08198153 -0.035243496
0.11566661 -0.07032173 -0.031741966 -0.08613289 -0.11209489 -0.042892024 0.17644882 0.021778379
0.25933406 0.05943402 -0.105816394 0.09437572 -0.017745547 -0.09848647 0.045445096 -0.06719051
0.120554574 -0.16379738 -0.053243972 0.005726983 -0.13291912 0.07511619 -0.07721284 0.013256442
0.16599561 0.04528921 -0.05039788 0.14275989 -0.008071788 0.009199078 -0.005653233 -0.0043871277
00000000: 0fea 9c3d 3426 6c3c e894 3a3e 4042 e53c
00000010: e80c 843d 7dd6 09bd f117 20bd 2ec5 d2bd
00000020: 9ff7 033d aad0 1fbe df31 25bd f203 803d
00000030: a970 fc3c 20ff 12be b2a8 7cba aaf8 0ebe
00000040: c470 023e 4d50 cbbd 0440 273d 1c44 813c
00000050: 97de 9b3d 1045 e9bd 9285 17bd 0324 9cbb
00000060: 0fe1 34bd aa8f 1fbd 5df0 cbbb 7c9f c7bc
00000070: a331 293d 402f 42bc e784 3f3d a6cc 3cbd
00000080: 8ea8 27be 85d4 463c 35da c23c d1bf 29be
00000090: ca85 863b 57f9 093e e1d8 00bd 620f 913d
000000a0: 71d7 bdbd e668 08bb f0c7 8c3d 6380 993c
000000b0: 7df5 a33d 2617 843c 7066 79bc 05cc c5bd
000000c0: 4a7d d23c d558 a73c ed56 273e 41eb babd
000000d0: aace 313e 0f25 76bc 7c02 9d3d 1fc0 373d
000000e0: 7d80 36bd f9d7 1f3d d49b f7bd 9048 7e3c
000000f0: 5516 2b3d 493c 8c3d 8b8a 003e 7cce 90bd
00000100: 4f01 2fbd cacc d83d e6fb 98bd 7ca5 073d
00000110: 1bfe 44bd 4e87 0b3e 9cd7 623c c8fa 473e
00000120: e58a b33d d469 40bd f55c a63d e2e9 993a
00000130: 4509 1bbe 9c3a 02be 9793 093d 0a1e 3abc
00000140: cd92 143e 568b bb3d 40f8 d2bd 0aff 68bd
00000150: 76ce b63b bcac d7bc 02ab 84bd 6133 84bd
00000160: a2df babd 528b 32bd f728 553c 847e 5c3c
00000170: 3b7c a13d 6706 b9bc 21a6 5cbe 51c1 953c
00000180: d30e 3ebd b2aa e93d b496 3bbc a43e 143e
00000190: 7003 7fbc 3141 e2bc 5c3f a6bd e3d5 6ebc
000001a0: 5105 923d 6a75 e2bc c14b 3fbe 86a0 d63d
000001b0: 7985 29bd ac0e 383d affd c13b ba6c 443d
000001c0: 80a5 0f3e df0f ab3d 2069 313d b41d 413e
000001d0: 2889 b03d 2ff3 d53d 51aa 26bd 0e5c b83d
000001e0: 6f33 5fbd 99d0 473d 8296 23bd 6037 cdbd
000001f0: 7e76 f7bc 79c9 ed3c eb62 bdbd 7f07 da3d
00000200: 296d da3d bbb6 553d a75b 853d e9fe f3bc
00000210: 0f37 86bd 8ef3 81bd c2a8 47bd d4e2 a8bd
00000220: db9a b4bd 81c7 ef3d 5576 8ebe 65cc 9c3d
00000230: b68b ee3d fa17 00be a016 a3bc ffad 233e
00000240: c528 91bd 23c1 cc3c 7356 6b3d d134 e2bd
00000250: 047a 0fbe 1cba 513c dca9 1abe 0e64 4fbb
00000260: 32a7 acbd 5ab8 f13d cd04 6b3d 5a5b efbd
00000270: 2d00 bd3d 3e76 50be d9b6 c6bd c19c 533d
00000280: 8a3e bf3d 9f92 653d 0fc3 003e 67e3 42be
00000290: 94f3 00bd ac6a d33b 3f34 0d3e f0bb a0bd
000002a0: 3ec2 bd3d 0b37 b8bd a01a a8bd 29d3 0dbd
000002b0: ef24 a9bc 9ce4 cabc b9e1 8cbd cc22 22bd
000002c0: ff7d ccbc f3ce 5abd 4d0b 0a3e be49 bbbd
000002d0: e1e9 0bbd 0ef3 3bba 79ef 9c3c 0809 213d
000002e0: 7cf8 8fbc bc96 8bbd 604b d2bd 29e4 b8bc
000002f0: cf53 f33b 249b a6ba 9b72 163d f7af 143e
00000300: 9cdc d33c 9bcf 1dbd 530c 9cbd 1591 e4bc
00000310: 1e20 2b3d f3f5 dbbd 54ec 9f3b ec71 033c
00000320: 3dd9 87bd 890b 2e3b e13f 07be 7e16 8d3d
00000330: f49f b93c 448b 34bd 5ca8 4fbd 6ade f3bb
00000340: 5328 3cbe 3702 4bbe f95a 473d affb c13d
00000350: e2de 94bd 3490 f63d 866b 5fbd cba0 a83d
00000360: 9dbb b63d cf62 09bc e256 89bd 1132 f5bc
00000370: 2891 bc3d bc2c fbbb efe5 a73d 7c5b 10bd
00000380: 9ee2 ec3d d704 90bd dd03 02bd 7166 b0bd
00000390: 0192 e5bd 8caf 2fbd 00af 343e 9268 b23c
000003a0: 6fc7 843e 1671 733d 44b6 d8bd 0f48 c13d
000003b0: 1c5f 91bc 46b3 c9bd a324 3a3d 2e9b 89bd
000003c0: 51e5 f63d 80ba 27be 5a16 5abd 6aa9 bb3b
000003d0: f31b 08be 84d6 993d c421 9ebd 8c31 593c
000003e0: c1fa 293e 2e81 393d 026e 4ebd a62f 123e
000003f0: 883f 04bc bbb7 163c c13e b9bb e5c1 8fbb

gconv1.1.W.bias f4 [140]
-0.059461948 -0.011443806 -0.07879314 0.061745252 0.04674037 0.06580889 -0.039826922 0.01994
0.029901545 0.0481235 -0.034125518 -0.04911377 -0.06775249 0.064383484 -0.067672506 0.06284103
0.07411442 0.03250717 0.017970838 0.006998095 -0.03290171 -0.0039641084 -0.03092683 0.016990967
0.055368453 0.0004686853 -0.08008138 -0.04698096 -0.045822237 -0.05500673 0.010985852 0.074890815
0.08070615 0.0591387 0.006341797 -0.015806343 0.07436812 -0.07803649 -0.026700942 0.00475117
0.016821189 0.082555145 0.06860192 -0.037066165 -0.06706848 -0.05405045 0.06236843 0.017492825
0.07185933 0.07091873 -0.07653981 -0.019192558 0.07003576 -0.043289922 0.03082985 0.022110326
0.010592918 0.07836395 0.010048309 0.0013526565 0.00013304513 0.032335676 0.050079618 -0.058980986
0.048997886 0.0011339642 0.048687432 -0.0529569 -0.005603987 0.048432022 0.07060203 0.058957584
-0.0001281132 -0.06457858 0.025313295 -0.067698404 -0.04809339 -0.021808174 0.01321898 0.002734137
0.01653075 -0.056526642 0.019969326 -0.050404318 -0.081913084 0.03642451 -0.04800179 0.075807594
-0.079334736 -0.0151758175 -0.009457574 0.05634238 -0.026303167 -0.023345657 0.03585699 -0.04814547
-0.0077955835 -0.040759284 0.07252256 0.022479994 -0.039951995 -0.027761538 0.018751794 0.051556017
0.060626607 -0.011794455 0.05212436 -0.060985796 -0.05640823 0.08332591 0.081382826 -0.06528253
0.07643309 0.026959904 0.01046224 0.013740189 -0.050639898 0.008347336 -0.079581685 0.013341754
0.05615491 -0.045736197 -0.019011883 0.061667096 -0.034613125 0.039697573 -0.059881277 -0.043564443
-0.041465703 -0.08207128 -0.019774005 0.020419532 -0.03485465 0.041914564 -0.02003164 0.058240376
0.040472303 0.058676466 -0.048631296 0.004295448
00000000: 5f8e 73bd cd7e 3bbc 4c5e a1bd 97e8 7c3d
00000010: d572 3f3d d0c6 863d 8e21 23bd 3659 a33c
00000020: 16f4 f43c 261d 453d 33c7 0bbd 852b 49bd
00000030: d1c1 8abd 7ddb 833d e297 8abd ccb2 803d
00000040: 4dc9 973d 3d26 053d 9437 933c 4750 e53b
00000050: f2c3 06bd 5ae5 81bb 435a fdbc a430 8b3c
00000060: 08ca 623d e0b9 f539 b501 a4bd 1b6f 40bd
00000070: 19b0 3bbd bd4e 61bd 01fe 333c 5b60 993d
00000080: 4449 a53d 6c3b 723d d9ce cf3b 4e7c 81bc
00000090: 504e 983d 98d1 9fbd efbb dabc b4af 9b3b
000000a0: 97cc 893c ac12 a93d 2a7f 8c3d b1d2 17bd
000000b0: 335b 89bd 0164 5dbd 0a76 7f3d 1d4d 8f3c
000000c0: fc2a 933d d73d 913d e7c0 9cbd b639 9dbc
000000d0: e96e 8f3d c650 31bd e28e fc3c b720 b53c
000000e0: eb8d 2d3c 477d a03d aaa1 243c 9f4b b13a
000000f0: 0882 0b39 6a72 043d 4920 4d3d 0c96 71bd
00000100: 02b2 483d 86a1 943a 796c 473d 56e9 58bd
00000110: a6a1 b7bb a860 463d cc97 903d 827d 713d
00000120: 2056 06b9 c641 84bd d45d cf3c 76a5 8abd
00000130: 93fd 44bd 0ea7 b2bc 6c94 583c 352f 333b
00000140: 7f6b 873c 7b88 67bd b696 a33c c274 4ebd
00000150: 0cc2 a7bd de31 153d 869d 44bd 0341 9b3d
00000160: 407a a2bd fea3 78bc f1f3 1abc 44c7 663d
00000170: bd79 d7bc 643f bfbc c7de 123d 2f34 45bd
00000180: 1872 ffbb 35f3 26bd b586 943d f727 b83c
00000190: b4a4 23bd 2a6c e3bc 5d9d 993c 672c 533d
000001a0: 9b53 783d 883d 41bc 5a80 553d 3ecc 79bd
000001b0: 510c 67bd c6a6 aa3d 0aac a63d d9b2 85bd
000001c0: f488 9c3d 04db dc3c d169 2b3c 881e 613c
000001d0: c86b 4fbd 44c3 083c b9fb a2bd 5f97 5a3c
000001e0: b102 663d e155 3bbd cfbe 9bbc a396 7c3d
000001f0: 7ec6 0dbd ec99 223d 1246 75bd a170 32bd
00000200: f1d7 29bd fd14 a8bd 18fd a1bc dd46 a73c
00000210: c0c3 0ebd 9bae 2b3d 6519 a4bc 768d 6e3d
00000220: 49c6 253d bc56 703d 9c31 47bd d4c0 8c3b

gconv1.1.gate.weight f4 [1, 280]
-0.004944921 -0.009578383 -0.12502828 -0.045507416 -0.07766127 0.17472224 -0.07186573 -0.035142012
0.008865763 -0.06559579 0.16626163 -0.14662151 -0.025411393 -0.08608463 -0.010091217 0.10393523
0.05629124 -0.024767863 -0.04941993 0.058423784 0.12849443 -0.14949015 0.016615828 0.025035314
0.07600009 0.13142613 0.026868347 0.10394714 0.016411694 0.014370863 -0.02564401 -0.085845806
0.053947646 0.057973392 -0.071982056 -0.032113086 0.08793777 0.093988545 -0.1110974 -0.013089678
0.12569195 0.06826471 0.014777264 -0.15310532 0.091222964 -0.13679245 0.02467625 -0.032919448
0.082877174 0.08207496 0.00024385967 0.061787896 -0.031549785 -0.07183411 0.010365393 -0.11050162
0.0043083914 0.055109896 -0.096392356 0.01676602 -0.009944563 -0.11474638 -0.23509891 -0.2047078
0.07398986 -0.011194239 0.0023076877 0.10669785 -0.030652061 0.047676872 -0.008573617 0.080759756
0.14451078 0.017266344 -0.046810307 0.10090961 0.030796884 -0.090022065 0.06255273 -0.08791321
-0.070480764 0.038643792 -0.0010518369 -0.07330619 -0.052364852 -0.0322531 0.097881675 -0.11489474
-0.059807647 -0.0040649585 -0.12017186 -0.06381771 0.037962984 -0.061750133 -0.07303769 -0.027477812
0.10020208 0.060693264 -0.01941971 0.10383941 0.002176413 0.10369942 0.02100302 -0.004593281
-0.03035543 -0.10504989 -0.057610966 0.054615084 -0.04162306 0.058477446 0.0237581 0.05903406
0.114612475 -0.040262852 0.0140550025 -0.016632527 0.052634753 0.07578027 -0.0633386 0.061235473
-0.1249018 -0.16636364 0.12184092 -0.06421084 -0.088446334 0.15150064 -0.10908795 0.059353944
0.044983998 0.05976164 -0.037763767 -0.008897158 0.01630489 0.10427942 -0.09530865 0.050829805
0.11964093 0.06041759 0.16361728 -0.028499302 0.054681104 0.024726154 0.05867358 0.05853789
0.11575407 -0.07641478 0.0048836432 0.05259138 0.08199635 0.08340053 -0.028333914 -0.060275324
-0.001809924 -0.10525888 0.03317069 -0.07546738 0.04371916 -0.0386619 -0.15125956 -0.10519383
0.084753625 -0.07928329 -0.14152244 -0.13955802 0.075759366 0.17217554 0.18321657 0.11116141
-0.017403597 0.027007362 0.06075755 -0.009221889 -0.1118572 0.044926822 -0.1020756 0.159401
-0.03825856 0.02233621 -0.040565845 -0.035162274 -0.036801394 0.009698049 0.0047998778 0.13698326
0.038267642 0.04006231 0.027352164 0.011868461 -0.062343825 0.08769125 0.1271835 -0.109263696
-0.044192024 -0.12133448 0.032960918 -0.05760917 -0.044305746 -0.12525937 0.04468186 -0.08490978
0.086150944 -0.064681806 -0.08473924 -0.08268509 0.08974095 0.17576934 -0.002091785 0.07883209
0.119349614 -0.076359876 -0.13337487 -0.04461645 0.124947704 -0.077697024 0.0791139 0.12750071
0.019599386 -0.032349735 0.0008121509 -0.095514946 0.0327404 0.082569055 -0.073746994 -0.05994546
0.0014380404 0.08652728 0.0569335 -0.2169156 0.13598119 -0.03137087 -0.061399464 -0.031892434
-0.016667446 -0.059020612 0.090475984 -0.009706676 -0.10452084 -0.025859207 0.01748413 0.07190779
-0.0738306 0.05877185 0.081543654 -0.023577096 0.07036135 0.0022268277 -0.051034562 0.032383587
0.1266164 -0.1485621 0.10916666 -0.016149363 0.08804214 -0.04048044 -1.0100244e-05 0.0464722
00000000: 0109 a2bb a6ee 1cbc 6a07 00be fc65 3abd
00000010: df0c 9fbd 63ea 323e 572e 93bd 12f1 0fbd
00000020: b541 113c 1657 86bd 7d40 2a3e f323 16be
00000030: 8e2b d0bc 234d b0bd a255 25bc fedb d43d
00000040: a591 663d f9e5 cabc 8d6c 4abd c74d 6f3d
00000050: 0b94 033e f213 19be eb1d 883c dc16 cd3c
00000060: efa5 9b3d 9294 063e 021b dc3c 3de2 d43d
00000070: d171 863c c573 6b3c 6313 d2bc edcf afbd
00000080: 35f8 5c3d 8275 6d3d 546b 93bd 0389 03bd
00000090: b818 b43d 117d c03d 0987 e3bd 1776 56bc
000000a0: 64b5 003e 5ece 8b3d 561c 723c a4c7 1cbe
000000b0: 1bd3 ba3d 5213 0cbe d925 ca3c 8bd6 06bd
000000c0: 82bb a93d eb16 a83d 95b4 7f39 4e15 7d3d
000000d0: 593a 01bd c31d 93bd 9cd3 293c ac4e e2bd
000000e0: 682d 8d3b eaba 613d 5b69 c5bd e458 893c
000000f0: 85ee 22bc 2600 ebbd c5bd 70be ec9e 51be
00000100: ff87 973d 0b68 37bc 933c 173b 6784 da3d
00000110: 081a fbbc d348 433d 5b78 0cbc 5f65 a53d
00000120: a2fa 133e 2672 8d3c 2abc 3fbd b3a9 ce3d
00000130: bf49 fc3c 7d5d b8bd a51b 803d d70b b4bd
00000140: 3858 90bd f448 1e3d cadd 89ba 8e21 96bd
00000150: 877c 56bd d41b 04bd 3076 c83d ef4d ebbd
00000160: ddf8 74bd 5833 85bb aa1c f6bd dcb2 82bd
00000170: 137f 1b3d b5ed 7cbd c994 95bd 2619 e1bc
00000180: c036 cd3d 8099 783d 1516 9fbc c2a9 d43d
00000190: 27a2 0e3b 5d60 d43d 870e ac3c 3c83 96bb
000001a0: f3ab f8bc 6624 d7bd 7af9 6bbd 11b4 5f3d
000001b0: f17c 2abd 0c86 6f3d 59a0 c23c b3cd 713d
000001c0: f2b9 ea3d a9ea 24bd f446 663c f040 88bc
000001d0: 8a97 573d b032 9b3d abb7 81bd 0cd2 7a3d
000001e0: 84cc ffbd 3b5b 2abe bb87 f93d f980 83bd
000001f0: 5a23 b5bd fc22 1b3e 8169 dfbd 1f1d 733d
00000200: 2441 383d 9fc8 743d 2eae 1abd 63c5 11bc
00000210: d591 853c 7390 d53d 2e31 c3bd ea32 503d
00000220: 4e06 f53d 6f78 773d 4a8b 273e 5e77 e9bc
00000230: 4bf9 5f3d 818e ca3c b553 703d 6dc5 6f3d
00000240: 7810 ed3d 5a7f 9cbd f806 a03b 0f6a 573d
00000250: b4ed a73d e6cd aa3d 861c e8bc 42e3 76bd
00000260: f93a edba f891 d7bd fddd 073d a48e 9abd
00000270: dd12 333d f15b 1ebd c9e3 1abe dd6f d7bd
00000280: 4f93 ad3d 475f a2bd 42eb 10be 4ce8 0ebe
00000290: ba27 9b3d c94e 303e 209d 3b3e 98a8 e33d
000002a0: fd91 8ebc 8b3e dd3c e9dc 783d 6817 17bc
000002b0: 6315 e5bd 3005 383d 030d d1bd 043a 233e
000002c0: 02b5 1cbd 6dfa b63c 5f28 26bd 5106 10bd
000002d0: 0fbd 16bd 91e4 1e3c 4b48 9d3b 5745 0c3e
000002e0: 88be 1c3d 6018 243d a511 e03c ef73 423c
000002f0: 3d5c 7fbd 7897 b33d 643c 023e a5c5 dfbd
00000300: b202 35bd 367e f8bd 0702 073d 98f7 6bbd
00000310: f179 35bd fe43 00be 5304 373d 2ee5 adbd
00000320: e86f b03d e577 84bd c48b adbd cd56 a9bd
00000330: 1aca b73d e1fc 333e 5416 09bb b872 a13d
00000340: 926d f43d 9162 9cbd 6c93 08be bdbf 36bd
00000350: 95e4 ff3d 9e1f 9fbd 7806 a23d 8c8f 023e
00000360: e48e a03c 2881 04bd 86e6 543a 579d c3bd
00000370: cc1a 063d f719 a93d aa08 97bd 5f89 75bd
00000380: a17c bc3a 3735 b13d 1a33 693d 1f1f 5ebe
00000390: a73e 0b3e be7e 00bd 017e 7bbd a4a1 02bd
000003a0: 2b8a 88bc 99bf 71bd 794b b93d c008 1fbc
000003b0: 060f d6bd b0d6 d3bc e13a 8f3c 6444 933d
000003c0: 7f34 97bd c0ba 703d 5c00 a73d c124 c1bc
000003d0: 9d19 903d f8ef 113b 9e09 51bd a7a4 043d
000003e0: bba7 013e aa20 18be c592 df3d ab4b 84bc
000003f0: 704f b43d d1ce 25bd 3874 29b7 a259 3e3d
